models/1_context_2_embedding_64_activation_3.pt (torch, 957978 bytes, 5 tensors)

emb.weight f4 [98, 64]
000000 dc 04 4d c0 2a 8f ee bf 78 3a d5 bf 84 cd 44 c0
       -3.2034216 -1.863744 -1.6658468 -3.0750437
000010 c3 36 e7 be 18 35 b8 bf 82 a6 af be 39 d8 4c c0
       -0.45158967 -1.4391203 -0.34306723 -3.2006972
000020 99 5e d5 bf 88 6f 24 3f 35 66 d9 bf c5 b8 98 bf
       -1.6669494 0.64232683 -1.6984316 -1.1931387
000030 9e 30 a2 bf 45 01 06 40 53 df 0e 3f 7e d6 81 3e
       -1.2671087 2.0938275 0.55809516 0.25358957
000040 03 28 d0 bf 29 fe 08 c0 be 04 ae 3e 63 50 7a 3f
       -1.6262211 -2.1405127 0.33987993 0.9777891
000050 82 4e b3 3d 61 7d a1 bd 5d b2 1f bf c1 d6 bd 3f
       0.087552086 -0.07885242 -0.62381536 1.4831163
000060 4b 07 dc 3f 79 0d 42 bf a7 ba 8d c0 2f 40 87 bf
       1.7189726 -0.7580181 -4.4290347 -1.0566462
000070 5d 20 1e bf 85 f3 8f bf 0f 12 9b bf e8 44 25 3f
       -0.6176813 -1.1246191 -1.2114886 0.6455827
000080 ed cc 5d 40 8a ea 46 3f 76 ff 3d 3f db 2b c8 bf
       3.4656327 0.7770163 0.7421793 -1.5638384
000090 7a 5f 9e 3f e1 4e d8 3e a3 f7 80 bf a6 28 ac bb
       1.2372887 0.4224768 -1.0075573 -0.005253869
0000a0 08 39 93 3f 0a a1 2d 3f 31 c5 46 be 29 3c 4b 3e
       1.150178 0.6782385 -0.1941116 0.19847168
0000b0 52 81 33 40 b2 41 0c c0 62 cb 91 3f a2 84 d1 bf
       2.804768 -2.1915097 1.1390193 -1.6368601
0000c0 ed 90 6c bf d1 5b b3 3d b7 0b af 3f 29 f8 a6 bc
       -0.9240864 0.08757747 1.367545 -0.020382004
0000d0 b7 a5 9f 3f be 0e 9f 3f 42 b7 09 40 14 23 21 40
       1.2472447 1.2426374 2.1518102 2.517766
0000e0 a5 52 a8 3f fc 9d aa 3f d7 db 05 bf 42 f7 02 3f
       1.3150221 1.3329463 -0.52288574 0.51158535
0000f0 2b 87 ae 3f 10 f1 54 bf a7 e0 a5 c0 3c dc 9f bf
       1.3635 -0.8318033 -5.1836734 -1.2489085
000100 e9 49 cc bd 35 f0 ea bf 0c 8e cd bf 44 3a eb bf
       -0.09975035 -1.8354555 -1.6058974 -1.8377156
000110 b8 74 d2 be 57 94 ac be b5 01 0f 40 3f 63 b7 bd
       -0.41104674 -0.33706924 2.2344792 -0.089544766
000120 ad ac 9a bf c4 8a a8 be f8 01 e2 bf aa 71 cd bf
       -1.2083946 -0.3291837 -1.7656851 -1.6050313
000130 44 67 0e bf d0 f2 cd be 71 aa 47 3f a2 3d c6 bf
       -0.5562632 -0.40224314 0.7799445 -1.5487559
000140 a1 7a a0 bf 97 8b 0c bf 1b f5 1f bf 57 1e 8f 3f
       -1.2537423 -0.549005 -0.62483376 1.1181134
000150 ea ca 28 c0 77 73 0f bf 4c df f4 3e 6e 37 4c 3e
       -2.637385 -0.5603556 0.47826612 0.1994302
000160 a7 79 61 3f 38 59 6b bf d3 7f 08 c0 e3 25 6f 3f
       0.8807625 -0.9193301 -2.1328018 0.93417186
000170 51 b1 0d c0 f1 57 51 bf 8e f8 aa be f0 31 38 40
       -2.2139475 -0.8177481 -0.33392757 2.878048
000180 18 a3 99 3f 61 6e d7 3f 01 36 19 3f 1f 63 c4 bf
       1.2002897 1.683056 0.5984803 -1.5342749
000190 1f dd 14 40 be ee 9c bf 30 4b ee bf 73 34 e9 3f
       2.3259962 -1.2260358 -1.8616695 1.8219131
0001a0 83 6a 09 40 65 90 82 3f b6 34 01 be af 7e ae bd
       2.147126 1.0200316 -0.12617764 -0.08520257
0001b0 d3 31 22 c0 c6 19 8a bf 8d 6d 2c c0 43 f4 ab bf
       -2.534291 -1.0789115 -2.6941864 -1.3433918
0001c0 41 c2 06 3f 3c 75 7e bf 50 2b 16 40 ee 49 88 3f
       0.5264016 -0.99397635 2.3463936 1.0647562
0001d0 36 2a 0d 3f 44 d2 fe 3c db 40 a0 3f f3 3e 1d 3e
       0.55142534 0.031106122 1.2519792 0.15356044
0001e0 1f b1 53 40 a4 8a eb 3d c9 0f d3 3d 27 bf 4c 40
       3.3076856 0.11501053 0.10305745 3.199167
0001f0 cf f9 07 c0 44 f0 21 40 3c d6 f5 be 33 71 47 3d
       -2.124622 2.5302896 -0.4801501 0.04869194
000200 6d 4c 5e 3f d9 bb 4d c0 1b 74 f1 3f 05 81 33 40
       0.86835366 -3.2145903 1.8863558 2.8047497
000210 a7 ca c7 3e 8c 45 1d c0 7a ba 4f bd e4 62 00 c0
       0.390218 -2.4573698 -0.050714947 -2.0060358
000220 fd 33 f7 bf d4 df d9 bf 95 a4 ed 3e b2 90 09 40
       -1.931274 -1.7021432 0.4641463 2.1494565
000230 5d 10 1a 40 c7 f9 db be 1a d1 47 40 5d 15 92 bf
       2.4072487 -0.42964002 3.1221375 -1.141277
000240 71 df 09 be 46 4c 08 c0 c7 65 31 40 76 53 50 3f
       -0.13464142 -2.1296554 2.771837 0.8137735
000250 76 01 98 3f 82 c3 8b 3f f4 5a 9e 3e 6d ef 0a c0
       1.1875446 1.0919039 0.30928767 -2.1708634
000260 d3 3b 65 3f 25 9a d2 3f ed 96 ae 3e 68 e1 e5 3f
       0.8954441 1.6453291 0.34099522 1.7959414
000270 0a 1b a0 3f 87 ee 52 40 92 d2 52 bf e7 22 3f 40
       1.2508252 3.2958086 -0.82352555 2.9865053
000280 8a 2d d6 3f aa b9 da be 59 c7 20 c0 83 20 07 3e
       1.6732647 -0.42719775 -2.5121672 0.13195996
000290 c4 90 e5 bf fe e7 11 c0 38 ac a8 3d 7d 15 a7 3f
       -1.7934804 -2.2797847 0.08235973 1.3053433
0002a0 86 70 62 3f 1e bf fc 3f 3b 34 04 40 23 00 a8 bf
       0.8845295 1.9745824 2.065688 -1.3125042
0002b0 be 17 e4 bd 11 87 84 be da bb 29 3e 70 66 5b bf
       -0.11137341 -0.25884297 0.16575566 -0.8570318
0002c0 d2 52 a0 3e 84 94 57 3f 8b f4 e4 3e 83 a2 7d 3f
       0.31313187 0.8421099 0.4471782 0.990761
0002d0 5c cb d2 bf 28 92 6f bf 15 51 7c bf b1 fd f0 3e
       -1.646831 -0.9358239 -0.9856122 0.4706855
0002e0 07 d3 8d 3f 6e 66 13 3f ee fa 91 3e c5 52 2b 40
       1.1080025 0.5757817 0.28511757 2.6769269
0002f0 af 39 5d 3f b2 98 21 40 af 7f ca 3f 43 58 be 3f
       0.86416143 2.5249448 1.5820216 1.4870685
000300 40 5c c4 bd 4a bc d5 bf ae 1b 2f 3f 9e 2c e5 bf
       -0.09587908 -1.6698086 0.6840161 -1.7904241
000310 e0 83 47 3e 46 7a 81 c0 31 0c b7 bf f5 22 85 bf
       0.194839 -4.046176 -1.4300596 -1.0401293
000320 42 b8 30 c0 e2 32 05 40 4c 06 a3 bf a5 8a ed 3f
       -2.7612462 2.0812306 -1.2736297 1.8557936
000330 c5 39 43 c0 19 b6 80 bf 38 d1 41 40 95 7e 91 3f
       -3.050401 -1.0055572 3.0283947 1.1366755
000340 c7 3a 01 40 ca 91 34 bf 0d 25 48 c0 18 7f 59 40
       2.0192125 -0.70534956 -3.1272614 3.3983822
000350 91 8e 3b 40 82 1c 10 40 27 40 76 be 13 9f 92 3f
       2.9305766 2.25174 -0.2404791 1.1454796
000360 bf 86 ea bf 40 ff 15 3f 99 86 68 40 44 f3 e3 3f
       -1.8322371 0.58592606 3.6332152 1.7808614
000370 0c 1c 29 40 29 92 02 40 69 25 21 40 17 2c 25 3f
       2.6423368 2.040171 2.5179083 0.645204
000380 34 1e 1c 40 b9 25 4a c0 85 4f 9e 3f 61 36 0d 3f
       2.4393435 -3.1585524 1.2368017 0.551611
000390 58 ce 53 40 96 b1 39 40 d1 52 00 c0 8c 5e f5 bf
       3.3094692 2.901464 -2.0050547 -1.9169478
0003a0 c6 f1 a8 3f fd f8 24 40 a7 07 c6 bf 9f 62 25 3f
       1.3198783 2.577697 -1.5471085 0.6460361
0003b0 dd 1e 91 3f b4 ff 8c c0 b3 12 22 c0 7b 1b a7 be
       1.1337544 -4.4062138 -2.5323913 -0.32638153
0003c0 c7 8f f5 3f 83 ec a6 bf 53 49 37 3f 48 d5 d0 3f
       1.9184502 -1.3040928 0.7159626 1.6315088
0003d0 ae 7f 09 40 6f b6 ba bf d4 67 97 bf 47 d1 a1 bf
       2.148418 -1.4586924 -1.1828561 -1.2641991
0003e0 70 f2 8b bf 81 6a b4 3f 1e f1 a6 bd 88 91 ef 3f
       -1.0933361 1.4095002 -0.08151458 1.8716288
0003f0 37 89 ef 3f 72 57 98 3f 21 cf 1c 40 ba a6 6c 3f
       1.871375 1.1901686 2.4501421 0.92441905

lin1.weight f4 [1024, 128]
000000 76 19 ff be 57 91 03 3e 2c 3e b2 3e f8 d7 0b bd
       -0.49824113 0.12848412 0.34813058 -0.03414151
000010 6e c7 33 3e d2 8c 89 3e cd 95 06 3e 14 74 a4 3d
       0.17556545 0.2686525 0.13143082 0.08029953
000020 4d b8 a8 3d 04 9d 07 be 38 ae b7 be 56 c1 07 3f
       0.082382776 -0.1324349 -0.35875106 0.5302938
000030 8c 79 f1 bd 69 b7 2c be 64 5a 04 be e9 f5 be 3e
       -0.11790761 -0.1686684 -0.12925106 0.3729699
000040 e6 a5 c0 bd cd e2 ea 3d ca e0 2d bf ba 0a 30 3f
       -0.094066426 0.1146904 -0.67921126 0.6876637
000050 34 48 32 3e 63 59 4a 3e e4 f1 2e 3f 7a 5e ba be
       0.17410356 0.19760661 0.68337846 -0.36400205
000060 0d 80 9c bd dc 68 39 3e 32 5a 00 3f b5 5e 08 3e
       -0.07641611 0.18106407 0.5013763 0.13317378
000070 3d 47 da 3e ce b2 d1 3e 0b fb 83 be d5 3b b6 3c
       0.42632475 0.4095673 -0.25777468 0.022245327
000080 88 20 c7 bd 43 a9 12 bf 88 50 c3 3e 75 83 43 3f
       -0.09723002 -0.5728952 0.38147378 0.7637246
000090 f7 96 02 3f 97 32 f0 be 0d 20 95 3e 64 35 9a be
       0.51011604 -0.46913597 0.29126015 -0.3011886
0000a0 67 61 92 be 36 88 de bd a3 a7 91 bd 0e 43 9c 3e
       -0.28589937 -0.10865824 -0.07112052 0.3051991
0000b0 31 5e d9 3e fb b6 ef 3e 59 11 49 be ac bf 23 3c
       0.42454675 0.4681929 -0.19635524 0.009994429
0000c0 13 6a ef 3e 57 1b 72 3e 3f 83 92 be 5a e1 1c 3f
       0.46760616 0.23643242 -0.28615758 0.6128136
0000d0 0c c3 b7 bd a9 7a 04 3e 4c 21 fc 3e 80 f3 13 be
       -0.08972749 0.12937416 0.49244153 -0.14448357
0000e0 1a 55 ab bd 27 48 2e 3e a0 f9 97 3e 3d a7 31 bf
       -0.08365841 0.17019711 0.29682636 -0.6939581
0000f0 d7 ff 33 3f 54 79 52 3f 83 b7 5d bd de d5 06 3f
       0.70312256 0.8221638 -0.05413009 0.52670085
000100 4d 6c 2f bf 76 41 32 be 8d 8f b3 3e b5 6f 9e be
       -0.6852463 -0.17407784 0.35070458 -0.309446
000110 45 24 d4 3c 4d c7 09 bf 40 40 29 3e a8 2b b1 3e
       0.0258962 -0.53819734 0.16528416 0.3460362
000120 c5 89 39 bc e4 53 67 3f ab 25 a2 3e 4b fd 97 be
       -0.011324351 0.9036238 0.31669363 -0.29685435
000130 68 ef 7a 3e fc 1a 19 3f 04 cf ba be 8d 96 7f be
       0.24505389 0.598068 -0.36486065 -0.24959774
000140 6e ed 27 3e ce 62 a4 be ab bd 34 bf d8 ee 45 be
       0.16399166 -0.32106632 -0.7060191 -0.19329393
000150 67 4b 29 3f 95 5b c7 3e 67 6c 09 3f 1c 14 30 be
       0.6613068 0.3893706 0.53681034 -0.17195171
000160 3b f2 33 bf 50 dd b8 3e 4f ff a2 bd a1 3a da bd
       -0.7029149 0.36106348 -0.079588525 -0.10655714
000170 a7 14 0a 3f 31 e1 cc 3e 8d b4 e2 be 1b d1 27 bf
       0.5393776 0.40015557 -0.44278374 -0.65553445
000180 f9 a9 02 3e 80 bf 37 bf f8 3f 7d 3e 17 d3 4f 3f
       0.12760152 -0.7177658 0.24731433 0.8118147
000190 b4 ce a1 be 63 db a8 3e 28 36 2f bd fe 70 15 be
       -0.31603014 0.3297988 -0.042776257 -0.14593884
0001a0 5e 88 30 bf 35 03 99 be 10 3c 78 bf 30 47 8e be
       -0.6895808 -0.2988526 -0.9696665 -0.27788687
0001b0 48 29 e7 3d b9 cc 14 3d e2 6c 2a be 10 a2 94 be
       0.11287171 0.03632805 -0.16643098 -0.29029894
0001c0 3e 2d 9c 3e b8 8f 43 bd 79 c2 76 be f6 e8 6b be
       0.30503267 -0.047744483 -0.24097623 -0.23038086
0001d0 98 7a b5 3d 58 03 15 bf 2f 99 bc be 23 d9 18 be
       0.088612735 -0.5820823 -0.3683562 -0.14926581
0001e0 29 a6 23 bf 23 96 ff 3e aa bd 85 be 7b 7e 10 3e
       -0.63925415 0.49919233 -0.26121265 0.14110748
0001f0 ef 07 21 3e 80 af 4c 3e 3f 22 c2 bd be 1e bd 3d
       0.15725683 0.19988823 -0.09479188 0.09234379
000200 4b 63 5e bf 32 09 94 3e 53 60 8f 3e 57 ba 78 3e
       -0.8687026 0.28913265 0.28003177 0.24289833
000210 7e 48 b0 3d 30 d5 13 bf a3 62 3d be 13 22 a2 3e
       0.08607577 -0.57747173 -0.18494658 0.31666622
000220 a8 4e 56 be af 79 91 3d ac 34 d5 3e ba 47 98 3e
       -0.20928442 0.071032874 0.41641748 0.29742223
000230 3b 02 11 bf c3 ef 19 be 09 59 14 be bb 8d 0c be
       -0.5664403 -0.15032868 -0.14487089 -0.13725941
000240 a4 6f c1 3e d5 bd 1d 3e 77 d7 47 bf 1a e3 a5 3e
       0.37780488 0.15404446 -0.7806315 0.32399827
000250 40 26 42 3e fe 69 f1 3d 5c 0c 02 bf 62 33 60 3a
       0.18959904 0.117877945 -0.5080011 0.00085525785
000260 16 ff 10 bf 51 40 f4 be a3 e8 cf 3d c4 e5 9c 3e
       -0.5663923 -0.4770532 0.10151794 0.30644047
000270 d0 05 d3 3e 8b a7 4e be 98 be 15 be ea e3 16 3e
       0.41215372 -0.201811 -0.14623487 0.1473538
000280 1a 0e dd bd 0c bd bb 3e c6 3c d7 3e 2e 78 70 3e
       -0.10793705 0.3666767 0.42038554 0.23483345
000290 1b 0e 05 be c2 bc 1f 3f a5 f5 09 3f 31 71 12 bf
       -0.12993662 0.62397397 0.5389045 -0.57203966
0002a0 1d 85 bf be cb e8 aa be af e0 2b 3e 0f 86 4e bf
       -0.37406245 -0.33380732 0.16784929 -0.8067331
0002b0 cf ad ba bd d4 4d 31 be 67 0e 75 be ae 84 d0 be
       -0.091151826 -0.17314845 -0.23931275 -0.40726227
0002c0 b5 33 0c 3e f6 e7 a9 be 09 aa 39 bf d5 74 13 bf
       0.136916 -0.33184785 -0.7252508 -0.57600147
0002d0 1d 58 07 bd a6 c8 a6 bd 83 5d f9 3d 4c a5 b2 3e
       -0.033043016 -0.081437394 0.12176039 0.34891737
0002e0 57 be eb bd f0 c6 d0 3d dc 32 a9 3c ec 29 12 3d
       -0.11510914 0.10194194 0.020654134 0.03568451
0002f0 28 3e 6d be b2 a8 b2 3e 63 30 22 3f 5f 97 b4 be
       -0.23168242 0.3489433 0.6335508 -0.35271737
000300 73 c9 ce be 7e 4d 11 be 33 62 8e bc 33 aa d7 ba
       -0.4038807 -0.14189717 -0.01738081 -0.0016453922
000310 d0 0a 74 3e 7e e4 0d bf bb 83 de be 63 74 12 be
       0.2383225 -0.55426776 -0.43459877 -0.1430221
000320 b2 a7 be 3e a6 04 47 3f 70 8b ab 3d e2 93 c3 be
       0.37237316 0.7774147 0.08376205 -0.38198763
000330 30 79 a2 3e 4e 0b bd be a8 84 59 be 9b a9 e3 be
       0.31733084 -0.36922687 -0.2124201 -0.44465336
000340 43 b5 48 3d 65 27 c8 3e 2a 88 47 be 88 68 b4 be
       0.04900099 0.39092556 -0.19485536 -0.35236
000350 3f 4a 04 3f 6d de ff 3d 08 84 33 3e 52 18 5d be
       0.5167579 0.12493596 0.17530835 -0.21591309
000360 41 3e c9 be 78 1d fe 3d 0d b6 9a be 8c 96 11 bf
       -0.39305308 0.124079645 -0.3021702 -0.5687034
000370 f4 4e 66 3e c2 4e 40 be 04 b4 c9 3d b7 c4 b5 be
       0.22491056 -0.18780044 0.098487884 -0.35501644
000380 5c 13 5a 3c 8d 37 0b bf ea a5 7e 3e 02 6f 24 3e
       0.01331028 -0.5438164 0.24867979 0.16057971
000390 1b 80 1d bf df 5d 27 3f 19 ce 0f bc cf 22 cf be
       -0.615236 0.6537761 -0.008777165 -0.40456244
0003a0 24 2b 28 bf df 54 92 be fe be eb be 14 24 9d 3b
       -0.6569083 -0.28580377 -0.46044153 0.0047955606
0003b0 3b 98 e1 3e 10 cf 69 bb 2d 1e 80 3e 23 5f 2d be
       0.44061455 -0.0035676397 0.25023022 -0.16930823
0003c0 d4 97 f4 3d 75 6e 41 be f8 a6 37 bd da e0 df bd
       0.119430214 -0.18889792 -0.04483697 -0.10931559
0003d0 49 90 ef be 19 e5 2d be aa b3 bb bc d0 06 0d bf
       -0.46789768 -0.16981925 -0.022912819 -0.5508852
0003e0 52 a5 65 3e d3 2c 9f be d1 13 1b bf b0 5d 56 3e
       0.22426346 -0.31088886 -0.6057711 0.20934176
0003f0 07 8f c2 3a dc f6 66 3e f9 bc 74 3e 1f 91 45 3e
       0.0014843651 0.22555107 0.23900212 0.1929364

lin1.bias f4 [1024]
000000 ff 37 cf be e8 c1 c2 be 21 08 36 bd 7f 9c 8b be
       -0.4047241 -0.38038564 -0.044441346 -0.27267835
000010 99 00 79 3d 3e 3e eb be 82 12 a0 bf 57 25 8c bd
       0.060791586 -0.45945925 -1.2505648 -0.068430595
000020 40 61 8c bd 4f 59 2c bf 05 3f c9 bf 29 4e f3 be
       -0.068544865 -0.67323774 -1.5722357 -0.4752057
000030 cd 09 13 be 31 72 a1 be 4b 05 a2 be 2b 9c 9e be
       -0.14359207 -0.31532434 -0.31644663 -0.30978522
000040 fa 25 a9 bf d5 3f d7 be 95 c2 47 bf 75 69 87 be
       -1.3214715 -0.42040887 -0.78031284 -0.26447645
000050 84 ab 5b be a6 3f 84 bd 86 38 1f be 8f 5e db bf
       -0.21452147 -0.064574525 -0.15548906 -1.7138232
000060 ba fb 7b be 92 6f dc bd 1c 45 66 be a7 6a d9 be
       -0.24607745 -0.10763468 -0.224873 -0.42464182
000070 78 cd 01 c0 1d f0 5c be 1d bc fd be fa 93 e2 be
       -2.0281658 -0.21575971 -0.49557582 -0.44253522
000080 de 77 d2 bd e8 aa d6 bd 7f 89 38 be 5d 19 42 bf
       -0.10276769 -0.104818165 -0.180212 -0.7581995
000090 9b a3 98 be dd 97 b4 be 66 46 7b be 88 9e d9 3d
       -0.2981232 -0.35272112 -0.24538574 0.106259406
0000a0 84 a7 93 be e3 75 b8 be c9 5f ba 3d 59 74 aa be
       -0.28838742 -0.3602744 0.09100301 -0.3329189
0000b0 9c 49 a5 bf 83 92 69 be 50 1d c8 be d5 ed e5 be
       -1.2913089 -0.22809796 -0.39084864 -0.44908014
0000c0 e5 a0 89 bf 8b d8 e3 3d ac bf 8e be 25 fb 42 bf
       -1.0752226 0.11125287 -0.2788061 -0.76164466
0000d0 3c 06 a3 be ca 55 51 bf 7b d3 e8 3d 51 43 fb bf
       -0.31840694 -0.8177153 0.11368462 -1.9629918
0000e0 73 ec 21 bf bc cc df bf 2a 03 c9 3d 3e a0 91 be
       -0.6325142 -1.7484355 0.098150566 -0.28442568
0000f0 db 9d 66 be b4 52 0b bf 0b f1 9f be ca 51 fe bf
       -0.22521155 -0.5442307 -0.3123859 -1.986871
000100 41 16 a2 bf 28 8a 00 bf 47 af 48 be 51 a9 fb be
       -1.2663041 -0.5021081 -0.19598113 -0.49152616
000110 00 78 a5 be 35 7c 86 be 41 ab 31 be 50 19 6c be
       -0.32318115 -0.26266637 -0.17350484 -0.23056531
000120 fc a1 ae bf 6d 48 df 3d 78 1f c6 be 4d f1 fe 3d
       -1.3643184 0.10902486 -0.38695884 0.12448368
000130 fe 8b b5 be 21 3d 15 bf 20 12 39 bf 7e 49 52 be
       -0.35458368 -0.582964 -0.7229328 -0.20535848
000140 80 a2 aa be 69 e6 bb bd 6c 0d 09 be 8b c5 86 bf
       -0.33327103 -0.091748066 -0.13384026 -1.0529035
000150 dc d0 9e be e4 b5 d5 bf 71 4b 11 be a7 87 e4 bd
       -0.31018722 -1.6696134 -0.14188935 -0.11158686
000160 f5 fd 3e bf 1f 7e 94 bf 50 fc 05 be 9f 92 b3 be
       -0.7460626 -1.1600989 -0.13084531 -0.350728
000170 2b 3a 2a bf 09 1e 83 be bc bc 5f bf 2f 13 8c be
       -0.6649501 -0.25608853 -0.8739736 -0.27358386
000180 66 32 4c bc e9 35 f8 3d 80 74 67 bf 49 82 fb bd
       -0.012463188 0.121196575 -0.9041214 -0.12280709
000190 b0 54 c8 bd c8 60 1a be cd 51 6d 3d 9f da c6 be
       -0.09781778 -0.15075982 0.05793934 -0.3883867
0001a0 11 20 50 be 61 4f e1 bd ed 13 cc be 41 99 89 be
       -0.20324732 -0.110014684 -0.39858952 -0.26874736
0001b0 73 88 8b be 73 14 1f bf 09 20 4b bf 09 de d5 be
       -0.2725254 -0.6214058 -0.79345757 -0.41770962
0001c0 7a d7 bc be 96 e7 e1 be 91 7d 24 bd e3 89 6c be
       -0.36883146 -0.44122 -0.040158812 -0.23099475
0001d0 25 32 c8 be 02 77 ad be a4 7a f9 be 4e 25 47 be
       -0.39100757 -0.33879858 -0.4872638 -0.19447824
0001e0 9e d9 f6 bf a6 74 a1 be bd 42 2d bf f6 1a 15 be
       -1.9285161 -0.31534308 -0.6767996 -0.14561066
0001f0 c7 f2 47 be 5c 6c 94 be 43 8b 8a be 4c df 2b bf
       -0.19526206 -0.28988922 -0.27059373 -0.671376
000200 62 61 9c bd 47 79 b8 bf 8b 49 b7 be 5a f9 79 be
       -0.07635762 -1.4412011 -0.35798296 -0.24411526
000210 a2 e1 8b be 72 e8 bc be 52 b5 80 be 07 61 5b bf
       -0.27320582 -0.36896092 -0.25138336 -0.85694927
000220 2f f2 97 be 5c 85 83 bf 9b ed 01 bf f8 52 64 bd
       -0.2967696 -1.0275073 -0.5075318 -0.055743188
000230 30 6d 06 be ad bf c8 be 5a a8 1e 3c 5e a0 ea be
       -0.13127589 -0.39208737 0.009683693 -0.45825475
000240 c1 ad 81 be 8b e6 1c 3d 98 69 12 bf 3c a6 84 be
       -0.25327876 0.0383058 -0.57192373 -0.25908077
000250 51 05 3a be 10 e4 31 be c5 a5 ff bd 91 ad 28 bf
       -0.1816609 -0.17372155 -0.1248279 -0.6588984
000260 bd 00 01 c0 4f fb 82 bd 38 ff 53 be 65 96 9c be
       -2.01567 -0.063955896 -0.20702827 -0.30583492
000270 25 0f 89 be c6 db 96 be e1 28 4c bd bc 3e 90 bf
       -0.26769367 -0.2946455 -0.049843673 -1.1269145
000280 8d 77 a3 be 32 e8 c6 be 47 b4 95 be 23 63 3d be
       -0.31927148 -0.38849026 -0.29239103 -0.18494849
000290 e4 0b 06 be e3 a3 2d bf 28 46 7c be 4e eb bd bd
       -0.13090473 -0.67828196 -0.24636137 -0.092733964
0002a0 d1 c5 16 bf 28 69 a4 be 9c f5 18 3d b2 bb 19 be
       -0.58895594 -0.32111478 0.037343606 -0.15013006
0002b0 a5 c9 2b bd 18 1a ab bf fd 16 0c be c6 8a b7 be
       -0.04194035 -1.3367338 -0.13680644 -0.35848063
0002c0 d8 20 b6 bd 09 ac d2 bd 37 82 6f be 2d e6 29 bf
       -0.08892983 -0.10286719 -0.23389517 -0.66366845
0002d0 a4 03 24 bf c6 0c f1 bf 94 a3 cc be 22 d1 87 bd
       -0.64068055 -1.8832023 -0.3996855 -0.06631686
0002e0 0b 12 c6 3c 30 06 31 bf af 75 32 be 7b 53 b9 be
       0.024178525 -0.69150066 -0.17427705 -0.36196503
0002f0 96 41 36 be 84 ea 97 3c 1f 7b ea bd 15 d3 87 bf
       -0.17798457 0.018544443 -0.11449265 -1.0611292
000300 eb 50 1e bf fb 01 34 bf e1 dd a0 bd 34 0e 63 be
       -0.6184222 -0.7031552 -0.0785482 -0.22173387
000310 69 9b fb bf 0a 07 44 be 60 c4 bb bd b4 52 d3 be
       -1.9656802 -0.1914331 -0.09168315 -0.41274035
000320 0b 36 11 bf 77 5e 14 be 12 d9 71 be f4 86 6d be
       -0.5672309 -0.1448916 -0.23617962 -0.23196012
000330 ec 67 b4 be 8e 1e 9c bf 07 52 38 bf 42 0d f7 be
       -0.35235536 -1.2196825 -0.72000164 -0.48252302
000340 5c f6 5d bf e5 53 09 bf bb 37 04 bf cc 68 86 bd
       -0.8670404 -0.5364364 -0.5164754 -0.06562957
000350 98 ff f8 be cd 7f 86 be 48 50 11 c0 8b e6 cd bf
       -0.48632503 -0.2626938 -2.270525 -1.6085981
000360 79 30 d4 be 02 5c 33 be 21 05 cc bd 5c f6 06 be
       -0.41443232 -0.17515567 -0.09961916 -0.13179916
000370 88 24 bc bd 12 12 b7 be 88 5d 7f be bf ea 8c bf
       -0.09186655 -0.35755974 -0.24938023 -1.1009139
000380 95 c7 c7 be 91 a6 a1 be d3 5b bb bf 82 d3 12 be
       -0.39019457 -0.31572393 -1.4637398 -0.14338496
000390 fe da 21 be 96 f0 06 bf 45 e9 df bf dc 07 a9 bc
       -0.15806195 -0.52710855 -1.7493063 -0.02063363
0003a0 65 2a 76 be 96 66 d3 bf e7 14 99 be ac 63 8f be
       -0.2403961 -1.6515682 -0.2989876 -0.2800573
0003b0 32 b9 20 3b 21 f5 85 be 6c 10 da bf 8e 91 79 bf
       0.0024524448 -0.2616358 -1.7036262 -0.97487724
0003c0 61 48 08 bf cf 52 db bf 24 ad 62 bf 82 ad fe be
       -0.5323544 -1.7134646 -0.8854544 -0.4974175
0003d0 35 95 c3 be 3d 51 5e bd 99 18 77 bf 6e 28 de bf
       -0.38199773 -0.054276694 -0.9652191 -1.7356088
0003e0 b4 1f 96 bf 0e eb 43 bf 81 91 1f be 63 b0 87 bb
       -1.1728425 -0.7653054 -0.15582849 -0.0041409
0003f0 1d 10 ea bd 4e 21 88 be 6c bf 55 be cd e3 e9 be
       -0.114288546 -0.2658791 -0.20873803 -0.4568161

lin2.weight f4 [98, 1024]
000000 7d 9e 00 bd db 17 9d bd 87 a2 9b bd 67 7f 89 be
       -0.031401146 -0.07670566 -0.07599359 -0.26855013
000010 c3 d1 db 3d 90 be fc 3d f9 13 04 be fe 35 e7 3d
       0.10733368 0.123410344 -0.12898244 0.11289595
000020 84 bf 95 3d 1d fc 89 bd a0 d5 2e 3e 0e 73 06 be
       0.07311919 -0.0673754 0.17073679 -0.13129827
000030 14 99 8c bc 93 82 83 bd 3f e4 45 3e 78 59 f3 3d
       -0.017162837 -0.064213894 0.1932535 0.11882299
000040 b5 eb 60 be 13 05 ad bd c2 50 25 3e eb 18 60 be
       -0.21964915 -0.084482335 0.16144088 -0.21884505
000050 fb ea 68 3d 9f 30 85 3d c4 bc 5c 39 51 d4 41 be
       0.05686472 0.06503414 0.00021051156 -0.18928649
000060 c1 1a 14 3c d5 72 59 be 6a 90 a8 3d ec 82 a3 bc
       0.009039582 -0.21235211 0.0823067 -0.01995989
000070 35 9d d7 bd dc fe 0d be c2 9f 16 be d1 08 d2 3d
       -0.10528032 -0.13866752 -0.1470938 0.10255588
000080 1d 77 d8 3c 0e 4a 08 be 7c fa 93 be 95 f9 a9 3a
       0.026423985 -0.133095 -0.28902042 0.0012968058
000090 6d eb 44 bd 86 40 85 be fc 37 55 3e 6a 66 8c 3d
       -0.048076082 -0.2602579 0.20822138 0.068554714
0000a0 af fa 02 be a5 b0 a2 3d 68 c3 ad 3d ea 8e 0e be
       -0.1279094 0.079438485 0.084845364 -0.13921705
0000b0 b9 8a 1d 3c b7 bd 49 bc fe 56 72 bd 1a 2d 04 bd
       0.009615594 -0.012313298 -0.059164993 -0.032269575
0000c0 4e 99 b0 3e 94 d0 6c 3d fe f6 86 3e c5 16 aa bc
       0.34491962 0.057816103 0.26360315 -0.02076281
0000d0 37 91 e4 3d 77 a9 cd 3b 77 b3 4e bd 3d 0f df 3c
       0.1116051 0.0062763053 -0.05046412 0.027228946
0000e0 83 f8 0e 3d 78 dd a5 3d 3e a1 95 be a8 cc 38 bd
       0.034904968 0.080988824 -0.2922458 -0.04511705
0000f0 ca 62 47 3d 83 42 40 3b e4 78 80 ba 2e 22 0e be
       0.048678197 0.002933652 -0.0009801653 -0.13880226
000100 09 3d e4 bc 1f 4e 03 3e fe a9 b9 bd d3 5c 76 3d
       -0.027861135 0.1282277 -0.090656266 0.060147118
000110 8c 63 98 be 97 5f 88 3d 41 4c 73 bd 3d 05 6e bd
       -0.29763448 0.06658857 -0.059398893 -0.058110464
000120 74 eb 21 bc 37 50 b2 3d 31 13 ba bd 95 ca 3b 3e
       -0.009882797 0.08706706 -0.09085692 0.18338998
000130 56 c4 08 bc a5 82 c5 bc 8a c6 cf be 35 b5 57 be
       -0.008347591 -0.024110148 -0.4058116 -0.21065219
000140 97 30 00 be cb a4 b2 3d a3 d6 b2 be c5 56 d1 3c
       -0.12518536 0.08722838 -0.3492938 0.02555407
000150 6f 7d 3a bd 68 60 e4 3e 8f 31 97 bd d4 4c aa 3c
       -0.04552978 0.44604802 -0.073824994 0.020788588
000160 de 4c 00 bd b2 28 e3 bc eb 90 8b bc 0c 06 de 3d
       -0.031323306 -0.027729366 -0.017036876 0.10840997
000170 2d de e0 bc 34 48 ce bd 3a 06 14 3e 72 f9 58 3c
       -0.027449692 -0.100723654 0.144555 0.013243066
000180 c3 30 20 3e 63 ac 39 3e 45 3b 63 3e b2 50 8b 3d
       0.15643601 0.18132167 0.22190578 0.06802501
000190 09 b3 c1 3d ab b3 92 bd 29 96 89 3d aa 6c e2 3d
       0.09457976 -0.07163175 0.06718094 0.11055882
0001a0 32 02 5f 3d f2 55 db 3b 6a 8e 5e bd 0e 17 63 bd
       0.054445453 0.006693595 -0.054335035 -0.05544191
0001b0 7b 4f 07 3e 58 3d 1e 3d a8 e9 75 3c 32 0b 56 bd
       0.13213913 0.03863272 0.015009321 -0.05225677
0001c0 c7 26 34 3e 68 03 05 bd 5c bc 3d 3e 8c 8c 1c be
       0.17592917 -0.03247395 0.18528885 -0.1528799
0001d0 30 02 39 bd 3f 46 47 be 4a 89 92 3d 23 7d c4 bc
       -0.0451681 -0.1946039 0.07155092 -0.023985451
0001e0 71 fa 08 3c eb 04 ee bc 79 87 9f bc 40 a3 84 3b
       0.008360491 -0.02905508 -0.019473778 0.004047781
0001f0 21 a0 15 bd 7c 79 22 be c2 59 82 3d f2 1b f6 3d
       -0.036529664 -0.15866655 0.06364776 0.12017049
000200 65 c9 8f be 97 a3 81 bf 58 40 6c bd 93 41 1c 3e
       -0.2808334 -1.0128049 -0.05767855 0.1525939
000210 35 2d fc bc b0 c5 de bb 58 ee 94 3d 9f 1d 6d bd
       -0.030783275 -0.0067984685 0.07272023 -0.057889577
000220 6c e3 f0 3d fd 75 d3 3d 3c 41 33 3d 74 59 36 3c
       0.11762127 0.10325239 0.043763384 0.011129726
000230 9d 69 53 3d 7b c7 d0 3d 1c 4a eb bd be ce a8 3c
       0.051614393 0.10194298 -0.114887446 0.020606395
000240 73 7b 57 bd 65 f0 2f bd 72 ca 38 be 5d ec a3 bc
       -0.052607965 -0.042953867 -0.18045977 -0.020010168
000250 7d 71 3f 3e ee be 80 3d a5 66 38 3c 7e 8e 84 be
       0.18695636 0.06286417 0.011254941 -0.25889963
000260 06 d7 d3 be 59 f4 5e 3e 64 b8 43 be a6 53 08 3d
       -0.41374987 0.21772899 -0.19113308 0.0332829
000270 c3 ec 03 be 73 4c 91 bd 1c 8c 40 3c a2 7d 75 be
       -0.12883286 -0.0709466 0.011752155 -0.23973706
000280 00 45 88 bd e9 f4 a8 bd 79 41 92 3d d4 f1 1b 3d
       -0.06653786 -0.08249838 0.07141394 0.038072422
000290 51 5b 61 be 33 e4 3e bd 3f bc 2c be 5a 44 97 3d
       -0.2200749 -0.046604346 -0.16868685 0.07386084
0002a0 6c c7 d0 bd 7a aa a3 bd 3e f8 5f 3e 29 56 29 3d
       -0.10194287 -0.079915 0.2187204 0.041341934
0002b0 ee 59 74 bc ca 49 38 bd c6 78 b2 3b 46 9f eb bc
       -0.014914019 -0.044992246 0.005446526 -0.02876247
0002c0 d0 63 31 3d 60 15 a4 3d 70 89 a0 be ab 16 1a 3e
       0.04330808 0.080118895 -0.31354856 0.1504771
0002d0 d6 e7 19 bd 30 5a 64 3f d8 dc 92 3c f0 25 fa 3c
       -0.03757461 0.89200115 0.017927572 0.030535668
0002e0 60 c3 63 3d 09 f7 2e 3d 66 d9 ea 3d fb 0c a2 bd
       0.055606246 0.04271606 0.11467247 -0.07912632
0002f0 bc 1a c4 bd 67 eb 2f 3d 2c d6 00 3e a5 b1 f6 3b
       -0.09575412 0.042949107 0.125817 0.007528501
000300 9b 22 1c 3d cf be 64 3e 7b 26 49 3d 7f 9c c1 3b
       0.03811894 0.22338413 0.049108963 0.0059085484
000310 1e 71 02 be b6 0f 51 be f2 ef 6f be 03 38 d6 bd
       -0.12738463 -0.2041615 -0.23431376 -0.10459902
000320 81 20 e0 bd 1a 7c 56 bd a0 e1 86 3d 17 38 eb 3c
       -0.109437 -0.052364446 0.06586003 0.02871327
000330 b4 79 1e 3d 41 d6 bb 3b 94 87 ac bd b1 6c dc bd
       0.038690284 0.005732328 -0.08424297 -0.10762919
000340 3d 2e 86 3d 5e b5 0f 3d 48 c7 25 be 10 19 50 3d
       0.06551788 0.035085075 -0.16189301 0.05080515
000350 a9 96 9b bd 0e 8a 90 3d b2 54 8e 3e a7 37 ee bb
       -0.075970955 0.07057582 0.27798992 -0.007269818
000360 b7 31 29 bd 09 06 7c bd 0a e1 7a 3d 88 0c 11 be
       -0.041307177 -0.061529193 0.06124977 -0.14164937
000370 59 46 99 bd 8c 91 d5 bd 0a d9 fd 3d 38 98 de bc
       -0.07484121 -0.104281515 0.123949125 -0.027172193
000380 4b 55 50 3d d4 20 5b be b2 95 ba 3e e4 86 f8 be
       0.05086259 -0.21399242 0.36442333 -0.48540413
000390 84 92 a7 3d 25 d6 01 3e f2 cb b9 bc 4e cb a5 bc
       0.081822425 0.12679346 -0.022680257 -0.020238545
0003a0 61 ea 2c be 67 d6 ea bb 96 ba 2a bd c8 fd 3c 3c
       -0.16886283 -0.007166672 -0.04168185 0.011535116
0003b0 72 2a 5d bd e0 24 90 3c 69 09 a4 3e b5 45 50 bf
       -0.053995557 0.017595708 0.3203843 -0.81356364
0003c0 50 af 9e 3d f6 c1 40 3c 33 8a 8c bd d1 91 89 bd
       0.07748282 0.011764994 -0.06862297 -0.067172654
0003d0 4f fd 95 3d f2 cb 06 bd 32 c0 8c 3d 05 f6 13 be
       0.073237054 -0.03290934 0.06872596 -0.14449318
0003e0 2a 98 a6 bb 4c 8d 88 3d dd 93 db 3d 77 7f 20 3e
       -0.0050840573 0.06667575 0.10721562 0.15673624
0003f0 46 02 91 3d 16 33 ba be cb 3c 82 be 9b fd ac 3e
       0.07080512 -0.363671 -0.25437006 0.33787236

lin2.bias f4 [98]
000000 b0 55 dd bd ea 02 90 3c c2 74 f0 bd bd 04 f3 bd
       -0.10807359 0.017579515 -0.1174102 -0.11866138
000010 64 58 1d bf 74 32 19 bf 1e 0d f1 bc 7c 45 61 bd
       -0.61463 -0.5984261 -0.0294252 -0.054997906
000020 60 07 9b bc 22 0e 47 be bd 32 c2 bd 89 45 20 be
       -0.018924415 -0.19438985 -0.09482334 -0.15651526
000030 bd c0 b1 bd e8 9f 1f bf c9 26 a1 bd 9b 35 9d bd
       -0.0867934 -0.6235337 -0.07868726 -0.0767624
000040 7f 82 0f bd 8e 28 01 bd 42 1e 41 3c fa 8a 47 bd
       -0.03503656 -0.031532817 0.011786999 -0.048716523
000050 23 b2 b0 bc f0 18 8a bd 0a ce 9c bd 0d b8 2d bd
       -0.021569317 -0.06743038 -0.07656486 -0.042411853
000060 8d a6 fb bd 85 a4 09 be f9 bf d7 bd 01 21 72 3d
       -0.122876264 -0.13441665 -0.10534663 0.059113506
000070 eb c7 a9 3c 1b b3 72 3c 14 5b 09 3d 91 f9 d1 3c
       0.020725211 0.01481321 0.033534124 0.025631698
000080 90 39 32 3d e8 13 0c bd 39 42 e7 3d e6 ff ff 3d
       0.043511927 -0.03419867 0.11291928 0.12499981
000090 6b d6 3a bc 55 70 fe 3b fb c1 a6 3c 3b 15 00 3d
       -0.01140366 0.007764856 0.020356169 0.031270247
0000a0 1b 68 88 3d bd a2 47 3d ed 9c 21 3d 37 f3 01 bb
       0.066604815 0.048739184 0.039456297 -0.0019828805
0000b0 64 d4 2d 3d ec 2b 83 3d 4a 98 ee 3d 35 93 bb bd
       0.04243888 0.06404862 0.116501406 -0.09158937
0000c0 b6 24 01 bd 5f 15 98 3d 05 cf 73 bd e5 f8 ae 3d
       -0.03152915 0.07425951 -0.0595236 0.085435666
0000d0 c0 a3 81 bd f4 47 03 be 58 ea 11 bf 44 bd 29 bd
       -0.06330061 -0.12820417 -0.56998205 -0.041440263
0000e0 ac 79 e2 3c a8 ed 0f 3d 01 9a be bc 1b f0 8c 3b
       0.027645908 0.035138756 -0.023266794 0.0043010837
0000f0 99 e6 b0 3b 1c 70 29 3c ec 0f 12 bd ae 16 8e 3c
       0.005398583 0.01034167 -0.035659716 0.017344799
000100 8e 27 2d 3d b6 7d 28 bc 7c da 86 bd bd 64 de 3b
       0.04227405 -0.010283878 -0.06584641 0.0067869113
000110 6b bc 37 3c 67 48 8d 3c d7 40 b6 3c 2c 2b 01 bd
       0.011214356 0.017246438 0.022247715 -0.031535313
000120 61 59 cf bd de c2 ba bc 90 7e 4a 3d 6c da 5f 3d
       -0.101244695 -0.022797998 0.049437106 0.054651663
000130 cb e1 c9 bc 87 85 03 bd 2c 39 a0 3b 77 22 c0 bd
       -0.0246438 -0.032109763 0.004889628 -0.09381574
000140 94 1d b6 bb 5c 5c 27 be be a9 43 bd a8 5d 89 bd
       -0.005557725 -0.16343826 -0.0477693 -0.06707317
000150 77 be b0 bd d3 f2 8a bd 74 6e b2 bd 8f 0b 16 bf
       -0.08630078 -0.06784596 -0.087124735 -0.58611387
000160 d3 3d 0b be 0b c6 29 be 71 eb 07 be 34 fd fb 3d
       -0.13597803 -0.16579454 -0.13273408 0.12304154
000170 2a 0b e6 bc 4b 34 a2 3d 27 83 b1 3b fc 2d 19 bf
       -0.028081495 0.0792013 0.005417246 -0.5983579
000180 4b 2d 23 bf 90 8e 20 bf
       -0.63740987 -0.62717533
