models/1_context_2_embedding_64_activation_2.pt (torch, 957978 bytes, 5 tensors)

emb.weight f4 [98, 64]
00000000: 9817 a8bf 6860 2ebf 6ede 0fbf d98b b2bf
00000010: 4c40 88be 5842 12bf 5e34 c2be 597b d5bf
00000020: 7b58 1cbf d0ba de3e ca6e 21bf d41d 02bf
00000030: d88b d0be 4709 993f f7e8 933e d24b ca3e
00000040: d0a6 0dbf ee74 89bf 2007 c93e 8909 913e
00000050: f50f b13e f322 b93d 609b e3be 1752 473f
00000060: 1b8f 2f3f ec79 25be 261c 05c0 0949 56bf
00000070: 9cd4 753e bc14 25bf 9f62 19bf 783b ab3c
00000080: 2b6d c43f 4af8 bfbd b8e1 983e f901 28bf
00000090: db1c f23e 7214 443e cbfa 31bd e7e8 70be
000000a0: 91cd 043e 93d4 85bd 367f b93d 4093 653d
000000b0: 4209 0540 7fd4 63bf 20ab 983f 91c2 67bf
000000c0: 5d0c 16bf 9c95 ae3e 98be c53e 1029 02be
000000d0: d29d e53e 42fd dc3e 6c9d 6a3f cd4c b33f
000000e0: dd1a ca3e ddfd 2a3f f5a5 a6be 4db6 dabe
000000f0: 68d9 723f 5c13 4dbf fb85 43c0 9bfe b8be
00000100: b2a2 8cbc d898 72be 3a8d 7ebe 8b48 06bf
00000110: f325 e6bd 12bd 0fbd ca3f 3f3f a0e8 513d
00000120: 214d b4be 1f73 fbbc 1d04 e9be 9bf6 8ebe
00000130: af61 adbe 1727 c5bd a7c5 dc3d 87d8 e8be
00000140: c39d 75be fb02 073e 76aa cebe 17da 0f3e
00000150: 9bd2 3abf a855 77be d840 183d bd78 063d
00000160: 8f4b 88bc 688d 76be 69f5 f4be c97d 943e
00000170: f82a e0be 1417 9ebe 160d 933c af79 8d3f
00000180: 51c1 b73e e049 fd3e 2ab3 bc3e 6057 cbbe
00000190: 62df 4b3f 75f4 84be ca93 8cbe 1bd9 0b3f
000001a0: b8a4 323f 5d0f 5f3e 4dd3 9dbd 30ed 363d
000001b0: 99b1 54bf 827e 11be 2ab1 1bbf 263e 46bf
000001c0: c693 ca3e 1bff 8abe b719 083f 7282 f33e
000001d0: 9c44 473e 1277 0b3e 769a 713e 900e 0ebe
000001e0: 5f73 c23f 29d7 593b 1134 19bd 14c6 5e3f
000001f0: a8fc 55bf 15c5 883f e72e 983d d48c e83d
00000200: b803 853f 856e 07c0 2458 843f e7fc e43f
00000210: 225e 7ebe 46da afbf c07d 7c3e 2154 3fbf
00000220: 541d e3bf a34f f4bf 0654 4a3f aad2 903f
00000230: fa30 0240 55d9 033f a95d 1540 fd61 92bf
00000240: 1172 dbbe e9f0 a0bf 1c0a 0f40 b87d bb3e
00000250: 3057 723f 6a17 e03c 6125 013f c271 d2bf
00000260: 8cb1 fa3e 7e50 f13f 42eb fd3d 3067 d73f
00000270: 8e57 0640 9121 0340 eb89 80be c1e5 1e40
00000280: 1fb1 143f 11dc 143e bde1 debf 011d 0e3f
00000290: 1494 e5bf 96d5 4dbf da93 a63e 0c1f d03e
000002a0: 15d4 b33e 36d1 3b3f 8482 a43f 08a6 80bf
000002b0: 3207 73bd ee12 1cbf ec09 923d 3584 71be
000002c0: 01ee 873f fbbc 773f 9586 f93e fd5e 133f
000002d0: 2e20 e1bf 49ce 8c3e a8b6 66bf e882 1abd
000002e0: d805 393f d63f b03e 3e9b 27bf 3a29 aa3f
000002f0: 2f36 5b3f 0d19 ce3f 35a8 0c3f 5ade 223f
00000300: 8281 f53e 1416 583f f8f3 af3f b7ba d33f
00000310: bf2f 81bd 2937 88c0 7ad1 a23d 289d 1ac0
00000320: e4f9 0540 fd7c 3c40 f900 15bf 0e8e 7fbe
00000330: 1e3d 51c0 b690 78be 683f 3540 bd3a cc3f
00000340: 2e70 7b3f 9dbb 40bf 5fee 72c0 cef8 0140
00000350: f888 6640 8454 20be 5c31 55bf 9226 123e
00000360: 7039 51be e0fb ed3f b5cc 8d40 ebbb ff3f
00000370: 89a7 953f 05eb 8b3f f382 5540 8732 eb3f
00000380: 5370 3f40 d0bd babf 7901 90be a80f 423f
00000390: 50ba a63f 35b7 4640 0516 a5be 291e 0040
000003a0: 2b0c 3f3f 1407 ad3f a035 3abf a94f f83f
000003b0: c4c4 ad3f c06f a4c0 c14c 023f efcd 8c3f
000003c0: 1a21 3440 9d3b 07c0 5b1e 843f c08f 583f
000003d0: 5c8e d9bf f5bd ab3f 1bf2 6dbf 1da9 ba3f
000003e0: 7c68 f3bf 0578 75be 0f29 65c0 516e 0640
000003f0: bb9c 41bf c3af 50bf 443f 6640 be61 20bf
-1.31322 -0.68115854 -0.56198776 -1.3948928 -0.26611555 -0.5713248 -0.37930578 -1.6678268
-0.6107251 0.43501902 -0.63059676 -0.50826764 -0.40731692 1.1955956 0.28888676 0.3951097
-0.5533266 -1.0738809 0.39263248 0.28327587 0.34582487 0.09039869 -0.4445448 0.77859634
0.68577737 -0.16159791 -2.079843 -0.8370519 0.24006885 -0.64484763 -0.5991611 0.02090238
1.5345815 -0.09373529 0.2985971 -0.6562801 0.4728764 0.19148424 -0.043452065 -0.23526345
0.12969042 -0.06534686 0.09057467 0.05604863 2.07869 -0.8899612 1.1927223 -0.9053126
-0.58612615 0.34098518 0.38621974 -0.12710977 0.4484697 0.4316197 0.91646457 1.4007813
0.3947362 0.66793615 -0.3254849 -0.4271721 0.94862986 -0.80107665 -3.0550525 -0.3613175
-0.017167423 -0.23691118 -0.24858561 -0.5245444 -0.11237707 -0.03509242 0.7470671 0.05124724
-0.35215095 -0.030694542 -0.4551095 -0.2792252 -0.3386359 -0.096265964 0.10779887 -0.45477697
-0.23985963 0.1318473 -0.40364426 0.14048038 -0.7297761 -0.24153769 0.037171215 0.03282999
-0.016637592 -0.2407738 -0.47843483 0.29002216 -0.43782783 -0.30876982 0.017950576 1.105276
0.35889676 0.49470425 0.3685544 -0.397151 0.7963773 -0.25967756 -0.27456504 0.5462815
0.6978259 0.21783204 -0.07706318 0.044659793 -0.8308349 -0.14208415 -0.60817206 -0.7743858
0.39565867 -0.27147755 0.5316424 0.4756046 0.19459766 0.1361964 0.23594078 -0.13872743
1.5191458 0.0033239818 -0.03740317 0.87020993 -0.8358865 1.0685145 0.07430821 0.11354986
1.039176 -2.1161206 1.0339398 1.788968 -0.24840596 -1.3738487 0.24657345 -0.74737746
-1.7743325 -1.9086803 0.7903446 1.131429 2.0342393 0.515035 2.3338416 -1.1436154
-0.42860463 -1.257352 2.234992 0.36619353 0.9466429 0.027354915 0.5044766 -1.6440966
0.48963583 1.8852689 0.123983875 1.6828365 2.099094 2.0489237 -0.25105223 2.482773
0.58082765 0.14537074 -1.741264 0.55513006 -1.7935815 -0.8040403 0.32534677 0.40648687
0.35122743 0.73366106 1.285233 -1.0050669 -0.059333034 -0.60966384 0.07130799 -0.23585589
1.0619508 0.96772736 0.4873549 0.57566816 -1.7587945 0.27501133 -0.9012246 -0.0377225
0.7227454 0.34423703 -0.65471256 1.3293831 0.8562955 1.6101395 0.54944164 0.6362053
0.4795037 0.8440869 1.3746328 1.6541356 -0.06307935 -4.2567334 0.07950111 -2.415842
2.093377 2.9451287 -0.5820461 -0.24956533 -3.2693553 -0.24273953 2.831995 1.5955426
0.9821805 -0.75286275 -3.795799 2.0308108 3.60211 -0.1565724 -0.8327844 0.14272526
-0.20432067 1.8592491 4.4312387 1.9979223 1.1691753 1.0931097 3.3361175 1.8374795
2.9912307 -1.4589176 -0.28126124 0.7580514 1.3025608 3.104932 -0.32243362 2.0018408
0.7462794 1.3517785 -0.72738075 1.939931 1.3575673 -5.1386414 0.5089837 1.1000346
2.8145204 -2.1130135 1.0321764 0.84594345 -1.699657 1.3417345 -0.9294755 1.4582859
-1.9016261 -0.23971565 -3.580631 2.1004832 -0.75629777 -0.8151819 3.5976114 -0.6264914

lin1.weight f4 [1024, 128]
00000000: 7321 1c3d 4a4a febc 84ff 353f 6a96 65be
00000010: 5a50 c4bd 1975 023f 154c d9be 7da8 4fbe
00000020: c632 d3be 896b e03e 0278 213f af64 ac3e
00000030: a950 0d3e 5fd5 9ebd c003 dbbe 966d d73e
00000040: 3d1b 043f 0706 03bf 9424 8cbe 92dd 293d
00000050: f697 933c 644b 003e ee93 8d3d 7f42 2ebd
00000060: 3f93 e83e 0f78 ee3e 89ef d33c 4f81 7ebb
00000070: 322d f5bc e077 d23e 37f0 c73e 4e96 ebbe
00000080: 7c4a b0be 00df 903d 1c63 a8be 4d26 023f
00000090: bf07 5ebe 01d0 19be b0b9 a0be b46e 633d
000000a0: 0b22 783e 320e 9abe 689e d0bb 2bbd fb3e
000000b0: 9f99 a03c 9069 e1be ff41 6cbd 05a0 3abe
000000c0: edd0 91be b5d7 20bf 4875 2a3e aa6f ee3e
000000d0: 26e2 d8be 61e5 133f ede7 083f d563 03bf
000000e0: 7f7d fbbe 06ec 94bc b97d 3f3d d995 51bf
000000f0: 0318 d33e 829b 813e 06dc 86be f21a 5d3c
00000100: e450 f2bc fe98 33be f733 993e 9323 ae3d
00000110: e22e e03d 581d 03bf ea0c 04bf ccf2 5fbe
00000120: 74e4 d2be cc08 ec3d 75c8 8e3d 996d 833c
00000130: a02b 3e3d 9724 923e a83c 16bf c30c 823e
00000140: 4311 f83e 3f31 793e 2bf5 27be 2b70 903e
00000150: f4d5 ba3e c26d ddbc e27d c6bd 96f9 94be
00000160: 7dcf 13bf a2ab c23d acbe df3d 432e 06be
00000170: fe94 55be f561 54be 8452 45bd 6ef8 d1bd
00000180: 82b5 f93e 976b 9b3d dfe6 8bbe 07de 0cbe
00000190: 1847 4fbe 1bc7 b1be 9116 0dbd d8b4 bebe
000001a0: 7acd e93d 5650 b2be 36f2 fdbe 68c5 6cbe
000001b0: a389 9b3c 5ea2 2a3e 8eca 8fbd 7f2a 9e3e
000001c0: 22b5 b7bd 5519 b03d d337 f7be 604b a73e
000001d0: 4164 653e 3984 6dbe 5509 493b 0e0c a73d
000001e0: 72b3 94be 47e4 5b3f b725 ad3d 8992 cabd
000001f0: 535f 1f3f 66ae cf3e 3c53 74be ca43 c4bb
00000200: 95bf bcbe f57f 553e 9da1 44bf 19e4 32be
00000210: 6a0f 4f3d 5134 6ebd 3b35 de3b 5e42 e33e
00000220: a0b1 883e 9ea5 bdbe 1277 223f 90b0 fbbd
00000230: a9c8 9ebe 05c9 1b3c 187d bfbd 663d 8fbe
00000240: 29f5 7cbe 603b 7b3d cb95 a43e 6f55 57be
00000250: 49fe d6be 06d3 c1bd aab5 92be ce36 36be
00000260: 8268 4cbe 988e 75be 86a3 bf3d 430b 1c3f
00000270: e44e 113d 6e1b 79be d085 a2bd 87a6 1bbe
00000280: 27ce cfbe 17dc ec3e 510e 10be 61b8 883e
00000290: f204 00bf f81e d03e 43f5 c03e b79d 24bf
000002a0: 57dd f8bd e560 e5bd fe64 043e a7b5 35bf
000002b0: 5f85 aebd 21c8 833e ec23 303e c0c2 a03e
000002c0: 58fd a63c 7063 a8be 0faf b13e 61ae febe
000002d0: 9f34 b63e e57b ca3d e550 043e 4377 063f
000002e0: 5591 00be 5fab 433e da5d ed3c d013 743e
000002f0: 13f6 7a3e 0277 dc3c 60ca e63d 1970 9fbe
00000300: fea8 6ebe 25af a53e fa27 41bf 7d8d 1f3d
00000310: 5bb8 703e c5f7 f2be 517a 343e 80b7 d33d
00000320: c0fd 283f a4cb dd3e 7b39 e53d 9b9e 93be
00000330: 7035 ce3e 2caf 92be b063 72be 1f0b 33be
00000340: 093a ddbe a019 6a3e 685f 05bd 4a45 aebe
00000350: 4375 433e 8605 8d3e 0a6e e73e b914 b3be
00000360: 3f70 3bbe 088e 153e 0fa7 c7be ab91 a53c
00000370: 7956 eebe 2104 893e 21de edbe b990 5cbd
00000380: 497b 7c3d 10ba d5be 27a2 dfbc 40f5 eb3d
00000390: f596 10bf 585f f23e bd09 b1be 94c7 523e
000003a0: f0a3 f4be 90b9 15bd 83f4 643c 9844 cebd
000003b0: fcbf 8f3e 1754 7a3e f66b 1f3e 0ea6 fdbd
000003c0: da1d 0c3d 0656 1a3f a0c1 93bd 5faf 9ebe
000003d0: 6988 793d a484 27bf 9fcb eebd 7b7f f5be
000003e0: 22e2 7b3e db3d aebd 9947 3cbf 89df 543f
000003f0: 5972 15be bd74 29be 2e2f 183e 6200 fabd
0.038117837 -0.031041283 0.7109301 -0.2242066 -0.09585638 0.50959927 -0.42440858 -0.20279117
-0.41249675 0.43832043 0.6307374 0.33670565 0.138003 -0.07755541 -0.427763 0.42075795
0.5160406 -0.5118107 -0.27371657 0.04147107 0.018016797 0.12528759 0.06912981 -0.042543884
0.4542484 0.46575972 0.025871055 -0.0038834398 -0.029928777 0.41107082 0.39050457 -0.4601311
-0.34431827 0.07073784 -0.32888114 0.5083969 -0.21682642 -0.15020753 -0.31391668 0.055525497
0.24231736 -0.30088955 -0.0063665397 0.4916776 0.019604502 -0.4402585 -0.057680126 -0.18225105
-0.2847971 -0.6282914 0.16646302 0.46569568 -0.42360038 0.5777188 0.5347889 -0.51324207
-0.49119183 -0.018178951 0.046750758 -0.81869274 0.41229257 0.25313956 -0.2633974 0.013495194
-0.029579587 -0.1753883 0.2992246 0.08502879 0.10946442 -0.5121665 -0.51582205 -0.21869963
-0.4118992 0.11525115 0.06971828 0.016043471 0.046428323 0.2854354 -0.58686304 0.2540036
0.4845067 0.24335192 -0.16402118 0.28210577 0.36491358 -0.027029876 -0.09691979 -0.2909667
-0.57738477 0.095053926 0.1092504 -0.13103585 -0.20857617 -0.20740493 -0.048174396 -0.10252462
0.48771292 0.075888805 -0.27324578 -0.13756572 -0.20241964 -0.34722218 -0.03444535 -0.37247348
0.11416145 -0.34826916 -0.49598855 -0.2312218 0.018986529 0.166635 -0.07021056 0.30891797
-0.08970095 0.08598582 -0.48284778 0.32674694 0.22401525 -0.2319497 0.0030675728 0.08156596
-0.29043156 0.858952 0.08454459 -0.098912306 0.6225483 0.40562743 -0.23859876 -0.0059895264
-0.36864915 0.20849593 -0.768091 -0.17469825 0.05055181 -0.05815536 0.006781248 0.44386572
0.26698017 -0.37040418 0.63462937 -0.12289536 -0.31012467 0.009508376 -0.093500316 -0.2797653
-0.24702896 0.06133592 0.32145533 -0.21028684 -0.4199088 -0.09464078 -0.28654224 -0.17794344
-0.19961742 -0.23980176 0.093573615 0.60954684 0.035475627 -0.2432687 -0.07935679 -0.15200244
-0.4058697 0.46261665 -0.14067961 0.2670317 -0.50007546 0.40648627 0.3768712 -0.64303154
-0.12151592 -0.11200122 0.1292915 -0.70980304 -0.08521532 0.25738624 0.17201203 0.31398582
0.020384476 -0.32888365 0.34703872 -0.49742416 0.35587022 0.09886912 0.12921484 0.5252573
-0.1255544 0.19108342 0.028975416 0.23835683 0.24507932 0.026912216 0.11269069 -0.3114021
-0.23306653 0.32360187 -0.75451624 0.038953293 0.23507826 -0.47454658 0.17624785 0.10337734
0.6601219 0.43319428 0.11192604 -0.28831944 0.40275145 -0.2864927 -0.2367084 -0.17484711
-0.4320834 0.22861338 -0.03256169 -0.34037238 0.190877 0.27543277 0.4520114 -0.34976748
-0.18304537 0.14604962 -0.38994643 0.020211061 -0.46550348 0.26760963 -0.46458533 -0.053848956
0.06164101 -0.41743517 -0.027299 0.11521387 -0.5648034 0.47338367 -0.34577742 0.20583946
-0.47781324 -0.03655392 0.013974312 -0.10071677 0.2807616 0.2444614 0.15568528 -0.12385188
0.034208156 0.6028751 -0.072146654 -0.30993173 0.060921106 -0.6543677 -0.116599314 -0.47948822
0.24597982 -0.08507892 -0.7354675 0.8315359 -0.14594401 -0.16548438 0.14861748 -0.12207104

lin1.bias f4 [1024]
00000000: e935 81be 9a18 9fbd 8122 453d dae7 04bc
00000010: 4c9a 4cbd 7815 46bd 5736 0dbe d8bd 6dbe
00000020: 4eb4 44be 0504 6dbe ecbe 9f3e 989e 2cbe
00000030: a9e2 76be 1a6a b23e 2589 913e e444 56bd
00000040: b331 c43d bf3d 0cbd 9bb4 793c 6da0 0fbd
00000050: 33b4 033f f486 9a3d 6c7c 75bc 5e5b 2c3e
00000060: f015 4a3d 33a0 73bd f6de 2cbc 6e59 2bbb
00000070: 8524 b73e 71f1 fb3d 860f ed3e 324d 5fbd
00000080: ed94 9b3d 1768 ba3c 153a 09be 2c7c 43bd
00000090: 5cfd 8e3e 62ff 3c3d de04 a63d ecb4 3fbc
000000a0: 8db8 a8be d5b5 0dbd 94f5 6d3e 599e d43e
000000b0: 5c39 b03c e7f9 1cbd 1191 6bbd 6c8a ee3b
000000c0: e9b9 4abd 65f9 1dbb 3882 263e f8c7 a73c
000000d0: 4a3d 4f3d 0e20 143d 64f9 603b c8a5 d03d
000000e0: 1441 213b 1cfa bfbb 803b adbb 04cf bfbc
000000f0: 7987 f63c 0eb6 d7bc 3a93 0dbb b838 473e
00000100: 210a 0ebe 5327 32bd ea50 4dbd d6e9 773b
00000110: 613d a6be 07c6 803c f571 a1be 7671 753c
00000120: 6166 8d3e 92a4 f5be 79c7 933e e500 293d
00000130: 2456 f5bb f2b7 25bd 847c 3bbd 1745 1b3d
00000140: d8a7 0fbc 707c f9be e3b3 a03d 097c 263f
00000150: 69ef e3bd 35bf 893b 033a 08bd d8d5 bc3c
00000160: 86b9 38be 63e1 aebe 062b 6b3d 3f70 a13d
00000170: a9be 8dbc ea87 35bd f30f 18be 6751 093e
00000180: b360 cd3d 86de 803d f526 0ebc 0761 3ebd
00000190: 518d 153e a2a0 293e c3eb 343e ef96 743e
000001a0: 4b76 e1be 4376 0f3f 3d1f 1f3d a884 4fbd
000001b0: 2248 d93e 002c e03d 5c43 ff3c 47ac 87bd
000001c0: 91a0 00be dff9 bd3e 319f 4dbe edba ba3d
000001d0: 8405 a13d 23cc 86be adb4 d93d de43 fb3e
000001e0: 96c3 5c3e bed6 313e 46c1 3d3e 5c95 f0bd
000001f0: a09a 29be fcfe 09bc 5070 ebbb 2f9a 3fbd
00000200: 074d 9abe 965e fd3d a9fa cebe 69c8 3ebe
00000210: b0e0 b1bc 3c3a 3dbf c554 bbbd af46 6bbc
00000220: f9fe 2bbd 27d7 843c d67c 9bbe ff4b d83c
00000230: 8489 0e3c aece c9be eda6 48bd 2125 9d3e
00000240: b8a1 ac3e 93ea 123d 7737 94bd 2f03 34bb
00000250: 6e05 eabb 6688 9d3d e0b0 fcbc acd7 fbbc
00000260: 72ae 063e eebb 16be f390 77be 363a b2bc
00000270: 4962 283e cb64 87bd ceb9 123e b585 41be
00000280: 32d2 983d dfa8 543b f2c7 82be d558 c8bc
00000290: cca6 d0bd ec44 92bd e9c1 233e 5ad7 04bf
000002a0: 12bb 0bbd fe4a d0be 762d 023f 6cc5 b7be
000002b0: d468 d7be 9507 8a3d 1327 923e d782 4dbe
000002c0: a29b 88be b90d e63c ce02 26bf e352 8fbb
000002d0: 78ec 253f b89a 3f3d bbed 423e c506 0dbe
000002e0: b781 ef3d 5789 01bf cdd9 143d 27e0 17be
000002f0: d79a e3bc e01f 0dbe 6143 0a3f 47d9 9d3d
00000300: 9ebe 58bd 1f7a 68bd 61f4 083f fce5 f7be
00000310: b406 5cbe f98e a53e a4c7 493d 5d03 6fbc
00000320: 757f 89be fc01 74bd 5597 46bd 93ce 3f3d
00000330: 9c60 343b 64c3 7b3e ade9 ae3d a98d d1bd
00000340: 782d 07bf 7d3c 6cbe c894 c4bd acb8 da3c
00000350: 3e89 cbbc 524f de3b e0c2 603e 178a 183c
00000360: 6e83 9dbc 9fb8 453d 6893 093b cd2d cebe
00000370: 112c b9bd f5c9 0bbf 30e0 c2bc 3c32 9f3c
00000380: f5a7 113e deec 60be 8086 bd3c 4651 813c
00000390: ca42 553e df5e 36be 836b 4bbd 5581 6cbc
000003a0: 4a52 80be 9a61 093e 456b cc3d f9c0 b43d
000003b0: 29f1 2a3d 08d1 bc3a f6f5 383f c5ba f23b
000003c0: e894 f4bb 0419 d5bb 0648 3a3e 78d0 d13d
000003d0: 4aa5 c2be 4d70 02bd d571 a2bd 8d3a 56bd
000003e0: 1ef8 8b3d 312d 6cbd a9e1 303d fd76 f23d
000003f0: 756e 06be 7885 19bf 2396 d53e c358 e7be
-0.25236443 -0.07768364 0.04812861 -0.008111918 -0.049951836 -0.048360318 -0.1379026 -0.23216951
-0.19209406 -0.23146065 0.3120035 -0.16857374 -0.24109901 0.34846574 0.28424945 -0.052311793
0.09579792 -0.034238573 0.015240814 -0.035065103 0.5144684 0.075452715 -0.014983278 0.16831729
0.049337327 -0.05947895 -0.010551205 -0.0026145834 0.3577005 0.12301911 0.46300906 -0.05451698
0.07596765 0.022754712 -0.13401063 -0.04772584 0.27927673 0.04614199 0.08106397 -0.01170085
-0.329533 -0.034597237 0.23238212 0.4152706 0.021511726 -0.038324263 -0.057511393 0.0072796848
-0.049493704 -0.002410495 0.16260612 0.020481095 0.05059556 0.036163382 0.0034328336 0.1018787
0.002460544 -0.005858673 -0.005286634 -0.023414142 0.030093895 -0.026331928 -0.0021602646 0.1945523
-0.13871051 -0.043494534 -0.050125994 0.0037828586 -0.32468703 0.015719427 -0.31532255 0.0149806645
0.2761717 -0.4797712 0.28863123 0.04126062 -0.0074870754 -0.040458627 -0.045773044 0.037907686
-0.008768044 -0.4872775 0.07846811 0.6503301 -0.11129648 0.004203702 -0.03325845 0.023051187
-0.18039522 -0.3415633 0.057414077 0.07882737 -0.017302828 -0.04431907 -0.14849834 0.13409959
0.100282095 0.06292443 -0.00867628 -0.04647925 0.14604689 0.16565183 0.17668061 0.23885702
-0.44035563 0.5603983 0.03884815 -0.05066362 0.42437845 0.10945892 0.03116005 -0.06624656
-0.12561251 0.371047 -0.20080258 0.091176845 0.0786238 -0.2632762 0.10630164 0.49075216
0.21558985 0.17367074 0.18530759 -0.11747238 -0.16562891 -0.008422609 -0.0071850196 -0.0467779
-0.30136892 0.123715565 -0.40425614 -0.18631138 -0.021713585 -0.73916984 -0.09147028 -0.014360114
-0.041991208 0.016215874 -0.3036868 0.026403425 0.0086997785 -0.39415497 -0.048987318 0.3069239
0.33717132 0.03586824 -0.072371416 -0.0027467718 -0.0071417606 0.076920316 -0.03084606 -0.030742489
0.13152483 -0.14720127 -0.24176387 -0.021756273 0.16443743 -0.066110216 0.14328691 -0.18898661
0.074619666 0.0032449288 -0.2554317 -0.02445642 -0.10188064 -0.07142052 0.1599194 -0.518911
-0.03411395 -0.40682214 0.5085062 -0.35892808 -0.42072165 0.067397274 0.28545436 -0.20069443
-0.26681238 0.028082715 -0.6484803 -0.0043738945 0.6481395 0.04677841 0.19036 -0.13772114
0.11694663 -0.5060019 0.036340524 -0.14831601 -0.027783794 -0.1378169 0.5400906 0.07707458
-0.05291616 -0.05675709 0.5349789 -0.48417652 -0.21486932 0.32335642 0.049262658 -0.014588204
-0.26855054 -0.059572205 -0.048484165 0.046827864 0.0027523404 0.24586254 0.08540664 -0.10232098
-0.52803755 -0.2306995 -0.0959869 0.026699387 -0.024845716 0.006784358 0.21949339 0.009310267
-0.01922771 0.04827177 0.0020992402 -0.40269318 -0.09041608 -0.54605037 -0.023788542 0.019433133
0.14224227 -0.21965358 0.023135424 0.015785825 0.2082626 -0.17809628 -0.049663078 -0.014435132
-0.25062782 0.13416138 0.099813975 0.08825869 0.041733894 0.0014405558 0.72250307 0.0074075186
-0.00746404 -0.0065032262 0.18191537 0.102448404 -0.3801673 -0.03184538 -0.07931868 -0.052301932
0.06834434 -0.057660285 0.043183956 0.118391015 -0.13128074 -0.5996928 0.41716108 -0.45184907

lin2.weight f4 [98, 1024]
00000000: c9cf 043e d85e b03b 90bb 033c 9ee4 91bb
00000010: 7e06 54bb 0c75 03bb 4e6c b9bb 3557 6d3d
00000020: 9689 ea3d 73a1 9dbc b563 143d 600f b7bd
00000030: 0b92 aa3d 7140 4abd f294 dabc 2eda 403c
00000040: 096e 43bd 5fe9 b03b 3673 8b3b 79b0 d43c
00000050: a6e7 953c 11fa 973c ddd2 1abc 65ff 7cbc
00000060: 1d59 1bbc e97d 113b 1726 5b3b f2c8 2a3b
00000070: 74a1 90bd 9eff 0abe fd70 b8bc b1af be3b
00000080: 44ee a9bb f689 c8bb b047 28be f8b4 58bc
00000090: 27b7 1e3e 2a9d a9bd dc5a ef3d 9e1c 3f3b
000000a0: 1982 4b3b 19ff fcbb 07e0 8e3b 594e cfbd
000000b0: 7191 103c e2e7 963b a4e6 d8ba 7bff ab3b
000000c0: e1b0 883b 4f78 1dbc c787 ce3d 5771 093b
000000d0: e5fd c63b b9b2 8a3b 4fa7 7f3b a733 fe39
000000e0: 02f1 43bc 17eb 493b d173 c03b fa8f 1dbf
000000f0: 4dc7 df39 8f68 7abc 0da4 85ba 1057 79bd
00000100: cba1 383d 4f35 a4bb 7d3d aebb 2399 5c3b
00000110: b85a 38be 5265 81ba ad10 df3c 7a95 f4bb
00000120: 2799 d6bb 121c 88be 864b 173c 71ff feba
00000130: 0431 64bc dffe e93b 9984 233d 8605 793a
00000140: 8119 15bc 0fc7 653e 7f76 9dbd 05d2 09be
00000150: 49cc 973d 2a2d 0f3b 26c2 943a bec6 8c3b
00000160: d573 a93d ae77 2f3d 2471 b9b9 e284 b33d
00000170: 7ceb 11be d95f 0ebc e58e 843d 9d6c 95bb
00000180: d7af 183e a6c2 bdbb de38 15bb e77b d63d
00000190: c21e d93d 58d1 3bbd 9972 24bd 418f 263e
000001a0: def7 073e acd5 6f3e 87fd 033c f969 1ebb
000001b0: bfcb 4f3e b490 a03c 1c0c 803b f8f2 f23b
000001c0: e11f af3c fd40 203b c9e6 813d c51a 7abd
000001d0: bd0b 16bb 5031 bebc a187 1e3d d415 e13d
000001e0: d792 8dbc 54b4 86bc e8a6 babd 36aa 663d
000001f0: 2d2b 1c3c 9d24 37bb 206f 3abb 2643 91bb
00000200: ef3b 3bbe d2bc 15be acc9 9ebd 4f0e 933c
00000210: 53b8 6d3d 0960 65bd 7194 fe3d 4bb4 97bc
00000220: eca8 093c 02df 05bc cba9 ea3c d9c9 3c3a
00000230: a375 923a 878f a7bd 453c 8c3c 6655 39bc
00000240: ecfb ba3b 20d9 593c e15f 113d f671 0e3a
00000250: 3ac6 8fbc a798 35bc eebe 6e3d 4a6d ae3b
00000260: 2d93 c1bd 41d6 e43d 476e 9e3d 1523 393c
00000270: 4c29 70bd f6ec 18bc e9ea 373e a96a 463a
00000280: afe0 5239 56de f83b 1298 74bc 6f9c 8bbc
00000290: 3a11 1aba 85d8 b5b9 7108 3dbe 2485 cbbd
000002a0: d241 e0bb 627a 87bd 8b55 1e3e e977 6bbd
000002b0: 6d0c 1cbd 003c d93b 662c 8dbd b05e 3ebd
000002c0: 9d53 e23c 64c4 7c3a 6841 18be becd 9d3a
000002d0: ec13 c03d b8d4 8db9 15c5 063d fa22 4fbc
000002e0: ca31 903c 74f6 b7bd 29dd e339 c80e 13bc
000002f0: e814 eb3b f342 1abb a3b2 9f3d 8887 bfba
00000300: c295 693c acd2 bebd 01e9 1bbd 8581 17be
00000310: 7470 6cbe 636c f1bd 6498 5bba 453a 7e3b
00000320: c0a1 77be cb3f 09bc f3d9 98b9 1642 123c
00000330: c156 833b ffca 533d 6b31 18bd 0eaf 4cbe
00000340: 9723 41bd e5da 06bd 1c64 59be 9ebc 82bc
00000350: 8fae 6dbb 5e40 4c3c a783 dc3c 7c39 7ebb
00000360: ce16 adbb 864e 3c3c 962c 233c 0b3a b7bd
00000370: fb22 e43d 66aa 6bbe 6f18 af3b a93b 993c
00000380: e0f1 493d 245a efbd e8b1 8f3c 1732 8f39
00000390: 7be5 53bd cf32 4a3e 6caf 013b f528 2ebc
000003a0: ec45 53bd fce0 cb3b a1ec bc3b 4ec1 643e
000003b0: d7aa b9bb 10cd f9bc 1ad4 9e3c 3ac0 c3ba
000003c0: 1682 31bc 7fc5 3fbd a225 03bd de8b 15bd
000003d0: 7384 23bd 7278 dbbb 3ded 87bc 6f2d 223c
000003e0: c86b af3a 5cff 55bc b35a e73a 9ac6 123d
000003f0: 6466 00bc 1900 39be 5f26 3cbc 4774 013e
0.12969889 0.0053824 0.008040324 -0.004452302 -0.0032352502 -0.002005878 -0.005658663 0.057944495
0.11452024 -0.019242024 0.0362279 -0.089384794 0.08328637 -0.049377862 -0.02668235 0.011770768
-0.04771236 0.0053989138 0.0042556776 0.025963055 0.018298935 0.018551858 -0.009449688 -0.01544175
-0.0094816955 0.0022200292 0.0033439451 0.0026059714 -0.07062045 -0.13574073 -0.022514815 0.005819284
-0.005185874 -0.006119962 -0.16433597 -0.01322674 0.15499555 -0.0828193 0.11687252 0.0029161344
0.0031052886 -0.0077208397 0.0043602022 -0.101223655 0.008823738 0.0046052793 -0.0016548228 0.0052489615
0.0041714762 -0.009611203 0.10084491 0.0020972097 0.006072747 0.004232731 0.0039009636 0.0004848514
-0.011959316 0.003081029 0.0058731814 -0.61547816 0.00042682365 -0.015283718 -0.0010195986 -0.060874045
0.045076173 -0.0050112377 -0.0053173886 0.0033660613 -0.18003356 -0.0009872115 0.027229631 -0.007464108
-0.006549019 -0.26583916 0.009234315 -0.001945479 -0.013927702 0.0071409787 0.039921377 0.0009499419
-0.009100319 0.22439216 -0.07688617 -0.13459022 0.07412011 0.0021846988 0.0011349365 0.004296153
0.08274046 0.042838745 -0.00035370246 0.0876558 -0.14249986 -0.008689844 0.064725675 -0.004560067
0.14910828 -0.005791026 -0.0022769491 0.10472851 0.1060157 -0.045853943 -0.04014835 0.16265585
0.13278148 0.23421353 0.008056051 -0.0024172051 0.20292567 0.01960025 0.0039076935 0.007414218
0.021377506 0.0024452799 0.06342847 -0.061060686 -0.002289518 -0.023216873 0.038703565 0.109904915
-0.017281933 -0.016443409 -0.09113866 0.05631467 0.009531778 -0.0027945407 -0.0028447583 -0.0044330535
-0.18284582 -0.1462281 -0.077533096 0.017951159 0.058037113 -0.05599979 0.12430657 -0.018518588
0.0084020905 -0.008170845 0.028645417 0.00072017085 0.0011173974 -0.081816725 0.017118583 -0.0113118645
0.005706301 0.013296396 0.035491828 0.00054338516 -0.017550576 -0.011083758 0.058287553 0.005323087
-0.094519 0.11173678 0.077358775 0.011299868 -0.058633134 -0.00933384 0.17960705 0.0007568994
0.00020110862 0.007594864 -0.0149288345 -0.017042367 -0.0005877201 -0.0003468433 -0.18460251 -0.09937504
-0.006843784 -0.066151395 0.1546232 -0.057487402 -0.038097788 0.006629467 -0.06893234 -0.04647702
0.02762776 0.00096423016 -0.148687 0.0012039465 0.093788 -0.00027052104 0.032902796 -0.012642616
0.017601866 -0.08982554 0.0004346159 -0.008975692 0.007174123 -0.002353844 0.07797744 -0.0014612535
0.014256896 -0.09317526 -0.038064007 -0.14795502 -0.23089772 -0.11788251 -0.0008376895 0.0038792056
-0.24182796 -0.008377026 -0.00029154084 0.008926889 0.0040081446 0.051707264 -0.037156504 -0.19988653
-0.04715308 -0.032923598 -0.21229595 -0.01595908 -0.0036267375 0.012466518 0.026918245 -0.0038791588
-0.0052822595 0.011493331 0.009959361 -0.08946618 0.111394845 -0.2301422 0.005343489 0.018705206
0.049302936 -0.11687115 0.017540887 0.00027312405 -0.05173252 0.19745944 0.0019788397 -0.010629882
-0.051580355 0.0062218886 0.005765513 0.22339365 -0.0056661176 -0.03049329 0.019388247 -0.0014934607
-0.010834238 -0.046819206 -0.03201831 -0.03651034 -0.039921235 -0.006697708 -0.016592616 0.0098985275
0.0013383562 -0.013061371 0.0017650932 0.035833932 -0.007836912 -0.18066444 -0.011483758 0.12642013

lin2.bias f4 [98]
00000000: 14d5 59bd f9c3 be3e d073 75be fbed 13bf
00000010: bde8 83bf 1213 82bf 56e3 bfbe 5b1f efbe
00000020: 1ae8 e6be 2eb7 03bf 528b a6ba 1eda c6be
00000030: 5517 aa3d ca4c 82bf 4690 0fbf 02f4 68be
00000040: 9ed6 93be 2489 bbbe b8c6 7abe 3142 aebe
00000050: c597 98be 43c6 92be 92de b2be 3360 7abe
00000060: 9e0d 81be 4fc8 e8be 500a 77be 023c d93d
00000070: 5610 e1bd f9fd 02be cf9d 53be 560d b1bd
00000080: c7b7 48be 8cbf 85be d93b 553c 50ed dd3d
00000090: e4e5 a1be d782 cabe 528a 80bd 8481 d0bd
000000a0: d442 25be 37d8 f1bd cf2a eebd 12be bfbe
000000b0: f04e 683a 0372 9abd 48f0 aabc 9666 d6be
000000c0: e3e0 c6be e494 63be 8213 e5be eba1 fbbd
000000d0: 26be bbbe c3d0 fcbe dbf9 adbf b57e 3cbe
000000e0: 0fe8 333e 0836 c4bd 2fe7 723c 1b5e 18bc
000000f0: eddb 593e 6f9a fcbd 2996 1cbe 5558 3bbc
00000100: af5c fe3d b7ca e5be ed02 98be 1a14 0c3d
00000110: bec7 e4bb d522 a63d 2ccc 553e d4dc dfbd
00000120: f654 febe edda e73d 60ee 113e b4c8 063e
00000130: 7531 ebbd b582 18be d644 94bd 3eec adbe
00000140: bbef 66bd d6b1 e1be ae33 a7be c1d2 cebe
00000150: 656f f1be 532c 12bf 766e fdbe cde0 90bf
00000160: 62bc 0fbf ea32 debe 769f 6dbe b3e7 22bd
00000170: 0fda e93c 367f d6be d446 a6be 7f2a 82bf
00000180: 16cf 86bf f250 83bf
-0.053181723 0.3725889 -0.2396996 -0.57785004 -1.0305401 -1.016207 -0.3747813 -0.4670361
-0.45098954 -0.51451385 -0.0012706316 -0.38838285 0.083052315 -1.0179684 -0.5607952 -0.22749332
-0.28874677 -0.36628067 -0.24489868 -0.34034875 -0.2980329 -0.28666887 -0.34935433 -0.2445076
-0.25205702 -0.45465323 -0.24125028 0.10607149 -0.10989444 -0.12792195 -0.20665668 -0.08645122
-0.19601355 -0.261227 0.013014757 0.108362794 -0.31620705 -0.39552948 -0.062763825 -0.10180953
-0.16138774 -0.11808818 -0.11629259 -0.374497 0.000886186 -0.07541277 -0.020866528 -0.41875142
-0.3884345 -0.22224766 -0.44741446 -0.12286743 -0.3666851 -0.49378023 -1.3591875 -0.1840771
0.17568992 -0.09580618 0.014825626 -0.00929978 0.21275301 -0.12334143 -0.15291657 -0.011434634
0.12420022 -0.44881222 -0.29689732 0.034198858 -0.006981819 0.081121124 0.20878667 -0.109307915
-0.49674195 0.11321054 0.14251089 0.131625 -0.114840426 -0.14893611 -0.07239692 -0.339693
-0.05638097 -0.4408099 -0.32656616 -0.40395167 -0.471553 -0.57098883 -0.49498338 -1.1318604
-0.56146824 -0.4339822 -0.23205361 -0.039771747 0.028546361 -0.4189393 -0.32475913 -1.0169219
-1.0531948 -1.0259078
