models/1_context_2_embedding_32_activation_1.pt (torch, 683290 bytes, 5 tensors)

emb.weight f4 [98, 32]
000000 22 ac 48 bf 08 b3 83 be 57 b7 1c be d6 41 76 bf
       -0.78387654 -0.25722528 -0.15304314 -0.9619421
000010 9f 61 19 3d 7b f2 84 be 0f 63 c3 be 73 42 43 bf
       0.037446614 -0.25966248 -0.38161513 -0.7627327
000020 99 fa 61 be 47 63 76 3d ce 84 1e be ea f2 a2 be
       -0.22068252 0.060153272 -0.15480348 -0.31825954
000030 77 06 9a 3e 9b 4a 2a 3f 81 20 7b 3e 81 07 c7 3d
       0.30083057 0.6652009 0.24524118 0.09718228
000040 ef c1 14 bf 23 32 09 bf b3 e2 fa 3e 3f a2 f9 3c
       -0.5810842 -0.5359213 0.49001083 0.030472873
000050 ea ce 14 3f 20 ab 11 3e 77 70 82 be f6 1c c5 3e
       0.58128226 0.14225435 -0.2547643 0.38498658
000060 d2 15 07 3f 82 24 18 3d 7b 75 6d bf ed fa 4c bf
       0.5276767 0.03714419 -0.92757386 -0.8007038
000070 2e ef 9f 3e 23 7a f0 be 82 f3 54 bf 49 35 bc 3c
       0.31237167 -0.46968183 -0.83184063 0.022974627
000080 79 e0 34 3f cc ad a5 3b 75 f0 a9 3d e1 04 54 be
       0.7065502 0.0050561186 0.08297817 -0.20704986
000090 9c 75 0b 3e ba f2 96 3c a2 32 ac bc f9 4d fd bd
       0.13619083 0.018426288 -0.021020237 -0.12368388
0000a0 20 03 cd bd 0d ef ce bd f1 8b 11 be b2 d9 54 bd
       -0.10010362 -0.10104189 -0.1421354 -0.051965423
0000b0 c4 2a 59 3f c2 90 27 be 06 ad 3a 3f cc ac cd bd
       0.8483088 -0.16363814 0.7292026 -0.10042724
0000c0 23 b0 3c be 12 c9 4d 3d 7d 3c 9d 3d 82 08 2e bd
       -0.18426566 0.050240584 0.07677553 -0.042488582
0000d0 04 1b 08 3e f9 71 02 3e 97 59 d4 3e 1d b3 f1 3e
       0.13291556 0.1273879 0.41474602 0.47206965
0000e0 85 64 26 3e 1e 93 0c 3e e4 69 9b bd 60 1e 8f be
       0.16249283 0.13727996 -0.075885564 -0.27952862
0000f0 e6 12 0b 3f 1d 07 88 be 57 c4 ae bf 60 67 05 be
       0.5432571 -0.26567927 -1.3653668 -0.13027716
000100 f3 ca 5c be 41 5e 87 bf a6 72 ab 3e 92 f5 d3 be
       -0.21561794 -1.0575639 0.33485907 -0.41398293
000110 48 78 9d 3e 28 89 b8 bd 54 9e 96 3f 85 5d 03 bf
       0.3075583 -0.090105355 1.1767068 -0.51314574
000120 6e f5 d1 be 2f 3e 84 3e 21 c8 63 bf 52 a5 66 bf
       -0.4100756 0.25828692 -0.8897725 -0.9009601
000130 dd 8d 08 bf 7a 6e a9 bc 7f 5c 90 3e d4 14 ad bf
       -0.53341466 -0.020682562 0.2819557 -1.3521981
000140 31 d5 08 bf 87 24 d3 be c5 6f 26 bf a2 2f 2b 3f
       -0.53450304 -0.41238806 -0.65014297 0.66869557
000150 f4 0f 5b bf 6a e0 98 3d cb 71 29 3f f2 7c 63 be
       -0.8557122 0.074646786 0.6618926 -0.22215632
000160 cf 12 56 be 0d 71 27 3e 02 0c dc be 27 fc 5d 3f
       -0.20905612 0.16351719 -0.4297791 0.8671288
000170 af d0 ce be c6 8f 0f be df c2 fa 3d 34 d5 88 3e
       -0.40393588 -0.14019689 0.122442 0.2672516
000180 0d 48 a0 3f 80 84 7c 3f 48 00 04 3f e0 15 83 bf
       1.2521988 0.9863968 0.5156293 -1.0241051
000190 19 2e 30 40 70 78 4c bf 75 8d 01 c0 27 f1 13 3e
       2.7528136 -0.79871273 -2.0242589 0.14447461
0001a0 db 69 85 bf 19 82 67 3f c9 ee d9 bf b1 af 25 be
       -1.042293 0.9043289 -1.7025996 -0.16180302
0001b0 ae 05 3f c0 ab 5f 85 bf cb b5 a4 3f 6c 0b 1a 3f
       -2.9847217 -1.041982 1.2867979 0.6017368
0001c0 44 8c 71 bf a8 d9 2a c0 57 af a3 3f 56 72 28 3f
       -0.94354653 -2.6695347 1.2787884 0.6579946
0001d0 2a 5a f9 3f 5a 46 da be 58 7d 61 bf 5f 96 ca 3f
       1.9480641 -0.426318 -0.88081884 1.582714
0001e0 d2 67 d0 3f c8 72 c6 3f 7a f1 b6 3f 20 2d f1 3e
       1.6281683 1.5503778 1.4292443 0.4710474
0001f0 96 ba 58 c0 b8 47 78 40 fe 6e 0d c0 4b 14 b7 3e
       -3.3863883 3.8793774 -2.2098994 0.3575767
000200 87 5d 36 3f 97 64 e3 bf be 2d b5 3e ed 8c 99 3f
       0.7123646 -1.7765073 0.3538646 1.1996132
000210 7a 22 9b be 07 84 e1 bf 2c 85 22 3f 7a ea 4d bf
       -0.3029974 -1.7618417 0.63484454 -0.8043591
000220 e9 38 ce bf 03 91 ef bf 88 07 0b 3f 3c 22 29 3f
       -1.6111118 -1.8716129 0.54308367 0.6606786
000230 bf e4 12 40 a3 c6 2c 3f 1f 4e db 3f c0 aa e5 bf
       2.2952116 0.67490596 1.7133216 -1.7942734
000240 89 7f ae bf 48 b4 7b bf 30 71 c1 3f a6 51 24 3f
       -1.3632671 -0.9832196 1.5112667 0.64187086
000250 50 28 f2 3e 29 70 db be 9d 26 0d 3f 40 10 c6 bf
       0.4729638 -0.4285901 0.55137044 -1.5473709
000260 04 a3 04 3f 35 2f da 3d ed d9 89 3e fe 91 a9 3f
       0.5181124 0.10653535 0.26924077 1.3247678
000270 8e 7d df 3f a0 6f ed 3f 9f d4 34 bf 4d a7 23 40
       1.7460191 1.854969 -0.70636934 2.5570862
000280 0e c7 d5 3e dc d2 59 be 76 07 57 bf 96 0c d7 be
       0.4175343 -0.21271843 -0.8399576 -0.4200179
000290 d8 c0 1f bf 16 30 7a bf b2 f5 5f 3f 78 be 7c 3f
       -0.6240363 -0.97729623 0.87484276 0.9872813
0002a0 ca 80 9e 3e f9 a5 c2 3f 1b 45 9a 3f 49 65 e8 bf
       0.30957633 1.5206901 1.2052339 -1.815591
0002b0 85 92 ce be 86 8a 75 bf 61 a5 aa bb 3d 83 a1 bd
       -0.4034616 -0.95914495 -0.005207703 -0.0788636
0002c0 ba f9 57 3f b3 35 95 3f 07 e5 06 3f b1 43 cf 3f
       0.8436543 1.1657013 0.5269322 1.6192533
0002d0 26 c7 76 bf c1 ea 10 3e bc 96 27 be f3 68 b7 be
       -0.96397626 0.14152052 -0.16366094 -0.35822257
0002e0 a6 73 dc 3f 43 6e 9b be 70 9b 74 3e 3b 08 ac 3f
       1.7222793 -0.3035756 0.2388742 1.3440012
0002f0 ff 67 d3 3d 68 d8 8c 3f b5 f0 ae be cd 84 72 3f
       0.1032257 1.1003542 -0.3416802 0.9473389
000300 ed 79 12 c0 96 01 a7 be db 6b 27 40 04 91 e6 3d
       -2.2886918 -0.32618397 2.615958 0.11258128
000310 7a 6c a3 3e f9 99 c6 bf 24 9a 54 c0 54 e9 6f bf
       0.319187 -1.5515739 -3.321908 -0.93715405
000320 ad d6 4c bf 13 2e 88 be 1c 85 1d c0 92 d8 1e 3e
       -0.8001507 -0.26597652 -2.4612494 0.15512303
000330 5f 0c fa bf c5 d8 b6 3d 49 3a 73 3f d2 77 ac 3b
       -1.9535025 0.08928064 0.9501081 0.005263307
000340 6e 60 21 3f 80 78 50 bd 0a 83 9f bf dc ec b4 3f
       0.63037765 -0.050896168 -1.2461865 1.4134784
000350 f5 8b 81 3f fb 06 41 40 e1 4f 2b 3f 9a 17 5f be
       1.0120836 3.016051 0.6691876 -0.21786347
000360 02 9b c1 bf a5 25 0f 40 3c 3e 9c 3f 66 63 b4 be
       -1.512543 2.2366726 1.2206492 -0.35232085
000370 e5 82 67 3f 0b 9b f2 be a0 49 e1 3f 18 c2 c9 3f
       0.90434104 -0.47383913 1.7600594 1.5762358
000380 14 d5 01 40 c2 6e 11 bf b2 de bd 3e a3 80 94 bf
       2.0286303 -0.5680963 0.37083966 -1.1601757
000390 c4 ba 22 3e 88 6d c3 3f 38 8b 70 bf b5 47 2a bf
       0.15891558 1.5267801 -0.9396243 -0.66515666
0003a0 2d 08 5c be eb 67 12 bd 38 d6 be be e3 93 58 bf
       -0.21487494 -0.035743635 -0.3727281 -0.8460066
0003b0 99 22 ed 3f 68 33 00 c0 a5 f4 17 be f6 a1 e5 3e
       1.8526183 -2.0031376 -0.14839418 0.4485013
0003c0 3f 25 85 bf a4 c1 a1 3e 46 d7 76 3d a4 d7 99 3d
       -1.0401992 0.3159305 0.060263894 0.07511833
0003d0 47 d6 3e bf 66 de a2 bf 99 bd 77 bf 51 df 0d 3e
       -0.7454571 -1.2724121 -0.9677368 0.1385472
0003e0 d6 ac 68 bf c1 35 a2 3f de 84 1a bf 5a db f0 bd
       -0.90888727 1.2672654 -0.6035899 -0.11760588
0003f0 fe e1 94 be 84 51 ea bf 41 58 7d bf 7f 77 b5 3b
       -0.29078668 -1.8306127 -0.9896279 0.0055379267

lin1.weight f4 [1024, 64]
000000 62 dc 82 be 04 3c 9e be 65 86 c8 bd 76 ea 9c 3e
       -0.25558764 -0.30905163 -0.09791259 0.3064763
000010 c8 11 63 3e 10 df 87 3e c3 19 84 3e c5 e3 ec 3d
       0.22174752 0.2653737 0.25800905 0.11566881
000020 41 c1 28 3e 32 93 b8 bc bd 9f b3 3e 85 30 81 be
       0.1647997 -0.022531126 0.35082808 -0.2523233
000030 1b cf d3 be bb a0 13 3e 2c 0d 6e be 79 12 74 3c
       -0.41368946 0.14416783 -0.23247212 0.014896982
000040 a6 76 92 3d 8b 56 8a 3e 6c 54 e5 3e 2a 25 1c be
       0.07151537 0.27019152 0.4479097 -0.15248552
000050 aa 13 bb bd 56 36 cb 3e 5b 73 70 3d 40 9d 16 be
       -0.0913461 0.39689893 0.05870376 -0.14708424
000060 dd 10 30 bd de 08 7d 3e ce 62 d0 bd 69 a7 d0 3e
       -0.042984832 0.24710414 -0.101750955 0.40752724
000070 cc 30 a5 bd 71 ee 41 3e 41 87 94 3d 0c f3 54 3e
       -0.08065948 0.18938614 0.0725236 0.2079584
000080 72 9d d3 bd d5 01 de 3d ba 82 37 bf d6 70 cc 3e
       -0.10332765 0.10840193 -0.7168385 0.39929837
000090 5a 9f 84 be 68 4a eb 3e 69 98 37 3e ff b4 93 3d
       -0.25902826 0.45955205 0.17929234 0.07212257
0000a0 c4 6f 8a 3e 63 40 0f 3c 83 1a 39 3e 97 96 01 3f
       0.27038395 0.008743378 0.1807652 0.50620407
0000b0 33 fe 6b be 23 ef 32 3e 85 83 c8 bd a2 a8 ec 3e
       -0.23046188 0.17474036 -0.0979071 0.46222407
0000c0 cc 80 2e 3f 8a fd bf be 7e 8c 48 be 0a 3e 1b be
       0.6816528 -0.37498122 -0.19584844 -0.15160385
0000d0 50 25 61 bd 6c 1f 72 3b d0 f8 d5 bc b8 a0 c6 3e
       -0.054967225 0.0036944998 -0.02611962 0.38794494
0000e0 56 1f 46 bd 54 08 b1 3d 32 87 89 be c4 1e be 3d
       -0.048369728 0.086441666 -0.26860958 0.09283212
0000f0 de bb 31 3d 55 74 a0 3d 61 02 3c 3e 0b 05 74 bd
       0.043392055 0.078346886 0.18360282 -0.05957512
000100 e9 b3 a7 bc 76 21 32 3e f4 43 88 3d 12 2a 42 bd
       -0.02047153 0.17395577 0.06653586 -0.047403403
000110 8d 53 80 bd 30 78 80 be f5 0d bd 3d 84 d7 1b 3d
       -0.06265936 -0.25091696 0.09231178 0.03804733
000120 0a c3 7c bc 8d ce b2 bc ea 9a 61 bb 22 c9 05 3e
       -0.01542736 -0.021827007 -0.0034424611 0.13065007
000130 92 a5 bb 3c 3a f8 67 3e 43 5c be bb b3 4b 4a 3e
       0.022906099 0.22653285 -0.0058093383 0.1975544
000140 02 21 ec bd a0 ed 31 3e a2 12 11 3d d2 ba 9f bc
       -0.11529733 0.17375803 0.03541816 -0.019498263
000150 6e bf 20 be 95 3b 84 3e e2 cb 23 be ea c5 0e 3d
       -0.15698025 0.25826707 -0.15995744 0.034856714
000160 fe 89 a8 bd 31 a2 25 3d 58 0d 97 3c 5a cd 53 3c
       -0.08229445 0.04043788 0.01843898 0.012927378
000170 89 8d 50 be de e2 19 be f7 e9 11 bd f9 07 70 3e
       -0.20366491 -0.15027949 -0.035623517 0.23440541
000180 84 1e aa bb 41 11 59 bc b7 39 bf bd 6e a4 fb bd
       -0.005191626 -0.013248743 -0.0933718 -0.12287222
000190 b9 75 3a bd 76 60 8b 3e 56 64 1a 3e 2c 2f 65 be
       -0.045522425 0.2722203 0.15077338 -0.22381276
0001a0 da fa b7 bd 4a 05 46 3e 1b 2c ee bd 7a 8e 2f be
       -0.08983393 0.19337955 -0.11629506 -0.17144194
0001b0 ab 0a a0 be 50 c9 50 3e ab da 5f be 89 d2 95 3e
       -0.3125814 0.20389295 -0.21860759 0.29262188
0001c0 b6 cf 82 be dd 22 43 3e b6 f7 90 bd d7 1c 1d be
       -0.25549096 0.19056268 -0.07078497 -0.15343033
0001d0 24 fd c9 bc 79 f8 64 be c8 41 62 be dd b3 ec ba
       -0.02465684 -0.2236041 -0.22095406 -0.0018058975
0001e0 3b cb 0d be 75 1e 6b 3e b3 bb 57 be 54 8f 2b 3e
       -0.13847058 0.22960837 -0.21067695 0.16753894
0001f0 c8 b3 d9 3c c8 b7 8a bd 20 49 93 3d 4a c0 28 3d
       0.026574984 -0.06773335 0.07191682 0.041199006
000200 ea 9b ba bc 9d d6 02 be 04 e4 22 be 50 48 67 bd
       -0.022779424 -0.12777181 -0.15907294 -0.056465447
000210 ee 10 0c 3d 0b 57 54 be 05 b7 76 3d e3 c2 34 be
       0.034195833 -0.2073633 0.060233135 -0.17652468
000220 35 5d c9 3d 46 ba af bc 93 52 9d bd 63 e9 08 be
       0.09832231 -0.021451127 -0.076817654 -0.1337028
000230 2a bd 25 be ec 7d c2 3d 07 93 3e be e8 4e bb 3d
       -0.16185442 0.09496674 -0.18610774 0.091459095
000240 14 ee c1 ba 5f d7 73 3e 17 6b 48 3e be 8b bb bd
       -0.0014795684 0.23812626 0.19572102 -0.09157513
000250 68 df 89 bb e7 fb 3c 3e bf 2c 1e bd 0e 65 d6 bd
       -0.0042075403 0.18455468 -0.038616892 -0.104684934
000260 0e 43 ea bc ac 3b d3 3c 98 6a bc bc ee 98 fa 3c
       -0.028596427 0.02578529 -0.023000047 0.0305905
000270 7c 66 17 be 01 1c e9 bd 8c 8f 54 3e e9 e7 86 3d
       -0.14785188 -0.113822944 0.20757884 0.06587202
000280 94 33 51 bc 87 fa 15 be c3 5e 58 be 78 89 0c 3e
       -0.012768645 -0.1464635 -0.21129899 0.13724315
000290 a1 03 53 bc 93 de 23 3e 1c 93 e4 3d 07 a1 44 3d
       -0.012879283 0.16002874 0.111608714 0.04800513
0002a0 15 71 77 3e d9 44 2e bd ba 71 ac bd d4 50 48 bd
       0.24164231 -0.042546127 -0.08420129 -0.04890521
0002b0 58 f4 12 b8 f4 0e 86 3d a9 24 3e be b1 b4 c2 3e
       -3.5036675e-05 0.06545821 -0.18568672 0.38028482
0002c0 af f0 38 3e 51 b6 26 3e 29 22 6a bd 4d 6d f7 3d
       0.18060564 0.16280486 -0.057161484 0.12081394
0002d0 96 25 e7 3b 47 83 28 3d 01 bd 75 be 4c dc 64 3e
       0.007054041 0.04114082 -0.2399788 0.22349662
0002e0 f3 35 62 be 40 1d 64 be ca 7a 89 bd 38 0f 59 bd
       -0.22090892 -0.22276783 -0.06712873 -0.05299303
0002f0 4e a5 80 be 94 c5 a4 bd db b0 6c 3e 60 75 e7 3c
       -0.25126117 -0.080454975 0.2311434 0.028254211
000300 05 b7 81 bc 8c ce d9 3d f0 cc 7f bd 36 54 98 3e
       -0.01583434 0.10635099 -0.062451303 0.29751748
000310 c1 f7 92 bd c5 56 68 3e 55 7f 91 3e ed fd 2f bc
       -0.071761616 0.2268935 0.2841746 -0.010741693
000320 de 66 84 bd 2a 34 48 bd 43 39 c4 3d 84 22 df bd
       -0.06464933 -0.048877873 0.09581234 -0.10895255
000330 7a ed 8b bd 2c c3 a3 3d 27 8f 8b be b8 b7 87 3d
       -0.068324044 0.079962105 -0.27257654 0.066268384
000340 07 af ac 3e 4b 85 cb 3d 4a db 10 be 6f 5e a8 3d
       0.33727285 0.09937533 -0.14146152 0.08221137
000350 72 d7 14 bd b5 92 a3 be ad ed 9b be 73 34 37 3e
       -0.036338277 -0.31947866 -0.3045477 0.17891102
000360 9e d1 f5 3c 33 8b c8 3c a5 e5 17 3e 74 b5 03 3e
       0.03000718 0.024480438 0.14833696 0.12862188
000370 f2 11 b1 be 56 11 59 be bc 1c 0e 3e b6 b1 67 bd
       -0.34584004 -0.2119802 0.13878149 -0.056565963
000380 fa 49 10 3e a8 92 14 be f5 ba 92 be 8f a0 1b 3e
       0.1409072 -0.1450907 -0.28658262 0.15197967
000390 83 da b1 bd fa 95 9a ba 63 a3 80 3c 3b b8 a3 3e
       -0.08684256 -0.0011793964 0.015702909 0.31976494
0003a0 47 2e c7 bb bb 5a 42 bc 6a 03 34 3b d8 1a 1a 3e
       -0.0060785147 -0.011862452 0.0027467855 0.15049303
0003b0 d4 86 83 be 07 26 26 3d f7 e9 01 be 43 79 04 3e
       -0.25688803 0.04056361 -0.12686907 0.12936883
0003c0 30 95 67 bd b8 a1 9e 3c 99 98 f5 3d f4 b8 9c bd
       -0.05653876 0.019364223 0.11991996 -0.076524645
0003d0 2c 86 df 3d 27 bf b8 3a 88 80 00 be ab 99 0e 3d
       0.10914263 0.0014095054 -0.12549031 0.034814518
0003e0 a3 6b 11 bd 10 c4 25 bd a1 bd 81 bd e6 7f 21 bd
       -0.03550304 -0.040470183 -0.06334997 -0.039428614
0003f0 b5 bf 9e be 85 01 87 be 36 74 9a 3d 1b a5 52 3e
       -0.31005636 -0.26368347 0.07541697 0.20570795

lin1.bias f4 [1024]
000000 9d c3 19 bf bc b7 44 bd f7 a7 23 bf cd 8c 2c bf
       -0.6006411 -0.048026785 -0.6392817 -0.67402345
000010 a0 52 e3 be a8 f0 4a bf 4b fa 44 bf 2d ec 61 bf
       -0.44398975 -0.7927346 -0.76944417 -0.88251
000020 97 39 04 bf 39 13 2d be c3 f9 10 bf bd d4 d4 be
       -0.51650375 -0.16901864 -0.56631106 -0.41568556
000030 38 c4 78 be 8d 0b 1d be 76 52 d2 be b6 01 73 be
       -0.24293602 -0.15336438 -0.41078538 -0.23731121
000040 55 af a2 be 5a a9 00 bf 11 9c dd be a1 c7 a5 be
       -0.31774393 -0.5025841 -0.43283132 -0.32378867
000050 38 90 fd be f2 cd 1e be 68 07 25 bf 62 02 c5 be
       -0.49524093 -0.1550825 -0.64464426 -0.3847838
000060 5f 2d c5 be b3 52 a5 be 62 6d e8 be 6c e6 2e be
       -0.38511178 -0.32289657 -0.45395952 -0.17080086
000070 ad a8 a7 be 9b 4d 0c bd d5 1d 98 be bf 54 0d be
       -0.32745877 -0.034253698 -0.2971026 -0.1380186
000080 91 93 e0 3d f1 9c d0 be 8b 66 9c be 46 4f 8b be
       0.10965646 -0.40744737 -0.30546984 -0.27208918
000090 ab ec 03 bf 99 8f 0b bf 11 aa a1 be 45 1b 4b be
       -0.51533 -0.5451599 -0.31575063 -0.19834621
0000a0 28 ca 51 be 0f 74 bd be b2 9d 7c be bc 72 2f bf
       -0.20487273 -0.37002608 -0.24669531 -0.68534446
0000b0 4b a2 09 bf 02 17 49 bf a7 b1 15 be d4 64 b9 be
       -0.53763264 -0.7855073 -0.1461855 -0.36209738
0000c0 6f 51 88 be c9 08 34 bf 36 94 fc bd c1 3b 83 be
       -0.2662463 -0.70325905 -0.123329565 -0.25631526
0000d0 33 98 fe be 1e 99 9c bf 2b 08 3d be 1d 75 8f be
       -0.49725494 -1.2234228 -0.18460147 -0.28019038
0000e0 cc 25 68 be 5d ea 25 be c1 03 92 bd 35 c1 12 be
       -0.22670668 -0.16202684 -0.07129622 -0.14331515
0000f0 d1 0f 86 be de 08 e0 be 1b cd 95 be ce 8f 32 bf
       -0.26183942 -0.43756765 -0.29258046 -0.6975068
000100 a4 66 b7 be 07 c8 d9 be 7d f3 61 be ae ea 36 bf
       -0.35820496 -0.4253542 -0.2206554 -0.7145184
000110 69 95 f3 be a9 00 ae be 64 45 94 be 72 ec f7 be
       -0.47574928 -0.3398488 -0.2895919 -0.4842258
000120 4b da c7 be 3e 8d 8f be 1d 1a ff be 34 3a 42 be
       -0.39033732 -0.28037447 -0.4982461 -0.18967515
000130 fe 17 da be 7f 60 a4 bd 18 43 56 bd a5 e5 6b be
       -0.4259643 -0.08026218 -0.05231008 -0.23036821
000140 46 93 a2 be 39 30 1a bf 32 2c 7c bd 73 2f 5b bf
       -0.31752986 -0.6022983 -0.061565585 -0.85619277
000150 d7 1a 9b be 06 04 2c bf 5f a0 d8 bd e5 72 b3 be
       -0.30293915 -0.6719364 -0.10577463 -0.35048595
000160 9a 48 e8 bd 0e a3 ab be e2 80 0a bf 04 35 02 bf
       -0.11341973 -0.33522838 -0.5410291 -0.50862145
000170 42 14 92 bc 6d a7 15 bf 60 1d 75 be c7 5d 1c bf
       -0.017831925 -0.58458596 -0.23936987 -0.6108059
000180 c7 00 16 bf 8f 42 77 be 6c 40 78 be 92 28 43 bf
       -0.58594936 -0.24146484 -0.24243325 -0.7623378
000190 c9 f8 ad be ba 28 c6 be aa a9 37 be 1a dd aa bd
       -0.3397887 -0.38702947 -0.17935815 -0.08342953
0001a0 03 e0 70 be ca 47 db be 55 86 5c bf 53 b3 f7 be
       -0.23522954 -0.42828208 -0.86142474 -0.48379
0001b0 c2 39 5e bf 23 7e e3 be cf 60 ea be 6c da 83 be
       -0.8680688 -0.44432172 -0.45776984 -0.2575258
0001c0 a5 3f dd be 62 8c b5 bd e5 a4 9f be 40 76 2d bf
       -0.4321262 -0.088646665 -0.31180492 -0.6775856
0001d0 98 0d 35 bf af 67 a0 be 1f 6d ad be 56 73 c5 be
       -0.7072387 -0.31329104 -0.33872315 -0.38564557
0001e0 50 9a 65 bf ab 2c 80 be 05 d8 8f be ba c7 93 be
       -0.8968859 -0.2503408 -0.28094497 -0.28863317
0001f0 ee 12 68 bd 45 d5 97 be 33 69 29 bf 8d ec 54 be
       -0.056658678 -0.296549 -0.66176146 -0.20793362
000200 f8 b6 27 bf d0 85 15 bf 60 cd 98 be fe e9 ed be
       -0.65513563 -0.58407307 -0.2984419 -0.46467584
000210 5b 51 12 bf 8e 69 48 bf 19 de e1 be 29 e5 8f be
       -0.5715539 -0.78286064 -0.4411476 -0.28104523
000220 11 6d 64 be 33 8f bc bd 54 c6 26 bf e1 47 df be
       -0.2230723 -0.092070006 -0.65146375 -0.43609527
000230 67 44 b2 be 9a 7c 8f bf b9 25 1a bf 42 a6 d8 be
       -0.34817812 -1.12099 -0.6021381 -0.42314345
000240 31 f6 2d bf 5d 42 5e bf 4c dc 38 bf 6e 76 63 bf
       -0.67953783 -0.8682001 -0.72211146 -0.88852584
000250 06 1c 8f be 91 7c e7 be 47 e9 fa be 5e 34 d3 be
       -0.27951068 -0.45212224 -0.490061 -0.4125089
000260 59 ae a6 be fd e6 d8 be f9 04 2b bd 1a 0f 3b bf
       -0.32554892 -0.4236373 -0.04175279 -0.7306992
000270 4e 71 bc be e0 ed 41 bf c2 1f 88 be e0 84 ce be
       -0.36805195 -0.75753593 -0.2658673 -0.4033575
000280 a3 45 c0 be f4 ca 81 be e2 d4 f3 be e3 12 7b be
       -0.3755313 -0.25350153 -0.47623354 -0.24518923
000290 c1 ad 16 bf ac b5 62 bd c6 86 69 bf f4 e2 62 bf
       -0.5885888 -0.055349037 -0.9122127 -0.88627553
0002a0 b3 23 64 be b7 c7 bc 3b 1c aa 7d be 88 2c 58 bf
       -0.22279243 0.0057611126 -0.24771923 -0.8444295
0002b0 c7 c4 ed be 6d 25 97 be 68 72 ef be 08 61 02 bf
       -0.46439192 -0.2952074 -0.46766973 -0.5092931
0002c0 aa dd 00 bf dc e2 7d bf 5b de e7 be ed 52 90 be
       -0.5033823 -0.99174285 -0.4528683 -0.28188267
0002d0 55 2b 1c bf f6 f8 70 be d3 4e e0 bd af d1 15 be
       -0.6100362 -0.23532471 -0.109525345 -0.14630769
0002e0 4a 31 64 bf 05 7c 81 be 6f e0 f0 bd b8 93 16 bf
       -0.8913771 -0.25289932 -0.11761557 -0.5881915
0002f0 7d 69 5d bf 3a af 03 bf 0d be 96 be cc 50 46 bf
       -0.8648909 -0.5143925 -0.29441872 -0.77467036
000300 81 a6 19 bf 26 b4 11 be 78 8e 53 be 4d ff 43 bf
       -0.6001969 -0.14228877 -0.20659816 -0.76561433
000310 55 6c 38 be eb c9 1e bf ab c7 47 be 0d 9f 3f be
       -0.18010075 -0.6202685 -0.19509761 -0.18713017
000320 ab 0f 3a be ff 6f 0a bf d7 ec 61 bf d9 13 9f be
       -0.1817004 -0.5407714 -0.88252014 -0.3106983
000330 3e 36 c9 bd 14 93 91 be e9 b8 52 bf f8 55 4f bf
       -0.09824799 -0.28432524 -0.823134 -0.8099055
000340 b5 7f ae be 54 19 b8 be 17 f9 43 bf f6 8d 41 bf
       -0.34081808 -0.35956824 -0.76551956 -0.7560724
000350 f7 26 56 bf e8 a5 a3 be 09 50 e9 be be 83 b6 be
       -0.83653206 -0.31962514 -0.45568874 -0.35647386
000360 e8 eb 20 be d1 0e b0 be 24 a0 70 bd 07 9f d5 be
       -0.15714991 -0.34386304 -0.058746472 -0.4172289
000370 11 b4 9c be 40 75 c8 be 97 46 b5 be 8a 93 95 be
       -0.3060613 -0.39151955 -0.35405418 -0.29214126
000380 f7 3d 25 be 2e 43 1d bf e1 5e 92 be aa f3 e8 bd
       -0.16136919 -0.61430633 -0.28588012 -0.113746
000390 cb b1 15 bf d2 d0 1f bf 13 8c f1 bd 19 42 76 be
       -0.58474416 -0.6242801 -0.11794295 -0.24048652
0003a0 7e 75 9e be 52 93 61 be 7c aa 62 be 02 6d 1e be
       -0.30949014 -0.22028854 -0.22135347 -0.1547127
0003b0 bd 18 b9 be 07 0e ae be 77 05 88 be 1e b9 e6 be
       -0.36151686 -0.33995077 -0.2656667 -0.45063108
0003c0 b2 c7 b2 bd 59 a4 ab be 65 0e 1e bf 5e 8f b5 bd
       -0.08729495 -0.33523825 -0.61740714 -0.08865236
0003d0 7d 3d 57 bf d8 b6 ec be 9e c6 62 be 28 c0 23 bf
       -0.840782 -0.4623325 -0.22146079 -0.6396508
0003e0 38 ec 96 be 10 2c 1b bf 73 f4 16 bf b6 83 82 be
       -0.29477096 -0.6061411 -0.5896675 -0.25491112
0003f0 d4 00 3a be 87 f7 27 bf 6a a4 1f bf 55 5c dc bd
       -0.18164378 -0.6561207 -0.6236025 -0.107597984

lin2.weight f4 [98, 1024]
000000 83 89 13 3d dc 8a d9 3b 05 f7 95 3e 4f 8e 15 bf
       0.036019813 0.006638868 0.29290023 -0.5842027
000010 3f 53 f5 3a b0 62 d1 be d6 70 98 3d 5f a0 2e be
       0.0018716826 -0.40895605 0.07443397 -0.17053364
000020 77 23 30 be eb 91 fe be fe 91 5c 3e 14 08 a2 be
       -0.17201029 -0.49720702 0.21540067 -0.31646788
000030 8d 71 0c 3e a1 3a 09 be 4f f3 d6 3c ae 46 07 bf
       0.13715191 -0.13401271 0.026239065 -0.52842224
000040 b3 bf ca bd c7 b3 ab bc 57 41 c8 bd 83 f9 0a 3e
       -0.09899845 -0.020959748 -0.097780876 0.13571744
000050 2b f7 2f bd 6a 6c 29 bc bc e5 b7 3e 66 00 06 be
       -0.042960327 -0.010340789 0.3591746 -0.1308609
000060 c8 a4 69 bd b3 c6 07 bf a4 7f 3e be 78 8b b6 be
       -0.057041913 -0.53037566 -0.18603379 -0.3565328
000070 28 78 fd be 76 ea 08 bf b6 c0 39 3d 54 73 8c 3e
       -0.49505734 -0.5348276 0.0453498 0.27431738
000080 06 73 26 bd 6e 0b b3 bd 41 8e 05 3e cb 47 a5 bc
       -0.04063704 -0.087424144 0.13042547 -0.020175835
000090 7d d4 2c bd 18 12 ac bc 20 0f ae 3d b9 4f 01 be
       -0.042194832 -0.021004722 0.084989786 -0.12628068
0000a0 f0 83 29 3e 4c 50 bf be 84 96 80 be 83 a1 3c 3e
       0.16554236 -0.3736595 -0.25114834 0.18420987
0000b0 bf d2 61 bd 8e 7c 55 bf 75 8f 3e bd d5 09 8b 3e
       -0.055132624 -0.8339318 -0.04652353 0.2715594
0000c0 08 f8 79 bd 0e 17 0c 3f 8a 61 ea bd 32 20 cf 3c
       -0.061027557 0.5472268 -0.11444385 0.025283907
0000d0 b0 6c ae be 88 29 ec bf fc ad e9 be a7 aa 2a 3d
       -0.34067297 -1.8450174 -0.45640552 0.041666653
0000e0 83 5e cb 3d ba 20 5e 3d c8 6a 3c 3d 95 4b a2 bf
       0.09930136 0.05423043 0.046000272 -1.2679316
0000f0 ab 5f 43 be 84 fd 00 bd ee 20 81 3e ab 74 93 bd
       -0.19079463 -0.03149177 0.25220436 -0.07199987
000100 ec e8 60 bd 50 0d e1 3d fe 39 9d 3c f2 92 c2 be
       -0.05490963 0.10988867 0.019192692 -0.38002735
000110 c9 a5 15 3d 60 33 0e bc ae d6 35 3d 61 6c 14 3d
       0.03653506 -0.008679241 0.044394188 0.03623617
000120 72 b5 9b bd 4c 76 62 bf a6 32 b2 3c e6 96 3b bd
       -0.07602967 -0.88461757 0.021752667 -0.045798205
000130 48 b3 f4 be 2c 36 12 bd 6c 06 c7 3d 6b 69 50 bc
       -0.4779303 -0.035696194 0.09718022 -0.012720446
000140 cc da e7 bd c5 a8 40 bd ef 55 97 3d 72 81 67 be
       -0.11321029 -0.04703595 0.073894374 -0.22607973
000150 79 88 ba bd c5 a4 b1 bb 13 cf 93 3e f1 47 f0 bd
       -0.09108061 -0.0054212534 0.28868923 -0.11732472
000160 7f ac 43 be eb 57 04 be 53 fc 3f bf 73 b7 90 3d
       -0.19108771 -0.12924163 -0.7499439 0.0706624
000170 40 9b 52 3e e8 b7 c2 bd b9 e2 54 be 58 92 4f 3f
       0.20567036 -0.095077336 -0.20789613 0.8108268
000180 4c 23 57 3d 0d 10 03 3e 45 f4 72 bd 17 71 9b bd
       0.052523896 0.12799092 -0.059314985 -0.075899296
000190 3b d5 f6 3d 01 42 23 be e8 d0 f4 be 86 43 04 3e
       0.12052389 -0.15943147 -0.47815633 0.12916383
0001a0 6a 49 64 be 3b 24 0f ba ae 44 58 bf 5b c4 05 3d
       -0.2229363 -0.0005460416 -0.84479797 0.032657962
0001b0 1a 0e b1 3d 7b 8c 1d 3d a2 7a 98 3e 6e 15 f9 3d
       0.08645268 0.03846405 0.2978106 0.121622905
0001c0 57 de 7a 3d 0e 8a 05 3e eb 11 df bd b7 97 de 3c
       0.061247196 0.13040945 -0.108920895 0.027171953
0001d0 c3 00 fc 3d ea d5 48 bd 52 1a 2a be bf c2 24 bf
       0.12304833 -0.04903213 -0.16611603 -0.6435966
0001e0 7a 33 4b be 84 70 9a be f5 bb f6 bf 0d e6 b7 bb
       -0.19843856 -0.30163968 -1.927611 -0.005612141
0001f0 d2 0a ad bc ec d5 f3 bb 37 fd 4b be 9a 2b 27 bf
       -0.021123324 -0.007441273 -0.19920813 -0.65300906
000200 82 41 b1 bd dd ba c2 be d9 83 1d 3c 31 7e aa bc
       -0.08655073 -0.3803319 0.009613954 -0.020812126
000210 b1 fa c8 bc 6f c0 e4 3e e7 29 d3 bb 42 bb 99 be
       -0.024533601 0.44678065 -0.006444204 -0.3002568
000220 22 ae 1f bd a2 e9 ee bc 37 a0 22 bd 43 c7 c5 bf
       -0.038984425 -0.02916414 -0.039703574 -1.5451435
000230 44 50 02 be ab 3b ca b9 7c fd 50 bd a7 6b c5 be
       -0.12725931 -0.00038572898 -0.05102299 -0.38558695
000240 ea b4 36 be 60 8e 29 3e 71 17 ab bf 2a 67 2f 3e
       -0.1784245 0.16558218 -1.3366529 0.17129198
000250 e3 e1 69 be 4a 11 b5 bb ae 6a 98 bf a4 d7 0b bb
       -0.22840075 -0.0055257427 -1.1907556 -0.0021338249
000260 d3 0f b3 3d 4e 35 96 3c 60 df 98 bd 8b 6f 3a 3e
       0.087432526 0.018335965 -0.074644804 0.18206613
000270 44 06 03 3e ff 49 10 be 06 29 77 bd ec 5c 9c 3d
       0.12795359 -0.14090727 -0.060341857 0.07634911
000280 85 3e 76 3c d7 2e bc bd 89 e8 59 be 96 72 b9 bd
       0.015029554 -0.091886215 -0.21280111 -0.09055059
000290 f0 77 9c bd 78 ad 1b 3e 64 e8 66 c0 2f 6b 8a 3d
       -0.07640064 0.15202892 -3.607934 0.06758725
0002a0 c3 29 51 be 20 49 48 bd 74 85 24 3e 0c 5c 20 bf
       -0.20426087 -0.048897862 0.16066533 -0.6264045
0002b0 2c 38 81 bd f5 66 88 bd 33 f3 3f be 7b 92 db 3d
       -0.06309542 -0.066602625 -0.18745117 0.10721298
0002c0 9a e1 6e bd e2 76 4c be ce ce cc 3c 2e bf 04 bf
       -0.05832062 -0.19967225 0.025000956 -0.5185422
0002d0 37 38 9a 3d aa 67 38 bd 7f 51 27 3e 58 17 73 be
       0.075302534 -0.045020737 0.16339682 -0.23739374
0002e0 b2 4d 45 be 8d f5 9b 3d bf 37 4e bd 8b 92 89 3d
       -0.1926792 0.076151945 -0.050346132 0.06717404
0002f0 3e 67 3b be 41 27 85 bd d9 36 b1 bc b2 44 02 3e
       -0.18301103 -0.06501628 -0.021632599 0.12721518
000300 18 40 1f 3e 98 de d9 3d 9e 79 92 3c 8c cc c8 be
       0.15551794 0.106381595 0.017880257 -0.39218557
000310 12 67 5f be d5 d6 9e 3e af ce 8d bf 84 83 4c 3e
       -0.21816662 0.3102328 -1.10787 0.19972044
000320 ba 17 68 3d 58 a6 a8 bd 55 1f ef be 32 54 85 3d
       0.056663252 -0.082348526 -0.46703592 0.065101996
000330 84 e6 2e 3d ab ef b7 ba ba 2d 6a bd d1 00 3c 3e
       0.042700306 -0.0014033219 -0.057172514 0.18359686
000340 f4 9f 9f 3d 47 7a 00 bd a7 36 e6 bf 49 09 26 bc
       0.077941805 -0.031366613 -1.7985429 -0.01013405
000350 35 0e ad 3d 22 57 04 3e 04 7b cb bf 22 b2 69 bd
       0.084499754 0.12923864 -1.5896916 -0.057054646
000360 c6 c8 76 be 8b e9 88 3e 07 e1 1a be 82 10 a7 bc
       -0.24100026 0.2674068 -0.15124904 -0.020393614
000370 83 99 53 bc 5f d3 a1 3d 20 44 76 3d 8b 12 71 bc
       -0.012915018 0.07901644 0.060123563 -0.014713894
000380 4e 58 74 3e 88 19 84 3e 3a 62 4b bf 15 f8 49 bf
       0.2386181 0.2580073 -0.79446757 -0.7889417
000390 0c f4 3e be c9 00 0b c0 55 ed 48 bf 31 92 21 bd
       -0.18647784 -2.171923 -0.7848714 -0.03944606
0003a0 0d f5 63 bd 39 06 52 bd ea c9 c1 bd b7 81 09 be
       -0.05565362 -0.051275466 -0.0946234 -0.13428389
0003b0 4b 65 24 3e 6d 45 30 3d 28 97 f0 bd 7b 1f a6 bc
       0.16054265 0.04303496 -0.11747581 -0.020278683
0003c0 34 3e 11 be f2 e9 d6 3c 16 28 0d be 8d 61 81 3d
       -0.14183885 0.0262346 -0.13784823 0.063174345
0003d0 c1 84 45 3e 51 87 0a bc e8 c6 21 be da 03 1c 3b
       0.19288923 -0.0084551135 -0.15798533 0.0023806007
0003e0 6f b3 22 be a3 d6 34 bd 3d cf ed 3d 8b 06 0e 3e
       -0.15888761 -0.044150006 0.11611793 0.13869683
0003f0 41 b8 12 be bc 69 2c be a7 19 8e 3e 85 2e 7c 3d
       -0.143281 -0.1683721 0.27753946 0.061567802

lin2.bias f4 [98]
000000 64 b9 ee be 74 62 24 3f e7 e9 e4 be d9 a7 41 be
       -0.46625817 0.6421273 -0.44709703 -0.18911685
000010 97 e8 3c c0 67 98 3d c0 96 a5 95 be 03 9e 3d bf
       -2.9516962 -2.962427 -0.29227895 -0.7406923
000020 f5 57 9b bd 94 4f 49 be 19 1d 1e be 79 be 07 bf
       -0.07585136 -0.19659263 -0.15440787 -0.53025013
000030 f6 08 dc be eb ff 38 c0 b0 cc 46 be 76 11 00 bf
       -0.42975587 -2.89062 -0.1941402 -0.50026643
000040 f6 f2 8f be 83 f0 09 be d1 09 9b be c7 e5 b0 bd
       -0.28115052 -0.13470654 -0.30280927 -0.086375766
000050 87 88 3a be c3 11 56 be 46 57 2f be e9 af 5b be
       -0.18216144 -0.20905213 -0.17123136 -0.21453823
000060 20 97 cd be 36 07 d1 be 2e 96 a4 be 56 ae 98 be
       -0.40154362 -0.40825814 -0.32145828 -0.29820508
000070 21 ec c7 be 69 7d 1e be f4 ce 82 be 6e 68 2d bf
       -0.3904734 -0.15477528 -0.25548518 -0.6773747
000080 b3 55 b8 be ad 0e ed be 6c 11 57 bd e5 d2 4f be
       -0.36002883 -0.4630026 -0.05250685 -0.20295294
000090 61 14 59 3c bd 43 ac be f7 31 d6 be fb 29 5a bc
       0.013249488 -0.3364543 -0.41834995 -0.013315673
0000a0 29 74 f4 be f6 14 ae be c0 48 d7 be a7 26 46 be
       -0.47744873 -0.34000367 -0.4204769 -0.19350682
0000b0 8d 1d e3 be 82 6e 3c be 99 6f 47 bc 18 6a 3e bf
       -0.44358483 -0.1840153 -0.012172603 -0.74380636
0000c0 26 fc b0 be 00 8f 00 bd 65 b9 0b be b8 88 84 3d
       -0.34567374 -0.031386375 -0.13644941 0.064713895
0000d0 8b 28 88 bd 74 3b 73 be e3 fb 57 c0 d9 26 c8 be
       -0.06648358 -0.23753148 -3.374749 -0.39092138
0000e0 5f ae f0 3d a0 53 6e 3d 75 ad 05 be 80 ee 82 3d
       0.11752009 0.05818522 -0.1305445 0.063931465
0000f0 ba 4f 00 3e 4f f3 97 3d 82 45 03 be 34 0d 84 3d
       0.12530413 0.07419454 -0.12819484 0.06447831
000100 3d 01 fc ba 93 65 0c bf a5 db 4d be 59 2e 45 bd
       -0.0019226443 -0.5484249 -0.20103319 -0.048139904
000110 7c c4 0c be 65 b1 08 3e b4 b8 2b 3d 30 85 0a be
       -0.13746828 0.1334892 0.041924194 -0.1352737
000120 3c e7 13 bf 9d 8c cf bd dc fd a4 3e 3f 75 07 3f
       -0.5777471 -0.10134242 0.3222493 0.5291328
000130 16 77 52 be bb 1d 26 be ef 97 0b 3e f0 d6 a1 be
       -0.2055324 -0.16222279 0.13632177 -0.31609297
000140 ee 69 ca bd 90 f6 2f bf ea cd bd be 0a 4d af bd
       -0.09883486 -0.687356 -0.37071162 -0.08559616
000150 ce 2a 84 be 63 43 39 be be 9f cf bd 78 d3 48 c0
       -0.25813907 -0.18092112 -0.1013789 -3.137907
000160 0c e2 e3 bd 8a 5b 14 be dc 29 0b bf 17 fd 76 3e
       -0.111270994 -0.14488044 -0.5436075 0.24119984
000170 52 ee 81 be 43 9a 64 3e 63 12 3f bd 9d a2 39 c0
       -0.25377136 0.22324471 -0.046648394 -2.9005501
000180 47 88 3b c0 40 2a 3b c0
       -2.9301927 -2.9244537
