models/1_context_2_embedding_32_activation_2.pt (torch, 683290 bytes, 5 tensors)

emb.weight f4 [98, 32]
00000000: 9ef6 7ebf e152 01bf 46f7 bbbe 3ef2 c5bf
00000010: a68d 8e3b 5c1b 0fbf e2f3 11bf 8ca1 b1bf
00000020: b126 5abe 6783 ae3e c7cf 2ebf 8112 d9be
00000030: eeaf 23bc 73f7 9c3f 4999 453d e704 c83e
00000040: 149f 6dbf e4d1 85bf 06a2 7d3f c62a 2dbd
00000050: 125c 7b3f 9b95 9f3e d682 03bf 5c58 3a3f
00000060: 68dc 503f 9fc6 05be 41a4 debf 447d 8cbf
00000070: 9e17 e13e 20af 61bf 014e a5bf b335 77bd
00000080: 619d 433f f4a6 32bd 2a99 713d 5e9b 64be
00000090: 2252 933d fbd5 d53d 673b cc3d ce23 26be
000000a0: c7f3 84bd e7d3 823d caee 6cbd 5440 23bc
000000b0: c354 723f 8220 a8be 1d43 383f 9e4b 2ebe
000000c0: 61e1 99be 3df5 663e 4505 8bbc faf6 51be
000000d0: 39ae 8b3e a27c bf3d 5aac a83e 2b16 983f
000000e0: b71c dc3d d45d ce3e 9a3a 81bd a1aa a4be
000000f0: 47fc 183f 00da a7be 689f 03c0 9423 a0be
00000100: 5356 febc c643 dabf 2f90 8bbe 31bb 81be
00000110: 4951 ee3e ce39 99be 230f c03f fe33 21bf
00000120: 2389 8cbf 79e6 963d 350d febf b955 71bf
00000130: 16a5 14bf 82a0 093d 5f26 f0bd 3c67 debf
00000140: bb0e 76bf bc1d 0fbf 94b1 cdbf bb06 bb3f
00000150: cfc7 92bf b9e3 353f a608 103f b5dd 37be
00000160: 1af0 fdbd b945 f9bd c274 163e 852a bd3f
00000170: 2ea7 a7bf 9a8e 87be 9304 163f 2b4e 193f
00000180: efa1 3d40 6d17 903f 93cf c4be 5415 d7bf
00000190: da57 1e40 0fe6 38bf 7d23 a13f 6f01 973f
000001a0: 058a 2240 c44e 20bf 4821 82bf 7b6d 5040
000001b0: b7df 63c0 d2f0 4a3f 5273 f63f 580d cbbf
000001c0: 19b0 ecbe 3cae 823f 38e7 3e40 8ef2 3fc0
000001d0: 3441 c7be 82ed 8ebf 3e8f 36c0 113d 1b40
000001e0: 3315 0f3f cb35 cc3f bf2e 8340 a5e7 143f
000001f0: f2d1 98c0 59ab b13f b603 293f ba17 d83d
00000200: 875d 363f 9764 e3bf be2d b53e ed8c 993f
00000210: 7a22 9bbe 0784 e1bf 2c85 223f 7aea 4dbf
00000220: e938 cebf 0391 efbf 8807 0b3f 3c22 293f
00000230: bfe4 1240 a3c6 2c3f 1f4e db3f c0aa e5bf
00000240: 897f aebf 48b4 7bbf 3071 c13f a651 243f
00000250: 5028 f23e 2970 dbbe 9d26 0d3f 4010 c6bf
00000260: 04a3 043f 352f da3d edd9 893e fe91 a93f
00000270: 8e7d df3f a06f ed3f 9fd4 34bf 4da7 2340
00000280: 0ec7 d53e dcd2 59be 7607 57bf 960c d7be
00000290: d8c0 1fbf 1630 7abf b2f5 5f3f 78be 7c3f
000002a0: ca80 9e3e f9a5 c23f 1b45 9a3f 4965 e8bf
000002b0: 8592 cebe 868a 75bf 61a5 aabb 3d83 a1bd
000002c0: baf9 573f b335 953f 07e5 063f b143 cf3f
000002d0: 26c7 76bf c1ea 103e bc96 27be f368 b7be
000002e0: a673 dc3f 436e 9bbe 709b 743e 3b08 ac3f
000002f0: ff67 d33d 68d8 8c3f b5f0 aebe cd84 723f
00000300: 91f2 e8bf 0d75 343e 5000 d63f e909 49bf
00000310: f0de 9b3e 1909 87bf a562 71c0 a91c 0cbe
00000320: 29a1 aa3f db07 163f 549c 31c0 7fce 35bf
00000330: d674 b2be 39a7 803f 9796 243f e9d8 453f
00000340: d057 4040 b8a4 60be 2487 7ebf 9517 42bf
00000350: 095d c43f 54e2 6040 1d3c 893f 5bd6 d63f
00000360: 86e7 52c0 b624 d43f 024d 2540 a7fb 523e
00000370: db36 b13e 3522 cf3d 29b1 2140 c56e d33e
00000380: 2e7b 1640 b835 053f 764e 933e 80fb 8d3f
00000390: 0353 763f 8e21 a63f f736 a2be d377 3cbf
000003a0: 1191 3a3f bef5 5f3e b6eb c03e 426d 84be
000003b0: 6108 cf3f 0da5 c3bf 772c 18bf 073f e5bf
000003c0: 7196 d3bf 9c1f 383f 0f29 df3f 7c82 a0bf
000003d0: 4a3b 81bf 41e4 d4bf eed9 62bf 9ed0 313f
000003e0: e063 07bf e745 c33f 111f 3abf 52a6 34be
000003f0: 905d 1e3e cd63 38c0 8df1 863f 3993 c13e
-0.9959506 -0.5051709 -0.36712092 -1.5464551 0.004350382 -0.5590112 -0.5701276 -1.3877425
-0.21303822 0.34084627 -0.68285793 -0.4239693 -0.009990675 1.2263016 0.048241887 0.3906624
-0.9282086 -1.0454679 0.99075353 -0.04227712 0.98187363 0.31168827 -0.51371515 0.72791076
0.81586313 -0.13064049 -1.7393876 -1.0975728 0.4396333 -0.88157845 -1.291443 -0.060353946
0.76412016 -0.04361625 0.05898396 -0.22324893 0.071934 0.10441204 0.099722676 -0.16224596
-0.06491809 0.063880734 -0.057844914 -0.0099640675 0.94660586 -0.32837301 0.71977407 -0.17021033
-0.30054763 0.22554488 -0.016970286 -0.2050437 0.2728136 0.09349944 0.32943994 1.1881765
0.107476644 0.4030596 -0.063100055 -0.3216143 0.59759945 -0.32783508 -2.0566044 -0.31277144
-0.031047022 -1.7051933 -0.2725844 -0.25338128 0.4654639 -0.29926914 1.5004619 -0.6296996
-1.0979351 0.07368178 -1.984778 -0.9427143 -0.580644 0.033600338 -0.11726069 -1.7375255
-0.96116227 -0.55904746 -1.6069818 1.4611429 -1.1467227 0.710506 0.56263196 -0.17955668
-0.12399311 -0.12171502 0.14692977 1.4778601 -1.3097894 -0.26475984 0.5860073 0.598849
2.9630086 1.1257149 -0.38439617 -1.6803384 2.474112 -0.7222604 1.2588955 1.1797312
2.539674 -0.62620187 -1.0166407 3.2566822 -3.5605295 0.7927371 1.9253943 -1.5863447
-0.46228102 1.0209422 2.9828625 -2.9991794 -0.38916934 -1.1166232 -2.8524928 2.4256022
0.5589172 1.5953916 4.0994563 0.5816596 -4.775628 1.3880416 0.6602129 0.105514005
0.7123646 -1.7765073 0.3538646 1.1996132 -0.3029974 -1.7618417 0.63484454 -0.8043591
-1.6111118 -1.8716129 0.54308367 0.6606786 2.2952116 0.67490596 1.7133216 -1.7942734
-1.3632671 -0.9832196 1.5112667 0.64187086 0.4729638 -0.4285901 0.55137044 -1.5473709
0.5181124 0.10653535 0.26924077 1.3247678 1.7460191 1.854969 -0.70636934 2.5570862
0.4175343 -0.21271843 -0.8399576 -0.4200179 -0.6240363 -0.97729623 0.87484276 0.9872813
0.30957633 1.5206901 1.2052339 -1.815591 -0.4034616 -0.95914495 -0.005207703 -0.0788636
0.8436543 1.1657013 0.5269322 1.6192533 -0.96397626 0.14152052 -0.16366094 -0.35822257
1.7222793 -0.3035756 0.2388742 1.3440012 0.1032257 1.1003542 -0.3416802 0.9473389
-1.8199025 0.17622776 1.6718845 -0.78530747 0.30443525 -1.0549651 -3.7716458 -0.13682808
1.3330432 0.58605736 -2.7751665 -0.71018213 -0.34854764 1.0051032 0.6429228 0.77284104
3.0053596 -0.21937835 -0.9942496 -0.75817233 1.5340892 3.513814 1.072147 1.6784166
-3.295381 1.6573703 2.5828252 0.2060381 0.34612164 0.10113946 2.526438 0.41295448
2.3512683 0.52035093 0.28770798 1.1092377 0.96220416 1.297899 -0.3168256 -0.7362034
0.72877604 0.21871087 0.37679833 -0.25864607 1.6174432 -1.5284745 -0.5944285 -1.790986
-1.6530286 0.7192323 1.7434405 -1.2539821 -1.0096219 -1.6632158 -0.88613784 0.6945895
-0.5288677 1.5255708 -0.72703654 -0.17641571 0.15465379 -2.8810914 1.0542465 0.37807634

lin1.weight f4 [1024, 64]
00000000: 79b3 a6bd 6eca ee3b a14b dd3e b972 cc3d
00000010: 2540 92be eba9 4cbe b629 833e cfae bc3e
00000020: 18a3 c6be ea17 d6bd 5089 90bd e1fc 01be
00000030: 24ac 36be 8f50 bbbe dda8 423c 78ff a7bd
00000040: d112 303f 138f 043f 237f b43e 5d80 f03e
00000050: 9563 883d d208 0fbe 584f 23be e5df 84be
00000060: b352 fdbe 31ad 2fbd 0df9 523e b84c cc3e
00000070: 1ccb 8ebe c400 96bd a248 5f3c 77d7 83be
00000080: d97b 04bf 4312 26be bbd7 fe3d 8abb 28be
00000090: cc6a 4f3d 2481 7f3e e9b2 dabe bbab ba3e
000000a0: aeac 283d 79ca b43e 8834 173f 8b20 c13d
000000b0: a4f5 a53d 0aaf 17bf 4ade 67bd 0ef5 90be
000000c0: 4c75 dcbd cc10 93be 203e 573e c76b 053f
000000d0: 1576 16be 7890 7b3d cb67 103e fa96 9bbc
000000e0: bac7 643f 2d2b dcbd 92f0 3b3e e3df 99b9
000000f0: 5699 a0be 3c9f 043e 11f2 923e 225f ed3d
00000100: 9101 e2bd db60 2c3f b3b7 0f3e c2f5 653d
00000110: 3b71 13bf 18aa 773e 5db2 803e f3b1 c83e
00000120: 2511 0cbf d599 5c3d 862f 963c 4632 143f
00000130: a1d0 63be c5b6 1a3e de16 45be baa3 12be
00000140: 4b27 12bf 8f3b 26bd 223d cabd ac3b 5a3d
00000150: 7008 e5bd 96b1 163f 7d76 f7bc 78e0 923e
00000160: 6112 1d3f e31e 913e 1146 0f3e 5bba 893e
00000170: 6415 04be 253f debe 8736 e8bd 0382 803d
00000180: cb9a 153d 4412 6a3d 6a6a 0abe 3f9f 2fbe
00000190: 5091 58bc f048 103f 70d2 e13e 4e74 03be
000001a0: 97e7 55bd 62a8 723e 6478 a1be 18f3 e03e
000001b0: a621 63be 7502 a23e 4843 86be 8442 463f
000001c0: b7c2 5cbe b4b7 adbe 17c7 16bf 5dc5 eabe
000001d0: 70de 0a3d 2720 69bc f3b4 d3bd 4eff d73c
000001e0: d295 673e 1a12 0c3f c05e 39be c5ab 00bc
000001f0: 9b1d 3fbe 8f89 1d3e 5940 16be 699d c6bc
00000200: 9129 713a b5f6 09bc d8ab e0b9 cb96 ffbb
00000210: bb95 13bc 73b7 89ba 78bd 263b b482 833b
00000220: f835 e73b 3220 aeba 0c3e 64bb ddc3 61bb
00000230: 501a 543a 776b 58bb 44f9 f63a 14b7 633a
00000240: 25cd 3ebb 469e 333c 0a02 b3b8 2eb7 c9bb
00000250: 5caa cd3b 6ee6 953a 1dc9 b23b d8c7 1fba
00000260: 257b 9839 0e56 b6bb e068 5dbb 9168 a4ba
00000270: 6664 093b 1f67 253b e48c e83b 78a8 2c3c
00000280: 44c8 fe3b 7c9c c639 770e 1e3c e234 49ba
00000290: 9acd 2a3b 9fe7 943b 87c8 033c e2e6 403b
000002a0: 0cde 9bbb cb63 713b 78ec 0fbb fac4 d7bb
000002b0: 2338 393b 41e3 613c 3f18 b7bb bdbb 5fbb
000002c0: fdb7 36bb e070 36b9 99db b1bb 1f37 4b3a
000002d0: e81d 85b9 924c e9ba 1b27 81bb b3a4 f43b
000002e0: 3f69 843b e5f3 5d3b fd69 bbba de36 a1bb
000002f0: 5602 8b3b e1e7 9d3b ab22 47bb c9f9 103a
00000300: 2ee9 9cbd 38e9 4c3e eee4 c8bd a499 86be
00000310: 9e78 db3d 3fc6 e0ba b13a 1b3e 7c7f 01bb
00000320: 90c6 48be 6f9a 8fbe 215a d5bd eb6b 333e
00000330: c951 4fbd a270 9fbe 927e 81bd deae 9b3d
00000340: d301 523e be3b 18bd 6f25 373e ff5b 09bd
00000350: 911b da3d 2802 46bc a52f 8dbe 33f8 f5bd
00000360: a61c f83d 5664 8bbe fcc1 1c3e 2db3 86be
00000370: ffde e9bd 5daf d63d dac3 533e 7dd3 90be
00000380: bfc5 01bc d5bd 3f3d d656 98be 4dba 4e3e
00000390: 6659 0b3b 5171 0fbf 0fc1 b6bd 5e9c 6cbb
000003a0: 7a24 7f3e f6cc 9e3e 6619 763e b0ff bebc
000003b0: 1db3 aabe 05cb 4dbc d49e 663e 9b5e 943e
000003c0: 8c0c 7ebe 169d 8f3d 548e 3a3d 3e40 5c3d
000003d0: 6a7b f43e caa4 8ebd 6770 bb3e 1644 9dbd
000003e0: fb71 72be 7058 1dbe b996 cc3e 631a aebe
000003f0: c097 073e 2a28 3c3e f314 a43d 3a08 623d
-0.081397004 0.007287315 0.43221763 0.09982819 -0.28564563 -0.19986694 0.2561776 0.36852118
-0.38796306 -0.1045378 -0.0705744 -0.12694122 -0.17839104 -0.365849 0.01188108 -0.08203024
0.6877871 0.51780814 0.35253248 0.46972933 0.06659619 -0.13968208 -0.15948236 -0.25952068
-0.49477157 -0.042889778 0.20602818 0.39902282 -0.27889335 -0.07324365 0.013628157 -0.25750324
-0.51751477 -0.16217904 0.12443491 -0.1647779 0.05063896 0.24951607 -0.42714623 0.36459145
0.041180305 0.35310724 0.5906453 0.09430035 0.08103493 -0.59251463 -0.056608476 -0.28311962
-0.1076456 -0.28723752 0.21019793 0.5211758 -0.14693482 0.061417073 0.14102094 -0.01899289
0.8936726 -0.107504226 0.18353489 -0.00029349243 -0.31366986 0.12951368 0.28700307 0.11590411
-0.11035455 0.6733529 0.1403492 0.056142576 -0.5759465 0.2418598 0.2513608 0.39198264
-0.5471366 0.053857643 0.018333208 0.5788921 -0.22247554 0.15108784 -0.19247004 -0.14320269
-0.57091206 -0.040584143 -0.098749414 0.053279564 -0.1118325 0.58864725 -0.030207867 0.2868688
0.6135617 0.28343877 0.13991572 0.2689999 -0.12898785 -0.4340755 -0.11338525 0.06274798
0.036524575 0.057146326 -0.13517156 -0.17150591 -0.013218239 0.56361294 0.44105864 -0.12837335
-0.052222814 0.23697045 -0.31537163 0.43935466 -0.22180805 0.316425 -0.26223207 0.77445245
-0.21558653 -0.33929217 -0.58897537 -0.458537 0.03390354 -0.014228857 -0.10337248 0.026366856
0.22615746 0.5471512 -0.1810255 -0.007853453 -0.18663637 0.15384506 -0.14672984 -0.02424498
0.0009199614 -0.008420636 -0.00042852643 -0.0077999583 -0.0090078665 -0.0010506943 0.0025442522 0.0040133838
0.007055994 -0.0013284741 -0.0034827022 -0.003444902 0.0008091079 -0.0033023038 0.0018842597 0.00086866436
-0.0029113975 0.010963028 -8.535765e-05 -0.00615587 0.006276412 0.0011436471 0.0054561035 -0.00060951477
0.0002908345 -0.0055644577 -0.0033784434 -0.001254337 0.0020964383 0.0025238467 0.0070968736 0.010538213
0.0077753384 0.00037882093 0.009647003 -0.00076754217 0.002606249 0.004544213 0.008043415 0.0029434492
-0.0047566947 0.0036833163 -0.0021961015 -0.0065847607 0.002826222 0.013787092 -0.005587607 -0.0034139
-0.0027880662 -0.00017398922 -0.0054277894 0.0007752049 -0.0002539002 -0.0017799309 -0.0039414293 0.0074659227
0.0040408666 0.0033867296 -0.0014298555 -0.0049198708 0.004242222 0.004818902 -0.0030385654 0.0005530385
-0.07661663 0.20010841 -0.0980929 -0.26289093 0.10716365 -0.0017148926 0.15159108 -0.0019759824
-0.19606996 -0.2804751 -0.10417581 0.17521636 -0.050615106 -0.3114062 -0.063229695 0.07601713
0.20508508 -0.03716635 0.17885374 -0.033535 0.10649789 -0.012085475 -0.27575412 -0.12010231
0.12114839 -0.27224988 0.15308374 -0.26308575 -0.11419486 0.10482667 0.2068018 -0.28286353
-0.0079206815 0.046811897 -0.2975375 0.20188256 0.0021263002 -0.5603228 -0.08923542 -0.0036103944
0.24916258 0.31015748 0.24033126 -0.02331528 -0.33339778 -0.012560611 0.22521526 0.28978428
-0.24809474 0.07012384 0.04554589 0.053772204 0.47750407 -0.06965025 0.36609194 -0.07679002
-0.23676293 -0.15365767 0.39958742 -0.34004506 0.13241482 0.18374696 0.08011808 0.055183627

lin1.bias f4 [1024]
00000000: d01c ee3e 8040 cabe 84c0 0a3c 30d4 883e
00000010: e9c4 5e3d 511e 193e 00c4 69bc ba20 5ebc
00000020: 8055 24be f202 c2bb e9c9 b13b df81 d2be
00000030: 2a0f 48bb badc 20bb a1be 8dbd 928d e6ba
00000040: 4cb7 5bbe 00af 2e3e 172e a2be ea71 16bc
00000050: bf07 983e 39a2 76be 9360 12bc d9b7 ba3d
00000060: fd71 9e3d cda1 0cbc 19b9 d23c 9e95 0bbc
00000070: c737 7aba d598 38bc 3f02 683c 6d6f 2abd
00000080: ebd0 bf3b 0471 e93b 76bc 77bd ec83 98be
00000090: 11f4 7dbc ce66 ef3e e097 b8be b708 693e
000000a0: eedb 223e cdf6 f03e d9b2 08bf 43c6 36bc
000000b0: a61f cb3e fca8 1dba 5194 943e cdcc b03b
000000c0: 5c87 413a 60a9 6d3c d7a6 bfbb adc3 14bf
000000d0: 3c7f 1d3f c334 8b3c 798d 6b3b 777c 9dbe
000000e0: 4021 9ebd 52a4 c23b c98a 0c3c 4222 863c
000000f0: 3cce 803c 2feb 80bd 505b e33d e8a5 ceba
00000100: bb66 cb3b 85ee 633e 543b 0abc 41a4 37bc
00000110: d895 a7bd a7e9 253e a1f7 20be 9eab e53e
00000120: 98a2 923d 53e8 05bf 115f 05bf d3f8 72bb
00000130: 4b30 5bbc 0967 ecbe 75da 2c3d 1216 f03d
00000140: e861 b53c 018f 133d 54fa 70be a234 9c3b
00000150: bf0f 52bb fd0b 873e eec5 7cbe 669a e9bc
00000160: 45c3 75bc 68e7 1e3e 759f 53be 221c b03e
00000170: c44e 42bb 143d 063d ee50 3c3e ec94 c0bb
00000180: 9586 73ba c252 2ebe 8b14 bdbe 91e9 733e
00000190: debb 923e a9c4 8b3a ec3d 76bc ac1a 2b3c
000001a0: 0020 e3bc 9196 0b3e 5806 1abe d46e 37be
000001b0: 7c45 0e3d 8eed 4f3e 9d72 ccbd f260 6fbe
000001c0: e38c b4bb 148b dabd 7bb6 38be 9537 343f
000001d0: d73d 443e e97f 59bc fda2 2cbc 2ac0 f43d
000001e0: 340c eabc f903 0dbc 25a9 bfbb b57e a7bc
000001f0: fa17 a6ba 3f1b cdbe 5743 fc3d 0b33 c93d
00000200: c222 20bd 8944 e33e c8d9 4eb8 d3e0 a73e
00000210: 101c a23b a40c 23bc 83d6 9cbe 3c88 303b
00000220: c836 c0bd 7ce3 c9bd ece6 533e c94c ee3b
00000230: d002 11bc cb3f 3f3e c6f7 de3e 3802 3e3d
00000240: 5334 3bbb 70bc 64bb 7f6c cb3b 41cc 8c3e
00000250: e3b2 32bd c552 2f3b 12fe 5f3e b49e 4c3a
00000260: 59eb 4dbe 2803 b2be e2f8 d0be 4784 3cbc
00000270: 705a 643e 8c4c 2e3b e038 b1be 0697 563d
00000280: 862f 56bc e13a 983d 124c 553e 038b 7bbb
00000290: 2066 2dbe c24d 5439 85ee ee3d 477f 39bf
000002a0: 7a41 1cbc 76ac c6bd ecb9 b4bb f3ea 40bb
000002b0: cc4f f83b ce87 023e 5c95 933d adba 303b
000002c0: 1352 023e 1c91 883e ec1f 9e3e 590a 19bf
000002d0: 537f 8b3d 0dfa 463e fd87 1d3b 43b7 d6be
000002e0: a39b 1abe f5f3 02be d4fb a7bb 15ae 993e
000002f0: 7286 5c3e 4782 4e3e b006 02be f872 a0ba
00000300: ab6c afbd 855d ecbc c1a1 81bd ca12 4cbe
00000310: 7a7a 26bb 3e7e 7a3e f533 a7bd 5707 9eba
00000320: 38e1 03bf 65c4 b83e ac06 7b3d a572 a33e
00000330: 4466 093b 8c8d d33b 324d 8b3e da36 b1bc
00000340: f889 2ebe 170b eebe c24e ec3d f3a4 46bc
00000350: 3d8b 17bc b62f abbe ca3a a13d 3add a03a
00000360: 40d4 e33a 240f 0b3e 9607 07bc 0bf3 46be
00000370: 7d21 65be 044a d33d dafb 87bd 69f4 71bc
00000380: 4410 e9bd a092 aa3e ebfa 7bbb 370e 0abf
00000390: ed2a 813c 0a7d a03a 716f ba3a eb93 99be
000003a0: e06e 1b3e df8d 343c a45c 1bbe 7ee9 c9bb
000003b0: 4030 be3e 383d 9a3d 2310 f2be 1ed8 763d
000003c0: 43e0 a3be 1edc 97be 3919 92bc e53c d6bd
000003d0: 3d93 a8bd 0eef 8cbe cf82 8ebb cafb a2be
000003e0: 8549 d53c 9a28 95be a3fa 83be c9a6 c03b
000003f0: 32aa 69be f77c c23e 27df cf3e 797f 193c
0.46506357 -0.39502335 0.008468751 0.26724386 0.054387007 0.14952971 -0.014267921 -0.013557607
-0.1604824 -0.0059207613 0.005425681 -0.4111471 -0.0030526617 -0.0024545626 -0.06921125 -0.0017589799
-0.21456641 0.17058945 -0.3167579 -0.009182433 0.2969341 -0.2408532 -0.008934158 0.091170974
0.07736585 -0.008583498 0.025723027 -0.008519558 -0.00095450546 -0.011266907 0.014160692 -0.04161017
0.0058537624 0.007124068 -0.060482465 -0.29788148 -0.0155000845 0.4675812 -0.3605337 0.2275723
0.15904209 0.47063294 -0.533979 -0.011155668 0.39672583 -0.00060142553 0.29019406 0.005395508
0.0007382536 0.014505714 -0.0058487463 -0.5811108 0.6152227 0.016992932 0.0035942479 -0.30759022
-0.07721186 0.0059399987 0.008578011 0.016373757 0.01572334 -0.06294858 0.11101401 -0.0015765997
0.006207315 0.22258957 -0.0084369965 -0.011208595 -0.08182877 0.16202413 -0.15719463 0.44857496
0.071599185 -0.52307624 -0.52098185 -0.003707458 -0.013378213 -0.4617236 0.042200524 0.117229596
0.022141412 0.03602505 -0.23532993 0.0047670165 -0.0032052842 0.26376334 -0.24684879 -0.028516006
-0.015000169 0.15517962 -0.20666297 0.34396464 -0.0029648999 0.032773092 0.18390247 -0.005877128
-0.00092897686 -0.17023757 -0.36929736 0.23819567 0.28658956 0.0010663468 -0.015029412 0.010443371
-0.02772522 0.13631655 -0.15041482 -0.17913371 0.034734234 0.20305464 -0.09982798 -0.23376825
-0.005509959 -0.10671058 -0.18038361 0.7039731 0.19164215 -0.013275125 -0.010536906 0.11950715
-0.028570272 -0.008606904 -0.005849021 -0.02044616 -0.001267194 -0.4005985 0.123175316 0.09824189
-0.039095648 0.44388226 -4.9317052e-05 0.32788715 0.004947193 -0.009951744 -0.3063241 0.002693667
-0.09385449 -0.09857842 0.20693558 0.007272337 -0.008850768 0.18676679 0.4354841 0.046388835
-0.0028565123 -0.0034902357 0.006208002 0.27499583 -0.04362763 0.0026752215 0.21874264 0.0007805631
-0.2010931 -0.34768033 -0.40814883 -0.011506147 0.22300124 0.0026595918 -0.34613705 0.05239012
-0.013072854 0.07433105 0.208298 -0.0038382418 -0.16933489 0.00020246863 0.11666588 -0.72459835
-0.009537095 -0.09700863 -0.0055153277 -0.0029436916 0.007577872 0.12747118 0.072062224 0.0026966736
0.12726621 0.2667321 0.3088373 -0.59781414 0.068113945 0.19431324 0.0024037354 -0.41936693
-0.15098433 -0.12788375 -0.005126456 0.30015627 0.21535662 0.20166884 -0.12697864 -0.0012241295
-0.08565649 -0.028853187 -0.0632968 -0.19929042 -0.0025402592 0.2446222 -0.08164207 -0.0012056631
-0.5151553 0.36087337 0.06128566 0.31923404 0.0020965496 0.0064560827 0.27207333 -0.0216326
-0.17044818 -0.46492836 0.11538459 -0.012124288 -0.009249506 -0.33434838 0.07872541 0.0012272962
0.0017381981 0.13579994 -0.008241555 -0.19428651 -0.22376056 0.10316852 -0.06639834 -0.014767745
-0.113800555 0.3331499 -0.003844912 -0.5392794 0.015767539 0.0012244296 0.0014223886 -0.29995665
0.15179014 0.011020153 -0.15172058 -0.0061618676 0.37146187 0.07531208 -0.47277936 0.0602647
-0.32007036 -0.29660124 -0.017834293 -0.104608335 -0.082312085 -0.27526134 -0.0043490897 -0.31832725
0.026036033 -0.2913254 -0.25777158 0.0058792573 -0.2281883 0.37985966 0.4059994 0.009368771

lin2.weight f4 [98, 1024]
00000000: e2cf 573d 139f 043d 5abc 95bb a16c 8b3b
00000010: 3449 0bbc 4aff e6bd 1c95 f13d dddd 3ebb
00000020: 9af4 e13b f74b b43b 72c0 413b 6b60 6cbd
00000030: ddb5 463a 17e8 aabb 449e 4ebd 4ef0 11bc
00000040: 668e 5cbe b850 c13c f2f2 66be 6950 abbb
00000050: 9077 893d 07c0 0cbe 1c30 943c 4792 a03d
00000060: 46ba eabd 01d7 353c a9f5 1e3c 6e47 edba
00000070: b414 ddbb 2c28 57bc 0c0b 173c 22b9 3c3d
00000080: 5c34 87bc 5cc6 ecbb bce5 30bd 5447 2c3d
00000090: 7dc4 3b3c 49d2 ed3d b1e4 663e 3ed5 273d
000000a0: 6659 693d 07f5 ab3d c3e8 cebd d3f1 313c
000000b0: 5ec6 14bd e9e4 843b 28d0 acbc 8a1b 933a
000000c0: 2770 353c d08a 343d 48c2 bfbb 5772 9bbd
000000d0: 977a 183d f36b 8bbb 5b78 81bc 19fa 88bb
000000e0: 80fb 003d 7727 47bb 22e3 82bb 1d05 85bc
000000f0: bbfc a8bb a1c1 823e 1e93 003e 4464 ea3b
00000100: 9653 ef3b 7a52 283e 7c7b 0cbc 765f cabb
00000110: 40fc 6bb6 b24c 823e 543e 3e3d 137f 33be
00000120: 47a5 943d c7ce afbd 04c8 67bc da18 2cbb
00000130: 031d 9dbd 19dc 423e f747 f43d 3ecf 8c3d
00000140: 8f5f 4bbb c259 a4bd bae4 743d cbbd 883b
00000150: dd0d 85ba 6a49 493e 0f09 1abc 58ac 93b8
00000160: 40d8 0c3b d9c1 623d ecdb 553d c4ad d63c
00000170: 9eac c2bc a37e f23d 44e0 873e 60d0 dd37
00000180: 3085 103c 02dd 8d3b 95a7 ff3d adca 84bd
00000190: cbe8 3bbc eacd 553d c4da e3bb 6654 863b
000001a0: 76e6 26be e321 2cbd 974d ecbd 62c1 b7bd
000001b0: 5b94 b2bc c32e bf3d 6d6a 64be 03a2 fdbd
000001c0: c2c1 4d3c dcd9 5c3d f635 e9bc f324 b2be
000001d0: 6580 953c af76 cb3b 8db5 263b dc72 8ebc
000001e0: 1ffa 933d 66db ab39 80bd 89bb 3029 8dbb
000001f0: 82b3 ccba aecb d7bb 2af8 58bd b625 67bb
00000200: 1c6a 81be b33d 173e 3e20 cb3b 3b11 a63e
00000210: 7ba4 56ba f6fd 2dbe e081 1cbe 6cfd 84bb
00000220: 77cb 2ebe 7554 b6bc 470c 943c e26a f1ba
00000230: 7e7c 39bb 9657 433d 49cc b93d 61fc 46be
00000240: 4119 633b e8f5 073c 03f2 3fbe e1e7 633b
00000250: f092 0b3a ec1c b23b 9ace 833e 111b 8c3a
00000260: bb52 9ebb 01bf 0abe 49fa 92bc 1b81 6ebd
00000270: d7f3 fe3d 8c3e f9b8 4ebe a13b 9dad adbb
00000280: c08b c8bb 4a52 a5bd 1ad6 45ba d6f1 5039
00000290: 8921 9fbd 3ac0 39bc 4a91 d7bd c025 e3be
000002a0: 219f 26bc f3f4 ea3c a8e6 03bc f290 053c
000002b0: 558b bc3b 9aa3 bfbc 7cda f13c 2aaa 7d3c
000002c0: af36 e5bd 7076 933e da50 cb3b e8c0 b63d
000002d0: 12df 493e b815 853e b3f3 5ebd 3b52 fbbd
000002e0: b60f c5be 707c 153c eea9 07bc 5525 1b3e
000002f0: b4b2 813d ce4a 43bd 595b 2d3e 3940 033c
00000300: 71ce ca3c 7535 5abd c436 3d3e 38eb eb3d
00000310: ba63 63bc f9b5 f9bc aa9e 9bbd 9f16 1b3a
00000320: 3ffe 2abd 86d9 3bbe 3006 0a3c c6a1 a73c
00000330: 7f52 9ebb dcbd bdbb ba77 fd3c 3f5f 183b
00000340: e8cd 023e 86f0 cfbd d75c 38be c361 a1b9
00000350: 67ff 1f3c dc3f dfbd 7935 d43c 5677 b13b
00000360: 57b8 e1bb 1f99 8dbb 51ef 8a3a ccf9 a33b
00000370: c019 d23d fde3 473e 631d 8cbd 83ae 95bb
00000380: b124 c03c 40e3 003e 2590 113b 56c1 8ebe
00000390: f37b 523b 3502 ce3b 4f2a 97bb 92e8 44bc
000003a0: a77c 08be 0ad3 7bb9 78c6 17bc b245 9a39
000003b0: 4d5b ad3d 1937 b2bd daf6 b6bb 9aa1 8c3d
000003c0: bdc3 26be 3876 63bb b7a9 513c ccc6 393c
000003d0: 4f92 81bd 88dd c63d aa73 42bc a989 8a3c
000003e0: bdc6 48bd 625a 53bd 9afb c5bc 8592 09bb
000003f0: fed3 68bc 101a cdbd a472 f6ba 8076 8db8
0.052688487 0.032378267 -0.0045695724 0.004254893 -0.00850134 -0.11279161 0.117960185 -0.002912394
0.006895614 0.00550222 0.002956417 -0.05770914 0.00075802003 -0.0052156555 -0.050443903 -0.008907391
-0.21538696 0.02359806 -0.22553614 -0.0052280915 0.06712258 -0.13745128 0.018089347 0.078404
-0.1146131 0.011098624 0.009702125 -0.0018102953 -0.006746853 -0.013132136 0.009218942 0.046074994
-0.01650446 -0.0072257947 -0.04318784 0.04206021 0.011460421 0.11612374 0.22548176 0.040974848
0.056970023 0.08396345 -0.101029895 0.010860878 -0.03632199 0.0040556085 -0.02109535 0.0011223417
0.0110741025 0.044077694 -0.0058520176 -0.07590168 0.037226286 -0.004254812 -0.01580446 -0.0041802046
0.03148985 -0.0030388513 -0.0039943615 -0.01623779 -0.005157081 0.25538352 0.12556121 0.007153066
0.0073036654 0.16437712 -0.008574363 -0.0061759306 -3.5164558e-06 0.2544914 0.04644616 -0.17528944
0.07258087 -0.085843615 -0.014146809 -0.002625993 -0.07671549 0.19029273 0.11927789 0.06875466
-0.00310323 -0.080249324 0.059788443 0.0041730157 -0.0010151226 0.19656911 -0.009401574 -7.041608e-05
0.00214912 0.05536065 0.052211687 0.026205905 -0.02376395 0.1184056 0.2653829 2.6442285e-05
0.008820817 0.0043293247 0.124831356 -0.0648397 -0.011469076 0.052198328 -0.006953569 0.0040994165
-0.16298851 -0.042024504 -0.115382366 -0.08972432 -0.021799257 0.09335091 -0.22306223 -0.12384417
0.0125584025 0.053918704 -0.028468113 -0.34793815 0.0182497 0.0062092165 0.0025437803 -0.017388754
0.07225441 0.00032779126 -0.0042034984 -0.0043078884 -0.0015617462 -0.00658556 -0.052971043 -0.003527028
-0.25276268 0.1476963 0.006198912 0.3243502 -0.00081879616 -0.1699141 -0.15283918 -0.0040585306
-0.17069803 -0.02225707 0.01807226 -0.0018418694 -0.0028302963 0.04769095 0.090721674 -0.19432212
0.0034652504 0.008298375 -0.18744664 0.0034775662 0.00053243246 0.0054355767 0.25743562 0.0010689219
-0.0048316396 -0.13549425 -0.01794161 -0.058228593 0.124488525 -0.000118848955 0.004936016 -0.0053002373
-0.006120175 -0.08072336 -0.0007546857 0.00019926517 -0.07770068 -0.011337334 -0.105257586 -0.44364738
-0.010169775 0.028681254 -0.008050598 0.008152233 0.0057539144 -0.023393441 0.029523127 0.015482465
-0.11192071 0.28801298 0.0062047066 0.08923513 0.19714001 0.25993133 -0.05443163 -0.122715436
-0.3848855 0.0091239065 -0.0082802605 0.1515096 0.06332913 -0.04767876 0.16929378 0.008010917
0.024756642 -0.053273637 0.18477923 0.11519474 -0.013878757 -0.03048228 -0.07598622 0.00059161516
-0.041746374 -0.18344697 0.008424327 0.020462882 -0.0048316116 -0.0057904553 0.03094088 0.002325013
0.1277386 -0.10153298 -0.18004166 -0.0003078115 0.0097654825 -0.10900852 0.025904404 0.0054158373
-0.00688843 -0.004321232 0.0010599886 0.0050041433 0.10258818 0.19520564 -0.068415426 -0.0045679226
0.023454996 0.12586689 0.002221116 -0.2788188 0.0032117337 0.006286884 -0.004613198 -0.01201834
-0.13328801 -0.00024015844 -0.009263627 0.00029425096 0.0846468 -0.08701915 -0.005583626 0.068667606
-0.16285606 -0.0034707915 0.012796811 0.011338901 -0.06326734 0.097102225 -0.011868397 0.016911345
-0.049017657 -0.051599868 -0.024167825 -0.0020991873 -0.014210699 -0.10014737 -0.0018802476 -6.745476e-05

lin2.bias f4 [98]
00000000: 9b4a 64be 5d12 a83e a4f4 92be 858a 39bf
00000010: d257 91bf 6b34 91bf 852c d7be 1280 2dbf
00000020: 5f2e f6be 824e 13bf 451d 3c3d 18df 08bf
00000030: 33ff 08bd c990 8dbf 7823 29bf 8126 02bf
00000040: 291b 95be 3933 f5be 1827 b4be 84dd d3be
00000050: a964 a1be 1729 c5be 1630 e6be 153a c7be
00000060: ffa1 a9be 06e2 eebe ebf8 b3be a15b 27bc
00000070: 11df 32be 1460 9ebd e81e 70be 9c86 8fbd
00000080: 02df 06be 4055 8ebe c3e9 c2bd c703 d33c
00000090: f22f 75be 01ef c7be db65 5bbd c7f0 a3bd
000000a0: ea53 abbd e917 dcbc 0672 8dbe 01e5 b2be
000000b0: d2fb 37be fde2 03bb 6cb3 213d 349e d7be
000000c0: 820b eebe 526e 47be 3f68 05bf 843a 70bd
000000d0: b4c6 f8be 99a9 1fbf ae1e d5bf 7042 81be
000000e0: 7104 4f3e fcbb d0bd f67e 573d 0819 babd
000000f0: 32f4 553e 5d53 5dbd 7b9e d4bd aacb c03c
00000100: 9043 253e 5392 11bf 6ec8 a7be b026 0e3d
00000110: fe6a 98bd 5f26 163d 78d1 153e cfd2 58be
00000120: 200f 0ebf e68c b03d 8242 6a3e df81 7d3e
00000130: 5a24 eabd 15ed 21be c963 52bd 8f79 97be
00000140: a051 8abd cbee 0dbf 82fd adbe f141 c7be
00000150: d443 edbe da1d 29bf 29fe 05bf 01d6 a2bf
00000160: 9c3a 15bf 6d13 d0be 107b d2be 35b4 28bd
00000170: 1b54 6a3d 3a36 c5be 3e70 85be 2726 8ebf
00000180: 69e6 92bf f389 91bf
-0.22294085 0.3282651 -0.2870227 -0.7247699 -1.1354926 -1.1344122 -0.42026153 -0.67773545
-0.48082253 -0.5754167 0.04592635 -0.53465414 -0.033446502 -1.105981 -0.66069746 -0.5084
-0.29122284 -0.47890642 -0.35186076 -0.4137994 -0.3152211 -0.38507912 -0.44958562 -0.389115
-0.33131406 -0.46656817 -0.35150847 -0.010214717 -0.17467906 -0.07733169 -0.2344929 -0.070080966
-0.13171008 -0.27799416 -0.09517243 0.025758637 -0.23944071 -0.39049533 -0.053563934 -0.08004909
-0.08365615 -0.02686687 -0.27626055 -0.3494034 -0.17967156 -0.002012431 0.03947775 -0.42112887
-0.46493155 -0.19475678 -0.5211219 -0.058649555 -0.48589098 -0.6236816 -1.6649988 -0.25246
0.20216538 -0.10192105 0.052611314 -0.090868056 0.20893934 -0.05403458 -0.1038179 0.023534615
0.16139054 -0.568639 -0.32770103 0.034704864 -0.07442282 0.036657687 0.14630687 -0.21174167
-0.5549183 0.08620624 0.22876933 0.24756573 -0.11432715 -0.15813096 -0.051364694 -0.2958493
-0.0675385 -0.55442494 -0.33982474 -0.38917497 -0.4634081 -0.66061175 -0.5234094 -1.2721559
-0.58292556 -0.4063982 -0.41109514 -0.041187484 0.057209115 -0.38517934 -0.26062196 -1.1105393
-1.1476566 -1.1370224
