models/1_context_2_embedding_64_activation_4.pt (torch, 957978 bytes, 5 tensors)

emb.weight f4 [98, 64]
00000000: 3f56 69bf aee8 dfbe b7b4 acbe e51e 6fbf
00000010: d2b5 80be 0680 89be 7b9d 81be a769 97bf
00000020: e484 e8be 9b43 db3d 01f4 9abe 2bdf 9abe
00000030: 6661 98be e722 373f 8346 013e 65d9 873e
00000040: 7fcb b1be 1b4b 49bf 443c 553e da62 0c3e
00000050: 2ccf b83e ca3b 33bd c34f dbbe e354 133f
00000060: 3cb8 ee3e 0103 0cbd 1230 c4bf 30dc e3be
00000070: 5bbe 383e 5279 ebbe ae37 5fbe cef2 843d
00000080: eb7a 923f c93b 903c 5b7a 5e3e 2ffa 02bf
00000090: ddee 473e fe1b d33d d3b3 41bd 280b 1ebe
000000a0: 7606 5cbd 93e8 33bc cfec bd3d 51a1 3cbd
000000b0: 00ca c43f bf22 f4be 53bd 113f 2b06 11bf
000000c0: 6de3 a9be a289 923e 8372 8a3e 79b9 a1bd
000000d0: 2e83 a53e ee66 a63e 35f1 173f 922f 863f
000000e0: c6b1 843e f7ff 1c3f 0f62 14be f288 87be
000000f0: 89c2 0f3f fda5 16bf b343 eabf 021e 9fbe
00000100: 62cc 9e3a e5ac 13be a123 3ebe 25cb 83be
00000110: 8fca 0dbd 9585 31bd b5ee 193f 1c0e c2bb
00000120: 526c 51be 7026 20bd ff64 59be 58a2 49be
00000130: dd93 85be c64f 06bd 5aae 123d 97ae 49be
00000140: 0275 97bd 03f8 4a3d bbed 57be c107 ea3d
00000150: df94 e5be 3a89 19be c77c 8c3c 4837 b23b
00000160: c33f 18bc e5a0 11be bc27 9dbe ba2c 163e
00000170: 75fb 85be dd27 6dbe 8343 f93b 110f 253f
00000180: 02c2 563e e9b6 8d3e d51f 4a3e e768 84be
00000190: 5f1d e33e 9bbd c0bd 874e 1ebe 9c93 ad3e
000001a0: 48d6 be3e 1fbd da3d 0ee8 92bd ad8e a6bc
000001b0: a743 abbe 6326 87bd 680c 41be 9fe5 09bf
000001c0: 73ca 4e3e 0cff 47be a520 603e a12a 913e
000001d0: f435 883d 3e46 9f3d 8d20 be3d 8fd8 8fbd
000001e0: feaa 783f 6b48 0a3d 75af dbbc 2206 073f
000001f0: 7758 9cbe c42d 3e3f c887 22bc 4d1b 273d
00000200: cc5a e13e 1bd5 d0bf 8c4e 543f cf87 eb3f
00000210: 6f2b c6be 5a10 69bf 7d6f d03d 28fc f7be
00000220: 5b4d c6bf e162 b2bf 9335 d33e e0c7 883f
00000230: dcb3 ff3f ee4f 193f 574f ff3f e5b5 b4bf
00000240: db1f 09bf 5fde b8bf 1b88 ba3f 5e55 9d3e
00000250: a43d 443f 4a49 5e3e 588e 533e 57d2 afbf
00000260: a391 d43e 4dc7 bf3f ee63 883e 10d8 a53f
00000270: 4c7a d83f d425 f83f 5b7a fcbe a82f 2040
00000280: e056 0e3f 34d1 803e ee2b e1bf ce39 5d3f
00000290: 732a a8bf 6316 05bf ba0b f33e d775 d93e
000002a0: f5ff 163f 6829 ba3e 4fae 2c3f 171c 0abf
000002b0: 8f79 323f ae6d 40bf 3f03 a13e 1cbb f7be
000002c0: 09b6 973f 5436 a43f 29a9 0c3f ecec cf3d
000002d0: c73b abbf 49bc 8e3e 7722 11bf aa79 123e
000002e0: 0e77 9c3f 1b62 ad3e ecb8 a4bd 0a7c b23f
000002f0: 1616 573f 9a04 773f afc6 883e 464a 3a3f
00000300: d142 8e3d 8949 c33f fe12 1740 05ea fdbf
00000310: 3712 4d3f 6a16 e4bf d30c 19c0 017e 93bf
00000320: ab7f efbf a598 5cbf f754 24be 9276 0740
00000330: 3ecb 19c0 8b60 02c0 4e1f 4540 c84d 42bf
00000340: 8ff8 173f 36d8 813f 9ed0 f0bf 0401 663f
00000350: 68e7 92be aa91 d9bf b324 b6be e83e 3cbd
00000360: e5dc 98bf e9e6 9a3f 5a1f 1c40 93b7 803f
00000370: 3d3d b33f f26a 803f 3e55 953f ea74 ea3f
00000380: 417d 6540 03b3 a9bf 66e0 97bf 12d1 12bf
00000390: 7c50 913e 53bd 243f 7c68 d73e f9b2 92be
000003a0: 1ae3 5f3e 43da 89bf 5575 0bbf 90d5 e1be
000003b0: 04b3 873f 2f14 86bf a0c9 443f cbf2 633f
000003c0: bdea 89bf bc95 e2be 1de3 2cbf 40c3 0c40
000003d0: b9a8 413e 57c5 25be f75e 8ebf b1b5 643e
000003e0: 0ced 6fbf 4de1 943f 11c2 89bf 834d de3f
000003f0: bdd8 ca3f a88f 7f3f d67d a33f 7b98 d03c
-0.91147226 -0.43732208 -0.33731624 -0.93406516 -0.25138718 -0.26855487 -0.2531546 -1.1829118
-0.45413888 0.10706254 -0.30264285 -0.3024839 -0.2976181 0.7153763 0.12624554 0.26533046
-0.34725568 -0.78630227 0.20823771 0.13709584 0.3609556 -0.04375819 -0.4283429 0.575514
0.46624935 -0.034182552 -1.532717 -0.44503927 0.18041365 -0.45990998 -0.21798584 0.06491624
1.1443762 0.017606633 0.21726362 -0.51163 0.19524713 0.103080735 -0.047290634 -0.15433943
-0.0537171 -0.010980743 0.09273683 -0.04605228 1.5374146 -0.4768276 0.5692951 -0.56650037
-0.33181325 0.2862063 0.2704049 -0.07896704 0.32326645 0.32500404 0.5935243 1.0483267
0.2591688 0.6132807 -0.14490531 -0.26471668 0.5615621 -0.5884703 -1.830191 -0.31077582
0.0012115354 -0.14421423 -0.18568279 -0.25740924 -0.034617003 -0.043340284 0.60129863 -0.005922092
-0.20451477 -0.039099157 -0.21229933 -0.19690835 -0.26089373 -0.03279092 0.035810806 -0.19695507
-0.07395364 0.04955293 -0.2108678 0.1142726 -0.44840142 -0.14993754 0.017149342 0.005438719
-0.009292546 -0.14221533 -0.30694377 0.146655 -0.2616841 -0.23159738 0.007606925 0.64476115
0.20972446 0.27678612 0.19738705 -0.25861284 0.44358346 -0.094111644 -0.15459643 0.3390168
0.3727286 0.10680603 -0.07173167 -0.020331705 -0.33450052 -0.065991186 -0.18852389 -0.53866
0.20194416 -0.19530886 0.21887453 0.28352836 0.06650916 0.077770695 0.09283552 -0.07023727
0.97135913 0.03376047 -0.026817063 0.5274373 -0.30536243 0.7428858 -0.009920068 0.04079752
0.44014585 -1.6315035 0.82932353 1.840082 -0.38705012 -0.91040576 0.10177515 -0.48434567
-1.5492357 -1.3936425 0.4125181 1.0685997 1.9976764 0.5988759 1.9946088 -1.411801
-0.5356423 -1.4442862 1.4572786 0.30729192 0.76656556 0.21707645 0.20659769 -1.3736066
0.41517362 1.4982697 0.2663874 1.2956562 1.6912322 1.9386544 -0.493121 2.5029087
0.5560131 0.2515961 -1.7591531 0.8641633 -1.3137954 -0.51987284 0.47469884 0.42472717
0.5898431 0.36359715 0.67453474 -0.5394911 0.69716734 -0.7516736 0.3144779 -0.4838494
1.1852428 1.282908 0.5494562 0.10152611 -1.3377618 0.27878025 -0.56693214 0.14304224
1.2223833 0.3386391 -0.080430835 1.3944104 0.84018075 0.96491396 0.26714084 0.7276958
0.06946338 1.5256816 2.3605342 -1.9837042 0.8010592 -1.781934 -2.3914077 -1.1522828
-1.8710836 -0.8617042 -0.16048037 2.116612 -2.40303 -2.0371425 3.0800357 -0.75899935
0.59363645 1.0144107 -1.8813665 0.898453 -0.28692174 -1.6997578 -0.35574874 -0.04595843
-1.1942412 1.2101718 2.4394135 1.0056022 1.4003063 1.0032637 1.1666639 1.8316929
3.58577 -1.3257755 -1.1865356 -0.57350266 0.28381717 0.64351386 0.42071903 -0.2865217
0.21863976 -1.0769733 -0.5447591 -0.44108248 1.0601506 -1.047491 0.76870155 0.8904235
-1.0774761 -0.44254863 -0.6753405 2.199417 0.18912019 -0.1618856 -1.1122731 0.22334935
-0.9372108 1.1631256 -1.0762349 1.7367405 1.5847393 0.9982858 1.2772777 0.025463333

lin1.weight f4 [1024, 128]
00000000: 13c0 153b b83e 503c 469f 23b9 08cb 913b
00000010: 9ee5 323a 066a 183a 08bc f53b 69f3 1cbc
00000020: f4a7 e73a 6c33 1d3c d44c 5c3a be0e 2ebb
00000030: 08c6 eabb 3bcc 583c 070b 05bc dd8e c0ba
00000040: fb58 0f3b 4413 a6bb 989b 64b8 62ae c3b8
00000050: 10d7 533c 276b 8abb a1d8 15bb 30b6 913c
00000060: 05ab 443c 8b49 ef3b 0635 053c b123 6ebc
00000070: 0f81 45ba fb52 7dbb e93c 1c3b 6afd 3d3c
00000080: 36ec e6bb e686 223c 6a91 1639 c8bd 463b
00000090: 02b2 423c 695e 7439 e0a7 c73c 90af 0d3c
000000a0: 6240 4d3c f2af 7ebc f26a b4bc 6864 0b3c
000000b0: d2c0 debb 9639 dabb 1c82 1d3c d340 a0ba
000000c0: 009d 633c 1ffd 8f3b 6747 1abc af2c 18bb
000000d0: 252b aa3c 3621 403c 3477 46bc 2acc 14bb
000000e0: b512 bdbb 3c92 b23a db07 26bb dcff 45bc
000000f0: de1f 7dba 2b97 613a 479d 253c 6f56 313c
00000100: 0ea4 da3a 068e 2ebc 3197 4fbc 17f7 71bc
00000110: 073b c1bb 8f65 273b 8097 1c3b 3365 b73b
00000120: 6054 43bc 23f2 863a cc73 483c fd83 81bc
00000130: 9929 aeba 7e12 6fbc 28b2 69bc 1b9e 80bc
00000140: bfe9 8abb 2a57 2bbc c757 173c c505 573b
00000150: f25f f63a c012 893b c92f 0d3c 65bb dd3a
00000160: 90b6 d43b c672 3fbc 2492 72bb ec46 84bb
00000170: 46dc bb39 22eb 79bc 0780 b1bb af0b a83b
00000180: 3059 fc3c 730c 023c 9f36 90bb 5a26 e8bb
00000190: 20d1 173c ab4e 393b a489 dcbb 55b9 6d3a
000001a0: 8393 aa3c 38ad e5bb 2907 433c d816 d9bb
000001b0: 8c57 933b 126a 42bb 1fab da3b df0f 5a3c
000001c0: 3850 6abc e2c5 96bb 0238 303c cf95 303c
000001d0: 610d fe3a 7363 3ebc c744 d9ba d7f5 1aba
000001e0: 5c32 debb 1918 243c ce1d ab3c 7c7c b23b
000001f0: fba9 04bc b404 0b3c 0b74 b83b 6368 433c
00000200: 97cc 11bd 5307 7a3e 574b dabe d7bc 18bd
00000210: b2e5 94be f527 a3bd 6fbf a93c 12e4 c23e
00000220: a6e9 00bc d52d c6be 4d50 783e f7f0 55bb
00000230: b880 8fbe 7e23 2e3e 7846 9bbd 6326 babe
00000240: f521 b9be 6f27 b6bc f93b c2bc cdd4 8abd
00000250: 30ea 92be 3e22 dfbd 154b f4be f277 bbbe
00000260: 40da 3ebe 291f 823b 8f16 96bd 3d75 2e3e
00000270: c229 b9bd bb12 94be a9f4 2c3e ca40 7ebc
00000280: 45ce f7bd aca5 9cbc 8666 a2be 6dcc 913d
00000290: c5df 92be 5fee d3bd ebd2 a73e d541 31bf
000002a0: b565 87be 5b34 5abe 6c95 08be e4c4 15bf
000002b0: 412c 90be 80bf 683e 057a cd3b 29ad 0e3f
000002c0: d897 00be 09a8 90be 7442 8abc 7bd1 c7be
000002d0: 1290 c63e ac7b 60be 7568 283c 4df0 9b3e
000002e0: c18f 1fbe 6903 913e cafd e73e e56d 3d3d
000002f0: c4e9 803e 3bee 483b 35f6 1f3e 01c9 93bd
00000300: ae5c febe 6edc 093e 5eca 1abf 2283 183d
00000310: 6ed9 893d 6522 bebe d6a6 44be f5e2 98be
00000320: b1b3 883e a406 0d3e 76ee 883d ffc9 8abe
00000330: 0b27 ef3d 00c5 49be f4cf eb3d 47f6 b8be
00000340: c3a2 0abf 1503 1f3e eaa9 0fbe d746 95bd
00000350: 362f 243e 7389 e03d 67f1 a13e 3170 71be
00000360: b3e6 77be 0e26 853e fc80 f2bb bfe8 633e
00000370: 9ed8 c0bd 92a5 62bd 9e5c 37bd 51d0 d63d
00000380: 73e4 c43e 5a86 e3be 2ac4 43bd 49b0 60bb
00000390: ecc1 e5be edc0 b73e a32a 90be e90e a93a
000003a0: b3d7 fbbe c47e 0e3e 8e2a 81be de6a 363e
000003b0: ef9b 1bbe 9124 6a3c f012 11be 2179 6cbe
000003c0: b812 a33e a656 e33e a028 823d 962e 8dbe
000003d0: 600b 0f3d 5150 23bf c1f4 bebc 2374 3fbe
000003e0: d3ec 863e b871 953d d033 cdbe cc48 a43d
000003f0: ad29 1bbe be54 98bd 2c20 343e 8acb eabd
0.002285008 0.012710266 -0.00015604225 0.004449252 0.0006824377 0.00058141386 0.0074992217 -0.009579518
0.0017673955 0.009594779 0.0008403782 -0.002655908 -0.0071647204 0.013232286 -0.008120305 -0.0014691014
0.0021873105 -0.0050682146 -5.4504344e-05 -9.330806e-05 0.012929693 -0.0042241993 -0.0022864717 0.01778707
0.012003665 0.007302468 0.008130318 -0.014534877 -0.0007534185 -0.0038654197 0.0023840016 0.011596063
-0.0070472015 0.009919858 0.00014359286 0.003032552 0.011883261 0.00023304824 0.024372041 0.008647814
0.012527557 -0.015544878 -0.022023652 0.008507825 -0.0067978883 -0.006659697 0.00961354 -0.001222635
0.013892412 0.004394188 -0.009416438 -0.0023219993 0.020772526 0.011726668 -0.012113381 -0.00227047
-0.0057700523 0.0013623904 -0.0025334272 -0.012084927 -0.00096559327 0.00086055946 0.010108299 0.01082383
0.0016680972 -0.010653978 -0.012670324 -0.0147683835 -0.005896929 0.0025542711 0.0023894012 0.0055967807
-0.011921972 0.0010295551 0.012234639 -0.015810007 -0.0013287544 -0.014591811 -0.014263667 -0.01570039
-0.0042392905 -0.010457793 0.009237236 0.0032809835 0.0018796904 0.0041831434 0.00861735 0.001691681
0.0064914897 -0.011685079 -0.0037013376 -0.004036775 0.00035831536 -0.015253814 -0.0054168734 0.005128346
0.030804247 0.007937538 -0.0044010426 -0.00708465 0.009266168 0.002827565 -0.006730275 0.0009068449
0.020822292 -0.0070091747 0.011903563 -0.0066250376 0.0044965204 -0.0029665274 0.0066732313 0.013309448
-0.014301352 -0.004601226 0.010755541 0.010777905 0.0019382649 -0.01162039 -0.0016576283 -0.0005911267
-0.0067809056 0.010015511 0.020888235 0.0054469686 -0.008097167 0.008485008 0.005629068 0.011926743
-0.035595503 0.24416856 -0.42635605 -0.037289467 -0.29081494 -0.079666056 0.020721165 0.3806463
-0.007868206 -0.38706842 0.24249382 -0.0032644847 -0.28027892 0.17005727 -0.075818 -0.36357412
-0.3615872 -0.0222356 -0.023710238 -0.0677887 -0.28694296 -0.10895203 -0.47713533 -0.3661495
-0.18637943 0.0039709997 -0.073285215 0.1703691 -0.09041168 -0.2892054 0.16890205 -0.015518377
-0.1209989 -0.019121967 -0.31718844 0.07119069 -0.28686348 -0.103482 0.32778105 -0.69241077
-0.26444784 -0.21309035 -0.1333825 -0.58503556 -0.28158763 0.22729301 0.0062706494 0.5573297
-0.12557924 -0.282532 -0.01687739 -0.39027008 0.38781792 -0.21922177 0.010278811 0.30456772
-0.15582182 0.28322914 0.45310813 0.04624738 0.2517835 0.0030659575 0.15621264 -0.07216073
-0.49680084 0.13462994 -0.6046504 0.037234433 0.067309245 -0.37135616 -0.19204268 -0.29860654
0.26699594 0.13772064 0.06686108 -0.27107236 0.11677369 -0.19704056 0.11514273 -0.36125395
-0.54154605 0.1552852 -0.14029661 -0.07288902 0.16033635 0.10963716 0.31629488 -0.23577954
-0.24209099 0.26005596 -0.00740063 0.22256754 -0.094163164 -0.05533368 -0.04476606 0.10488952
0.38455543 -0.4443844 -0.0477945 -0.0034284762 -0.44874513 0.35889378 -0.2815753 0.001289812
-0.49188003 0.13915545 -0.2522778 0.17814204 -0.15196203 0.014290945 -0.1416738 -0.23093082
0.3185022 0.44402045 0.06355405 -0.27574605 0.034922957 -0.6379443 -0.023310067 -0.18696646
0.26352558 0.07297081 -0.40078592 0.080216974 -0.15152617 -0.07438038 0.17590398 -0.11464603

lin1.bias f4 [1024]
00000000: fedd 04bb 7b8d 2bbc 48d5 fb3d 32d0 9cbe
00000010: 427e 62be e950 c1be 697f cf3d 8c2a 2fbe
00000020: e9f1 1dbd 3e6e ffbe a6f8 183e 510e b4be
00000030: 52fa 293c 1faf b63e 28ae 613c c119 bb3d
00000040: e4a6 4b3e 4743 b1bc 0dc3 e33d 25d4 e93d
00000050: de80 5a3e 6d64 1a3d 1630 62bd 7869 0c3e
00000060: 4a25 d73d e108 843d 568c ab3c b817 ae3d
00000070: 60ab f23e cf01 00be 54ee 613e 89b0 9ebd
00000080: f8c4 913e 4390 c0bd 1989 b33d afb0 553c
00000090: 921d b2bd 5138 bdbc 223c 2c3e db3a 023c
000000a0: 82a0 fbbd 212c 87bd 1e55 bc3e 95fa 173e
000000b0: 995c 1f3d 5426 8bbc e7bd 2fbc c792 debc
000000c0: bab5 423d 6076 703a 4a11 2e3d 4a52 0d3e
000000d0: 89b1 873c d1c0 943e b2e0 033c 6e0e 723e
000000e0: ca2b aabc 0a3c e23d 3818 483d 6016 d1bd
000000f0: f924 df3d 3cd0 80bc 2031 153e 4239 27be
00000100: 4500 17be 1d13 0bbe 93a5 73be 3250 7a3a
00000110: f089 c7be d684 31bd 000e 48bd a62f 3a3c
00000120: 5f73 cb3d 708f a0be 6fca 783e 52fb 863c
00000130: 600d 37bd 6561 82bc a88c 77be 3f4c 9e3c
00000140: d6d8 7cbe a456 90be 38b9 c53c bc0f d13e
00000150: 3ee8 edbe a9e2 b8bb 9c29 103e c947 9b3c
00000160: b7e5 13be abcc 1dbe bd5e 8cbe 2ccf c53d
00000170: 62b1 65ba c417 d83d 56eb 10be fcec bb3d
00000180: 4200 9b3c 3524 2c3d ca22 58bc 7eea 1c3d
00000190: f831 97bc 5898 f03e 526c 683d 79bd a4bb
000001a0: 5774 b5be e1e0 b03e 2ef5 483d 5396 debc
000001b0: 13b6 393e 8df7 1c3d 7d21 403e 6e5a 24bc
000001c0: d84b f13c e717 df3d e031 a7bc 9dd5 f13d
000001d0: 7c04 9d3d 9fef 31bd df8c 93be d4a4 673e
000001e0: c4a5 9f3d 21cb 083e 7739 203e b218 0ebe
000001f0: 5d42 10bd 87db b2bd b188 8cbd b0a4 91bd
00000200: b697 54be ea99 f03d 2377 5bbe 0db9 60be
00000210: 5f97 1dbe b2a6 06bf 5698 ddbc f0a4 d0bd
00000220: 7fa9 22be 26f0 283e edce 2fbe 26c4 05bc
00000230: d100 bf3e 4fa0 aebe b763 273e 8348 1c3e
00000240: 7da3 bd3e 6ddc 973c 3974 f53c 9588 afbc
00000250: daea 98be fd04 123d 180e ea38 04c6 09bd
00000260: fc59 843d 1206 00be 95e5 2ebe bd98 473e
00000270: c7e7 553e ade6 a7bd bfdb c33d 9ded 06bd
00000280: 51b7 dc3d d14e f13c 8792 9bbd ea3b 61bb
00000290: 0a46 58bd dc7a 433b d88c cbbd 9837 c1be
000002a0: db8e 17bd 72bb 2ebe 3a1a 5b3e 7c5b 87be
000002b0: 16a0 1dbf d023 e53c a3e5 5a3e e4e3 d0bb
000002c0: c30c cdbe 8a1b 173e 5140 66be eb12 07be
000002d0: 4e9c 953e 9656 cf3d 0b54 2e3d 37de 2abd
000002e0: 34b2 05be 7b49 89be a001 9c3c bbfd fdbd
000002f0: 52e6 a1bd abe8 843d beff 183e 560d 92be
00000300: 3e2c 4f3e 4793 273e 1ab2 b73e efbc 5abe
00000310: 534f 83be 54c0 973d 96ae 1f3e 0346 9bbd
00000320: 2bbc aebe ed85 263e 5de0 a4bd 20b5 7d3c
00000330: b11e 6b3a 11be e13c 5f26 a2bd 8a00 ddbd
00000340: 7871 48be 0c6c 95be 2aa9 80bd 259d 643c
00000350: bad0 b23d 5f23 243c be1f e33d 163f 863e
00000360: f3bb b03c e4c1 a43e 17af 1a3e b44f 73be
00000370: fce1 2e3e 001e d9bd 5c50 82bd c885 243b
00000380: 3019 1ebe 0007 4dbe e28d a03c 5c0e 4c3c
00000390: 28ef 363e 17e2 8abe fca2 9fbd 3c24 643e
000003a0: e634 0dbe 94d7 943e 9dab 403e 56ff ceba
000003b0: bbbe e2bd 5d2f 4c3b c60f b23e e77b 89bd
000003c0: 5ad0 c5bd d6ea 003d 8a61 2b3e b7fe 873d
000003d0: 6f8c 04bf a2fc 4bbd 279d a3be dc0a c43d
000003e0: 74dd 073d 7532 f9bd dcfc 783e 5a0e 43bd
000003f0: aefe a1be ca76 e1be eec2 a73e ca93 92be
-0.002027392 -0.010470743 0.122965395 -0.3062759 -0.22118476 -0.37757042 0.101317234 -0.17106074
-0.03856078 -0.49888796 0.14938602 -0.35167173 0.010374622 0.35680482 0.013774432 0.091357715
0.19887882 -0.021638526 0.11121187 0.114174165 0.21338221 0.03769343 -0.05522164 0.13712108
0.10505159 0.06447006 0.02094094 0.08500618 0.47396374 -0.1250069 0.22063571 -0.07748515
0.28470588 -0.09402516 0.08766384 0.013042613 -0.08697046 -0.023098143 0.16819814 0.007948603
-0.12286474 -0.06600214 0.3678369 0.14841683 0.038906667 -0.01698605 -0.010726429 -0.027169598
0.04753659 0.00091729127 0.042496957 0.13800922 0.016564148 0.29053357 0.008049177 0.23638317
-0.020772833 0.11046608 0.04885122 -0.10209346 0.10895724 -0.015724294 0.14569521 -0.16330436
-0.14746197 -0.1358151 -0.2379363 0.0009548693 -0.38972425 -0.043339573 -0.048841476 0.011363899
0.09934115 -0.31359434 0.24295972 0.01647726 -0.04469049 -0.015915582 -0.2417475 0.019323466
-0.24692091 -0.28191102 0.02413617 0.40832317 -0.4646625 -0.0056422544 0.14078373 0.018955128
-0.14443098 -0.15410106 -0.2741603 0.096586555 -0.0008762089 0.10551408 -0.14152274 0.091760606
0.018921021 0.042026717 -0.013191888 0.038309567 -0.018456444 0.4699123 0.056743927 -0.0050274697
-0.35440323 0.3454657 0.049061947 -0.02717129 0.18135862 0.03832202 0.18762775 -0.010031326
0.02945511 0.10893231 -0.020409524 0.118083216 0.07666871 -0.04344141 -0.28818414 0.2262147
0.07795289 0.13358738 0.15646921 -0.13876608 -0.03521954 -0.08733278 -0.06862009 -0.0711149
-0.20760998 0.11748107 -0.21432166 -0.21945591 -0.15389775 -0.52598107 -0.027050178 -0.10187709
-0.1588497 0.1649786 -0.1716878 -0.008164441 0.3730531 -0.3410668 0.16346632 0.15262036
0.37038794 0.018537724 0.029962646 -0.021427432 -0.29866678 0.03564929 0.00011160615 -0.033636108
0.06462476 -0.12502316 -0.17079766 0.19491859 0.20889197 -0.08198295 0.095633976 -0.03294145
0.10777152 0.029456528 -0.07596307 -0.0034367987 -0.05280117 0.0029827869 -0.09938973 -0.37737727
-0.037001472 -0.17063692 0.21396723 -0.26436985 -0.61572397 0.027971178 0.21376662 -0.006374823
-0.400488 0.14756599 -0.22485472 -0.1319081 0.29220814 0.10123937 0.04256062 -0.041715827
-0.1305626 -0.26813874 0.019043744 -0.12401911 -0.07905258 0.064896904 0.14941308 -0.285258
0.20231721 0.16364776 0.35878068 -0.21361135 -0.25646457 0.074097306 0.15593943 -0.07581713
-0.34127936 0.16262026 -0.080506064 0.015485078 0.0008969112 0.027556451 -0.07917475 -0.107911184
-0.19574535 -0.29183996 -0.062822655 0.013953482 0.08731218 0.010018199 0.11090039 0.26220006
0.021573996 0.32179177 0.15105854 -0.23760873 0.17078394 -0.10601425 -0.063629836 0.0025104154
-0.15439296 -0.20022202 0.019598905 0.012454595 0.17864668 -0.27125618 -0.07794759 0.22279447
-0.1378971 0.29070723 0.18815465 -0.0015792649 -0.11071535 0.003115616 0.3477766 -0.067130856
-0.096588805 0.031473957 0.16736427 0.0664038 -0.51776785 -0.049801476 -0.31955835 0.09572384
0.03317018 -0.12167827 0.24315208 -0.04762111 -0.31639618 -0.4403594 0.32765907 -0.2862838

lin2.weight f4 [98, 1024]
00000000: b1af 32bc 10a6 e63c 4137 1b3c ce68 10be
00000010: 4275 e7bb 343b 6fbd d65c d3bb 382c 11bc
00000020: 9844 613c c3d5 0ebe 6a2b ea3b 17d4 58bd
00000030: a213 daba 4758 083e 7c34 e03a c82d f43c
00000040: 82c1 473e 56b2 a73a 505f 543a 19bf 42bd
00000050: 9115 bb3b 12a4 b73a 170f e5bb f59e 30bc
00000060: fb84 bfbd 5932 403b e760 bc3a 5e45 7ebb
00000070: 8fb3 793d 2e1f fdbd 8f81 56bd 352a 32bd
00000080: cda9 a63a 7e49 93ba d4ae 5cbc 8b03 38bc
00000090: 0991 65bb 5ff3 e53b 4bdf a23e 4884 7ebb
000000a0: f929 7a3c 1a4b 86bb 6b86 41bd 7dfc 363b
000000b0: d952 1e3c 3734 0b3b 510a 2fbc f062 003b
000000c0: 4885 9b3b c7b0 d43a ff79 13bd b826 adba
000000d0: fae2 c2bb 2ca3 8b39 5904 3dbc ee54 94bb
000000e0: 0161 76bb 6b2e f43b 71b4 af3b fb45 a0be
000000f0: 761d debb 14e2 a5bc 48a3 37bb 5290 88bb
00000100: 16ec 77bb 0950 c3bb 075a 9ebd f14c 2f3b
00000110: d80d 0dbd b81e 183b ff5d ddba a763 bdbb
00000120: e7ab 20bd df3b 19be 111e c03c dba4 62bb
00000130: 7718 1dbc 59ca 233b cfaf fa39 32b9 01bc
00000140: 6e49 92bb 507d c5bb 5906 b6bb ea26 a7bd
00000150: bd3d ea3a b401 4cbb d3af dbb9 da9e 0fbc
00000160: e85a d0ba 4fa8 eb3b 55ad 543b 7f5f 403a
00000170: b6de e9bd 8339 3fbc 6c1a bcbb e88f 44bb
00000180: 2489 063f 25c0 5bbc 8d91 40bc 258a d4ba
00000190: 4504 d0bc 1bb0 dabb 1bbb 21bc e22a 303e
000001a0: bbba 493e 9e97 fe3d e2cf ee39 ae58 58bb
000001b0: 5a12 1f3c 8bdb 6abb bf93 a93b 4b49 59bb
000001c0: 8181 273e 8c85 8dbb 44ad 223d 8180 86be
000001d0: bec3 b13a b372 9bbe ab11 5bbd 18d5 263e
000001e0: 1263 313c 6a25 28bc a5be a2bd 68ce 113e
000001f0: abea 2a3b 3243 07bb f595 53bc 4478 b03c
00000200: 6e85 2cbc b820 243d 6e0b b1bd 6036 393c
00000210: 70dc a23c 466a 5fbb 5372 5a3d d908 d83a
00000220: 5ec1 f43b 3a60 65bc 0cf6 f03d d429 053c
00000230: 10f1 d73d ebdc ffbb 3b26 313d 098d 0d3c
00000240: d86b 0b3e 2d17 6d3c 1779 acbc bf9d d1bb
00000250: 0de2 c6bb c9e1 09bc 1f88 963d 83ec 373c
00000260: 0309 273c e832 083e 07f5 fa3d fab4 0a3d
00000270: 1144 9d3c 5f9c 4ebc 8d86 8b3d 5c91 b7bb
00000280: 6430 3d3b 8d22 0e3c 9141 f2ba 8ad8 59bc
00000290: eab6 7bb9 7628 253b 1201 a9be e695 75bc
000002a0: 0c55 a73d d2a4 8ebd dcd7 a13d 17c1 11ba
000002b0: 56d5 c7bd ae8c 57bb f1f1 8ebd 7732 073e
000002c0: 2c07 1a3e ae03 063c be88 82be b23d abbb
000002d0: b7bd 39bc 27e0 4e3c 0b82 7d3d ae47 eeb9
000002e0: 2645 23bc c936 92bd 2636 d9b9 d2d0 a93b
000002f0: 4b5d e43a 84c5 dcbc 6601 833a 1eda d5ba
00000300: 7922 b13b 39b7 05bc bf1c b3bb afa5 03bc
00000310: 827d 6dbd e8ae 7cbe 02fc e13b 1196 88bc
00000320: 390b 783b b287 6cbb d459 43b9 a6a2 f23b
00000330: ec96 3abc 5893 6a3d 7ae6 34be ed12 25be
00000340: ac20 0e3c 84ed bb3b 6188 d2bc 2c77 81bc
00000350: 3206 2d3b 7363 1a3c 09fe ccbb e033 19bd
00000360: 09d0 f5bb 60c0 763b 89f5 983b 76dd e9bd
00000370: 3fff 87bc 3226 1dbc f201 343b d0ca c03b
00000380: d304 9b3c 8af2 7fbb c858 493c 953c b23a
00000390: 391f 4dbd 8419 9bbd 477f b53b 96a9 7238
000003a0: bb35 063c bbd6 74bd a593 f6ba 4827 af3e
000003b0: 1867 b8bc ed6e 833b 78d3 d03c 724d 823b
000003c0: f8d4 0dbc ca23 2abb 2535 febc 0d1b 8bbd
000003d0: 014e a2bd 1ccb 2b3a 220c a6bb b428 b5bb
000003e0: a6bf 43bb e7b3 bdbb 693d f33b 31b6 31b9
000003f0: 97c6 cc3a be28 cfbb f463 f8bd be98 073e
-0.010906146 0.028155357 0.009473623 -0.1410248 -0.007063539 -0.05840607 -0.006450276 -0.00886064
0.013749264 -0.13948731 0.0071462886 -0.05293664 -0.0016637931 0.13314925 0.0017105485 0.029806986
0.19507411 0.0012794237 0.0008101361 -0.047545526 0.005709358 0.0014010689 -0.0069903242 -0.010780086
-0.09351536 0.0029326885 0.0014372141 -0.003879867 0.060962256 -0.12359463 -0.05236965 -0.043497283
0.00127154 -0.0011237112 -0.013469417 -0.011231313 -0.0035029075 0.0070175375 0.31810984 -0.003883617
0.015268796 -0.0040983083 -0.04724733 0.002792149 0.009663307 0.002124084 -0.010683612 0.0019590221
0.004746113 0.0016227 -0.036005016 -0.0013210392 -0.005947468 0.00026633719 -0.011536681 -0.004526726
-0.003759444 0.0074518225 0.0053620865 -0.3130339 -0.0067784144 -0.020249404 -0.0028020907 -0.004167595
-0.0037829927 -0.0059604687 -0.07732015 0.0026748742 -0.03443703 0.002321167 -0.0016888975 -0.0057797018
-0.03922644 -0.14964245 0.023451837 -0.0034583125 -0.009588352 0.0024992435 0.00047814703 -0.007917689
-0.00446432 -0.0060269013 -0.005554956 -0.08161719 0.0017871183 -0.0031128945 -0.00041901934 -0.0087659005
-0.0015896233 0.007191695 0.0032451947 0.0007338449 -0.11419432 -0.011671427 -0.0057404544 -0.0029993001
0.5255301 -0.01341251 -0.011753452 -0.0016215487 -0.02539266 -0.0066738254 -0.00987127 0.17203858
0.19700138 0.124312624 0.00045549782 -0.0033011842 0.009708965 -0.0035836424 0.0051750834 -0.0033155258
0.16357996 -0.0043188985 0.03971602 -0.26269916 0.0013562364 -0.30360946 -0.053483646 0.16292226
0.010826843 -0.010262826 -0.07946519 0.14238894 0.0026079814 -0.0020639417 -0.0129141705 0.021541722
-0.010529859 0.040070266 -0.08644758 0.011304468 0.019880503 -0.0034090444 0.053331684 0.0016482129
0.00746934 -0.013999993 0.1176568 0.008127648 0.10544026 -0.007808318 0.04324935 0.008639582
0.13615358 0.014470858 -0.021053834 -0.0063969786 -0.006069428 -0.008415648 0.07350182 0.011225822
0.01019502 0.13300669 0.122537665 0.033864 0.019197496 -0.012610524 0.06812773 -0.005602045
0.0028867954 0.00867523 -0.0018482675 -0.013296256 -0.00024005366 0.0025201119 -0.3300863 -0.014989352
0.08170518 -0.06965031 0.079025 -0.00055600837 -0.097574875 -0.0032890248 -0.069797404 0.13202845
0.15041798 0.008179588 -0.2549495 -0.0052258605 -0.011336735 0.012626684 0.061891597 -0.00045448303
-0.009965217 -0.07139356 -0.0004142981 0.005182364 0.0017422823 -0.026949652 0.0009994924 -0.0016315614
0.005405721 -0.0081613595 -0.0054660733 -0.0080351075 -0.05798102 -0.24676096 0.0068964968 -0.01667312
0.0037848486 -0.0036091623 -0.00018630113 0.007404643 -0.011388522 0.057269424 -0.17666045 -0.16120501
0.008674782 0.005735101 -0.025699796 -0.015803896 0.0026401398 0.009423125 -0.0062558693 -0.037402987
-0.0075016064 0.0037651286 0.004667942 -0.114191934 -0.016601203 -0.009591626 0.002746698 0.005883552
0.018923199 -0.0039054477 0.0122892335 0.0013598377 -0.050078604 -0.07573226 0.0055388543 5.7855235e-05
0.008191521 -0.059775095 -0.0018812312 0.34209657 -0.022510096 0.004011026 0.025491461 0.0039765174
-0.008656733 -0.0025961273 -0.0310312 -0.06792269 -0.07925034 0.0006553398 -0.0050673643 -0.005528534
-0.002986887 -0.0057892683 0.007423092 -0.00016947907 0.0015623149 -0.0063219955 -0.121284395 0.1324186

lin2.bias f4 [98]
00000000: 9296 0bbe 0aa9 3b3f c65d 1ebf 52c4 a3bf
00000010: 81ed 36c0 b3d8 36c0 403a 6abf 4ac1 93bf
00000020: 9411 90bf 73b8 8ebf 16e4 a2be 6a5b 59bf
00000030: c629 8dbe ed7e 35c0 41d3 94bf 9bae 62bf
00000040: 79d9 1fbf daf1 5bbf c26e 2dbf f195 57bf
00000050: f5fa 4bbf e9ba 4fbf f1ce 45bf da2c 6cbf
00000060: 338d 28bf 248b 5cbf c410 1fbf 1f64 35be
00000070: bde0 f4be 170f a0be 0bea fcbe d9c0 6abe
00000080: 734e c5be d83a 11bf dfed 70be d191 a13d
00000090: 238d e6be 1f80 3abf 25fa 91be 225a 5cbe
000000a0: e5ac c2be 8aa5 69be 93d1 e4be d8a4 43bf
000000b0: 6997 b8be 7959 95bd 992d 99bd 9597 6ebf
000000c0: db39 3cbf a8e4 98be 072f 6cbf e66a babe
000000d0: 02f7 88bf d0fa 9ebf 59ad 40c0 27b0 10bf
000000e0: 3619 de3e d0a4 e9bd 80b4 a037 0ca1 173d
000000f0: 6408 d43e 8487 3abe d7ec a6be 7e59 95bd
00000100: 0e49 ba3e 9c20 70bf d1b1 0cbf b329 fc3d
00000110: 9673 8abd 4822 243e 042b 923e 0152 a8be
00000120: f225 6bbf 5315 b43e d131 dd3e f578 da3e
00000130: 496b a7bd 7cca aebe 545d 79bd 0ec7 38bf
00000140: d79d c5bd e6ac 86bf 9c8a 4bbf 7aeb 84bf
00000150: 8afe 96bf 3448 b0bf 80ec 8bbf 781c 39c0
00000160: 3ddc a8bf b375 8ebf a3f1 30bf 7fed 41be
00000170: 02ad 53be b65f 10bf e539 07bf d3ce 36c0
00000180: 736a 38c0 d8a8 36c0
-0.13631657 0.7330481 -0.61861837 -1.2794287 -2.858246 -2.8569763 -0.9149513 -1.1543362
-1.1255364 -1.115004 -0.3181464 -0.8490511 -0.27570933 -2.835872 -1.162697 -0.88547677
-0.6244121 -0.8591591 -0.6774713 -0.8421317 -0.79679805 -0.8114458 -0.7726889 -0.9225594
-0.6584045 -0.8614981 -0.6213496 -0.17713974 -0.47827712 -0.31261513 -0.4939731 -0.22925128
-0.38536415 -0.56730413 -0.2352824 0.078891404 -0.45029554 -0.7285175 -0.28511158 -0.21518758
-0.38022533 -0.22817054 -0.44691142 -0.76423407 -0.36053017 -0.07292456 -0.074794 -0.93200046
-0.7352578 -0.2986195 -0.9225926 -0.36409682 -1.0700381 -1.2420292 -3.0105803 -0.5651879
0.4337861 -0.114083886 1.9157538e-05 0.03701882 0.41412652 -0.18215758 -0.3260257 -0.0729246
0.3638386 -0.9379976 -0.54958826 0.12312641 -0.067603275 0.16028702 0.28548443 -0.32875064
-0.91854775 0.3517252 0.4320207 0.42670408 -0.0817476 -0.34138858 -0.06088002 -0.72178733
-0.09649246 -1.0521514 -0.79508376 -1.0384362 -1.1796429 -1.3772035 -1.0931549 -2.8923626
-1.3192211 -1.1129669 -0.6911871 -0.18938254 -0.20671466 -0.56396043 -0.52822715 -2.8563735
-2.8814971 -2.8540554
