models/1_context_2_embedding_32_activation_4.pt (torch, 683290 bytes, 5 tensors)

emb.weight f4 [98, 32]
0	0xbf6ff99f	-0.93740267
1	0xbf204d70	-0.6261816
2	0xbe42fb49	-0.1904117
3	0xbfb57ea5	-1.4179274
4	0x3d9e5129	0.07730324
5	0xbf103ac8	-0.56339693
6	0xbf12ac6c	-0.57294345
7	0xbf9b08d6	-1.2112072
8	0xbeba93dd	-0.36440936
9	0x3e6b237a	0.22962752
10	0xbefccb04	-0.4937364
11	0xbee98be5	-0.45614544
12	0x3d0583e3	0.03259648
13	0x3fa610cd	1.2973877
14	0x3d18e432	0.037327
15	0x3ea1028a	0.3144725
16	0xbf529fb9	-0.8227497
17	0xbf7381df	-0.9512004
18	0x3f3e3c24	0.7431052
19	0xbd73ab6c	-0.059489653
20	0x3f879bd0	1.0594425
21	0x3ea4ad1b	0.3216332
22	0xbeb3c00b	-0.35107455
23	0x3f4bb307	0.7957005
24	0x3f444197	0.7666258
25	0x3c0eef29	0.008724012
26	0xbfcb062e	-1.5861261
27	0xbf936516	-1.1515224
28	0x3ea0e851	0.31427243
29	0xbf33b8fc	-0.7020414
30	0xbf903191	-1.1265126
31	0xbb3d7d4f	-0.00289138
32	0x3f56e3d0	0.83941364
33	0x3a745e59	0.000932192
34	0x3c81f11c	0.01586204
35	0xbe4671b6	-0.19379315
36	0x3d637919	0.05553541
37	0x3d94613b	0.07245108
38	0x3dcddbac	0.10051665
39	0xbe158f0d	-0.14605351
40	0xbd92c3e1	-0.07166267
41	0xbcae587a	-0.021282423
42	0xbd1426a5	-0.036169667
43	0xbdc07df8	-0.09399027
44	0x3f47492f	0.77846044
45	0xbeab19f7	-0.33418247
46	0x3f26c602	0.65145886
47	0xbe28e7b8	-0.16494644
48	0xbe9df9a1	-0.30854514
49	0x3e55425a	0.20826092
50	0x3d0770c9	0.033066545
51	0xbe00ff6e	-0.12597439
52	0x3e7fed68	0.24992907
53	0x3deba2a9	0.11505634
54	0x3e96f88e	0.29486507
55	0x3f99be88	1.201127
56	0x3e1e18b7	0.15439115
57	0x3e9bfbc8	0.3046553
58	0xbda627d3	-0.081130646
59	0xbea2d1a7	-0.31800577
60	0x3f144731	0.5792113
61	0xbea85235	-0.3287522
62	0xc002e035	-2.0449345
63	0xbe70d56a	-0.23518911
64	0xbe85f772	-0.26165348
65	0xbfd4b217	-1.6616849
66	0xbe28bfd1	-0.16479422
67	0x3e20a8dc	0.15689415
68	0x3eb1a39b	0.34695134
69	0x3dc93a75	0.09825603
70	0x3fab925d	1.3404042
71	0xbf13f6e0	-0.57798576
72	0xbf100371	-0.5625525
73	0x3f0c25c2	0.54745114
74	0xbf8ac3b2	-1.0840971
75	0xbed5d392	-0.41762978
76	0xbf15f02d	-0.58569604
77	0xbe93397e	-0.287548
78	0x3e20231d	0.15638395
79	0xbfb77dbf	-1.433525
80	0xbf3ebae2	-0.7450391
81	0xbea4d3e1	-0.321929
82	0xbfc6b90a	-1.552522
83	0x3f5e006d	0.867194
84	0xbf4ba5d9	-0.7954994
85	0x3f2ca70d	0.674424
86	0x3f0ea6a9	0.55723053
87	0xbe24c99b	-0.16092531
88	0xbe173867	-0.1476761
89	0xbea0d4b3	-0.31412277
90	0xbcf06883	-0.02934671
91	0x3f8e35b5	1.111014
92	0xbf5bf7d4	-0.8592503
93	0xbefa5320	-0.48891544
94	0x3f2c8c5a	0.6740166
95	0x3ea3f6f7	0.32024357
96	0xbe5af00c	-0.21380633
97	0x3fbddca1	1.4832956
98	0xbe74d050	-0.2390759
99	0xbfd8f8b7	-1.6950902
100	0x3fd40d12	1.6566489
101	0x3e229f6e	0.1588113
102	0xbf9f7a6e	-1.2459238
103	0x3f6d1536	0.9261049
104	0x4036b083	2.8545234
105	0xbf258e74	-0.6467049
106	0x3f4c3f43	0.7978403
107	0x3ed2844b	0.41116557
108	0xbfdc0a05	-1.7190558
109	0x40015090	2.0205421
110	0xbe92d8a0	-0.28680897
111	0x3e59bee7	0.2126423
112	0x3f43db82	0.7650682
113	0x3f36752e	0.7127255
114	0x3f3fb238	0.74881315
115	0xbf95b9cf	-1.1697329
116	0x3f24d7d0	0.64391804
117	0x3fbb8cd6	1.4652355
118	0xbf80a3ae	-1.0049951
119	0xbf8bae97	-1.0912656
120	0x403c01d0	2.9376106
121	0x3e280f62	0.16412118
122	0x40126b7b	2.28781
123	0x40307965	2.7574093
124	0xc0125082	-2.2861638
125	0xbedc17ef	-0.4298701
126	0xbfba8d09	-1.457429
127	0x3d507571	0.05089325
128	0x3f365d87	0.7123646
129	0xbfe36497	-1.7765073
130	0x3eb52dbe	0.3538646
131	0x3f998ced	1.1996132
132	0xbe9b227a	-0.3029974
133	0xbfe18407	-1.7618417
134	0x3f22852c	0.63484454
135	0xbf4dea7a	-0.8043591
136	0xbfce38e9	-1.6111118
137	0xbfef9103	-1.8716129
138	0x3f0b0788	0.54308367
139	0x3f29223c	0.6606786
140	0x4012e4bf	2.2952116
141	0x3f2cc6a3	0.67490596
142	0x3fdb4e1f	1.7133216
143	0xbfe5aac0	-1.7942734
144	0xbfae7f89	-1.3632671
145	0xbf7bb448	-0.9832196
146	0x3fc17130	1.5112667
147	0x3f2451a6	0.64187086
148	0x3ef22850	0.4729638
149	0xbedb7029	-0.4285901
150	0x3f0d269d	0.55137044
151	0xbfc61040	-1.5473709
152	0x3f04a304	0.5181124
153	0x3dda2f35	0.10653535
154	0x3e89d9ed	0.26924077
155	0x3fa991fe	1.3247678
156	0x3fdf7d8e	1.7460191
157	0x3fed6fa0	1.854969
158	0xbf34d49f	-0.70636934
159	0x4023a74d	2.5570862
160	0x3ed5c70e	0.4175343
161	0xbe59d2dc	-0.21271843
162	0xbf570776	-0.8399576
163	0xbed70c96	-0.4200179
164	0xbf1fc0d8	-0.6240363
165	0xbf7a3016	-0.97729623
166	0x3f5ff5b2	0.87484276
167	0x3f7cbe78	0.9872813
168	0x3e9e80ca	0.30957633
169	0x3fc2a5f9	1.5206901
170	0x3f9a451b	1.2052339
171	0xbfe86549	-1.815591
172	0xbece9285	-0.4034616
173	0xbf758a86	-0.95914495
174	0xbbaaa561	-0.005207703
175	0xbda1833d	-0.0788636
176	0x3f57f9ba	0.8436543
177	0x3f9535b3	1.1657013
178	0x3f06e507	0.5269322
179	0x3fcf43b1	1.6192533
180	0xbf76c726	-0.96397626
181	0x3e10eac1	0.14152052
182	0xbe2796bc	-0.16366094
183	0xbeb768f3	-0.35822257
184	0x3fdc73a6	1.7222793
185	0xbe9b6e43	-0.3035756
186	0x3e749b70	0.2388742
187	0x3fac083b	1.3440012
188	0x3dd367ff	0.1032257
189	0x3f8cd868	1.1003542
190	0xbeaef0b5	-0.3416802
191	0x3f7284cd	0.9473389
192	0xbf688915	-0.9083417
193	0xbf94c3fa	-1.1622307
194	0x401bde99	2.4354613
195	0xbeaf60ab	-0.3425344
196	0xbe9e2471	-0.30887178
197	0xc03e72a5	-2.9757473
198	0xc0249e41	-2.572159
199	0xbf40e864	-0.753546
200	0xbdb60211	-0.08887113
201	0xbf2ea5e9	-0.6822191
202	0xc02d0317	-2.7033136
203	0x3fc48ca8	1.5355425
204	0xbfa2b7f2	-1.2712386
205	0xbf92dcde	-1.1473653
206	0x3f8955a5	1.0729262
207	0x3f864f4b	1.0492948
208	0x3fc50396	1.5391719
209	0xbe9f72f4	-0.3114239
210	0x3dfb5004	0.12271121
211	0x3e5edd9c	0.21764225
212	0xbedbb5e5	-0.42912212
213	0x403a3a4d	2.9098084
214	0x3fac24d8	1.3448744
215	0x3bd00881	0.00634867
216	0xbfe2a9d1	-1.7708074
217	0x403cf680	2.9525452
218	0x3f8350b1	1.0259
219	0xbf2f9f91	-0.68602854
220	0x3ea2abf7	0.31771824
221	0xbfd189f2	-1.6370223
222	0x4008865d	2.133201
223	0xbe6fbf28	-0.23412764
224	0x3fa5f3e2	1.2965052
225	0xbdf2eb9f	-0.118613474
226	0x3f48e4e1	0.7847424
227	0xbcb0436e	-0.021516528
228	0x3f8ad5d9	1.0846511
229	0x40187a47	2.3824632
230	0x3ee791fd	0.45228568
231	0xbd1a2c01	-0.03763962
232	0xbee3b2d0	-0.4447236
233	0x3ef9006d	0.48633137
234	0xbf88ffe2	-1.0703089
235	0xbbfdc49d	-0.0077443854
236	0x3fa40dee	1.2816751
237	0xc00fca8d	-2.2467377
238	0xbeebd6fc	-0.46062458
239	0xbd96e37e	-0.073676094
240	0xbeb6a620	-0.35673618
241	0x3e006e77	0.12542139
242	0x3f883c27	1.0643357
243	0xbf99b951	-1.2009679
244	0xbebf602e	-0.37378067
245	0xbe09beca	-0.13451687
246	0xbf12df58	-0.57372046
247	0x3f95d962	1.1706965
248	0xbe242149	-0.16028322
249	0xbe0d95e8	-0.13826716
250	0xbf7a5f09	-0.9780126
251	0xbe431169	-0.1904961
252	0xbf0c79ca	-0.54873335
253	0xbfae8624	-1.3634686
254	0x3fccf583	1.6012424
255	0xbf1598f1	-0.58436495

lin1.weight f4 [1024, 64]
0	0x3e2e89f0	0.17044806
1	0x3eacc557	0.33744308
2	0xbebc3e38	-0.3676622
3	0xbe8cceae	-0.27501434
4	0x3dc50e56	0.09621875
5	0x3c85e877	0.0163462
6	0xbe4ff6bc	-0.20308965
7	0x3e772f5b	0.24139158
8	0x3f0f97c3	0.56090945
9	0xbde50df4	-0.11184302
10	0x3db1711d	0.08664153
11	0xbeaba751	-0.3352609
12	0xbed97952	-0.42475373
13	0x3dde77dc	0.10862705
14	0x3ebc4570	0.36771727
15	0x3de3c2f8	0.11121172
16	0x3d82828c	0.06372556
17	0x3e2fc991	0.17166735
18	0x3e5665b4	0.20937234
19	0x3ebdfa6a	0.37105113
20	0x3e56cd77	0.20976816
21	0xbed8dda8	-0.4235661
22	0xbe1c0d81	-0.15239526
23	0xbe6738f5	-0.22580321
24	0xbf5b059b	-0.8555543
25	0xbe6111c5	-0.21979435
26	0xbde9a1f3	-0.114078425
27	0xbcbce6fe	-0.023059364
28	0xbef76224	-0.48317063
29	0xbeae9320	-0.34096622
30	0x3ce9c5bb	0.028536668
31	0x3e92f0e7	0.2869942
32	0xbe6c2aa4	-0.23063141
33	0xbdd2fd6f	-0.10302245
34	0xbd105028	-0.035232693
35	0x3eb3e55d	0.35135928
36	0xbe93a9b0	-0.288404
37	0x3b75a6a6	0.0037483363
38	0xbe91cef9	-0.2847822
39	0x3dd9fab1	0.10643519
40	0xbe1dd88b	-0.15414636
41	0xbcccc6cc	-0.024997137
42	0xbe5b71a1	-0.21430065
43	0xbec3a1fd	-0.38209525
44	0xbe8d68ee	-0.27619117
45	0xbede9e63	-0.43480214
46	0xbda61807	-0.081100516
47	0xbea71a93	-0.32637462
48	0x3f0d2975	0.55141383
49	0xbdb50c56	-0.088402435
50	0xbf023c61	-0.5087338
51	0x3e407ed3	0.1879838
52	0xbe6484a2	-0.2231622
53	0x3f03434d	0.5127457
54	0xbd18bf32	-0.037291713
55	0xbdb242a4	-0.08704117
56	0x3e9ca028	0.3059094
57	0xbe2f57c5	-0.17123325
58	0xbc3b005c	-0.01141366
59	0x3e8880cd	0.26660767
60	0xbf0ae28a	-0.5425192
61	0x3eaae76e	0.33379692
62	0x3f00b9cd	0.5028351
63	0x3ef71f1a	0.48265916
64	0x3e2c01ed	0.1679761
65	0x3e19fb54	0.1503728
66	0x3e5c65b6	0.21523175
67	0xbd481e48	-0.048857003
68	0x3e4fc208	0.20288861
69	0xbe0e2e8c	-0.13884944
70	0x3de966bd	0.11396549
71	0x3d131ee4	0.03591813
72	0xbf01bcc7	-0.50678676
73	0x3ddc819f	0.10766911
74	0x3d0c6aa7	0.0342814
75	0xbe4bd74a	-0.19906345
76	0xbe88be48	-0.26707673
77	0xbe10b085	-0.14129837
78	0xbe8e701d	-0.2781991
79	0xbd028e58	-0.03187403
80	0xbee11a45	-0.43965355
81	0x3e0cccbd	0.13749976
82	0x3db5a834	0.08869973
83	0xbd34900b	-0.044082683
84	0x3eadc995	0.33942857
85	0x3e8a3a73	0.26997718
86	0xbe07ae74	-0.13250142
87	0x3e21c90f	0.15799354
88	0x3e5791aa	0.2105166
89	0xbd073511	-0.033009592
90	0x3e92c7da	0.286681
91	0x3e22a362	0.15882638
92	0x3e113ef2	0.14184168
93	0xbd1502d1	-0.03637964
94	0x3d507d24	0.050900593
95	0x3e13abe6	0.14421043
96	0x3d017e15	0.03161438
97	0xbda62644	-0.08112767
98	0x3efdb4bf	0.4955196
99	0x3d9c8767	0.076430134
100	0xbd5fceb9	-0.054640505
101	0xbd6a3872	-0.057182737
102	0xbdf9fe8b	-0.12206753
103	0xbe08ac1d	-0.13346906
104	0x3d064f09	0.032790218
105	0x3d5652f8	0.05232522
106	0x3ed1a951	0.4094949
107	0x3e8b0dec	0.2715906
108	0x3d3e3d76	0.046445332
109	0x3dbee3cd	0.09320793
110	0xbd35b338	-0.04436037
111	0x3e546fdc	0.20745796
112	0xbe560b4f	-0.20902751
113	0xbd872995	-0.06599728
114	0xbea26b19	-0.31722334
115	0xbecbc929	-0.3980191
116	0xbcd8d30b	-0.02646782
117	0x3dba79f1	0.0910529
118	0x3da840b4	0.08215466
119	0x3c804122	0.015656058
120	0xbd797bc1	-0.060909037
121	0xbdb73e15	-0.08947388
122	0xbe253b85	-0.16135986
123	0x3e04b35b	0.12959044
124	0x3d7db1a0	0.061936975
125	0xbcd7d7ba	-0.026347984
126	0xbd8c1734	-0.06840363
127	0x3d0fadb2	0.035077758
128	0x3b3210a4	0.0027170563
129	0x3be2a2fc	0.006916402
130	0xbb35c067	-0.002773309
131	0x3b499f86	0.003076525
132	0xbb94f869	-0.0045462144
133	0x3c130a67	0.008974648
134	0x3b5cf599	0.0033715724
135	0x3b884c1e	0.0041594645
136	0xbb5ce225	-0.0033704129
137	0xba684ad6	-0.0008861249
138	0xbaf33180	-0.0018554181
139	0xbc30f0c6	-0.010799592
140	0x390412ad	0.00012595458
141	0xba657088	-0.0008752425
142	0xbb06277c	-0.0020470312
143	0x3b9a4f7b	0.004709182
144	0xbb83670c	-0.004010087
145	0x3b342362	0.002748691
146	0x3afe0cbf	0.0019382461
147	0x3c08df52	0.008354025
148	0xbbdc51f9	-0.006723639
149	0x3a86f9c8	0.0010297829
150	0x3c1bfa14	0.0095200725
151	0x3b6abd36	0.0035818345
152	0xbbd3f450	-0.0064683333
153	0x3b75159b	0.003739691
154	0xbb63136b	-0.0034649025
155	0x3b2f7270	0.002677109
156	0x3c2d5296	0.010578772
157	0x3b5a36c0	0.0033296794
158	0xbb461f90	-0.0030231215
159	0x3b7c8a6d	0.0038534657
160	0xbb35be9a	-0.0027732016
161	0xbbd1a2cf	-0.006397582
162	0x3bc0ea2e	0.0058872914
163	0x3b0f135e	0.0021831612
164	0xbaa1c3b7	-0.0012341653
165	0xbc2f7ff3	-0.010711658
166	0x3ae112d0	0.0017171744
167	0x3b9b7661	0.0047443365
168	0x3bc45337	0.0059913653
169	0xbc0df46b	-0.008664231
170	0x3b4733d5	0.0030395885
171	0xbc12af61	-0.008952946
172	0xba2b99e8	-0.0006546066
173	0x3b2530e4	0.0025206143
174	0xbb9407e3	-0.0045175417
175	0xbb5dc646	-0.0033840104
176	0x3bc41d79	0.0059849587
177	0x3b898a67	0.004197407
178	0xbb7be0fa	-0.0038433657
179	0x3b542820	0.003237255
180	0x3b525134	0.0032091858
181	0x3afb6700	0.0019180477
182	0xbc2bfa4a	-0.010496685
183	0x3b82647b	0.0039792634
184	0x3b77335d	0.0037719824
185	0xbbadd8f2	-0.005305403
186	0x3c2428da	0.010019505
187	0x3b2d9b73	0.002649036
188	0xbbb9955c	-0.005663557
189	0xbb2b8c9d	-0.0026176341
190	0x3c2180ac	0.009857338
191	0x3bc169fe	0.005902528
192	0xbeaf2d95	-0.34214464
193	0x3ce50b3b	0.027959457
194	0xbedd3f4b	-0.4321235
195	0xbddf7dbd	-0.109126545
196	0x3e3429e2	0.17594102
197	0xbe8dc4aa	-0.27689105
198	0x3ea6bff4	0.32568324
199	0x3da9cef3	0.082914256
200	0xbd63e467	-0.055637743
201	0xbe433586	-0.19063386
202	0xbe96cc86	-0.29452914
203	0x3d23f0b7	0.040024485
204	0xbc855f88	-0.016280904
205	0xbe86a8d9	-0.26300696
206	0x3ee438ed	0.4457468
207	0xbc81df0f	-0.015853433
208	0xbeb2bec8	-0.3491118
209	0x3e8420c1	0.2580624
210	0x3eaa7910	0.33295488
211	0xbc9cf9d5	-0.019162098
212	0xbc125308	-0.008930929
213	0xbd2b50d3	-0.041825127
214	0xbe948efd	-0.2901534
215	0xbdc62964	-0.096758634
216	0x3cfc8304	0.030824192
217	0xbe9adf6e	-0.30248588
218	0x3e464342	0.19361594
219	0xbddf0b76	-0.10890858
220	0xbec13fc6	-0.37743968
221	0x3e7077dc	0.23483223
222	0xbd846d06	-0.06466107
223	0xbe68e97d	-0.22745319
224	0xbe309586	-0.17244539
225	0x3e68536d	0.22688074
226	0xbeeadf78	-0.45873618
227	0x3eaca3f7	0.33718845
228	0x3ebaad82	0.364605
229	0x3e9796ac	0.2960714
230	0xbe07449a	-0.13209763
231	0x3e15385f	0.14572285
232	0x3dfade3c	0.12249419
233	0x3ebefafe	0.37300867
234	0xbf6b87cf	-0.920041
235	0xbebab47e	-0.3646583
236	0xbe825274	-0.25453532
237	0xbe01c18f	-0.12671493
238	0x3ea38251	0.3193536
239	0xbcdb8aa1	-0.026799502
240	0xbe4987a5	-0.1968065
241	0xbd5a2170	-0.053254545
242	0x3ed01af9	0.40645579
243	0x3e8998e6	0.26874465
244	0x3ec2a001	0.38012698
245	0xbdcbf8f4	-0.099595934
246	0xbcf66b56	-0.030080479
247	0x3d867e81	0.065670975
248	0xbe81ee45	-0.25377098
249	0xbe109c8d	-0.1412222
250	0x3eb6cc47	0.35702726
251	0x3e86efb3	0.2635475
252	0x3e87193b	0.26386437
253	0x3deb1ac2	0.11479713
254	0x3e0d009b	0.13769762
255	0x3e80036e	0.25002617

lin1.bias f4 [1024]
0	0x3d98ae7d	0.07455156
1	0xbec75e2e	-0.3893904
2	0xbb638e41	-0.003472224
3	0x3ee4c94a	0.4468482
4	0x3de19f33	0.11016693
5	0x3d3ac58f	0.045598563
6	0xbdce55df	-0.10074972
7	0xb9daceb2	-0.000417342
8	0xbeb23c4b	-0.34811625
9	0xba0f0e98	-0.0005457192
10	0x3db82a31	0.08992422
11	0xbb959e6d	-0.004566005
12	0x3b2a12e0	0.0025951192
13	0x3e6981ca	0.22803417
14	0xbd884243	-0.066532634
15	0xbe92c976	-0.28669327
16	0xbed336db	-0.4125279
17	0x3c317703	0.010831597
18	0xbe7277b1	-0.23678471
19	0x3bd4ef98	0.0064982884
20	0x3eb9ad99	0.36265257
21	0xbe738615	-0.23781617
22	0x3e3747ab	0.17898433
23	0x3dbe50ce	0.09292756
24	0x3e575256	0.21027502
25	0x3ebf894e	0.37409443
26	0xbd9fb9b5	-0.07799093
27	0xbad9c474	-0.0016614334
28	0xbdac24ff	-0.08405494
29	0x3ca6d4ab	0.02036508
30	0x3ea872e9	0.3290017
31	0xbe0b3936	-0.13596043
32	0xbe0a023d	-0.13477416
33	0xbe8ca3cf	-0.27468726
34	0x3e5ba113	0.21448164
35	0x3e47679b	0.19473116
36	0xba93088e	-0.001121776
37	0x3ea829f2	0.32844502
38	0x3d36c5cf	0.04462224
39	0x3e6da044	0.23205668
40	0x3ed5f3c0	0.4178753
41	0x3ea6c02b	0.32568488
42	0xbef8aa30	-0.48567343
43	0x3ea26337	0.3171632
44	0x3e46005a	0.19336072
45	0xbb4fd605	-0.003171326
46	0x3dac7f02	0.08422662
47	0x3eb35274	0.35023844
48	0x3deaadb2	0.11458911
49	0x3ea487a8	0.32134748
50	0xbedf2005	-0.43579116
51	0xbefd2b19	-0.49446943
52	0x3f269aac	0.6507976
53	0xbb847a3d	-0.0040428923
54	0x3b40edba	0.002943857
55	0xbebd2602	-0.3694306
56	0xbdaf4874	-0.08558741
57	0x3e16e1a7	0.14734517
58	0xbe97457e	-0.29545206
59	0x3e223ac0	0.15842724
60	0xbb76f6e2	-0.0037683775
61	0xbe13d41c	-0.14436382
62	0xbe1cf932	-0.15329435
63	0xbb77c7cc	-0.0037808297
64	0x3e0ce348	0.13758576
65	0x3e34d6a5	0.17660005
66	0x3985bedc	0.00025509938
67	0x3e317627	0.17330228
68	0xbe411db4	-0.18858987
69	0xbd805c52	-0.06267609
70	0xbe469359	-0.19392146
71	0x3e7fcdeb	0.24980895
72	0x3db8b65f	0.090191595
73	0xbf06f5f6	-0.52719057
74	0xbe718997	-0.23587643
75	0x3ad47cdd	0.0016211529
76	0xbdc9dbf7	-0.09856408
77	0xbec7b72c	-0.39006937
78	0x3d75ceb6	0.060011588
79	0x3e1feee2	0.1561847
80	0x3e39213b	0.18079083
81	0xbd69ad48	-0.05705002
82	0x3cbec309	0.02328636
83	0xbdc82443	-0.097725414
84	0xbf006ab1	-0.501628
85	0x3e3ebdd6	0.18627104
86	0xbeb97381	-0.36220935
87	0xbd23ee33	-0.040022086
88	0x3d4305d1	0.04761297
89	0x3e3278c7	0.17428885
90	0x3ce3b768	0.027797416
91	0xbdc91806	-0.09819035
92	0xbe6a4e41	-0.22881414
93	0x3d96429c	0.073369235
94	0xbe9b082c	-0.30279672
95	0xbe3e591e	-0.18588683
96	0x3f2e5c35	0.68109447
97	0xbe933954	-0.28754675
98	0xbe95558d	-0.29166833
99	0x3e5c8605	0.215355
100	0x3eacb7b9	0.3373392
101	0x3bcaf013	0.00619317
102	0xba63c9d3	-0.0008689437
103	0x39be49da	0.00036294648
104	0xbe3b13b8	-0.18269241
105	0x3db47934	0.0881218
106	0xbe82cbae	-0.2554602
107	0xbe451bf7	-0.19248949
108	0x3cce31de	0.025170263
109	0x3ea87aa4	0.32906067
110	0xbeb52344	-0.35378468
111	0xbe20ab03	-0.15690236
112	0x3e8f5579	0.27994898
113	0xbe86a6cd	-0.26299134
114	0x3bc0309d	0.00586517
115	0x3efe3395	0.4964873
116	0x3ed9b89d	0.4252366
117	0x3ec736a4	0.38908875
118	0x3e0ad800	0.1355896
119	0x3ea1a268	0.3156922
120	0xbdc40fdf	-0.0957334
121	0xbe07bee8	-0.13256419
122	0x3e7e14d5	0.24812634
123	0x39d491a2	0.00040544296
124	0xbb9231ac	-0.0044614878
125	0xbe388640	-0.18019962
126	0x3e014238	0.12622917
127	0xbdfec203	-0.124393485
128	0xbe78cf1a	-0.24297753
129	0x3ec371a6	0.38172644
130	0xbb9f8f66	-0.0048693893
131	0x3e9c65bd	0.3054637
132	0xbe5cd587	-0.21565829
133	0xbbd9105f	-0.006624266
134	0xbee0b7e3	-0.43890294
135	0xbf086cd4	-0.5329106
136	0xbd9e92bb	-0.0774283
137	0xbdfb515b	-0.12271377
138	0xbdb302fc	-0.087408036
139	0xba476b74	-0.00076072593
140	0xba6cda5c	-0.00090352236
141	0x3d8f8c35	0.07009164
142	0x3ef73eb9	0.4829004
143	0x3cda5858	0.026653454
144	0xbb062a96	-0.002047216
145	0xbbaed524	-0.005335467
146	0x3d313ba2	0.04326976
147	0x3e48e7a8	0.1961962
148	0xbe272c09	-0.16325392
149	0x3ba7ef0f	0.0051249336
150	0x3e6cfa41	0.2314234
151	0x3e9be130	0.30445242
152	0xbeba03b6	-0.36330956
153	0xbecfcbb1	-0.40585092
154	0xbeb9850e	-0.36234325
155	0xbda12b49	-0.07869584
156	0x3d24b832	0.040214725
157	0x3b2df8e2	0.002654605
158	0xbdde0103	-0.10840037
159	0xbf341681	-0.7034684
160	0xbe773a41	-0.24143316
161	0x3ea61080	0.32434464
162	0x3eb426e9	0.35185936
163	0xbe1567fe	-0.14590451
164	0x3d1d66f6	0.03842827
165	0xbe868f53	-0.26281223
166	0x3c9abfc4	0.01889027
167	0xbea0691e	-0.31330198
168	0xbb105dfd	-0.0022028678
169	0xbf0fa571	-0.5611182
170	0xba40902d	-0.00073457026
171	0xb98ffa9a	-0.00027461798
172	0x3e038b76	0.12846169
173	0x3d9c7422	0.07639338
174	0x3c25b984	0.010115031
175	0x3dc338bc	0.095323056
176	0x3dacc6e9	0.084363766
177	0x3c75979d	0.014989761
178	0x3d807dfd	0.0627403
179	0xbe7ffacb	-0.24998014
180	0x3e07a031	0.13244702
181	0x3dc8ced6	0.09805076
182	0xbe0bb8cd	-0.13644715
183	0xbe4b0afb	-0.19828407
184	0xbe9850dc	-0.2974919
185	0xbdcb70e3	-0.09933641
186	0x3dc17fe5	0.09448222
187	0x3e96687b	0.29376587
188	0x3e6e5aad	0.23276778
189	0x3eac3866	0.3363678
190	0xbe8c7582	-0.274334
191	0x3e31be17	0.1735767
192	0xbf1c8483	-0.61139697
193	0xbddc25a5	-0.107493676
194	0xbd20e1f1	-0.039277975
195	0xbda81ddb	-0.082088195
196	0xbedf602b	-0.43628058
197	0x3ecf19db	0.40449414
198	0xbec0b09d	-0.37634745
199	0x3ba1444a	0.004921471
200	0xbe9b66ca	-0.3035186
201	0x3ea55b3d	0.32296172
202	0x3c0f4574	0.008744586
203	0x3e93e263	0.28883657
204	0x3b013006	0.0019712462
205	0xbdb199b6	-0.08671896
206	0x3e249415	0.16072114
207	0x3df551fe	0.119785294
208	0xbf028c5a	-0.5099541
209	0xbe9f5321	-0.3111811
210	0xbd528762	-0.051398642
211	0x3e51e5f2	0.20497873
212	0x3e2629ae	0.16226837
213	0xbed0d493	-0.4078718
214	0x3eb9757e	0.36222452
215	0x3a15c27a	0.0005712878
216	0x3d645277	0.055742707
217	0x3e90fd20	0.2831812
218	0xbe1d0c1a	-0.15336648
219	0xbd9eccbe	-0.07753895
220	0xbebd9f0e	-0.37035412
221	0xbccda34d	-0.025102282
222	0x3e9e3bc6	0.3090498
223	0x3e5ca816	0.21548495
224	0xbbb3695c	-0.0054752063
225	0x3e66d347	0.22541533
226	0xbec68a43	-0.3877736
227	0xbe82c32e	-0.25539535
228	0x3a6641ac	0.00087835896
229	0xbb6a0e91	-0.0035714249
230	0xbe1e4e5a	-0.15459576
231	0xbe43b70b	-0.19112794
232	0x3e16575c	0.14681762
233	0x3ba79e77	0.005115326
234	0xbdaa89b3	-0.08327045
235	0xbb25bf13	-0.002529089
236	0x3e8825cf	0.26591346
237	0x3e947e12	0.29002434
238	0xbe16bf1a	-0.14721337
239	0xbc09d8c6	-0.008413499
240	0xbe519d33	-0.20470123
241	0x3adf61dc	0.0017042714
242	0xb97b4361	-0.00023962326
243	0x3e03593d	0.1282701
244	0x3d726eea	0.059187807
245	0x3e9b0cdd	0.3028325
246	0x36e91f18	6.947561e-06
247	0xbf006155	-0.50148517
248	0x3d36bb43	0.04461218
249	0xbe02a766	-0.1275917
250	0xbe6f9b76	-0.23399147
251	0x3d745bcd	0.05965786
252	0xbec9a489	-0.39383343
253	0x3e4f87c8	0.2026664
254	0x3ea7691e	0.32697386
255	0x3e0885e6	0.13332328

lin2.weight f4 [98, 1024]
0	0x3b3c6219	0.0028744994
1	0x3b2bea68	0.0026232246
2	0xbb87d0c7	-0.0041447612
3	0x3be10906	0.0068675308
4	0xbd8d0f19	-0.06887645
5	0xbdf0d7dd	-0.11759923
6	0x3d09f907	0.033684757
7	0xbaf92edc	-0.0019011158
8	0xbb31836d	-0.0027086393
9	0xbafe2f30	-0.0019392725
10	0xbb0c4fe3	-0.002140992
11	0xba8dbd28	-0.0010813819
12	0xbb705821	-0.0036673623
13	0xbc87560a	-0.016520519
14	0xb9527dbd	-0.00020074002
15	0xbb839587	-0.004015628
16	0xbe0e1e83	-0.13878827
17	0x3d54997c	0.051904187
18	0xbd745418	-0.05965051
19	0xbc12fe11	-0.008971707
20	0x3b322433	0.002718222
21	0x3c067d1f	0.008208542
22	0x39458fd9	0.00018840971
23	0x3e194927	0.14969312
24	0x3c2f370d	0.0106942775
25	0x3b08a1d6	0.0020848415
26	0x3b91ff32	0.0044554705
27	0xbb906432	-0.0044064755
28	0x3d1cc63e	0.038274996
29	0xbaa1aa6b	-0.0012334114
30	0x3def8330	0.11694944
31	0xbcbadff5	-0.02281187
32	0xbc9c5fb8	-0.019088611
33	0xbb0100f4	-0.0019684406
34	0xba2cd521	-0.0006593038
35	0xbb4cd113	-0.0031252548
36	0x3b30e85d	0.0026993968
37	0x3e78c5eb	0.2429425
38	0x3bc50769	0.0060128463
39	0xbbfa40e5	-0.0076371306
40	0xbcee3d92	-0.029082093
41	0x3de84545	0.11341337
42	0xbd9bfba0	-0.07616353
43	0x3de93ed0	0.11388934
44	0xbd9b5782	-0.0758505
45	0x3c0d9cc1	0.00864333
46	0x3bbdfc1e	0.005797877
47	0x3b047086	0.002020867
48	0x3c4d691e	0.012537269
49	0xba3d8d7c	-0.00072308606
50	0xbbcd0353	-0.0062565
51	0xbd18cfb2	-0.03730745
52	0xbdb0a1c2	-0.08624603
53	0xb7d00780	-2.4799025e-05
54	0xbcaa4445	-0.020784507
55	0x3cb2f1c5	0.0218438
56	0x3cd122ff	0.025529383
57	0xbbc248cc	-0.005929088
58	0x3bc26e94	0.005933592
59	0xbc8624c2	-0.01637495
60	0x3b010ca2	0.0019691368
61	0x3e4a29af	0.19742464
62	0x3db4de85	0.08831505
63	0x3c1cea28	0.009577312
64	0x39d44c6d	0.00040492733
65	0x3e371899	0.17880477
66	0xbc180ad6	-0.009279927
67	0x393e309b	0.00018137919
68	0x3df22148	0.11822754
69	0x3ed133aa	0.4085973
70	0x3e74c405	0.239029
71	0xbd858077	-0.06518643
72	0x3e5ac4cd	0.21364136
73	0x3a9ecf66	0.0012116253
74	0x3b016e26	0.0019749491
75	0xbb8843c8	-0.004158471
76	0xbe09231c	-0.133923
77	0x3d2ae95a	0.041726448
78	0x3e3c98ae	0.18417618
79	0x3e07e45f	0.1327071
80	0xb9db7ba2	-0.0004186305
81	0xbd84e87c	-0.064896554
82	0xbcc2b1bf	-0.023766397
83	0x3bf9b9d1	0.007621028
84	0x3d83a901	0.06428719
85	0x3ea49fb5	0.32153097
86	0x3cc9497e	0.024571177
87	0x3cc30836	0.023807626
88	0x3c1f3d87	0.009719259
89	0x3c8534cf	0.016260533
90	0x3d582aea	0.0527753
91	0x3a8853ba	0.0010400929
92	0xbc83d5f3	-0.01609323
93	0x3bbf03cc	0.00582931
94	0x3ad15189	0.0015969734
95	0x3a032ca0	0.0005003903
96	0x3caec096	0.021332067
97	0xbbdb8ed2	-0.006700375
98	0x3d3db6c5	0.04631688
99	0x3c11302b	0.008861582
100	0xbdbdb0c4	-0.09262231
101	0x3d524d00	0.051342964
102	0xb90f58f5	-0.00013670682
103	0x3bc68ad5	0.0060590305
104	0xbdd17d1e	-0.10228942
105	0xbcbdf571	-0.023188325
106	0xbdce5606	-0.100750014
107	0xbe0dfd77	-0.1386622
108	0xbcc292c6	-0.023751628
109	0x3c928737	0.017886741
110	0xbcfadd64	-0.030623145
111	0xbbd66fc8	-0.006544087
112	0x3bffba03	0.0078041567
113	0x3dd96d48	0.10616547
114	0xbb60bc5a	-0.0034291954
115	0xbda50f06	-0.08059506
116	0x3c2bdde2	0.010489913
117	0xbb55a7dc	-0.0032601273
118	0x39d99abc	0.0004150475
119	0x3ba8e68d	0.005154437
120	0x3e5a1daa	0.21300378
121	0x3a9e1ede	0.0012063642
122	0xbbd8b1ea	-0.006613006
123	0xbbd77839	-0.006575611
124	0x3b2fd6ec	0.0026830984
125	0x3cd15235	0.025551895
126	0xbe09c772	-0.13454989
127	0xbd62743b	-0.055286627
128	0xbd8670e4	-0.06564501
129	0x3dc076d8	0.09397668
130	0x3b80928a	0.003923719
131	0x3e491141	0.19635488
132	0xbbbb99c2	-0.0057251165
133	0x3d123df1	0.035703603
134	0xbd8f3aaa	-0.06993611
135	0xbd8477a9	-0.06468136
136	0xbceae4bd	-0.028673524
137	0x3dbac533	0.09119644
138	0x3d1fc11a	0.039002515
139	0xbbc8a6aa	-0.0061233835
140	0xbba9a553	-0.005177179
141	0x3cf285bf	0.02960479
142	0x3b640b6e	0.0034796852
143	0xbe334791	-0.17507769
144	0x3c4eed11	0.012629763
145	0x3b9786bf	0.0046242173
146	0xbd8742ae	-0.06604515
147	0x3c070939	0.008241945
148	0xbb0c61a2	-0.0021420498
149	0x3c18d3f3	0.009327876
150	0x3e1654e3	0.14680819
151	0x3c2f2567	0.01069007
152	0xbcdb2248	-0.026749745
153	0xbd7d82e8	-0.06189242
154	0x3bfc22e7	0.0076945904
155	0x3cfc8faf	0.030830232
156	0x3d611783	0.054954063
157	0x3b7aa583	0.0038245625
158	0xbd50c1b0	-0.050965965
159	0xbbace544	-0.005276354
160	0x3bdd3557	0.0067507434
161	0xbd749962	-0.05971659
162	0x3bf39c26	0.007434386
163	0xb82002cc	-3.8149577e-05
164	0x3b2a7077	0.0026006976
165	0x394df6a9	0.00019642212
166	0xbcf8c775	-0.030368546
167	0xbe0da9e8	-0.13834345
168	0xbc8935ea	-0.016749341
169	0xbc301772	-0.010747777
170	0xbbe8ae46	-0.007100853
171	0x3be33ccf	0.006934739
172	0x3b4b050b	0.0030978348
173	0xbd4b48b6	-0.04962989
174	0x3d35d187	0.044389274
175	0x3c9628f9	0.018330084
176	0xbe3c61ec	-0.18396729
177	0x3e100394	0.14063865
178	0x3d942663	0.07233884
179	0xbddfb1de	-0.10922597
180	0xbd9708a1	-0.07374693
181	0x3e669a22	0.22519735
182	0x3ae37c68	0.0017355802
183	0xbeff732b	-0.49892554
184	0x3b9b4287	0.0047381553
185	0x3bb4bde1	0.0055157994
186	0xbc6b41e1	-0.0143589685
187	0x3dfce882	0.12349035
188	0xbb7e1f29	-0.0038775897
189	0x3c8e5f1d	0.017379338
190	0xba7a2d1d	-0.00095434656
191	0x3bd62880	0.0065355897
192	0xbb7c5ef2	-0.003850874
193	0x3b30b89b	0.0026965502
194	0x3e4181da	0.1889719
195	0x3de4eb54	0.11177698
196	0xbc4ec940	-0.012621224
197	0xbd7b784d	-0.061394025
198	0x3959bc77	0.00020764941
199	0x3bb37c17	0.005477439
200	0xbb38f64d	-0.0028222979
201	0xbd8a9792	-0.06767191
202	0x3c35c5c0	0.011094511
203	0x3b22b425	0.0024826613
204	0xbb5274ea	-0.0032113143
205	0xbb3121a7	-0.0027028115
206	0xba0f5186	-0.0005467165
207	0x3b03bd5a	0.0020101876
208	0x3d75da69	0.060022745
209	0xbd41d31b	-0.047320466
210	0xbcb445f5	-0.022006014
211	0xbc5dadb5	-0.0135301845
212	0x3bbe0f62	0.0058001736
213	0x3e023659	0.12716044
214	0x396f4450	0.00022818265
215	0xbbe247c3	-0.0069055273
216	0xbbd55b36	-0.0065111173
217	0x3be6018b	0.007019227
218	0x3aee6dcd	0.0018190682
219	0xb98a8b52	-0.00026425213
220	0xbce7d301	-0.028298857
221	0x3d2b2ac6	0.04178884
222	0xbe05f17b	-0.13080399
223	0x3b24c686	0.0025142743
224	0xbc2e60ba	-0.010643179
225	0x3d2369d0	0.039895833
226	0xbad1381f	-0.001596216
227	0xbec96b4d	-0.39339676
228	0x39bcb2f1	0.00035991476
229	0x3a16c02c	0.0005750682
230	0xbaa68086	-0.0012703098
231	0x3ddaf97c	0.106921166
232	0xbc4e6c52	-0.012599068
233	0x3a084775	0.0005198636
234	0xbaac20f8	-0.0013132384
235	0x3c028adc	0.007967677
236	0x3ce4a5cf	0.027911095
237	0xbe20caed	-0.1570241
238	0x3e798b26	0.24369487
239	0xbc67826d	-0.014130217
240	0xbc3956e5	-0.011312221
241	0x3bf09835	0.0073423632
242	0x3b67e61b	0.0035384956
243	0xbd2ae162	-0.041718848
244	0x3bba9fca	0.005695318
245	0xbc42de37	-0.0118938
246	0xbc4bc0ef	-0.012436136
247	0x3e188fe5	0.14898641
248	0x3c3a77d5	0.011381109
249	0x3cc140a0	0.023590386
250	0x3bf9ca08	0.007622961
251	0xbbe7e733	-0.0070771216
252	0x3d2f9eb5	0.042875964
253	0xbe7c2aa6	-0.24625644
254	0xbdc8ccc6	-0.098046824
255	0x3b0e8a0f	0.002174977

lin2.bias f4 [98]
0	0xbe7e107b	-0.24810974
1	0x3f33cb30	0.70231915
2	0xbf1ce41f	-0.61285585
3	0xbf95503b	-1.1665109
4	0xc039a192	-2.9004865
5	0xc0397d9e	-2.898292
6	0xbf484b55	-0.7823995
7	0xbf99172d	-1.1960198
8	0xbf84d657	-1.0377911
9	0xbf5e3858	-0.86804724
10	0xbe5c0b84	-0.21488768
11	0xbf49869f	-0.7872104
12	0xbe7595a1	-0.2398286
13	0xc0385e42	-2.880753
14	0xbf82fdd5	-1.0233713
15	0xbf72e5e0	-0.9488201
16	0xbf0d33ec	-0.5515735
17	0xbf5b395b	-0.8563439
18	0xbf4f4d6b	-0.80977505
19	0xbf550210	-0.8320627
20	0xbf4e4df7	-0.80587715
21	0xbf4f1b99	-0.80901486
22	0xbf4c6e60	-0.7985592
23	0xbf4dd338	-0.8040042
24	0xbf27079e	-0.65246
25	0xbf47701b	-0.77905434
26	0xbf21ce04	-0.6320498
27	0xbdaae5b4	-0.08344594
28	0xbed1e56a	-0.40995342
29	0xbe90f6b9	-0.28313234
30	0xbe9e6aa9	-0.3094075
31	0xbe9dd231	-0.30824426
32	0xbeb5e182	-0.3552361
33	0xbf158a18	-0.5841384
34	0xbe579315	-0.21052201
35	0xbd1ce471	-0.038303796
36	0xbeccc172	-0.39991337
37	0xbf2fb56a	-0.6863619
38	0xbe4fbc9d	-0.20286794
39	0xbe4fab79	-0.20280255
40	0xbedae86b	-0.42755446
41	0xbe21d741	-0.15804769
42	0xbefd4502	-0.4946671
43	0xbf3548aa	-0.70814
44	0xbecadb61	-0.39620498
45	0xbccf7fef	-0.025329558
46	0xbd932ea9	-0.07186634
47	0xbf70f73f	-0.9412727
48	0xbf2bc59d	-0.6709841
49	0xbe865bf6	-0.26242036
50	0xbf4b9298	-0.7952056
51	0xbe81c738	-0.25347304
52	0xbf84e1d4	-1.0381417
53	0xbf9d418e	-1.2285631
54	0xc043424d	-3.0509217
55	0xbf1c947a	-0.6116406
56	0x3eb1db65	0.34737697
57	0xbe3f6630	-0.18691325
58	0xbd96578f	-0.07340919
59	0xbb13f7ce	-0.0022578123
60	0x3ec5d843	0.38641557
61	0xbe4f399e	-0.20236823
62	0xbe8cd6d6	-0.27507657
63	0xbda8510e	-0.08218585
64	0x3eb2f9d1	0.3495622
65	0xbf827e9c	-1.0194888
66	0xbf125714	-0.5716412
67	0x3ce84b43	0.0283562
68	0xbdf9d84b	-0.12199458
69	0x3e199d2f	0.15001367
70	0x3e852d02	0.260109
71	0xbe8923ec	-0.2678522
72	0xbf7b5260	-0.9817257
73	0x3e94e52a	0.29081088
74	0x3eecde02	0.4626313
75	0x3f0512e0	0.51981926
76	0xbcb778c0	-0.022396445
77	0xbec667cf	-0.38751075
78	0x3d15673a	0.036475398
79	0xbf2bbb8e	-0.6708306
80	0xbe361209	-0.17780317
81	0xbf899ec6	-1.0751579
82	0xbf370fe1	-0.71508604
83	0xbf760898	-0.96106863
84	0xbf5b32dc	-0.8562448
85	0xbf9c9c74	-1.2235246
86	0xbf71629d	-0.94291097
87	0xc04131ba	-3.01866
88	0xbf93bafb	-1.1541437
89	0xbf746227	-0.9546227
90	0xbf304f3f	-0.6887092
91	0xbdced362	-0.10098912
92	0xbe47fa76	-0.19529137
93	0xbf0f5791	-0.5599299
94	0xbf012e2a	-0.50461066
95	0xc0378985	-2.8677685
96	0xc039083a	-2.891127
97	0xc03a4163	-2.910241
