models/1_context_2_embedding_32_activation_3.pt (torch, 683290 bytes, 5 tensors)

emb.weight f4 [98, 32]
0	0xbfa55fd5	-1.2919871
1	0xbf9c457e	-1.2208707
2	0xbee041c7	-0.43800184
3	0xc051536c	-3.2707167
4	0x3f194299	0.59867245
5	0xbf8397bf	-1.0280684
6	0xbf916dc9	-1.1361629
7	0xc0180197	-2.375097
8	0xbf2147cf	-0.63000196
9	0x3f4d2007	0.80126995
10	0xbfb48af6	-1.4104908
11	0xbf87eda2	-1.0619395
12	0x3f795c95	0.97406894
13	0x3fe289e6	1.7698333
14	0x3ebee5d9	0.37284735
15	0x3da0a877	0.07844632
16	0xc024e118	-2.5762386
17	0xbfcf8796	-1.6213253
18	0x3ff2dd30	1.8973751
19	0xbd82a657	-0.06379383
20	0x400d0b19	2.2038023
21	0x3f024d08	0.5089879
22	0xbe87b410	-0.26504564
23	0x3fa17719	1.2614471
24	0x3fd54622	1.6662028
25	0x3e50c173	0.20386295
26	0xc0808ff1	-4.017571
27	0xc018f9f4	-2.390256
28	0x3fb8e61b	1.4445223
29	0xbffd734d	-1.9800812
30	0xc00967ac	-2.1469526
31	0xbf1506de	-0.58213603
32	0x40189136	2.383863
33	0xbe6b83ea	-0.2299954
34	0x3f3b937a	0.73271906
35	0xbff87375	-1.9410235
36	0x3f63794b	0.88856953
37	0x3eaed399	0.3414581
38	0xbe6f849f	-0.23390435
39	0xbf5120e1	-0.81690794
40	0xbf27b71d	-0.65513784
41	0x3e268780	0.16262627
42	0xbf4adc69	-0.7924257
43	0xbeb7e4b3	-0.3591667
44	0x40702787	3.7524126
45	0xbfac598c	-1.3464828
46	0x40206e14	2.5067186
47	0xbf87124c	-1.0552459
48	0xbfcfd53f	-1.6236953
49	0x3ea676dc	0.32512558
50	0x3db0c762	0.08631779
51	0xbeeef80e	-0.46673626
52	0x3f8f28bd	1.1184307
53	0x3f502353	0.813039
54	0x4013cc31	2.3093379
55	0x400f06ae	2.2347827
56	0x3f6079de	0.87685955
57	0x3fbda5f6	1.4816272
58	0xbf6ccaf4	-0.9249718
59	0xbfce3040	-1.6108475
60	0x4029b795	2.65183
61	0xbf694f61	-0.9113675
62	0xc0891a79	-4.2844815
63	0xbfb8f156	-1.444865
64	0x3c2e4af0	0.010637984
65	0xc00b311c	-2.1748724
66	0x3fa963ec	1.3233619
67	0xbf316b12	-0.69304
68	0x4028f314	2.6398363
69	0xbf853d2c	-1.0409293
70	0x3fd618df	1.672634
71	0xbee62e65	-0.4495727
72	0xbfdede07	-1.7411507
73	0x3fb1f288	1.390214
74	0xc04f68c8	-3.2407703
75	0xbf8eef2e	-1.1166742
76	0xbfb0266e	-1.3761728
77	0xbe34440b	-0.17604081
78	0x3fab0413	1.3360618
79	0xc0316468	-2.7717533
80	0xbfb444d3	-1.4083503
81	0xbf918e3a	-1.1371529
82	0xc024eb34	-2.5768557
83	0x3ff947fa	1.947509
84	0xbfcf7863	-1.6208614
85	0xbf022557	-0.50838226
86	0x3e8f316a	0.27967387
87	0xbf44c4dc	-0.76862884
88	0xbefc58ad	-0.49286404
89	0x3e789688	0.24276173
90	0xbb9e5a42	-0.004832537
91	0x3fa5ab2e	1.2942865
92	0xc01fc759	-2.4965422
93	0xbf5e76f5	-0.86900264
94	0x3f0b75e9	0.5447679
95	0x3f505e39	0.8139377
96	0x407aa788	3.9164753
97	0x403a8223	2.914193
98	0x3d0055fd	0.031332005
99	0xbf9a9985	-1.20781
100	0x40c01348	6.0023537
101	0xc04a2c9b	-3.1589725
102	0x3e0600df	0.1308627
103	0xbfcb8fe4	-1.5903287
104	0x3f6745a4	0.9034064
105	0xc018d492	-2.3879743
106	0xbf1acbb1	-0.6046706
107	0x3f8d4cee	1.1039102
108	0xc0487d90	-3.1326637
109	0x3f541e8c	0.8285911
110	0xbfe6a187	-1.8018044
111	0xc08f2eb9	-4.4744534
112	0xbf9e9bdc	-1.2391315
113	0xc0555b50	-3.3336983
114	0x3fd2cf89	1.6469585
115	0x407b18c1	3.9233859
116	0xbf2fdf94	-0.6870053
117	0xc000776e	-2.0072894
118	0xc08058dc	-4.010847
119	0x408df472	4.4360895
120	0x400c7a35	2.194959
121	0x409f3082	4.9746714
122	0x404df450	3.2180367
123	0x3f5ddd1a	0.866655
124	0xc0cb9968	-6.3624763
125	0x3e75cbe2	0.24003556
126	0xc01ad8a1	-2.419472
127	0xbff2590a	-1.8933423
128	0x3f365d87	0.7123646
129	0xbfe36497	-1.7765073
130	0x3eb52dbe	0.3538646
131	0x3f998ced	1.1996132
132	0xbe9b227a	-0.3029974
133	0xbfe18407	-1.7618417
134	0x3f22852c	0.63484454
135	0xbf4dea7a	-0.8043591
136	0xbfce38e9	-1.6111118
137	0xbfef9103	-1.8716129
138	0x3f0b0788	0.54308367
139	0x3f29223c	0.6606786
140	0x4012e4bf	2.2952116
141	0x3f2cc6a3	0.67490596
142	0x3fdb4e1f	1.7133216
143	0xbfe5aac0	-1.7942734
144	0xbfae7f89	-1.3632671
145	0xbf7bb448	-0.9832196
146	0x3fc17130	1.5112667
147	0x3f2451a6	0.64187086
148	0x3ef22850	0.4729638
149	0xbedb7029	-0.4285901
150	0x3f0d269d	0.55137044
151	0xbfc61040	-1.5473709
152	0x3f04a304	0.5181124
153	0x3dda2f35	0.10653535
154	0x3e89d9ed	0.26924077
155	0x3fa991fe	1.3247678
156	0x3fdf7d8e	1.7460191
157	0x3fed6fa0	1.854969
158	0xbf34d49f	-0.70636934
159	0x4023a74d	2.5570862
160	0x3ed5c70e	0.4175343
161	0xbe59d2dc	-0.21271843
162	0xbf570776	-0.8399576
163	0xbed70c96	-0.4200179
164	0xbf1fc0d8	-0.6240363
165	0xbf7a3016	-0.97729623
166	0x3f5ff5b2	0.87484276
167	0x3f7cbe78	0.9872813
168	0x3e9e80ca	0.30957633
169	0x3fc2a5f9	1.5206901
170	0x3f9a451b	1.2052339
171	0xbfe86549	-1.815591
172	0xbece9285	-0.4034616
173	0xbf758a86	-0.95914495
174	0xbbaaa561	-0.005207703
175	0xbda1833d	-0.0788636
176	0x3f57f9ba	0.8436543
177	0x3f9535b3	1.1657013
178	0x3f06e507	0.5269322
179	0x3fcf43b1	1.6192533
180	0xbf76c726	-0.96397626
181	0x3e10eac1	0.14152052
182	0xbe2796bc	-0.16366094
183	0xbeb768f3	-0.35822257
184	0x3fdc73a6	1.7222793
185	0xbe9b6e43	-0.3035756
186	0x3e749b70	0.2388742
187	0x3fac083b	1.3440012
188	0x3dd367ff	0.1032257
189	0x3f8cd868	1.1003542
190	0xbeaef0b5	-0.3416802
191	0x3f7284cd	0.9473389
192	0xc058ea10	-3.389286
193	0xbc370f5b	-0.011173095
194	0x3fcd8085	1.6054846
195	0xbe1e53da	-0.15461674
196	0x3f3bf290	0.73416996
197	0xbf91ef2b	-1.1401113
198	0xc0c3864d	-6.110144
199	0xc010213c	-2.2520285
200	0x3cbf115f	0.023323713
201	0xbe6f5e3f	-0.23375796
202	0xc063dd3b	-3.5603778
203	0x3d5d71cb	0.0540636
204	0xc03a31e7	-2.9092958
205	0x3fd949bd	1.6975628
206	0x3fa78b25	1.3089339
207	0xbe787491	-0.24263217
208	0x40397ab7	2.898115
209	0xbf8ce137	-1.100623
210	0xc0382544	-2.8772745
211	0xbf32d45c	-0.69855285
212	0xbe57452c	-0.2102248
213	0x40831e0f	4.0974193
214	0xbfb6c871	-1.427992
215	0x3f8483e6	1.0352752
216	0xc05067c4	-3.2563334
217	0x4009f1a9	2.1553748
218	0x3ff63859	1.9235946
219	0xc0151e57	-2.3299768
220	0x3f02aebb	0.5104787
221	0xbe1658e9	-0.14682354
222	0x409afc9d	4.8433366
223	0xbf1018df	-0.5628795
224	0x4043a450	3.0569038
225	0x3f7e02b7	0.9922289
226	0x3f95000e	1.1640642
227	0xc0186bde	-2.3815837
228	0x3f419dd9	0.7563148
229	0x3f410db9	0.75411564
230	0xbfd786a5	-1.6837965
231	0xbfd5d369	-1.6705142
232	0x3fa96c97	1.3236264
233	0xbe5202b7	-0.20508848
234	0xbfa7c1ad	-1.310598
235	0xbf3eed95	-0.7458127
236	0x4015f2d5	2.3429463
237	0xbf98ebdb	-1.1946977
238	0xbf7b3371	-0.9812537
239	0xbfa424ee	-1.282377
240	0xbf30a89e	-0.6900729
241	0x403f3186	2.9873977
242	0x3f66f79a	0.9022156
243	0xbf8780ee	-1.0586221
244	0xbdc5e0f9	-0.09662051
245	0xc06f103a	-3.7353654
246	0xc02caedf	-2.6981733
247	0x3f23b6e5	0.6395095
248	0xbf95d8bb	-1.1706766
249	0x4077a40d	3.8693879
250	0xbfd266de	-1.6437643
251	0xbe7148cf	-0.2356293
252	0x3f2f67a6	0.6851753
253	0xc053d5f1	-3.309933
254	0xbe09cf5e	-0.1345801
255	0x3d4640d3	0.048401665

lin1.weight f4 [1024, 64]
0	0xbee72d3b	-0.45151696
1	0xbe158936	-0.14603123
2	0xbeaf11aa	-0.34193164
3	0x3f39282f	0.7232694
4	0x3f136a1f	0.575838
5	0xbe0ad36f	-0.13557218
6	0x3da7b0e8	0.08188039
7	0x3f23cd1c	0.6398485
8	0xbf38c404	-0.72174096
9	0xbf17a37f	-0.5923385
10	0x3e94565f	0.28972146
11	0xbf18c76b	-0.5967929
12	0x3e286f2f	0.16448663
13	0xbe4f15d0	-0.20223165
14	0x3e93af13	0.2884451
15	0x3e2ab84b	0.16671865
16	0x3ee457a4	0.44598114
17	0xbdf27a21	-0.118397005
18	0x3f1d3583	0.6140978
19	0xbd9738eb	-0.07383903
20	0xbf28773d	-0.65806943
21	0xbe2265c5	-0.15859134
22	0x3e2f8032	0.17138746
23	0xbe8f1653	-0.2794672
24	0x3e4d9667	0.20076905
25	0xbf201805	-0.6253665
26	0xbebe8a6e	-0.37214988
27	0x3e916466	0.2839691
28	0xbec46341	-0.38356975
29	0x3f15beab	0.5849406
30	0x3fa22712	1.2668173
31	0xbe2e2452	-0.17006043
32	0xbebb9411	-0.36636403
33	0xbd6c1e3e	-0.05764603
34	0xbe8cbe9c	-0.27489173
35	0x3dd4ce22	0.10390879
36	0xbdba6596	-0.09101407
37	0xbe64ea3e	-0.22354981
38	0xbf420821	-0.75793654
39	0x3f9653c1	1.174431
40	0x3e984b95	0.29745165
41	0x3eed1f54	0.46312964
42	0xbf23623a	-0.63821757
43	0x3dc2b722	0.09507586
44	0xbe903d54	-0.2817179
45	0x3e9ccdc5	0.3062574
46	0xbe64765c	-0.22310776
47	0xbf20d41e	-0.62823665
48	0x3ebd7414	0.37002623
49	0x3de3e862	0.11128308
50	0xbf15dc05	-0.5853885
51	0xbe85a69f	-0.26103684
52	0xbe353183	-0.17694668
53	0xbf58c514	-0.8467572
54	0x3d97aa7f	0.074055664
55	0x3d32fefe	0.04370021
56	0x3eb53dac	0.35398614
57	0xbee0f465	-0.43936458
58	0xbe889864	-0.26678765
59	0x3ed67170	0.4188342
60	0xbf5821fe	-0.8442687
61	0x3f5e198a	0.8675772
62	0x3f6a5360	0.9153347
63	0x3e2c596c	0.16830987
64	0x3d338f57	0.04383787
65	0x3f02e525	0.51130897
66	0x3f2a38bf	0.6649284
67	0xbeaee7f9	-0.34161356
68	0xbf06cab8	-0.52653074
69	0x3e68408b	0.22680871
70	0xbdf740e4	-0.12072924
71	0x3f2c5221	0.6731282
72	0xbf010a2a	-0.50406134
73	0x3c88f2ca	0.016717333
74	0x3ebc04df	0.36722466
75	0x3ef94d10	0.48691607
76	0xbdf3d146	-0.1190515
77	0xbeaac165	-0.33350673
78	0xbe530de2	-0.20610765
79	0xbee5cfa7	-0.4488499
80	0xbe102cea	-0.14079633
81	0xbebd6a9f	-0.36995408
82	0x3ef54b08	0.47908807
83	0x3eb4baa7	0.35298654
84	0xbeb4388c	-0.35199392
85	0x3eae159d	0.34000865
86	0xbe3cc35c	-0.18433899
87	0xbeb40306	-0.35158557
88	0x3eb11f1d	0.3459405
89	0x3e779ee7	0.2418171
90	0x3d86896f	0.06569182
91	0x3ec13b46	0.37740535
92	0xbf74faa2	-0.95694935
93	0xbe092e80	-0.13396645
94	0x3ec8ca3b	0.3921679
95	0x3f0e9ac0	0.5570488
96	0xbe8c707e	-0.27429575
97	0x3dcaab1d	0.098959185
98	0x3e481683	0.19539838
99	0xbd6a53da	-0.057208873
100	0xbf4fc8a8	-0.8116555
101	0x3dfb8446	0.122810885
102	0xbda5ab0e	-0.08089267
103	0xbeeee25d	-0.46657076
104	0xbc6caee9	-0.014445999
105	0x3f14772e	0.57994354
106	0xbf415f79	-0.75536305
107	0x3eb2bf61	0.34911636
108	0xbee748b3	-0.45172653
109	0x3ec5cd08	0.3863299
110	0xbf6e0564	-0.92976975
111	0x3f677cfc	0.90425086
112	0xbe5373fd	-0.20649715
113	0xbe680471	-0.22657944
114	0x3da749f5	0.08168403
115	0xbe0bd8e5	-0.13656957
116	0xbf17b169	-0.5925508
117	0xbd86ecc2	-0.06588127
118	0xbf1c2ebd	-0.61008817
119	0xbe380bf4	-0.1797331
120	0xbe9ea4e9	-0.3098519
121	0x3f1eac6e	0.61981857
122	0xbebe4611	-0.3716283
123	0x3f37d8f2	0.7181541
124	0xbf61b0b9	-0.8816028
125	0x3d84386a	0.06456073
126	0xbdac74db	-0.08420726
127	0x3f6a1f76	0.91454256
128	0xbf170677	-0.5899424
129	0x3ebd5331	0.36977533
130	0x3d69c334	0.057070926
131	0x3dfe94fc	0.1243076
132	0xbea665c5	-0.3249952
133	0xbf1bbb5b	-0.60832757
134	0x3eed85e4	0.46391213
135	0xbeae3c7c	-0.3403052
136	0x3c269364	0.010166977
137	0xbec987e5	-0.39361492
138	0x3eaec424	0.34134018
139	0x3f3db8b2	0.7410995
140	0xbe57a875	-0.21060355
141	0x3f4c6483	0.7984087
142	0xbe8729b8	-0.26399016
143	0x3f0b86a4	0.5450232
144	0x3e6ede10	0.23326898
145	0x3f3c4b59	0.7355247
146	0xbf578ff3	-0.84204024
147	0x3ef0f1c7	0.4705946
148	0xbedaf7b9	-0.42767122
149	0x3e81d711	0.25359395
150	0x3daf02af	0.08545434
151	0x3e64a096	0.22326884
152	0xbe0e9716	-0.13924822
153	0x3c1cc2c5	0.009567921
154	0xbdb28ca7	-0.087182336
155	0xbe6642d3	-0.22486429
156	0x3e2ef88a	0.17086998
157	0xbe2854ae	-0.16438553
158	0xbee0c708	-0.4390185
159	0x3f02aca4	0.5104468
160	0x3eb272ba	0.34853154
161	0xbdc3f102	-0.09567453
162	0x3e1fc2c3	0.1560164
163	0x3f64175a	0.8909813
164	0xbf2a67f5	-0.66564876
165	0xbe950f39	-0.29113176
166	0x3ee011bd	0.43763533
167	0x3d11742d	0.035511184
168	0xbf267688	-0.65024614
169	0x3e64fadd	0.22361322
170	0x3eb5b3ae	0.35488647
171	0xbe36e812	-0.17861965
172	0x3e81abe3	0.25326452
173	0x3f7c0792	0.9844905
174	0xbf5ea391	-0.8696833
175	0x3f86f462	1.054333
176	0x3f30cbff	0.69061273
177	0x3cd004e2	0.025392953
178	0x3e6b8273	0.22998981
179	0x3f221283	0.63309497
180	0xbeb75dd8	-0.35813785
181	0x3f8634a2	1.0484812
182	0xbf0b4464	-0.5440123
183	0x3d687d96	0.056760393
184	0x3e8784e4	0.26468575
185	0xbec7492c	-0.38923013
186	0x3e31e31c	0.17371792
187	0xbeb88428	-0.36038327
188	0xbea85511	-0.328774
189	0xbf25fc81	-0.64838415
190	0xbe38eea2	-0.18059781
191	0x3f49b747	0.78795284
192	0xbe67a98f	-0.22623275
193	0xbed8f336	-0.42373055
194	0xbad7ad09	-0.0016454767
195	0x3e375ff7	0.17907701
196	0x3f075a89	0.5287252
197	0x3e9f6dae	0.31138366
198	0x3e785d5a	0.24254361
199	0x3eea803a	0.45800954
200	0x3e2d14ac	0.16902417
201	0xbf827dc2	-1.0194628
202	0xbed83fd8	-0.4223621
203	0xbe60405f	-0.21899556
204	0xbdd43967	-0.10362511
205	0xbf33219a	-0.69973147
206	0xbe35a1a5	-0.17737444
207	0xbc5352cd	-0.012898159
208	0xbe327b81	-0.17429926
209	0x3e3ac00f	0.18237327
210	0xbda96c70	-0.08272636
211	0xbc3d63d8	-0.011559449
212	0x3efc4f32	0.4927917
213	0x3c8dc334	0.017304994
214	0xbe404cac	-0.18779248
215	0xbf1154bc	-0.5676992
216	0xbdc3cb61	-0.09560276
217	0xbf2db935	-0.6786073
218	0xbde4d5a8	-0.11173564
219	0x3cb0302a	0.021507341
220	0xbde3b310	-0.11118138
221	0x3f3b2e8e	0.7311791
222	0x3e29e4e2	0.16591218
223	0xbef97cfa	-0.48728162
224	0xbe9ab38c	-0.30215108
225	0xbe4a93dc	-0.19782966
226	0xbf69dc15	-0.91351444
227	0x3ef032b9	0.46913698
228	0xbf020347	-0.5078625
229	0xbe94bcb6	-0.29050225
230	0xbe82e681	-0.25566486
231	0x3f2bc8a4	0.6710303
232	0xbe47740a	-0.19477859
233	0xbe50cf06	-0.20391473
234	0x3edf0542	0.435587
235	0xbefdf341	-0.4959965
236	0xbecdc7e6	-0.40191573
237	0xbf25e702	-0.64805615
238	0xbd85a8b2	-0.06526317
239	0xbe75be6b	-0.2399842
240	0xbeaa6dd7	-0.33286926
241	0x3f674e64	0.9035399
242	0x3f25d1b8	0.6477313
243	0xbe454ab3	-0.19266777
244	0x3f2940e8	0.66114664
245	0xbef84c07	-0.48495504
246	0x3e2aa5b4	0.16664773
247	0xbf0a4fbe	-0.54027927
248	0xbeda49de	-0.4263448
249	0xbf844a53	-1.0335182
250	0x3f080bc4	0.5314295
251	0xbf036510	-0.51326084
252	0x3e501dfc	0.20323938
253	0x3d790a51	0.060800854
254	0x3ef125e4	0.4709922
255	0x3d846101	0.064638145

lin1.bias f4 [1024]
0	0xbda8e96d	-0.082476474
1	0xbdccc21a	-0.099979594
2	0xbf134087	-0.57520336
3	0xbd1f7a4f	-0.038935002
4	0xbf9d22e5	-1.2276274
5	0xbe3a3280	-0.18183327
6	0xbe6df39a	-0.23237458
7	0xbf749c3f	-0.9555091
8	0xbde601a3	-0.11230781
9	0xbe9043bb	-0.28176674
10	0xbf4a94ad	-0.7913311
11	0xbe8d8861	-0.2764311
12	0xbf35f60b	-0.71078557
13	0xbed499af	-0.415235
14	0xbefa4f05	-0.48888412
15	0xbf69e1cf	-0.9136018
16	0xbef20bb7	-0.47274563
17	0xbef7b6d7	-0.48381683
18	0xbedd363e	-0.43205446
19	0xbf936e75	-1.1518084
20	0xbf8172bd	-1.011314
21	0xbf62ce2b	-0.8859584
22	0xbfcf55e6	-1.6198089
23	0xbf06f47d	-0.5271681
24	0xbeaf4b41	-0.34237102
25	0xbeaf4346	-0.34231013
26	0xbfd7761d	-1.683292
27	0xbd4171d5	-0.0472277
28	0xbe49c97c	-0.19705766
29	0xbd752116	-0.059846006
30	0xbeab58e2	-0.3346625
31	0xbe835b23	-0.2565547
32	0xbeafce0d	-0.34336892
33	0xbe9e78df	-0.30951592
34	0xbef35ed9	-0.475333
35	0xbe7b4913	-0.24539594
36	0xbfb3a6c0	-1.4035263
37	0xbf97eefd	-1.1869808
38	0xbf923de0	-1.1425133
39	0xbf365ebd	-0.7123831
40	0xbe8cc849	-0.27496555
41	0xbfbc5cbb	-1.4715799
42	0xbee76a69	-0.45198372
43	0xbdf741b8	-0.12073082
44	0xbe0d4961	-0.13797523
45	0xbf2c9fff	-0.67431635
46	0xbf8a2d24	-1.0795026
47	0xbfb129a3	-1.3840832
48	0xbefdd89f	-0.4957933
49	0xbe8c7815	-0.27435365
50	0xbe4f783f	-0.20260714
51	0xbe8f87f7	-0.2803342
52	0xbea3679f	-0.31914994
53	0xbfbac142	-1.4590228
54	0xbf22eb31	-0.63640124
55	0x3cbbe25f	0.02293509
56	0xbe9d99e5	-0.30781475
57	0xbd1c7fe0	-0.03820789
58	0xbecb7b2a	-0.39742404
59	0xbf2dde49	-0.67917305
60	0xbe6405c2	-0.22267821
61	0xbd9c3b62	-0.07628514
62	0x3e103090	0.14081025
63	0xbf9817ef	-1.1882304
64	0xbec34ceb	-0.3814462
65	0xbed15400	-0.408844
66	0x3dadda7c	0.08488938
67	0xbfa79854	-1.3093362
68	0xbe129822	-0.14315847
69	0x3e0a347b	0.13496582
70	0xbee3883e	-0.44439882
71	0xbecf39c3	-0.40473756
72	0xbe946159	-0.2898052
73	0xbf0d47b5	-0.5518754
74	0xbed1b1c2	-0.4095593
75	0xbfc256d4	-1.5182748
76	0xbdc2407b	-0.09484955
77	0xbeba7455	-0.3641688
78	0xbeeae726	-0.45879477
79	0xbeb0c734	-0.3452698
80	0xbfae397d	-1.3611294
81	0xbe7a7a02	-0.24460605
82	0xbd5b387f	-0.053520676
83	0xbef638f2	-0.4809032
84	0xbf23b091	-0.63941294
85	0xbcfb7726	-0.030696463
86	0xbea176f9	-0.3153608
87	0x3c4c2db8	0.012462072
88	0xbfc6c40e	-1.5528581
89	0xbeb1cc02	-0.34725958
90	0xbfde99c4	-1.7390676
91	0xbf6db5dc	-0.9285562
92	0xbe8ef15e	-0.27918524
93	0xbe113a6f	-0.14182447
94	0x3ddc7770	0.107649684
95	0xbf42c172	-0.76076424
96	0xbeaa9f57	-0.33324692
97	0xbdadae9b	-0.08480569
98	0xbec0aeb6	-0.37633294
99	0xbeb16073	-0.34643897
100	0xbe62f05f	-0.22162007
101	0xbfe76584	-1.8077855
102	0xbe3eed47	-0.18645202
103	0xbf9c2745	-1.2199484
104	0xbe58f92d	-0.21188803
105	0xbe47acd3	-0.19499521
106	0xbebffcfd	-0.37497702
107	0xbeabf671	-0.33586457
108	0xbff16d70	-1.8861523
109	0xbd0eca1f	-0.034860726
110	0xc011d1ac	-2.2784224
111	0xbee54892	-0.4478193
112	0xbf7dc5f8	-0.991302
113	0xbd90ee09	-0.070766516
114	0xbfb9d359	-1.4517623
115	0xbeef6a5b	-0.4676083
116	0xbeb5c7be	-0.35503954
117	0xbde37a67	-0.11107331
118	0xbfa4b7df	-1.2868613
119	0xbdf0a0d2	-0.11749424
120	0xbeff0c52	-0.49814087
121	0xbf0ca513	-0.54939383
122	0xbf65fafc	-0.89836097
123	0xbec193ce	-0.3780808
124	0xbddda9bc	-0.1082339
125	0xbffadbe4	-1.9598355
126	0xbe45446b	-0.1926438
127	0xbe31c8c5	-0.17361744
128	0xbec32ac1	-0.38118556
129	0xbef0d1ce	-0.47035068
130	0xbe72fb5c	-0.23728698
131	0xbf176298	-0.5913482
132	0xbf59f8e2	-0.8514539
133	0xbee07ec5	-0.43846717
134	0xbff6122a	-1.9224293
135	0xbec612e2	-0.3868628
136	0xbd285054	-0.041092232
137	0xbf6c6797	-0.92345566
138	0xbda6e35c	-0.08148834
139	0xbf385b46	-0.7201427
140	0xbf27b2a7	-0.65506977
141	0xbe09c6f2	-0.13454798
142	0xbe3970fe	-0.1810951
143	0xbe8efb26	-0.27925986
144	0xbfde0179	-1.73442
145	0xbf53f52e	-0.8279599
146	0xbec4e1f5	-0.38453642
147	0xbec02e47	-0.37535307
148	0xbea35a28	-0.3190472
149	0xbf6d1895	-0.92615634
150	0xbe4ebd4e	-0.20189402
151	0xbfa64e20	-1.2992592
152	0xbe61fc4b	-0.22068898
153	0xbe3bf859	-0.18356456
154	0xbf0a3659	-0.5398918
155	0xbf2c6dba	-0.6735493
156	0xbe546f54	-0.20745593
157	0xbf0b68e7	-0.54456943
158	0xbfd9dfb1	-1.702139
159	0xbec62e2c	-0.387071
160	0xbfa7c913	-1.3108238
161	0xbd86365f	-0.06553339
162	0xbdc491b3	-0.095981024
163	0xbcf46aa9	-0.029836016
164	0xbf518124	-0.8183768
165	0xbd238659	-0.039923046
166	0xbfceb2a4	-1.6148267
167	0xbe708272	-0.23487261
168	0xbf3ffe6f	-0.7499761
169	0xbe03f40b	-0.12886064
170	0xbf52b4b4	-0.8230698
171	0xbffe1e1f	-1.9852942
172	0xbee7c298	-0.4526565
173	0xbfd73051	-1.681162
174	0xbe4067a0	-0.1878953
175	0xbe47bd32	-0.19505766
176	0xbee6c58e	-0.45072597
177	0xbe8ba7aa	-0.27276355
178	0xbee92801	-0.45538333
179	0xbecccc82	-0.39999777
180	0xbe256496	-0.16151652
181	0xbda784e6	-0.08179645
182	0xbe4efeb6	-0.20214352
183	0xbec60c76	-0.38681382
184	0xbfc6d7d6	-1.5534618
185	0xbd2ea952	-0.042641945
186	0xbe3d5413	-0.18489103
187	0xbf32a6fd	-0.69786054
188	0xbec2bcac	-0.3803457
189	0xbe51ccd4	-0.20488292
190	0xbf4aaf74	-0.7917397
191	0xbed43e1e	-0.41453642
192	0xbef2b228	-0.47401547
193	0xbf8ec1bf	-1.1152877
194	0xbd9029dd	-0.07039235
195	0xbec38886	-0.38190097
196	0xbeb13c4a	-0.3461631
197	0xc0094f23	-2.1454551
198	0xbfa3383f	-1.275154
199	0xbe3a51d8	-0.18195283
200	0xbeb1cdeb	-0.34727415
201	0xbfa45987	-1.2839822
202	0xba440d3d	-0.00074787793
203	0xbe0adc5f	-0.13560627
204	0xbf1bcc1c	-0.6085832
205	0xbfa3b7ea	-1.2790501
206	0xbfb01e19	-1.3759185
207	0xbeab68a5	-0.33478275
208	0xbf119198	-0.56862783
209	0xbf17b0b5	-0.5925401
210	0xbed95a66	-0.4245178
211	0xbec59df6	-0.38597077
212	0xbe371f5f	-0.17883061
213	0xbe857728	-0.26067472
214	0xbe8f1485	-0.27945343
215	0xbedbad90	-0.42905855
216	0xbf86a9e5	-1.0520598
217	0xbecfe4f2	-0.4060436
218	0xbe365cfc	-0.17808908
219	0xbf0bd49c	-0.5462129
220	0xbe55e13c	-0.20886701
221	0xbe785926	-0.24252757
222	0xbe8e191a	-0.27753526
223	0xbd96fc77	-0.073723726
224	0xbed741b9	-0.4204233
225	0xbea43feb	-0.32080016
226	0xbee2aee4	-0.44274056
227	0xbef807ca	-0.48443443
228	0xbedcb7c9	-0.43108967
229	0xbfab0acd	-1.3362671
230	0xbe9d1df1	-0.30686906
231	0xbee38429	-0.44436768
232	0xbf039382	-0.51396954
233	0xbe5915d2	-0.2119973
234	0xbe0ff007	-0.14056407
235	0xbf84e7f8	-1.0383291
236	0xbec077d2	-0.37591416
237	0xc00ded9d	-2.2176278
238	0xbf23566a	-0.6380373
239	0xbf825953	-1.018351
240	0xbe68e705	-0.22744377
241	0xbeb429ee	-0.3518824
242	0xbeef5152	-0.4674173
243	0xbe9d4785	-0.30718628
244	0xbe6b8379	-0.22999372
245	0xbeeb6c9f	-0.4598131
246	0xbf2b36da	-0.6688057
247	0xbfc7696a	-1.5579045
248	0xbf049265	-0.5178588
249	0xbeaef773	-0.34173164
250	0xbecca302	-0.39968115
251	0xbec554ba	-0.38541204
252	0xbda06667	-0.07832032
253	0xbee6262e	-0.44951004
254	0x3dc4c9e7	0.09608822
255	0xbecd2a29	-0.40071228

lin2.weight f4 [98, 1024]
0	0x3e849aae	0.2589926
1	0x3d9a5784	0.075362235
2	0x3dc64389	0.0968085
3	0xbe5bdecf	-0.21471713
4	0x3e49c9aa	0.19705835
5	0xbd8713de	-0.06595586
6	0x3e618094	0.22021705
7	0x3e24c816	0.16091952
8	0xbd972c02	-0.07381441
9	0x3d914b9b	0.07094499
10	0x3b129e26	0.0022372096
11	0xbe3c07c8	-0.18362343
12	0xbe4514bf	-0.19246195
13	0x3ebd8ff2	0.37023884
14	0x3dd4113c	0.1035485
15	0xbea1e115	-0.31617036
16	0xbdd22c11	-0.10262311
17	0x3cea90fa	0.028633583
18	0xbe37cdd8	-0.17949617
19	0xbc967bdc	-0.018369608
20	0x3d6b87ac	0.057502434
21	0x3cf0e951	0.029408129
22	0x3dac74b5	0.084206976
23	0x3d297229	0.041368637
24	0xbdc34b1e	-0.09535812
25	0x3db55e64	0.08855894
26	0x3df37bd7	0.11888855
27	0xbe94bf38	-0.29052138
28	0xbe9ac73a	-0.30230123
29	0xbf2a31a2	-0.66481984
30	0x3d8e4b6c	0.06947979
31	0x3e56d46a	0.20979467
32	0x3e995687	0.29948828
33	0xbd9e9989	-0.07744128
34	0x3b34efb2	0.002760869
35	0x3d8454f2	0.064615145
36	0xbe3704f3	-0.17872982
37	0x3cfa83d0	0.030580431
38	0x3d859d85	0.06524185
39	0xbd92d544	-0.071695834
40	0x3cd79f2f	0.026321022
41	0x3d746964	0.05967082
42	0xbd63fe99	-0.055662725
43	0x3e860e87	0.26182958
44	0x3da08b7e	0.07839106
45	0x3d92626d	0.071476795
46	0x3e147470	0.14497542
47	0x3e499c86	0.19688615
48	0x3c85f694	0.01635293
49	0x3dd75f28	0.105161965
50	0xbe04c5e7	-0.12966119
51	0xbe862fdf	-0.26208398
52	0xbc8570f5	-0.016289214
53	0x3d13a6f5	0.036047895
54	0xbe619257	-0.2202848
55	0xbe3a0744	-0.18166834
56	0x3e1227b1	0.14272954
57	0xbc8259ee	-0.015912022
58	0x3de9012d	0.113771774
59	0xbdc2a38f	-0.095038526
60	0xbd3a390b	-0.045464557
61	0x3e765516	0.24055895
62	0x3df34629	0.11878616
63	0xbe059d2a	-0.13048235
64	0xbe9d2472	-0.30691868
65	0xbd140f96	-0.036147676
66	0x3e257c38	0.16160667
67	0xb99e90b0	-0.0003024391
68	0x3d29faee	0.04149907
69	0x3dd77148	0.105196536
70	0x3e23839b	0.15968172
71	0x3c66c860	0.014085859
72	0x3d9bf491	0.07615007
73	0xbf1f4bd2	-0.6222507
74	0xbeda21ba	-0.42603856
75	0xbe99027b	-0.29884705
76	0xbd4114e8	-0.04713908
77	0x3d778380	0.060428143
78	0x3db9b740	0.09068155
79	0x3e061735	0.1309479
80	0xbd1e5edb	-0.03866468
81	0xbcbc0d4b	-0.022955557
82	0xbe6c779e	-0.23092505
83	0x3dac1f9a	0.08404465
84	0xbcda29fc	-0.026631348
85	0x3c8c210e	0.017105605
86	0x3ec0862e	0.3760237
87	0x3e0b86e9	0.13625683
88	0xbccdb85d	-0.025112325
89	0xbed6bc9b	-0.4194077
90	0xbd18a863	-0.03726996
91	0x3cfd03b1	0.03088555
92	0xbce88a11	-0.028386148
93	0x3c5460a2	0.012962492
94	0xbe7e4487	-0.24830829
95	0xbe58ff37	-0.21191107
96	0xbc288443	-0.01028544
97	0x3e2fe883	0.1717854
98	0xbd3f171c	-0.0466529
99	0xbe5b46a6	-0.21413669
100	0x3d9c78cd	0.076402284
101	0x3cfba52f	0.030718414
102	0x3c9a85eb	0.018862685
103	0xbd9542cd	-0.07288132
104	0xbd80ae8d	-0.06283293
105	0xbdd4588c	-0.103684515
106	0xbd9d840f	-0.07691204
107	0xbd8ccfa1	-0.068755396
108	0xbd153377	-0.036426034
109	0x3da1a593	0.07892909
110	0xbee028e0	-0.43781185
111	0x3d180f5f	0.037124034
112	0x3d6a658a	0.05722574
113	0x3c32a6d7	0.0109040355
114	0x3d139dbb	0.036039095
115	0x3d30f84b	0.04320554
116	0x3d226e56	0.039656006
117	0x3d9f680a	0.07783516
118	0x3b381568	0.002808893
119	0x3cab8825	0.020938942
120	0x3d54af4e	0.051924996
121	0xbdcf75e7	-0.1012991
122	0xbd8886a7	-0.06666308
123	0xbc06b955	-0.008222898
124	0x3e804533	0.25052795
125	0xbe98296b	-0.297191
126	0xbd847d5b	-0.06469222
127	0xbd5bf925	-0.0537044
128	0xbea986ab	-0.33110556
129	0xbc0ee82a	-0.008722344
130	0x3d89f532	0.067362204
131	0x3e513d4c	0.20433539
132	0xbe88e44d	-0.2673668
133	0xbd9d0615	-0.07667176
134	0xbdfa9ef0	-0.12237346
135	0xbe50a6b0	-0.20376086
136	0xbe6bd6da	-0.23031178
137	0x3e0d8066	0.13818511
138	0x3be08564	0.006851839
139	0x3e3f954b	0.18709294
140	0x3d3957a8	0.04524961
141	0xbbeb374a	-0.007178222
142	0x3e6dc27b	0.2321872
143	0xbdbd2d6c	-0.09237179
144	0xbe5a4128	-0.21313918
145	0xbec1b3c6	-0.3783247
146	0x3c1e0844	0.009645525
147	0xbdf3b9c5	-0.11900667
148	0xbedbcb6b	-0.42928633
149	0x3e619c14	0.22032195
150	0x3ba19336	0.004930879
151	0x3d6cfb5c	0.057856902
152	0xbd5dd80b	-0.054161113
153	0xbe137333	-0.14399414
154	0x3ea3afa4	0.3196994
155	0x3e35c5d5	0.17751248
156	0xbe071c31	-0.13194348
157	0x3c1938cd	0.009351921
158	0x3d05092a	0.032479443
159	0x3ee15d99	0.44016722
160	0xbd18f0cd	-0.03733902
161	0xbe5a56bc	-0.21322149
162	0x3e475568	0.19466174
163	0x3e38d319	0.18049277
164	0x3b569971	0.0032745267
165	0xbdc526df	-0.09626555
166	0x3f86ca26	1.0530441
167	0xbe9daf71	-0.30797914
168	0x3e27b29a	0.16376725
169	0x3d17c1f6	0.03705021
170	0x3ea6be16	0.325669
171	0xbd343dec	-0.044004366
172	0xbcf451ba	-0.029824127
173	0x3c043f58	0.008071743
174	0x3e6e5406	0.2327424
175	0x3e0d7426	0.13813838
176	0x3d3712bc	0.0446956
177	0x3f03e75b	0.51524895
178	0x3da1bdd4	0.07897535
179	0xbd89f1e6	-0.067355916
180	0x3e96d5ac	0.29459894
181	0x3d0bd0e2	0.034134753
182	0x3e55c3a3	0.2087541
183	0xbf17c08e	-0.5927819
184	0x3c0183ec	0.007904988
185	0x3a0b7183	0.0005319344
186	0x3e36c9d5	0.1785043
187	0x3de89207	0.113559775
188	0x3c39e69f	0.011346488
189	0x3e20f504	0.15718466
190	0x3e3b0d4f	0.18266796
191	0x3d8187bc	0.063247174
192	0xbe2d7c64	-0.16941983
193	0x3d0040e0	0.03131187
194	0x3e0d0324	0.1377073
195	0x3d377263	0.044786822
196	0xbea5abcb	-0.3235763
197	0xbddd860d	-0.10816584
198	0xbde55d6a	-0.11199458
199	0x3e6c9643	0.23104195
200	0xbe22cb2f	-0.15897821
201	0xbcd93273	-0.026513314
202	0xbe25dd36	-0.16197667
203	0xbd1a69e7	-0.037698653
204	0xbcc088fd	-0.023502821
205	0x3d1b3019	0.037887666
206	0x3d7d5c76	0.061855756
207	0x3d4f76ff	0.050650593
208	0x3d5355ca	0.051595487
209	0x3e082722	0.13296178
210	0xbe85ac20	-0.26107883
211	0x3d988096	0.07446401
212	0xbc25f563	-0.0101293055
213	0xbdbc7700	-0.09202385
214	0xbe16a5ca	-0.14711681
215	0xbe2818e9	-0.16415752
216	0x3dc96c33	0.098350905
217	0x3e962a3e	0.29329103
218	0xbd594b74	-0.053050473
219	0xbd008463	-0.031376254
220	0x3e083868	0.13302767
221	0xbdc458fc	-0.09587285
222	0xbc123b42	-0.008925261
223	0x3d4807da	0.048835613
224	0xbe0e9b8c	-0.13926524
225	0x3dbbfbe5	0.091789044
226	0x3e3a500f	0.18194602
227	0xbe31a959	-0.17349757
228	0x3b556302	0.0032560234
229	0xbe0efbe0	-0.1396327
230	0xbebfd9fe	-0.37471002
231	0x3e11b2c8	0.14228356
232	0xbb627e40	-0.0034560114
233	0xbd78221c	-0.060579404
234	0x3e82e2a1	0.2556353
235	0x3d79b09b	0.06095944
236	0x39e143a3	0.00042965738
237	0x3d455f8b	0.04818682
238	0xbc24c18f	-0.010055914
239	0xbe1673c3	-0.14692597
240	0x3d4dffd2	0.050292797
241	0xbe35369b	-0.17696612
242	0x3dcad719	0.09904308
243	0x3bf53aff	0.0074838395
244	0x3d6afa8e	0.057367854
245	0x3e3e88f2	0.18606928
246	0xbe3eab13	-0.18619947
247	0xbe1ae215	-0.15125306
248	0xbe21369a	-0.15743485
249	0xbec890fa	-0.39173108
250	0x3e684278	0.22681606
251	0x3e4ff974	0.20310003
252	0x3d91d56f	0.07120787
253	0xbe085f53	-0.13317613
254	0xbd2f0a64	-0.04273452
255	0x3d6a6550	0.057225525

lin2.bias f4 [98]
0	0xbd6bbef5	-0.057555158
1	0xb933a8f9	-0.00017133717
2	0xbdaa9556	-0.08329265
3	0xbe0048dc	-0.12527794
4	0xbf394902	-0.72377026
5	0xbf38286d	-0.71936685
6	0xbd32ec87	-0.0436826
7	0xbe103af4	-0.14084989
8	0xbda418c5	-0.08012537
9	0xbe446475	-0.19178946
10	0xbd7a839b	-0.061160665
11	0xbe22e797	-0.15908657
12	0xbde2f226	-0.110813424
13	0xbf2d35bf	-0.67660135
14	0xbdbe293c	-0.092852086
15	0xbd60c2ca	-0.054873265
16	0x3c0dc166	0.008652067
17	0xbdc774be	-0.09739064
18	0xbd8bc96d	-0.06825528
19	0xbd6e2c87	-0.058147933
20	0xbd110c47	-0.0354121
21	0xbd46ce5d	-0.048536647
22	0xbdb1c2ed	-0.08679757
23	0xbd41e4a0	-0.047337174
24	0xbdcae07c	-0.09906098
25	0xbddbdb63	-0.10735204
26	0xbdd8af85	-0.10580353
27	0x3d81f80f	0.063461415
28	0x3c245915	0.010031004
29	0x3ce8bd64	0.028410621
30	0x3c1899df	0.0093140295
31	0xbd5a537a	-0.053302266
32	0x3c20715b	0.009792651
33	0xbd2e1b59	-0.04250655
34	0x3cef6ea7	0.029227568
35	0x3d911e1b	0.0708582
36	0xbb373c1f	-0.002795942
37	0xbd81c270	-0.06335914
38	0xbcab9c58	-0.020948574
39	0x3c8fbfdd	0.017547542
40	0x3cb5c3d9	0.022188114
41	0x3cfc66b5	0.030810693
42	0xbad98122	-0.0016594271
43	0xbd9bc8ac	-0.076066345
44	0xbc1de69a	-0.009637499
45	0x3da2e717	0.07954233
46	0x3da1d505	0.079019584
47	0xbdc17d54	-0.094477326
48	0x3bc3f8bc	0.005980579
49	0x3d30d1c2	0.04316879
50	0xbda72531	-0.081613906
51	0x3da55d0f	0.0807439
52	0xbdee1beb	-0.11626419
53	0xbe2f8876	-0.171419
54	0xbf15ced0	-0.58518696
55	0xbd43439e	-0.047671907
56	0x3d353b13	0.04424579
57	0x3bf64931	0.0075160493
58	0x37a01e80	1.9087689e-05
59	0xbcdfaccc	-0.027304076
60	0xbd164d63	-0.036694895
61	0xbb953146	-0.004552993
62	0xbcd41586	-0.02588917
63	0x3d1f42f3	0.038882207
64	0x3d8e8b74	0.06960192
65	0xbd85559f	-0.065104716
66	0xbd5ccd3e	-0.05390667
67	0xbd1226fe	-0.035681717
68	0x3d1c6a02	0.038187034
69	0xbd35a924	-0.04435076
70	0x3ba8e129	0.0051537943
71	0xbc7643a6	-0.015030777
72	0xbdefa6a4	-0.11701706
73	0xbc95931f	-0.01825863
74	0x3d0c38a3	0.0342337
75	0x3da2b85c	0.0794532
76	0xbcfd3699	-0.030909823
77	0xbd1c79f2	-0.038202234
78	0x3d129b4d	0.035792638
79	0xbe1b3cef	-0.15159963
80	0xbc003b01	-0.007826568
81	0xbe5294eb	-0.2056462
82	0xbda889eb	-0.08229431
83	0xbd3e83b9	-0.04651234
84	0xbd9e40dc	-0.07727215
85	0xbdc4594a	-0.09587343
86	0xbd35329c	-0.044237718
87	0xbf285fc8	-0.6577115
88	0xbde9a524	-0.11408451
89	0xbe00460e	-0.12526724
90	0xbdcc0b91	-0.099631436
91	0x3dd5afb6	0.10433905
92	0x3cdac535	0.026705364
93	0x3d74a3e8	0.059726626
94	0xbc5c52c8	-0.013447471
95	0xbf2f6dfb	-0.6852719
96	0xbf349074	-0.7053292
97	0xbf36ff66	-0.7148346
