models/2_context_2_embedding_64_activation_1.pt (torch, 957978 bytes, 5 tensors)

emb.weight f4 [98, 64]
000000 a5 32 31 be 9e 6e c6 3e 5a 7a 42 bf 3d 99 ae be
       -0.17304476 0.3875627 -0.75967944 -0.34101287
000010 83 10 bc be 6f 00 a6 3e b4 da cf be 4f fc c6 bd
       -0.36731347 0.32422206 -0.40596545 -0.09716093
000020 33 eb c7 3d bd 9f 8b 3d 36 bc c9 3c 50 03 d7 3d
       0.097616576 0.06817577 0.024625879 0.10498679
000030 94 b8 f1 3d b3 16 82 bd 01 5f 91 bc 04 e9 48 bd
       0.118027836 -0.06351986 -0.017745497 -0.049050346
000040 85 33 f3 be 08 6d b1 be d5 c4 04 be 4c a0 61 3e
       -0.47500244 -0.34653497 -0.1296571 0.22033805
000050 95 fc 74 3d a0 d9 2d 3d af 0d f5 3d 91 6a 83 3e
       0.059811193 0.04244387 0.119655006 0.2566724
000060 25 27 4b 3e 7e c2 a3 bd 18 12 ad 3c f6 df b3 3f
       0.19839151 -0.07996081 0.021126792 1.4052722
000070 1a 50 71 3b 08 6d b6 3e c2 44 42 3c f0 20 0a 3f
       0.0036821426 0.3563006 0.011857213 0.5395651
000080 f3 5f 8a be 6e 93 33 3f dd a0 aa bd 54 c6 8e bd
       -0.27026328 0.70146835 -0.083314635 -0.06971422
000090 41 23 a5 be 20 18 ca bd bc b1 85 3e d1 44 b3 be
       -0.3225346 -0.09867883 0.26112163 -0.3501344
0000a0 cf 81 d1 3e b0 27 02 bd fd 8f 45 be f1 ee d5 be
       0.4091935 -0.03177613 -0.19293208 -0.4178386
0000b0 81 71 bc be 07 97 64 be 01 90 0e bf e0 d1 39 3b
       -0.36805347 -0.22323237 -0.5568848 0.0028353855
0000c0 4e e3 91 be ac 83 04 3d 15 2a 1d bf a1 6c 04 3f
       -0.28493732 0.032352135 -0.6139234 0.51728255
0000d0 44 b0 2b 3e f5 27 67 3f a8 55 0d be f9 5a 1c 3f
       0.16766459 0.90295345 -0.13802207 0.61076313
0000e0 72 ce 1e 3e 91 81 11 bf eb f7 54 bd d7 2f 23 be
       0.1550844 -0.5683833 -0.051994245 -0.15936218
0000f0 72 f1 40 bf 93 08 df 3e f3 2f 03 be 34 71 72 be
       -0.75368416 0.4356123 -0.1281126 -0.23675996
000100 57 50 54 3e 3e 32 99 bd 68 a5 0f bf 03 de 9d bd
       0.20733772 -0.07480286 -0.56111765 -0.07708361
000110 26 58 6a bd 19 a8 85 3e 1d 25 0f bd f8 6b e0 3d
       -0.05721297 0.2610481 -0.034947503 0.109580934
000120 14 a2 4a 3f b3 f2 af be 92 5b 4a bd 37 c2 c4 3c
       0.7915356 -0.34364852 -0.049403735 0.02401839
000130 8d 83 55 3c 18 7e 3f 3e 5c e5 74 bd e9 58 39 3f
       0.013031852 0.18700445 -0.059789047 0.7240129
000140 ca 02 07 3e d4 4d a9 bd a3 22 09 3d 2a 09 5a 3e
       0.13184658 -0.08266798 0.033480298 0.21292558
000150 43 4e fa 3b b0 f3 61 bd a4 8e a5 3b 56 53 9d 3d
       0.007638724 -0.05516404 0.0050524045 0.07681911
000160 c1 2d d8 3e d7 b6 8f 3e f8 5f 04 3d 3c d9 16 3f
       0.42222407 0.28069183 0.032318085 0.58925223
000170 8d 03 67 be a5 08 85 bb 9c 46 ab bd c7 93 f7 be
       -0.22559948 -0.0040598684 -0.08363077 -0.48354933
000180 35 f5 16 bd 05 e0 9f bb 5d d0 69 3c f4 42 8d 3d
       -0.03685494 -0.004879 0.014270869 0.06897536
000190 23 39 91 3e 96 43 14 be 18 ce 45 3d 4a e3 1e 3e
       0.28363904 -0.14478907 0.04829225 0.15516391
0001a0 5d 0f b7 3c 13 bf 8e bd 43 a5 48 bd 03 98 28 be
       0.022346193 -0.06970038 -0.04898573 -0.16464238
0001b0 17 5d bf bb eb dc ec bc 42 a6 e6 bd 8b 49 4d 3e
       -0.0058399546 -0.028913936 -0.1126218 0.20047586
0001c0 ea fa 37 3e b5 62 73 bd 31 38 0b 3e f3 61 b8 3e
       0.1796681 -0.059420306 0.13595654 0.3601223
0001d0 4d 2d 2a 3e 2b e1 00 3f ae f0 d3 bd b6 03 bd 3e
       0.16618843 0.5034358 -0.103486404 0.36916894
0001e0 3e 2b 8f bd 84 5f 67 be c2 41 0b bd a0 78 86 be
       -0.0699067 -0.2259503 -0.03399826 -0.26263905
0001f0 a3 57 35 be cf eb 12 3f 93 ec ac 3d 32 85 1d bf
       -0.17709212 0.57391065 0.084435605 -0.61531365
000200 32 87 c5 be 84 b8 0f 3e 7f a6 c6 bd c4 e2 94 bf
       -0.38579708 0.14035231 -0.09699725 -1.1631703
000210 ec 10 85 3f e1 05 a9 be 1d 82 01 3f 43 dc 79 3d
       1.0395789 -0.33012298 0.5058916 0.061001074
000220 37 c9 16 3f 70 b8 8e 3e 1b 24 8e bc 5a a1 bc 3e
       0.5890078 0.2787509 -0.0173512 0.3684185
000230 2b b8 01 be 87 ac 29 be 77 e8 9f bf f7 12 96 bf
       -0.12667911 -0.1656972 -1.2492818 -1.1724538
000240 b4 12 76 3f 20 b4 bd bf 57 08 8b bc 44 a8 d4 3f
       0.9612229 -1.4820595 -0.01697175 1.661385
000250 12 76 cb 3f d4 e1 04 bf 47 d1 35 3f 8c 85 c8 be
       1.5895407 -0.51907086 0.71022457 -0.39164388
000260 87 c4 49 3f 7e c7 20 3f 0b 59 33 bd 1f 5a 48 3f
       0.788155 0.628044 -0.04378609 0.78262514
000270 94 54 d0 3f 50 e6 6b 3e cb 2a 3f bf 27 1b 46 bf
       1.6275811 0.23037076 -0.7467467 -0.7738518
000280 e9 af 86 3e 15 19 96 3f 09 a1 90 3e e3 6e 47 be
       0.26306084 1.1726404 0.2824786 -0.19475894
000290 06 31 6d 3e 07 35 c3 bf 7b 6e 39 3f 82 7a 8b bf
       0.23163232 -1.5250558 0.72434205 -1.0896761
0002a0 63 9b fd 3e 5a 33 0d 3f 86 03 13 3f 81 5a b2 3d
       0.49532613 0.5515648 0.5742725 0.087086685
0002b0 3b 6f 1d bf 01 ac 45 3f 00 0c ef 3d 61 22 e9 be
       -0.6149785 0.7721558 0.11672211 -0.45534042
0002c0 70 1f 50 3e bc b2 2b 3f e7 61 c0 bf 7a 13 4a bf
       0.20324492 0.670696 -1.5029877 -0.7893597
0002d0 6b 57 0c 3f 68 2e cc be ff c0 78 bf 4b b5 5b 3f
       0.5482089 -0.39879155 -0.9716949 0.85823506
0002e0 93 e2 ba 3c 0b f3 81 3f 72 e5 de 3f 02 70 a0 bf
       0.022813117 1.0152296 1.7413771 -1.2534182
0002f0 93 95 c3 3e 87 34 34 bf 5d 3c 76 bf e3 af fc 3e
       0.38200054 -0.7039265 -0.9618586 0.4935294
000300 69 d0 82 3f 15 97 9b 3f e3 25 9b bf 58 53 f7 be
       1.0219852 1.2155482 -1.2120937 -0.48305774
000310 49 4c 6c 3e 7c 08 e9 3f f6 e0 7f 3e c1 b0 20 c0
       0.23075975 1.8205714 0.2498816 -2.5107882
000320 4f 1c d7 3f 23 91 03 40 fb b5 4e bf 32 08 b3 be
       1.6805514 2.0557334 -0.8074643 -0.3496719
000330 9b df 86 3e 99 b0 c5 bf fe b4 55 bf 16 03 87 3f
       0.26342472 -1.5444518 -0.834793 1.0547817
000340 35 df f2 be e0 77 5c 3f 55 34 1d bf de d0 81 3f
       -0.47435918 0.86120415 -0.6140798 1.0141866
000350 db c1 d1 3e ce b4 eb bd 37 65 9e 3f df c6 4b 40
       0.40968212 -0.11509095 1.2374638 3.1840131
000360 bb 3e 5a be c4 e6 56 3f 2d 9b 2d bf 72 3e 1e bf
       -0.21312992 0.8394587 -0.67814904 -0.61814034
000370 3c 9d 1b 3f 55 78 f6 be 15 db 31 be 31 c8 02 c0
       0.60786796 -0.4813868 -0.1736873 -2.0434687
000380 a8 9f 35 be 1e 30 6e bd 9e 6f c3 3e b2 00 eb bf
       -0.17736685 -0.058151357 0.38171095 -1.8359587
000390 e9 10 b1 bf 4a eb 1c c0 af 5b 15 bf 84 d4 1f bf
       -1.3833286 -2.451861 -0.58343023 -0.6243365
0003a0 50 8f b8 bf 89 5c 30 bf 7e 2e 06 40 47 dd a2 be
       -1.4418736 -0.688912 2.0965877 -0.31809446
0003b0 7c c4 04 40 2d 46 1b 40 17 56 50 bf 0d d6 00 40
       2.0744925 2.4261582 -0.8138136 2.0130646
0003c0 55 9d 47 3e 09 6e 73 bf 1b 51 5d bf f7 a6 38 3b
       0.19493611 -0.95089775 -0.8645188 0.002817569
0003d0 e0 9e 47 c0 ee 4d ca 3f d3 a8 f6 3f f0 65 b2 be
       -3.119072 1.5805032 1.9270271 -0.34843397
0003e0 0b 93 34 3f 7d 12 cd 3f ab bb 4d 3f 61 08 c7 bf
       0.7053687 1.6021267 0.80364484 -1.5549432
0003f0 9e 36 9e be 6a a6 ab 3e c9 24 2f 40 b6 27 28 be
       -0.30901045 0.335254 2.7366202 -0.16421399

lin1.weight f4 [1024, 128]
000000 8e fa ee bb c4 74 5b be 3a 56 33 3e e7 d2 21 be
       -0.007293052 -0.21431261 0.17513362 -0.15803109
000010 aa 3e b3 bd 0e d6 73 be 0e d3 49 be b8 70 a8 3e
       -0.087521866 -0.23812124 -0.19709417 0.32898498
000020 b0 84 f9 bd f2 3d 6b 3c 39 c9 a4 3e 3d 2f 2b be
       -0.12183511 0.014358031 0.3218477 -0.16717239
000030 89 a1 30 3d 0e c5 2c 3d 8f b0 c6 3d 29 5d 16 bd
       0.043122802 0.042180113 0.09701645 -0.03670994
000040 c8 f8 78 bc c1 aa 8f 3d a1 b9 94 3d 04 cb 90 3c
       -0.015196033 0.070149906 0.072619684 0.01767493
000050 5f 7b 78 be 7a a8 76 bd eb d8 7c 3e 47 ec f2 3c
       -0.24265812 -0.060219266 0.24692123 0.029653681
000060 39 4e c6 bd 0a f0 f2 bd 7a 83 8c 3e 3c 1b 0d bf
       -0.096828885 -0.1186219 0.2744406 -0.5511968
000070 64 cc a3 bc ef 2a de bb e7 b2 71 3d ed 79 9a 3e
       -0.019994922 -0.0067800204 0.059008505 0.30171147
000080 59 02 ce 3d 96 15 99 3d 3e 1f 90 3b e5 4d cf bd
       0.100590415 0.0747482 0.0043982556 -0.10122279
000090 b5 0b 8b be f3 92 57 3d f2 75 49 bd 62 7c 83 3d
       -0.2715737 0.052630376 -0.049184747 0.064202085
0000a0 9a 72 ab be b9 bc 03 bb 8e da 9a 3d a9 15 c6 3d
       -0.33485872 -0.00201015 0.07561217 0.096721
0000b0 0b 26 49 3d 91 d5 03 3c 6f 50 b2 3d 71 61 60 bb
       0.049108546 0.008046524 0.08706748 -0.0034237767
0000c0 ca 36 12 be 4b 7f a9 3c ea 8f ce bd cb 84 94 3c
       -0.14278713 0.02069058 -0.10086043 0.018129727
0000d0 cd 57 63 bc 0b 32 17 be 89 66 09 3e f6 20 65 be
       -0.013875914 -0.14765184 0.1341802 -0.22375855
0000e0 2e fa dd bd 3d 4b 65 be 1c b9 5e bd 03 12 c1 3d
       -0.108387336 -0.22391982 -0.054375753 0.094272636
0000f0 f6 79 75 3d e0 77 23 3d 6a 38 2a be e7 17 52 3e
       0.059930764 0.039909244 -0.16623083 0.2051693
000100 27 55 1e be ab 4c 70 be 6f f1 28 be 10 74 31 bc
       -0.1546217 -0.23466747 -0.1649835 -0.010830894
000110 ff 6f 31 be 6c 3f 17 3d 13 ab 05 be 42 0d 62 3d
       -0.1732788 0.03692572 -0.13053541 0.055188425
000120 f8 0e 78 be e2 5a 95 3e ae 9c 81 be 8e 0b 49 be
       -0.2422446 0.291709 -0.2531485 -0.19633314
000130 91 52 5c bb 5a f6 25 3e 77 09 ec 3d 92 f3 07 be
       -0.003361855 0.16207257 0.11525243 -0.13276508
000140 43 31 50 3d 12 bc 6a 3d bb d2 ca bc dd 3b 59 3d
       0.05082823 0.057308264 -0.024758687 0.053035606
000150 38 b8 af 3d 5b 95 fb bd 2f e7 7d be 97 b7 02 be
       0.08580059 -0.12284347 -0.24795221 -0.12765346
000160 74 eb 04 bc aa be 6f bc 35 b9 78 be cb 05 64 be
       -0.008112777 -0.01463286 -0.24289401 -0.22267835
000170 a8 48 34 3e 85 7c 03 be b6 e9 e5 3d c5 15 13 3e
       0.17605841 -0.12840469 0.112262174 0.14363773
000180 c9 6b 9e bd 35 39 bb 3c 8d 39 3b be 29 f7 0e 3e
       -0.07735402 0.022854427 -0.18283673 0.13961472
000190 ea a4 13 bd 63 2d ad 3e 66 96 10 be 95 3d 35 3e
       -0.036045946 0.3382369 -0.14119872 0.17699273
0001a0 72 1b 99 be 64 8e ca 3d 53 d0 1d 3e a9 49 b8 3c
       -0.29903752 0.0989044 0.154115 0.022496061
0001b0 74 a6 1e 3e ca 64 a1 3e 38 82 e0 3e 6a 5b c2 3d
       0.15493184 0.31522208 0.4384935 0.09490092
0001c0 b3 72 92 be d8 79 cf 3d 80 96 54 be 8d 83 10 be
       -0.28603134 0.10130662 -0.20760536 -0.14112683
0001d0 ee 7f 06 be 78 da 25 be 44 c1 0b bd 6a 63 ad be
       -0.13134739 -0.1619662 -0.03411986 -0.3386491
0001e0 98 97 d7 bd 7c bb 35 3d 13 b9 09 be 71 01 11 be
       -0.10526961 0.044368252 -0.13449506 -0.14160706
0001f0 a8 86 60 3e 9d d9 3e be 1b 00 7f 3e 1d e8 ea 3d
       0.21926367 -0.186377 0.24902384 0.11470053
000200 78 ef e6 3e be 42 de be 33 d0 31 bd dd 3b 98 3c
       0.45104575 -0.43410295 -0.043411445 0.018583233
000210 9d b9 14 bf 5a 36 aa bc 2d d6 c4 be 20 f0 23 3d
       -0.58095723 -0.02077787 -0.38444653 0.040023923
000220 00 74 46 bd f0 8b a7 3e 58 32 a8 be eb b9 68 3d
       -0.04845047 0.3272395 -0.3285091 0.05681793
000230 a2 d6 c0 3d 56 40 4f bd 7d dc c2 bd 7f 57 08 be
       0.09415938 -0.050598465 -0.09514711 -0.13314627
000240 cc ab 6a 3e 8e d3 b4 3e a3 ab 6e 3e b3 54 92 3d
       0.22917098 0.35317653 0.23307662 0.07145061
000250 83 b6 00 3e 8c 45 d9 3c 30 75 1c be de 0c 6d 3d
       0.12569623 0.02652242 -0.15279078 0.0578736
000260 03 db 4c bd 8e 67 19 3e 60 12 51 3b 48 ff ba be
       -0.050013553 0.14980909 0.0031901821 -0.3652289
000270 45 97 1b 3e a8 fe 4b 3e fe f0 f8 bd bf ed a7 3e
       0.15194423 0.19921362 -0.121553406 0.32798573
000280 10 13 fd bd aa 60 a5 3c 7f 2d 4b 3c 5d 26 d0 3d
       -0.123571515 0.020187695 0.012400984 0.10163567
000290 01 11 f2 bd 0d 44 18 be 9e 08 a8 be 33 35 45 be
       -0.118196495 -0.1486971 -0.32819074 -0.19258575
0002a0 ef 60 db bd 19 5d 5e 3e 74 62 49 bb fb bb ed bb
       -0.10711848 0.21715201 -0.0030728849 -0.007255075
0002b0 67 dd db 3e 86 43 cc 3e 45 5f 0b 3e 68 53 78 bc
       0.42942354 0.39895266 0.13610561 -0.015156604
0002c0 58 13 1a be d6 08 cf 3e 98 c7 ec bd 94 a4 5d be
       -0.15046442 0.4043643 -0.11561507 -0.21644813
0002d0 67 fa 02 bf e9 28 43 bd ff dc 99 be 3b 1d 05 bf
       -0.51163334 -0.047646437 -0.3005142 -0.5199773
0002e0 fc b0 a7 3e 43 ec 71 3d cb 75 5d be d8 7f bc bc
       0.32752216 0.059063207 -0.21626966 -0.02301018
0002f0 ca 82 0d be 4c d6 08 bf 55 21 18 be 43 1c 91 be
       -0.13819423 -0.5345199 -0.14856465 -0.28341874
000300 12 da d0 bc 1e 2d c6 be f1 4b 79 be 41 b4 ea be
       -0.025494609 -0.38706297 -0.24345376 -0.45840648
000310 b7 da 9e 3e 56 69 3b 3d 73 b5 58 bd c2 a7 f5 3d
       0.3102624 0.045754753 -0.05290742 0.11994888
000320 61 95 93 be a5 f9 13 3e 33 da c5 bd a9 b4 20 3d
       -0.28824905 0.144507 -0.09660759 0.03923479
000330 3a 34 81 3e 69 e4 b4 3d 08 07 90 3e 1b f6 1b bf
       0.25235158 0.08832628 0.28130364 -0.609224
000340 9e 89 58 be 8d 0c f2 3e 25 8f 3c 3e 31 9e c1 be
       -0.21146247 0.472752 0.1841398 -0.37816003
000350 ee 6c 1e be fe 8b 4d 3e 39 ae 2e bd 90 51 45 3e
       -0.15471241 0.20072934 -0.04264662 0.19269395
000360 2d 5c 7e bc 1b 48 0e 3e 57 fc a8 3c ef 7e 95 be
       -0.015524906 0.13894694 0.020628138 -0.29198405
000370 fa 7b b0 3e 7f 24 31 be d0 a3 39 3d 4a a2 a6 3e
       0.34469587 -0.17299078 0.04532224 0.32545692
000380 63 42 b9 3d 52 2a ab 3d 78 8c c1 3e 34 e9 c8 bc
       0.090458654 0.08357681 0.37802482 -0.024525262
000390 9b 20 88 3d 82 e3 e3 3e 00 f8 64 3e ec ac 97 3d
       0.06646844 0.44509512 0.2236023 0.07406029
0003a0 12 59 54 be 17 ee 43 3e e8 27 b9 3d 09 27 8d 3e
       -0.20737103 0.19133793 0.09040815 0.27568844
0003b0 08 5d 3c 3e cc c6 b2 bd 8f b7 8e be 5d 76 11 3f
       0.18394864 -0.08729324 -0.2787442 0.56821233
0003c0 27 65 87 be 23 79 b2 3d 89 38 01 bb f1 90 6f bd
       -0.2644436 0.08714511 -0.0019717535 -0.058487836
0003d0 24 a9 ce be 26 d1 41 3e e2 66 f9 bd fc 87 19 bf
       -0.4036342 0.1892744 -0.121778265 -0.5997312
0003e0 c4 54 c9 bc 2f a0 a9 3e fe c1 c9 3e 61 7c a4 3d
       -0.024576552 0.33130023 0.39405817 0.08031536
0003f0 1a ef 04 bd bd 97 ea bd 87 e3 85 3e 8e b1 83 be
       -0.032454588 -0.11454723 0.26150152 -0.257214

lin1.bias f4 [1024]
000000 3a 6e f7 be dd 5b 28 bf 18 08 01 bf c7 16 81 be
       -0.48326284 -0.6576517 -0.50402975 -0.2521269
000010 4f 98 e5 be 21 23 43 bf 5c ab 1b be 07 39 b0 be
       -0.44842765 -0.7622548 -0.15202087 -0.34418508
000020 3b 01 10 bf 1a 3c 33 bf 06 4e fe be 31 a1 c7 be
       -0.5625188 -0.7001358 -0.49668902 -0.38990167
000030 06 aa 18 be 0d ab 4f be e2 64 2f bf 2e f1 20 be
       -0.14908609 -0.20280094 -0.6851331 -0.15717003
000040 d9 3c 20 be 4f 68 d1 bd f0 36 d6 be 62 58 00 bf
       -0.15648212 -0.102249734 -0.4183879 -0.5013486
000050 dc 6e d3 be 54 81 51 be 35 b8 00 bf 2c b6 1a 3c
       -0.41295516 -0.20459491 -0.5028108 0.009442847
000060 5f 1e b9 be ec dc a6 be 67 40 7b be 0b 30 1a be
       -0.36155984 -0.32590425 -0.24536286 -0.1505739
000070 8e 2b 99 be 08 b4 f7 be 4c ca 42 bf 54 a0 6e be
       -0.29916042 -0.4837954 -0.7608993 -0.23303348
000080 f9 d2 0f bf eb 2b 38 bf 47 c6 c2 be 69 24 4b be
       -0.56181294 -0.71942014 -0.380419 -0.19838108
000090 0f 0c fa be ec 60 58 be be bf 0a bf 3a ce 87 be
       -0.48837325 -0.21130723 -0.54198825 -0.26524526
0000a0 3f 7d 6b bf f8 4b 5e bf a1 bc be be 86 3d 25 bf
       -0.91987985 -0.8683467 -0.37253287 -0.64547
0000b0 ae e8 74 be d6 80 13 bf 3e 82 ec be 3f d6 2a bf
       -0.23916885 -0.57618463 -0.46193117 -0.66733164
0000c0 06 ad 2b bf 0e ad 2b bf 92 20 1a bf c9 4e 03 be
       -0.6706089 -0.67060935 -0.6020595 -0.12823023
0000d0 c8 de 9e be 4c 40 0b be 97 87 9b bd e8 20 92 be
       -0.31029344 -0.13598746 -0.07594221 -0.2854073
0000e0 85 a0 35 bf 8b 85 79 be bb 8a d0 bd d7 01 9d be
       -0.7094806 -0.24367349 -0.10182711 -0.30665466
0000f0 1e 37 ec be ab 80 0b bf 0f 22 d7 be 68 02 49 bf
       -0.461358 -0.54493207 -0.42018172 -0.78519297
000100 58 6e 0c bf 53 d0 34 bf 44 5d 1e bf a8 8c d4 be
       -0.5485587 -0.7063038 -0.6186106 -0.41513562
000110 4c b6 a4 be 08 d8 31 bf 91 69 df be 7a 7b e8 be
       -0.3217033 -0.6947026 -0.43635228 -0.45406705
000120 12 97 3b bf bc 26 74 be 8e 4e 0c bf b9 c8 27 bf
       -0.7327739 -0.23842901 -0.54807365 -0.65540653
000130 87 8f 83 bc cd 84 07 bf 70 61 26 bf 3b f9 35 bf
       -0.01605965 -0.5293701 -0.6499243 -0.7108342
000140 1c fb 34 bf 73 44 cd be 28 bb e4 bd 4b 2f fa bd
       -0.7069566 -0.40091285 -0.1116851 -0.12216052
000150 28 cd 78 be 9b 63 2f bf 3f b9 51 be e5 5e f2 be
       -0.24297011 -0.6851136 -0.20480822 -0.47338024
000160 f7 77 cb be 8b 75 e5 bd ad f7 dd be e6 22 07 bf
       -0.39739963 -0.1120406 -0.43353024 -0.52787626
000170 56 ed 37 bd 78 db 3a be 6d 4c df be dd 81 83 be
       -0.044904076 -0.18247783 -0.43612996 -0.25685015
000180 f2 96 93 be 62 80 8f be 2c f3 32 be f2 c8 51 be
       -0.288261 -0.28027636 -0.17475575 -0.20486811
000190 c9 18 a4 bd 97 89 d3 be 42 32 20 bf a4 29 57 3c
       -0.0801254 -0.4131591 -0.6257669 0.0131324865
0001a0 55 3e 34 bf 1c b8 c9 be 1f 0a bd be 65 94 27 be
       -0.7040761 -0.39398277 -0.36921784 -0.16365202
0001b0 dc 96 03 bf 83 40 9d be 8f c3 42 be 75 07 ff be
       -0.5140207 -0.3071328 -0.19019912 -0.49810377
0001c0 bd 37 b4 bd 9a 34 52 be 43 f9 89 be d9 08 09 bf
       -0.08799694 -0.20527878 -0.26947984 -0.53529125
0001d0 db 7f 6c be 98 e8 df be 13 ee da be 28 1e b5 be
       -0.23095648 -0.43732142 -0.4275976 -0.3537457
0001e0 36 75 e8 bd 37 2e d4 be 36 04 58 bf 07 e3 5a be
       -0.11350481 -0.4144151 -0.84381425 -0.21375667
0001f0 90 c6 e0 be 5e a6 5a be c7 4a 45 be 3c e4 b1 be
       -0.4390149 -0.21352527 -0.19266807 -0.34744442
000200 01 b7 0c bf bd f7 0f be da ad 1d bf d7 0d 25 bf
       -0.5496674 -0.14059348 -0.615934 -0.6447424
000210 d2 97 46 be 0f 14 cb be 1b 56 d5 be e3 9a 22 bf
       -0.19393852 -0.3966374 -0.41667256 -0.6351759
000220 67 37 f0 bd 85 dd 0a bf 34 16 be be fa 05 e5 be
       -0.11729317 -0.5424426 -0.37126315 -0.44731122
000230 a3 09 1f bf a3 7c 21 be 51 69 82 be 04 85 20 be
       -0.6212408 -0.15770201 -0.25470975 -0.15675741
000240 4f 7f fe be 6e 5c a7 bc 1f f2 f0 be 63 b5 ea be
       -0.49706504 -0.020429816 -0.47059724 -0.45841512
000250 d6 67 4a bf 1b 7c b7 be 86 7a dd be ac 98 9a be
       -0.7906469 -0.35836872 -0.4325754 -0.30194604
000260 a5 86 79 be 41 90 87 bd c0 78 15 bf 1c 63 13 be
       -0.24367769 -0.06619311 -0.58387375 -0.14393276
000270 ca 15 07 be da 5b 0e bf 03 d8 1d bf f5 d3 20 bf
       -0.13191906 -0.55608904 -0.6165773 -0.6282342
000280 48 04 41 bf e3 14 83 be 42 a2 fa be b2 e1 14 be
       -0.7539716 -0.25601873 -0.48951918 -0.14539221
000290 0c ed 10 bf 2d ad 8c be 92 4e 0a bf 10 5c 03 be
       -0.56611705 -0.27475873 -0.5402614 -0.12828088
0002a0 bf 66 e2 bd 2b 17 7e be ec 3b 02 bf 0b 27 a3 be
       -0.110547535 -0.24813525 -0.50872684 -0.31865725
0002b0 91 1d 94 be d1 1a 3d be 05 87 3a bf f3 1c bf be
       -0.28928807 -0.18467261 -0.72862273 -0.37326774
0002c0 02 23 72 be e7 1e 9b be bf 0a 0e bf 75 08 93 be
       -0.23646167 -0.30297014 -0.5548515 -0.2871739
0002d0 1e 84 c2 be 15 c5 aa be 8e 8c 6e be 2a bf f0 be
       -0.37991422 -0.33353487 -0.23295805 -0.47020847
0002e0 f6 97 8b be 38 74 2d be e0 e8 3e bf a2 9f 87 be
       -0.27264374 -0.16938865 -0.7457409 -0.26488978
0002f0 ef f8 21 bf 44 69 a8 be 9c 52 a2 be 38 1d 26 bf
       -0.6327047 -0.3289281 -0.3170365 -0.64888334
000300 3e e8 7d be 5a 7f 16 be 10 2e 8e be 87 6a b7 bd
       -0.24795625 -0.14697018 -0.27769518 -0.08955865
000310 70 99 e6 be e4 b7 10 bf 1e a1 10 bf 06 d9 f8 be
       -0.4503894 -0.56530595 -0.56495845 -0.48603076
000320 aa e6 0d bf 8c 0b 63 be 87 d2 94 be 32 9d b8 be
       -0.5543009 -0.22172374 -0.2906687 -0.3605743
000330 11 0a 1e bf 15 39 05 bf fd b7 89 be f9 7e aa bd
       -0.6173411 -0.52040225 -0.26898184 -0.08324999
000340 73 cd b9 bd 73 49 8d be 5b 99 0c bf 11 92 c1 be
       -0.090723895 -0.275951 -0.549215 -0.37806752
000350 73 65 18 bf 76 e7 47 be 22 4a 2a bf 57 2c 7e be
       -0.595298 -0.19521889 -0.6651937 -0.24821602
000360 4a 23 e9 be 0f 5a 05 bf 12 9f 51 be 89 0c e1 be
       -0.45534736 -0.52090544 -0.20470837 -0.43954876
000370 d4 d6 27 bf d6 40 27 bf 0c 51 f4 be 00 8a bd be
       -0.65562177 -0.65333307 -0.47718084 -0.37019348
000380 d0 73 ae be a3 7d 4b bf c4 2e 8a be b2 1a f8 be
       -0.34072733 -0.7948858 -0.26988804 -0.48457867
000390 e6 47 0d bf 1e d9 ce be 6f 7a b1 be bc 22 84 be
       -0.55187833 -0.40400022 -0.34663722 -0.2580775
0003a0 02 c4 48 be 62 2d 33 bf f0 cc 2b bf 47 4b c6 bd
       -0.19606021 -0.69991124 -0.67109585 -0.09682327
0003b0 54 77 15 bf 96 1a c8 bb 4d 5f 1a bf db 23 87 be
       -0.58385205 -0.006106685 -0.6030167 -0.26394543
0003c0 2c 90 b8 be 2d cf 9c be e9 40 fd be ee 77 32 bf
       -0.36047494 -0.30626813 -0.49463585 -0.6971425
0003d0 22 4e 08 be 6d 99 02 bf f1 b3 95 be 3d 3a 68 be
       -0.13311055 -0.5101536 -0.29238847 -0.22678466
0003e0 80 1e ea be b0 80 ff be a1 03 41 bf 5a b7 8f be
       -0.45726395 -0.49902868 -0.7539616 -0.28069574
0003f0 9e 6f 72 be e7 c0 28 bf 76 38 5c be 4c 96 1e bf
       -0.23675391 -0.65919346 -0.21505913 -0.61948085

lin2.weight f4 [98, 1024]
000000 6a 37 95 3e f8 5a 2a be e6 8e 9a bd 9d 30 8f bd
       0.2914384 -0.16636264 -0.07546787 -0.06991694
000010 1a e0 c4 bc 23 9b d9 3d 2c 20 91 3d d2 6d 4a 3e
       -0.024032641 0.10625293 0.070862144 0.19768456
000020 5e 25 f8 be 48 92 a4 bf 8d 47 5a bd 3c bd c6 3c
       -0.4846601 -1.2857141 -0.053290892 0.024260156
000030 94 ad 56 3d 33 6e b2 3c 52 a9 15 be 4c 3f c0 bc
       0.05241163 0.021781063 -0.14615372 -0.023467682
000040 1b b7 f2 bd 51 cf 36 be 70 2c ae 3c 8d 87 32 be
       -0.11851331 -0.17852522 0.021261424 -0.17434521
000050 36 53 5b bc 1a 71 32 3b 67 fa 84 3d c0 88 8d bd
       -0.013386538 0.0027228058 0.06493073 -0.069108486
000060 4a bf 84 bf e8 10 fa bd 24 bf 40 be d0 ed 91 3e
       -1.0370877 -0.12210256 -0.18822914 0.2850175
000070 6c 39 11 3e 82 8b 9a 3c d0 f6 1f 40 ba ee 2f 3e
       0.14182061 0.01886535 2.4994392 0.1718091
000080 03 1a 69 c0 9c 3f 04 bf 44 1c c5 be 6b 2d 60 be
       -3.6422126 -0.5165956 -0.38498127 -0.21892326
000090 7c 80 bf bb 01 c3 03 3e c9 2b fb 3c ee 87 bf 3b
       -0.005844174 0.12867357 0.030660527 0.0058450615
0000a0 49 55 34 bf ff 4a 19 c0 df 76 82 bd b0 40 e3 3d
       -0.70442635 -2.3952024 -0.06370329 0.110963225
0000b0 c8 52 ff bd 85 39 d3 3d a6 6a de be 5a c1 13 3e
       -0.12466961 0.10313705 -0.4344074 0.14429227
0000c0 7c 10 b0 c0 ab ed d0 3d cf 19 d0 3c 87 06 44 3c
       -5.5020123 0.102015816 0.025402931 0.011964447
0000d0 d4 c2 50 be f9 f4 e0 bd 7f 3f 79 be 6f 73 3f be
       -0.20386821 -0.10984225 -0.24340628 -0.18696378
0000e0 36 59 4d bf a7 54 b1 bc df 20 45 3e e9 63 ac bc
       -0.8021425 -0.02164681 0.1925082 -0.021043735
0000f0 10 ca 7f 3d 5f 77 69 be b3 c7 a6 bc af d0 60 be
       0.06244856 -0.22799443 -0.020358896 -0.21954606
000100 78 a1 8b bd 6b 07 0e 3e 19 28 b8 bf 42 a3 cb 3d
       -0.06817907 0.13870017 -1.4387237 0.09943248
000110 84 18 44 be 04 89 c3 bf 53 54 7f 3d 6c 24 2a 3d
       -0.19149977 -1.5276189 0.062336277 0.04153864
000120 c2 72 06 3d 92 b5 42 3c fc 1a 85 bd 08 b1 cb bc
       0.032824285 0.01188411 -0.064992875 -0.024864689
000130 3a 64 91 bc 06 c8 1c 3f af 56 f7 3d d6 22 97 c0
       -0.017747987 0.6124271 0.120770805 -4.7230024
000140 47 2c 13 3e 75 2c ea bc 14 30 ff bd 5e 8b 3b bd
       0.14372359 -0.028585652 -0.12460342 -0.045787208
000150 5e 47 76 39 0c 35 18 bd 7f d7 9b bc b0 b8 c5 3d
       0.00023486975 -0.037159964 -0.019023655 0.09654367
000160 f9 1b 69 bd ea 64 81 3d ed f3 1a c0 5c 2b ca bd
       -0.056911442 0.06318076 -2.421138 -0.098715514
000170 78 ee 44 bd a8 3d 04 3e 3b 64 81 c0 53 44 7d 3d
       -0.048078984 0.12914145 -4.043485 0.061832737
000180 e5 dd e0 be 3a cf e6 3d d4 cc 7f 3b 67 a6 57 3b
       -0.43919292 0.11269994 0.0039032 0.003290558
000190 70 05 4a 3d 31 05 7d 3c 3e 90 6d c0 ee f7 e3 3d
       0.04932159 0.015443132 -3.7119288 0.11131273
0001a0 e5 c5 da be 55 aa fb bd c9 d5 27 be 7c 40 94 3c
       -0.42729107 -0.12288348 -0.16390146 0.018097155
0001b0 36 6b 7b 3d 99 0d ad be 4b ae 0d bd 1b 9d 84 bd
       0.06138154 -0.33799437 -0.034590047 -0.06475278
0001c0 7e e5 73 3b 96 ed 5b 3d 07 08 d2 bd 8b 0a 30 be
       0.0037215645 0.053693376 -0.10255437 -0.17191522
0001d0 84 fe 40 3d 3d 0d 84 be c4 f2 85 bc 42 eb 28 3d
       0.047117725 -0.2579135 -0.016351111 0.041239984
0001e0 b0 e4 f2 bd 81 db 52 bd 99 1b 25 bf a3 29 27 3e
       -0.11860025 -0.051478866 -0.64495236 0.16324477
0001f0 76 14 03 3e ef 0a f1 bd 7b 00 92 3d e7 25 66 bc
       0.12800774 -0.117696635 0.07128998 -0.014047123
000200 20 53 fc be 35 54 03 3d b7 70 fb bd af 3b 90 bd
       -0.4928217 0.032062728 -0.12277358 -0.07042634
000210 31 f7 ee 3d bb 79 96 bd c7 cc e9 bd 10 08 2b 3e
       0.11668242 -0.07347437 -0.11416011 0.16702294
000220 b8 a8 83 bd fc 9d d8 bf 76 ec f7 3c 3a eb 09 bd
       -0.06428665 -1.6923213 0.03026412 -0.033671595
000230 07 17 b1 be 8b 4b 6d bc 5c e6 6e 3d db d0 c6 bb
       -0.3458788 -0.014483343 0.058325157 -0.006067378
000240 d6 e5 cf 3d c3 b0 ff bd 6a 46 0d 3e 9a 9c f0 bd
       0.101512596 -0.124848865 0.13796392 -0.117486194
000250 b4 33 2a 3d a5 7d 15 bd f4 8a f7 bd 53 30 67 bd
       0.041553214 -0.036496777 -0.1208705 -0.05644257
000260 ca 0d 95 3d af 71 1c 3c 10 66 55 3d cb 3b 0b 3c
       0.07278021 0.009548589 0.052099288 0.0084981425
000270 ba 2a b8 3d 37 61 93 bf ed d4 0f 3e 1b 81 96 bf
       0.089925244 -1.1514043 0.14046068 -1.175815
000280 da 89 b4 bf a7 9a 0f bb a4 fe a3 bc a1 ec 1c 3e
       -1.4104569 -0.0021912248 -0.020018883 0.15324642
000290 82 4e 62 be d7 23 a1 3c b3 b8 fa 3c 1e 1e 1f bd
       -0.22100261 0.01967041 0.03060565 -0.03884708
0002a0 8a 7f e5 bc f8 e9 93 bf c1 e5 9d 3d d2 18 8b bc
       -0.028014917 -1.1555777 0.07709838 -0.016979609
0002b0 bd 67 2b bc 2a 6c ce 3c 41 02 06 c0 8a 50 35 bb
       -0.010461745 0.025198061 -2.0938876 -0.0027666413
0002c0 ea ee e1 3d 8a 8b a2 3d 54 2e d2 bd 95 dc e5 bc
       0.11031897 0.07936771 -0.10262743 -0.028059283
0002d0 74 23 81 bc 6b c1 11 bc 59 c5 39 3b 0f 62 ec 3b
       -0.015763976 -0.008896212 0.0028346388 0.007213838
0002e0 54 57 89 bd 69 e1 5c be 46 7b bc 3d 53 77 4d 3d
       -0.0670611 -0.21570362 0.092032 0.050162625
0002f0 81 ea 58 3e 9d 1e 2e 3d 39 8e c9 3b f7 fa a1 bf
       0.21183206 0.042509664 0.0061509875 -1.2654713
000300 a2 fc a7 be 24 1b 97 bd 9c 3e af bc a3 27 ce bd
       -0.3280993 -0.073782235 -0.02139216 -0.10066154
000310 fa 57 ad be 97 0a 36 be dd e9 28 bd 25 68 4c 3e
       -0.33856183 -0.17777477 -0.041238654 0.19961603
000320 6e 30 c9 bf 51 50 9b bc b2 42 23 bd a6 67 d4 bc
       -1.5717905 -0.018959196 -0.039858527 -0.02592833
000330 10 4e a0 3c f6 a0 77 bf d9 c5 36 3e 6a f9 1e bf
       0.019568473 -0.9672998 0.1784891 -0.62099326
000340 cc 24 8d 3d 18 a8 42 bd ce 28 9f bd 0e 22 87 3d
       0.06891784 -0.047523588 -0.07771455 0.06598292
000350 49 01 25 3d d1 f6 eb 3c c4 c9 ab be 21 84 83 bd
       0.04028443 0.028804215 -0.33552372 -0.06421686
000360 44 9d 86 3c bb 80 e5 3d cd 57 90 3c 7f 60 27 3e
       0.016432412 0.11206194 0.017619992 0.16345404
000370 4f 77 33 be 7b 5e 6b 3d 29 c2 45 be 72 08 e3 3c
       -0.17525981 0.05746315 -0.19312347 0.027713988
000380 4c ed c8 3d 54 e7 5a 3e 97 fa 92 bc e5 a4 17 be
       0.09810886 0.21377307 -0.017941756 -0.14808996
000390 a0 c7 11 bc 87 15 72 3c 3c 12 47 bc 5c df f9 be
       -0.008897692 0.01477564 -0.0121503435 -0.48803222
0003a0 c4 31 ed bd 39 8e d3 bf 5b 7c a1 bd f6 bc da 3d
       -0.11581758 -1.6527778 -0.07885047 0.10680573
0003b0 bf 14 b6 bd b0 4e 05 bd 9d d2 e6 3c cf 8a 7e be
       -0.08890676 -0.032545745 0.0281766 -0.24857639
0003c0 3a e1 75 bd 65 4e 0b bc d6 21 f9 3d 99 37 8f be
       -0.060029246 -0.008502577 0.12164657 -0.27972105
0003d0 e6 a1 67 ba 0c 1a 5e be ca 9d 58 3d ba fe 26 3c
       -0.00088360754 -0.21689624 0.052884854 0.0101925675
0003e0 cf e7 82 bf 11 e2 e9 bc 7d 34 39 c0 47 d8 18 bd
       -1.0226992 -0.02855018 -2.8938286 -0.037315633
0003f0 d9 fc 31 be a7 43 74 3e 88 d8 c1 3d 28 e0 47 3e
       -0.1738161 0.23853932 0.09465128 0.19519103

lin2.bias f4 [98]
000000 f5 a0 fc be e2 7e 73 3f 86 9d f2 be 07 1e a5 be
       -0.4934155 0.9511548 -0.47385806 -0.32249472
000010 4d 43 3f c0 be ba 40 c0 de 9b 77 be 3a be 6a bf
       -2.9884827 -3.0113978 -0.24180552 -0.9169651
000020 37 b0 19 be d9 96 95 be f2 6e 4b be d1 d4 1c bf
       -0.15008627 -0.2921665 -0.19866541 -0.6126223
000030 0c 7d dc be a5 51 3d c0 1f 08 58 be d6 ca 03 bf
       -0.43064153 -2.9581082 -0.21096848 -0.5148138
000040 c4 28 a9 be 41 c0 43 be 84 81 9b be 09 b1 96 be
       -0.33038914 -0.19116308 -0.3037225 -0.29431942
000050 e8 81 9b be 41 2d 92 be 2f 9f 1c be 7e d6 db be
       -0.30372548 -0.2855015 -0.15295099 -0.42937082
000060 c0 34 ce be fd f8 f2 be 22 9b cc be 6b 59 bb be
       -0.4027462 -0.47455588 -0.39962107 -0.36591658
000070 5c 02 1b bf 56 41 47 be ba be b0 be 4a 96 3a bf
       -0.60550475 -0.19458517 -0.34520513 -0.7288557
000080 09 96 c2 be 3b 62 24 bf e0 55 8f bd a6 6e 72 be
       -0.38005093 -0.6421239 -0.06998801 -0.23675022
000090 90 43 f9 bd bd 9f e1 be 0b 13 e8 be f6 27 c2 3d
       -0.1217109 -0.44067183 -0.4532703 0.09480278
0000a0 5b e3 e6 be 3f 71 8a be 92 f8 0e bf b1 33 89 be
       -0.45095333 -0.27039525 -0.5584804 -0.2679725
0000b0 50 6e 14 bf aa 70 55 be 32 5e 73 be 1b 4e 53 bf
       -0.57980824 -0.20843759 -0.23766401 -0.82541054
0000c0 61 59 be be 01 c3 d4 bd c6 b6 e4 bd e1 2e bb bd
       -0.37177566 -0.103887565 -0.11167674 -0.09139801
0000d0 45 88 bc bd 45 88 87 be 32 c4 5a c0 ec 8d c0 be
       -0.09205679 -0.26471153 -3.4182248 -0.37608278
0000e0 5b a2 0c 3e 50 43 c3 3c dc 70 59 be e2 ea c3 3d
       0.13733809 0.023835808 -0.21234459 0.09566285
0000f0 8d 23 6b 3e f9 58 98 3c 6f e2 8c be 0b 3c f7 3d
       0.2296278 0.018597113 -0.27516505 0.12071999
000100 69 d2 2d bc 0f 3c 49 bf 8e 8c 54 be 3b d9 ce bd
       -0.010609248 -0.7860727 -0.20756742 -0.10100027
000110 d7 1c 4e be 2c 07 ec 3d 8e c4 37 3e a9 ba 64 be
       -0.20128189 0.115248054 0.17946073 -0.2233683
000120 72 4a 1d bf db e8 0c 3d a2 eb 98 3d 3b df 17 3f
       -0.6144172 0.034401756 0.074668184 0.59325
000130 84 98 51 be 59 47 91 be a4 52 21 3e b0 b0 87 be
       -0.20468336 -0.28374746 0.15754181 -0.2650199
000140 f2 8a 68 be 5a 14 31 bf 85 6f 04 bf f4 05 ba bd
       -0.22709253 -0.6917168 -0.51732665 -0.09083167
000150 fa da a4 be 0d 61 a5 bd 16 5f 09 be e1 71 4e c0
       -0.32198316 -0.080751516 -0.13415179 -3.2257006
000160 9e d1 46 be 92 ad ca bd db 05 1a bf 76 be 51 3e
       -0.194159 -0.09896387 -0.60165185 0.20482811
000170 cb c6 ce be 56 43 95 3e 00 33 c4 3c ea f3 3f c0
       -0.40386042 0.29152936 0.0239501 -2.9992623
000180 5a 71 40 c0 83 bd 3d c0
       -3.0069184 -2.9646919
