models/2_context_2_embedding_64_activation_3.pt (torch, 957978 bytes, 5 tensors)

emb.weight f4 [98, 64]
-0.76501113 1.2176073 -2.5544286 -1.4683765 -1.5635564 2.4508135 -1.5196544 0.05296168
0.24163145 -0.11867922 -0.4186027 0.07446154 1.2538269 -0.54810154 -0.33696878 -0.068834774
-2.3009887 -1.2864943 -1.1671301 1.1375498 0.2960275 -0.06991648 1.8480303 1.9555664
1.0618911 -0.09037927 0.009514565 5.2991304 -0.40189996 1.3893355 -0.16514516 2.067299
-1.3932837 2.9019735 -0.04299395 0.09888738 -1.104142 -0.8656256 0.6605584 -1.0083841
1.5982652 -0.58722323 -1.3028164 -2.3392296 -1.136176 -2.8064604 -1.8447114 0.75566614
-0.69296014 0.7421786 -1.6910758 2.592652 0.630101 3.0228143 -0.98961085 2.408053
1.1550646 -2.5085046 -0.2500021 -0.967796 -3.1946502 1.5084645 -0.031309433 -1.1571378
1.952486 -0.27245784 -2.1666963 -0.32030624 -0.5849547 2.9119408 -0.34379405 0.6736192
3.7015994 -1.6885564 0.070605986 0.16747566 -0.26535004 0.9916895 -0.40140146 3.498968
1.2486314 -0.38260052 0.0807893 1.6677421 0.94881654 -0.8384824 0.5442109 0.51672566
2.876481 1.4103717 -0.32244036 2.708502 -2.1656327 -0.16827972 -1.6690865 -2.327245
0.06075345 -0.12158876 0.3978249 0.72691524 1.5644318 -1.6970968 0.49801958 1.0158749
-0.10071118 -1.1420035 -1.0783621 -1.2745196 -0.11509666 -1.0147268 -0.4396459 2.1192472
0.98053163 -0.21466278 0.6569572 1.6073946 0.7718438 2.3368838 -0.61785793 1.6770418
-0.5450601 -1.8663003 0.27212465 -1.6417577 -1.6771015 2.894103 1.4178989 -2.8913198
0.8677864 1.4530952 -0.18463421 -2.7935407 1.1913594 -1.4985398 0.46795845 -0.21601993
1.4314029 0.98415977 -1.0102065 0.9559573 -0.40551987 -0.5755722 -2.5471025 -2.3931675
2.4752557 -2.739029 0.18911636 2.0955966 3.5183144 -1.694409 1.2517323 -0.09612085
1.384071 1.1462691 -0.02739873 1.3942218 2.713481 1.2808934 -1.5868784 -1.2499014
1.447017 1.967263 0.903455 0.16324307 0.53510857 -2.9981642 2.1196089 -2.561922
0.41496417 0.59054637 1.0402776 0.5456685 -0.5569647 1.3957089 0.39269117 -0.9510039
0.30471802 0.45216343 -1.8903161 -1.5973097 0.7232109 -1.637593 -2.673744 1.5431886
-1.3233215 2.9226308 3.0597708 -2.77777 -0.1380579 -1.6234895 -0.99048334 0.08435627
2.1766036 1.2163439 -2.771873 -1.1535401 0.34386992 0.3734705 -3.2331626 -2.6337812
3.899842 2.5081592 0.74719095 1.7734772 2.176532 -1.2656854 -2.274315 1.7011296
1.008037 1.8964556 1.844689 -1.4435325 0.46688384 -1.6605871 -0.5814155 2.5019364
0.39627212 -0.7691428 -2.0075977 -1.0814378 0.5303482 -1.2831439 -2.4792335 -0.7339737
1.6445284 -1.1794239 -1.3865956 -1.3843127 0.216754 -0.6221493 -1.287171 -0.19095817
-2.8190744 -2.226639 0.094824225 -0.8059553 3.2238543 2.8932045 3.4609144 3.4183674
0.87346494 -1.4760697 -1.8393317 -0.36008948 -3.8908577 2.407685 0.3919905 -1.1697524
2.3757226 2.378109 2.6947775 2.0012317 -2.505442 1.3222588 4.293553 -4.038271
00000000: c5d7 43bf 8eda 9b3f c27b 23c0 c3f3 bbbf
00000010: 9e22 c8bf 21da 1c40 0984 c2bf 59ee 583d
00000020: 3c6e 773e 170e f3bd 1853 d6be 4b7f 983d
00000030: 667d a03f 6250 0cbf 2c87 acbe 3ff9 8cbd
00000040: 6643 13c0 d8ab a4bf 8564 95bf 3b9b 913f
00000050: eb90 973e 5f30 8fbd 428c ec3f 0050 fa3f
00000060: 0cec 873f c418 b9bd fae2 1b3c 7a92 a940
00000070: d5c5 cdbe bfd5 b13f d01b 29be a04e 0440
00000080: 1f57 b2bf efb9 3940 6d1a 30bd 7785 ca3d
00000090: 8654 8dbf a499 5dbf 5b1a 293f bb12 81bf
000000a0: f493 cc3f 4354 16bf b0c2 a6bf f0b5 15c0
000000b0: 376e 91bf 0c9d 33c0 811f ecbf 5673 413f
000000c0: d665 31bf 6bff 3d3f 2c75 d8bf 03ee 2540
000000d0: 4d4e 213f ca75 4140 2357 7dbf 8a1d 1a40
000000e0: 28d9 933f 578b 20c0 4600 80be 7bc1 77bf
000000f0: 2675 4cc0 5d15 c13f 523e 00bd 171d 94bf
00000100: 10eb f93f 987f 8bbe 27ab 0ac0 2eff a3be
00000110: 97bf 15bf 3d5d 3a40 c605 b0be 4f72 2c3f
00000120: 01e7 6c40 9e22 d8bf df99 903d bd7e 2b3e
00000130: f6db 87be 5ddf 7d3f 7e84 cdbe 17ef 5f40
00000140: 27d3 9f3f 37e4 c3be dc74 a53d 9378 d53f
00000150: a4e5 723f c8a6 56bf 6851 0b3f 2248 043f
00000160: 4418 3840 0f87 b43f e716 a5be 1958 2d40
00000170: ba99 0ac0 8551 2cbe a0a4 d5bf 95f1 14c0
00000180: 9cd8 783d 8703 f9bd b5af cb3e 1e17 3a3f
00000190: 4d3f c83f 783a d9bf 6cfc fe3e 3008 823f
000001a0: aa41 cebd 2c2d 92bf c507 8abf 7523 a3bf
000001b0: ccb7 ebbd 91e2 81bf 4419 e1be bfa1 0740
000001c0: 1f04 7b3f 8fd0 5bbe 592e 283f 1bbf cd3f
000001d0: 8e97 453f 818f 1540 f02b 1ebf 4ea9 d63f
000001e0: 0f89 0bbf eee2 eebf ec53 8b3e 1e25 d2bf
000001f0: 43ab d6bf fc38 3940 b67d b53f 620b 39c0
00000200: 4027 5e3f 06ff b93f c010 3dbe 5fc9 32c0
00000210: 777e 983f 27d0 bfbf 4098 ef3e 5434 5dbe
00000220: 3638 b73f e5f1 7b3f 724e 81bf 9eb9 743f
00000230: 4da0 cfbe b358 13bf ba03 23c0 a829 19c0
00000240: 976a 1e40 404c 2fc0 b8a7 413e 411e 0640
00000250: 102c 6140 65e2 d8bf c438 a03f 02db c4bd
00000260: 3d29 b13f f2b8 923f 4d73 e0bc dc75 b23f
00000270: aca9 2d40 51f4 a33f d51e cbbf c5fc 9fbf
00000280: da37 b93f 46cf fb3f d448 673f 3129 273e
00000290: e0fc 083f ece1 3fc0 aca7 0740 88f6 23c0
000002a0: 2f76 d43e 0c2e 173f d127 853f eeb0 0b3f
000002b0: 3d95 0ebf 97a6 b23f d10e c93e fe74 73bf
000002c0: 0004 9c3e f781 e73e e1f5 f1bf a574 ccbf
000002d0: 5924 393f a69c d1bf 9f1e 2bc0 3487 c53f
000002e0: 9962 a9bf 620c 3b40 49d3 4340 fcc6 31c0
000002f0: 0d5f 0dbe 81ce cfbf 5190 7dbf fbc2 ac3d
00000300: 794d 0b40 28b1 9b3f 5e66 31c0 34a7 93bf
00000310: b80f b03e 8637 bf3e 23ec 4ec0 df8f 28c0
00000320: 0397 7940 ae85 2040 e847 3f3f 4d01 e33f
00000330: 4d4c 0b40 fb01 a2bf 618e 11c0 9dbe d93f
00000340: 5b07 813f 0fbf f23f c51e ec3f acc5 b8bf
00000350: 660b ef3e 1e8e d4bf a5d7 14bf ba1f 2040
00000360: 2ee4 ca3e 8be6 44bf 7b7c 00c0 8e6c 8abf
00000370: e6c4 073f 0f3e a4bf c3ab 1ec0 b3e5 3bbf
00000380: e87f d23f 5df7 96bf f77b b1bf 2931 b1bf
00000390: c3f4 5d3e 2d45 1fbf 05c2 a4bf 8a8a 43be
000003a0: b76b 34c0 4181 0ec0 3433 c23d 1653 4ebf
000003b0: a153 4e40 432a 3940 9f7f 5d40 88c6 5a40
000003c0: 669b 5f3f daef bcbf 396f ebbf a65d b8be
000003d0: d003 79c0 8317 1a40 fbb2 c83e 72ba 95bf
000003e0: d70b 1840 f032 1840 3c77 2c40 2e14 0040
000003f0: 2959 20c0 c73f a93f c964 8940 8439 81c0

lin1.weight f4 [1024, 128]
0.33120212 -0.5252082 -0.5997101 -0.7069131 -4.4205524e-05 -0.7834289 -0.548531 -0.0022758197
-0.24052608 0.18514252 0.16750875 0.17042005 0.079239205 -0.45862734 0.3236977 -0.1083856
-0.30621764 0.39564437 0.6101223 -0.31082478 -0.110477574 -0.2760113 -0.3596461 0.13722065
0.3007521 -0.09826078 0.3437567 -0.41069826 0.44381 -0.28585055 -0.0023545788 0.77519906
0.41346657 -0.14097655 -0.004443195 0.42704687 -0.38895386 0.25348943 -0.12622233 0.48897344
-0.5199719 -0.45136547 0.27420062 0.022162315 0.72128403 -0.0986072 0.60203063 -0.27216142
-0.5930355 -0.025424393 -0.22241452 -0.35867655 -0.54403394 -0.5186052 -0.80164546 -0.60564095
-0.08051683 -0.030460844 0.17531049 0.39989334 0.3048341 -0.26896024 0.014810064 0.51107186
-0.47966948 -0.71814495 -0.35022965 0.10602028 -0.2856855 -0.5219521 -0.6819901 -0.14261219
-0.435403 0.08502145 -0.1614633 -0.1500136 0.1461837 -0.342597 0.2533759 -0.4612716
0.09959857 0.22174358 0.42141396 -0.4372513 -0.30068892 -0.32584783 -0.44197077 0.12728542
-0.5785973 0.013565961 -0.28959656 -0.56916195 0.31223124 -0.38057545 -0.12440618 0.5089098
0.0557129 -0.09089344 -0.3124849 -0.14424212 -0.8953738 0.6500182 -0.5351499 0.6340796
-0.49250022 0.09456314 -0.1553956 0.1516524 -0.25119063 -0.05626186 0.38164264 -0.053151924
0.018085947 0.04352429 -0.46354505 -0.14463657 -0.34483254 0.05276176 -0.09136402 -0.53582376
0.2652259 -0.06583047 0.062281128 0.55455166 0.5024312 -0.25512284 -0.08776364 0.7971868
-0.14594819 -0.4216255 0.045212224 0.37210527 0.020267263 0.13292235 -0.36200255 0.15363659
0.012437932 0.22530426 -0.26371235 0.35869873 -0.36894184 -0.06860658 -0.026817206 -0.48467293
-0.3858568 -0.50460917 0.5165866 -0.034220368 -0.22318809 0.68536353 -0.5835936 -0.7677596
-0.23503695 -0.07773758 0.038308352 -0.23554802 0.27648064 0.42316952 -0.16937885 0.1478388
-0.51025707 0.21921356 0.23628856 -0.041748203 -0.16115505 0.5276384 0.20850359 0.22911923
-0.28159094 0.23304899 0.5049792 -0.1001461 0.055044696 -0.6254376 0.4190234 0.23877032
0.31339917 -0.20555377 0.89718074 0.2508504 0.015929576 0.16520683 -0.7509861 -0.010516245
-0.6471535 0.5364517 0.20790341 -0.39750424 0.09144826 -0.50505775 0.18269369 -0.31508964
-0.5841561 0.29976866 0.44323877 0.54545504 0.10352174 -0.44927716 0.43944418 -0.4211359
-0.5496022 -0.0834672 0.13982859 -0.33806026 0.08723673 0.011550247 -0.43480116 -0.17982885
-0.26593062 0.0017334552 0.4639485 0.2843442 0.6472231 0.30594778 0.10174573 -0.7332407
-0.4027675 -0.23435149 -0.64145213 0.018245885 0.41977227 -0.13981481 0.22304662 -0.16661397
-0.5818423 -0.01575628 1.1473374 0.2146001 -0.6747614 -0.060893174 -0.36272 0.33182558
0.6417328 0.2425244 -0.4323199 -0.34522644 0.30262738 0.06111687 0.24102885 0.03566227
-0.093242176 -0.14581129 -0.35143265 0.66860586 -0.61965007 -0.67434525 0.07377956 0.029424367
-0.15281804 0.032081157 0.33502594 0.71928376 -0.40024215 -0.2971338 -0.80937505 0.25995365
00000000: 5393 a93e 0b74 06bf 9a86 19bf 42f8 34bf
00000010: 5269 39b8 cc8e 48bf 876c 0cbf eb25 15bb
00000020: 784c 76be 0096 3d3e 6a87 2b3e 9882 2e3e
00000030: 2a48 a23d 34d1 eabe b4bb a53e 45f9 ddbd
00000040: 8fc8 9cbe e691 ca3e fa30 1c3f 6d24 9fbe
00000050: 1142 e2bd 5a51 8dbe 8923 b8be 9283 0c3e
00000060: 2efc 993e f33c c9bd e100 b03e 0b47 d2be
00000070: 103b e33e 015b 92be 474f 1abb 7273 463f
00000080: e4b1 d33e 285c 10be 3998 91bb e3a5 da3e
00000090: f624 c7be 5ec9 813e 6d40 01be ba5a fa3e
000000a0: e11c 05bf 6019 e7be 0664 8c3e be8d b53c
000000b0: 12a6 383f 92f2 c9bd ae1e 1a3f be58 8bbe
000000c0: 2dd1 17bf d146 d0bc a2c0 63be 74a4 b7be
000000d0: cf45 0bbf 4fc3 04bf a338 4dbf 490b 1bbf
000000e0: 02e6 a4bd 0589 f9bc 9884 333e d2be cc3e
000000f0: 3713 9c3e 28b5 89be e9a5 723c 9bd5 023f
00000100: 3d97 f5be 59d8 37bf 4d51 b3be 2921 d93d
00000110: 5f45 92be a79e 05bf e796 2ebf ee08 12be
00000120: 24ed debe ba1f ae3d a356 25be 2a9d 19be
00000130: 2eb1 153e e068 afbe 7cba 813e cb2b ecbe
00000140: 56fa cb3d c010 633e 92c3 d73e 67df dfbe
00000150: e6f3 99be 87d5 a6be fe49 e2be 1c57 023e
00000160: f41e 14bf c443 5e3c 0046 94be 99b4 11bf
00000170: c6dc 9f3e c9da c2be abc8 febd ea47 023f
00000180: 3633 643d 5726 babd 05fe 9fbe 35b4 13be
00000190: 3837 65bf 9867 263f 95ff 08bf 0a53 223f
000001a0: fd28 fcbe 52aa c13d 0620 1fbe c44a 1b3e
000001b0: 0f9c 80be d672 66bd aa66 c33e d5b5 59bd
000001c0: fb28 943c 8746 323d c755 edbe 9c1b 14be
000001d0: e48d b0be b71c 583d 0f1d bbbd bf2b 09bf
000001e0: b0cb 873e 20d2 86bd 7f1a 7f3d 19f7 0d3f
000001f0: 559f 003f 769f 82be 6cbd b3bd 6f14 4c3f
00000200: 7173 15be 4cdf d7be 7430 393d 9584 be3e
00000210: 8807 a63c cc1c 083e 6658 b9be e952 1d3e
00000220: 78c8 4b3c 29b6 663e 4e05 87be 5ca7 b73e
00000230: f2e5 bcbe 9b81 8cbd c2af dbbc 0d27 f8be
00000240: 068f c5be 112e 01bf 053f 043f a82a 0cbd
00000250: 6b8b 64be fc73 2f3f 6466 15bf e58b 44bf
00000260: 87ad 70be e134 9fbd 38e9 1c3d 8033 71be
00000270: df8e 8d3e ada9 d83e a671 2dbe 0e63 173e
00000280: 35a0 02bf 8579 603e a1f5 713e 2a00 2bbd
00000290: d405 25be 4f13 073f f781 553e 3b9e 6a3e
000002a0: b02c 90be 65a4 6e3e 5146 013f 6619 cdbd
000002b0: 8c76 613d ae1c 20bf 3c8a d63e 3580 743e
000002c0: db75 a03e b07c 52be a3ad 653f 776f 803e
000002d0: be7e 823c fb2b 293e a040 40bf 544c 2cbc
000002e0: daab 25bf e654 093f a2e4 543e ad85 cbbe
000002f0: 3a49 bb3d 774b 01bf 0e14 3b3e 6e53 a1be
00000300: 418b 15bf 477b 993e 31f0 e23e f1a2 0b3f
00000310: 3503 d43d a807 e6be d4fe e03e 209f d7be
00000320: bbb2 0cbf daf0 aabd 3a2f 0f3e 3c16 adbe
00000330: 2ca9 b23d 3f3d 3d3c 429e debe 0e25 38be
00000340: 0f28 88be 1b35 e33a a88a ed3e 9095 913e
00000350: 6ab0 253f 30a5 9c3e 1160 d03d aab5 3bbf
00000360: 8b37 cebe d6f9 6fbe 3536 24bf 6578 953c
00000370: 64ec d63e 9d2b 0fbe 5566 643e da9c 2abe
00000380: 9ef3 14bf 5013 81bc f4db 923f 21c0 5b3e
00000390: 2abd 2cbf 1f6b 79bd 70b6 b9be 0be5 a93e
000003a0: 9a48 243f 5158 783e 0959 ddbe 85c1 b0be
000003b0: faf1 9a3e af55 7a3d 44d0 763e 9a12 123d
000003c0: c1f5 bebd 8e4f 15be fbee b3be c129 2b3f
000003d0: 63a1 1ebf e4a1 2cbf bd19 973d 5f0b f13c
000003e0: 557c 1cbe 8867 033d 8588 ab3e fb22 383f
000003f0: 8aec ccbe ec21 98be 3433 4fbf a518 853e

lin1.bias f4 [1024]
-1.0836394 -0.30571374 -0.27341914 -0.43328637 0.14483537 -0.9713947 -0.24727693 -0.3816501
-0.21667084 -0.074606724 -0.17383298 -0.70336014 -0.228426 -0.11246247 0.069247335 -0.40404022
-0.5039034 -0.5174784 -0.589335 -0.17917214 -0.551962 -0.1950637 0.07213617 -0.0013221567
-0.04405033 -1.3052464 -0.3250433 -0.20184948 -0.23444502 -1.6074476 0.047596216 -0.3374368
-0.3094624 0.11535358 -0.1929701 -1.4309368 0.10380858 -0.11307827 -1.2031261 -0.16770798
-0.17733839 -0.44060436 -0.18819083 -0.3319969 -0.16635181 -0.26438755 -0.6707008 -1.4853681
0.04714096 -0.01989146 -0.39436147 -0.03489343 -0.20066789 -0.17627412 -0.4403992 -0.042138845
-0.110723846 -0.59315187 -0.15268779 -0.055699427 -0.1658927 -0.3573526 -1.9654392 -0.8685328
-2.1721194 -0.041552346 -1.4866365 -2.0651944 -0.09886857 -0.30648246 -0.20103264 -0.19680598
-0.4980143 -0.00246032 -0.34128422 -0.34766316 0.26696876 -0.3856226 -0.33965996 -1.5693307
-0.5145195 -0.18111864 0.0011384581 0.067342065 -0.20704076 -1.1453849 -0.9131607 -0.34612015
-0.39767978 -0.17525074 -0.19810538 -0.42133626 0.047520086 -0.7978438 -0.054080825 -0.12290817
-0.07863087 -1.0918514 -0.7856384 -0.10184881 -0.8808036 -0.24630922 -0.5010254 -0.2543901
0.14764778 -0.26416987 -0.31039512 -0.19955532 -0.17937952 -0.29983196 0.070684694 0.09493665
-1.1689738 -0.1646469 -0.17542778 -0.90310425 -0.10101925 -0.5357187 -0.23561911 -0.13341601
-0.21113533 0.036782388 -0.56705755 -0.45363244 -0.33366016 -0.55012155 0.08423529 0.12870632
-2.2287433 -1.0339446 -1.4123641 -0.41892108 -0.41236922 -0.17288633 -0.22390305 -0.53917474
-0.15730433 -0.030019393 -0.24613826 -0.021295957 -0.6295742 -0.16377184 -0.10180815 -0.96851236
-0.13620107 0.32259056 -1.2762159 -0.17302804 -1.5205588 0.19317453 -0.4243584 -0.70415145
-0.45378602 -0.5238487 -0.9261817 -0.009536522 -1.1834596 -1.0806428 -0.36377215 0.08918341
-0.05068231 -0.30690435 -0.2848414 -0.20933387 -0.35844725 -0.22835831 -0.22672126 -0.40236387
-0.21317495 -0.44693646 0.14853254 -0.2908735 -0.54073775 -1.0308414 -0.8035001 -0.2885927
-0.11308545 -0.29539093 -0.40717408 -0.32684633 -2.1477883 -0.4106536 -0.12498232 -0.18280433
-0.034844466 -0.6039282 -0.05275985 -0.070927285 -0.9603533 -0.22976051 -0.14071745 -0.2295523
-0.3098804 -0.03769635 -0.25889558 -0.62683064 -0.35329607 -0.5504647 -0.3760996 -0.19172467
-0.20862128 -0.49872226 -0.21632648 -0.052269246 -1.0198352 -0.41651058 -0.3851131 -0.085730866
-0.09655768 -0.0033868593 -0.17313358 -0.18242241 -2.177869 -0.19785447 -0.29389998 -0.40582228
-0.33987746 -0.2119097 -0.23390989 -0.45544147 0.0821302 -0.20567293 -2.3078072 -1.4217285
-0.085809685 -0.35138473 -0.23758982 -0.2126795 -0.25165665 -0.022453638 -1.087798 -0.6492085
-0.29736513 -0.8691342 -0.08468801 -0.35921437 0.009681708 -0.29768303 -0.9148255 -0.17319082
0.12380942 -0.2719302 -0.23205814 -0.29823992 -0.34297058 -1.4494456 -0.19504476 0.09934507
-0.23022343 -0.46687067 -0.07449607 -0.37353462 -0.25610712 -0.42424226 -0.79656166 -0.5927875
00000000: b2b4 8abf 8386 9cbe 98fd 8bbe b6d7 ddbe
00000010: b94f 143e 53ad 78bf 2a36 7dbe a467 c3be
00000020: f6de 5dbe 69cb 98bd 4601 32be 690f 34bf
00000030: 81e8 69be b952 e6bd 8cd1 8d3d 5cde cebe
00000040: d0ff 00bf 7779 04bf a9de 16bf e778 37be
00000050: 624d 0dbf c7be 47be 21bc 933d 384c adba
00000060: 1e6e 34bd 5012 a7bf 136c a6be a1b1 4ebe
00000070: 5b12 70be d8c0 cdbf 40f4 423d 84c4 acbe
00000080: db71 9ebe 7f3e ec3d f499 45be f028 b7bf
00000090: 9899 d43d 9495 e7bd 0900 9abf a4bb 2bbe
000000a0: 3298 35be e596 e1be 19b5 40be 7ffb a9be
000000b0: 2158 2abe ce5d 87be 0cb3 2bbf 8b20 bebf
000000c0: e116 413d 6af3 a2bc bfe9 c9be 6aec 0ebd
000000d0: e27b 4dbe 3481 34be 017c e1be c899 2cbd
000000e0: 2fc3 e2bd cdd8 17bf 305a 1cbe 1525 64bd
000000f0: c7df 29be ecf6 b6be 8393 fbbf 2a58 5ebf
00000100: 0104 0bc0 cb32 2abd 1b4a bebf 252c 04c0
00000110: 9b7b cabd 45eb 9cbe 80db 4dbe 8287 49be
00000120: bbfb febe 523d 21bb cebc aebe e800 b2be
00000130: 21b0 883e 5370 c5be e9e7 adbe d4df c8bf
00000140: 8db7 03bf 2a77 39be 5138 953a a3ea 893d
00000150: 7e02 54be f99b 92bf e6c4 69bf a936 b1be
00000160: af9c cbbe ee74 33be 23dc 4abe 63b9 d7be
00000170: 6ca4 423d 7e3f 4cbf db83 5dbd 47b7 fbbd
00000180: 3909 a1bd c9c1 8bbf 991f 49bf 1c96 d0bd
00000190: 587c 61bf 7c38 7cbe 3343 00bf 6b3f 82be
000001a0: fb30 173e 4641 87be 1cec 9ebe 3b58 4cbe
000001b0: 44af 37be 9383 99be 23c3 903d 256e c23d
000001c0: efa0 95bf 3299 28be 57a3 33be d731 67bf
000001d0: 2ee3 cebd dc24 09bf 2346 71be 359e 08be
000001e0: dc33 58be 21a9 163d af2a 11bf 8342 e8be
000001f0: 81d5 aabe c4d4 0cbf 8d83 ac3d 97cb 033e
00000200: bba3 0ec0 4c58 84bf 59c8 b4bf d37c d6be
00000210: 0f22 d3be 1d09 31be d746 65be 5b07 0abf
00000220: 6314 21be 3beb f5bc ab0b 7cbe dc74 aebc
00000230: c62b 21bf ceb3 27be cb80 d0bd 6df0 77bf
00000240: 4b78 0bbe 972a a53e 0b5b a3bf 432e 31be
00000250: aca1 c2bf 8bcf 453e 8145 d9be 4543 34bf
00000260: a456 e8be f31a 06bf 3e1a 6dbf 133f 1cbc
00000270: 9b7b 97bf 8152 8abf 5840 babe cba5 b63d
00000280: 4198 4fbd 9122 9dbe bbd6 91be 9e5b 56be
00000290: 6686 b7be c3d6 69be 9e29 68be a302 cebe
000002a0: 894a 5abe dbd4 e4be ea18 183e 5fed 94be
000002b0: ca6d 0abf 9cf2 83bf 2fb2 4dbf 6cc2 93be
000002c0: 5899 e7bd 7b3d 97be 1f79 d0be 6758 a7be
000002d0: 5d75 09c0 3041 d2be bbf6 ffbd 0f31 3bbe
000002e0: 12b9 0ebd 0a9b 1abf b61a 58bd 5342 91bd
000002f0: b7d9 75bf 5746 6bbe 3c18 10be c20f 6bbe
00000300: a5a8 9ebe 7d67 1abd f68d 84be f977 20bf
00000310: 39e3 b4be 41eb 0cbf 2090 c0be 7953 44be
00000320: d1a0 55be 8658 ffbe b084 5dbe 4718 56bd
00000330: f689 82bf e040 d5be 8b2d c5be aa93 afbd
00000340: 08c0 c5bd 12f6 5dbb ee49 31be f1cc 3abe
00000350: 3562 0bc0 5d9a 4abe 0f7a 96be f0c7 cfbe
00000360: 6b04 aebe dbfe 58be 1386 6fbe a02f e9be
00000370: e133 a83d ed9b 52be 1db3 13c0 33fb b5bf
00000380: fdbc afbd b3e8 b3be bf4a 73be a8c8 59be
00000390: 24d9 80be b1f0 b7bc f73c 8bbf 8732 26bf
000003a0: 3e40 98be 947f 5ebf e870 adbd f2ea b7be
000003b0: 07a0 1e3c e969 98be 0132 6abf ef58 31be
000003c0: cb8f fd3d 6f3a 8bbe a6a0 6dbe e7b2 98be
000003d0: d799 afbe 6f87 b9bf d0b9 47be 6e75 cb3d
000003e0: b1bf 6bbe ac09 efbe 6591 98bd ee3f bfbe
000003f0: 7920 83be 4836 d9be 77eb 4bbf ecc0 17bf

lin2.weight f4 [98, 1024]
-0.23456833 -0.0050711804 0.090655036 0.015255784 0.11799716 -0.22376849 -0.07074324 -0.21303862
-0.0071466845 0.18144949 0.2311408 0.00992524 -0.036841497 0.01267209 0.122311294 0.03894639
0.01187658 -0.1048974 -0.18749449 -0.32871386 0.02849811 0.108108975 0.07073159 0.15338443
0.01317431 -0.26857913 -0.6698889 -0.00046486524 0.0020721483 -0.030666191 -0.11564481 0.124924034
0.08711468 0.089935355 0.0044428306 -0.007155371 0.21490349 -0.0867707 -0.02358837 -0.07822946
-0.012385377 -0.08078875 -0.08039035 -0.03457956 0.20012979 0.30553713 -0.02754866 0.046940092
-0.17269126 0.054639112 0.009362477 0.209363 -0.093075186 0.06567546 -0.12645444 0.086433135
0.0017546127 -0.008480702 -0.16202846 -0.2031432 -0.0370182 -0.07865095 0.023503479 -0.010454355
-0.12655537 0.03499582 0.0288483 -0.011046999 -0.05435416 0.026715726 0.024749605 0.24381159
0.20853813 0.087996304 -0.0014861439 0.12899688 -0.0506921 -0.14282523 -0.28613505 -0.22316703
0.034896806 -0.022250088 -0.01917034 -0.0028988584 -0.050815303 0.043588504 0.081284 0.02285263
-0.055661276 -0.114961475 0.074832544 0.02621538 0.15334237 -0.013047586 -0.23341149 -0.07308065
0.14554578 -0.22529803 -0.65502256 0.04752793 0.042965412 0.1606027 -0.034567796 0.06410519
0.026390916 -0.048109904 0.2824057 -0.043405518 -0.081069514 -0.22756308 0.16748661 0.15787967
-0.23958215 -0.07622098 0.111558706 0.01815561 0.0641141 -0.09153497 0.050681964 -0.0272797
-0.40184638 -0.06319038 0.2969631 0.2558575 -0.016750988 0.059040528 0.0678485 -0.29294565
-0.07810814 0.0007290173 -0.014960835 -0.3090905 0.21582508 0.12934732 0.19439328 -0.1420752
0.07764233 -0.23295869 -0.22207148 0.24213938 -0.082209885 0.1598774 0.027610293 0.0626998
0.011883255 -0.14449477 -0.07316012 0.026275199 -0.047638174 0.110091954 0.06400012 -0.108671
0.12301186 0.108012125 0.07359146 -0.290582 -0.06837784 -0.49960077 -0.006367712 0.11309726
0.18504283 -0.073430486 0.0133707225 0.14341855 0.07130806 -0.3937882 -0.18330619 -0.07225255
0.15213308 -0.35158196 -0.04424034 0.023035647 0.017851852 -0.0069980524 0.020103067 0.114380166
0.014396564 -0.13379136 0.033944067 0.055749524 -0.029345881 -0.2601371 -0.35030663 -0.10426408
-0.06276884 -0.0071745897 0.08173647 -0.01547153 0.13722056 -0.08868198 -0.29018226 -0.16072728
-0.10909784 -0.03866714 -0.11734733 -0.20238644 0.04317452 -0.12119574 0.009490463 -0.14359692
0.085090734 -0.020048384 0.06223569 0.02428495 -0.00399984 -0.104134776 0.15376137 -0.26892292
0.22396022 0.16064847 0.2744558 -0.013867211 0.013925836 -0.1094349 -0.32928583 -0.044834286
0.08479147 0.01141795 -0.30142587 -0.11456032 -0.118047796 0.06232953 -0.031335413 -0.00053415186
-0.018182263 -0.007270461 0.2178176 -0.013609718 -0.13104619 0.048419483 -0.004087337 0.24898364
-0.057257153 0.07152687 0.22101292 0.05914002 -0.2655123 0.18859473 -0.10038921 -0.07550683
0.05023672 0.12162774 0.0065888637 -0.036161203 0.27581516 0.06847603 0.055877693 -0.15439115
0.050256357 -0.00407863 -0.35186192 0.055767827 -0.17635106 -0.02342634 -0.020025771 -0.084999315
00000000: ae32 70be 252c a6bb 59a9 b93d 65f3 793c
00000010: 7fa8 f13d 9123 65be d5e1 90bd cc26 5abe
00000020: bc2e eabb e5cd 393e 2db0 6c3e 799d 223c
00000030: 1ce7 16bd 999e 4f3c 587e fa3d 4086 1f3d
00000040: fd95 423c 73d4 d6bd 8efe 3fbe 2f4d a8be
00000050: de74 e93c 3d68 dd3d b9db 903d cf10 1d3e
00000060: 10d9 573c 3483 89be d77d 2bbf 28b9 f3b9
00000070: e1cc 073b aa37 fbbc 30d7 ecbd 2cd8 ff3d
00000080: 2e69 b23d 0730 b83d 2a95 913b 9a77 eabb
00000090: a90f 5c3e d6b4 b1bd 663c c1bc c436 a0bd
000000a0: 09ec 4abc 9274 a5bd b2a3 a4bd 4ca3 0dbd
000000b0: d3ee 4c3e 5d6f 9c3e baad e1bc 4144 403d
000000c0: fad5 30be 43cd 5f3d 1365 193c 4163 563e
000000d0: 349e bebd db80 863d 467d 01be db03 b13d
000000e0: 08fb e53a a4f2 0abc caea 25be c504 50be
000000f0: 65a0 17bd c013 a1bd 5e8a c03c be48 2bbc
00000100: bb97 01be c757 0f3d 4553 ec3c 79fe 34bc
00000110: 78a2 5ebd f0da da3c afbf ca3c bfa9 793e
00000120: 058b 553e 6837 b43d b7ca c2ba c217 043e
00000130: 85a2 4fbd c740 12be 4b80 92be e685 64be
00000140: f4ef 0e3d d145 b6bc 1e0b 9dbc c6fa 3dbb
00000150: b523 50bd dc89 323d 3a78 a63d 7035 bb3c
00000160: 14fd 63bd ec70 ebbd ce41 993d a3c1 d63c
00000170: c805 1d3e 8bc5 55bc 6c03 6fbe 4fab 95bd
00000180: f409 153e 87b4 66be 8faf 27bf a6ac 423d
00000190: 80fc 2f3d 0975 243e f696 0dbd 9549 833d
000001a0: c331 d83c e40e 45bd 7b97 903e fcc9 31bd
000001b0: c607 a6bd 4c06 69be 9c81 2b3e 35ab 213e
000001c0: 0655 75be bf19 9cbd e478 e43d 13bb 943c
000001d0: 414e 833d b076 bbbd e497 4f3d ad79 dfbc
000001e0: cfbe cdbe f569 81bd 8c0b 983e c1ff 823e
000001f0: 5e39 89bc 7bd4 713d 28f4 8a3d f9fc 95be
00000200: 29f7 9fbd 861b 3f3a 4a1e 75bc 1c41 9ebe
00000210: 4001 5d3e a073 043e 080f 473e 297c 11be
00000220: f102 9f3d b98c 6ebe b566 63be 63f3 773e
00000230: a85d a8bd e7b6 233e fb2e e23c c168 803d
00000240: fcb1 423c 70f6 13be f9d4 95bd 163f d73c
00000250: 3f20 43bd e477 e13d 7f12 833d e78e debd
00000260: a4ed fb3d 7635 dd3d 1fb7 963d 2ac7 94be
00000270: ae09 8cbd accb ffbe 3da8 d0bb 899f e73d
00000280: de7b 3d3e b962 96bd e010 5b3c 50dc 123e
00000290: f609 923d 9b9e c9be 9eb4 3bbe 25f9 93bd
000002a0: c6c8 1b3e 8d02 b4be 5c35 35bd 41b5 bc3c
000002b0: 0c3e 923c eb4f e5bb 30af a43c 2640 ea3d
000002c0: 91df 6b3c 9a00 09be ef08 0b3d 9d59 643d
000002d0: c666 f0bc b130 85be 645b b3be 6888 d5bd
000002e0: f38c 80bd d218 ebbb 7365 a73d 4d7c 7dbc
000002f0: 8c83 0c3e e69e b5bd c592 94be b195 24be
00000300: b06e dfbd 6f61 1ebd cc53 f0bd 643e 4fbe
00000310: c4d7 303d 7935 f8bd e37d 1b3c 120b 13be
00000320: 0d44 ae3d 823c a4bc daea 7e3d 3bf1 c63c
00000330: 1711 83bb 9d44 d5bd 9f73 1d3e 44b0 89be
00000340: d455 653e 0881 243e 7885 8c3e 4c33 63bc
00000350: 3129 643c 681f e0bd 2798 a8be 28a4 37bd
00000360: 26a7 ad3d 5a12 3b3c 7e54 9abe 9a9e eabd
00000370: 0bc3 f1bd 404d 7f3d 9059 00bd 5306 0cba
00000380: f8f2 94bc 0c3d eebb 940b 5f3e 4bfb 5ebc
00000390: f930 06be 8253 463d 11ef 85bb 91f5 7e3e
000003a0: 7a86 6abd ae7c 923d 3651 623e ce3c 723d
000003b0: 3af1 87be fa1e 413e dc98 cdbd 53a3 9abd
000003c0: 05c5 4d3d f717 f93d 65e7 d73b c51d 14bd
000003d0: a537 8d3e 293d 8c3d 02e0 643d b718 1ebe
000003e0: 9cd9 4d3d 07a6 85bb 3f27 b4be ce6c 643d
000003f0: 5f95 34be 99e8 bfbc 160d a4bc 1f14 aebd

lin2.bias f4 [98]
-0.09107355 0.009735529 -0.06801167 -0.17767327 -0.64528334 -0.672791 0.003978455 -0.085586384
-0.053754967 -0.16866633 -0.06948669 -0.14508808 -0.10561771 -0.6275272 -0.09109151 -0.048054464
0.016931722 -0.03588883 0.07940649 -0.07261961 0.031186232 -0.04626325 -0.06203639 -0.03404886
-0.06266897 -0.14150433 -0.11680364 0.05436395 0.009672149 0.006943483 -0.024926914 0.016103687
0.040320482 -0.017460138 0.05476606 0.10496675 -0.052195787 -0.040193517 0.0005308619 0.06599234
0.050456982 0.050167616 -0.017771075 -0.051307924 0.058756523 0.09286999 0.11349967 -0.06226956
-0.01481823 0.107379206 -0.105590634 0.054881778 -0.101615705 -0.1599868 -0.5894188 -0.0131870555
0.04116085 -0.0012261268 0.023281744 0.012477921 -0.016553918 -0.0076956595 0.0010561311 -0.00018051286
0.015674187 -0.033260256 -0.06910965 -0.04182462 -0.027691605 -0.015504185 0.0060253046 -0.0019948394
-0.09121824 0.025661193 -0.0040116534 0.054262143 -0.030565286 -0.009480558 -0.0060719885 -0.13250642
-0.022280868 -0.14328127 -0.066475734 -0.112949006 -0.08021648 -0.052445073 -0.046483655 -0.56408197
-0.111669384 -0.09395251 -0.09999883 0.08015665 0.01858598 0.0726653 0.013306842 -0.65330964
-0.6734352 -0.6151654
00000000: c584 babd c581 1f3c b449 8bbd fbef 35be
00000010: 4a31 25bf 083c 2cbf b35d 823b ea47 afbd
00000020: 2b2e 5cbd deb6 2cbe 0a4f 8ebd f891 14be
00000030: 194e d8bd 9fa5 20bf 308e babd c2d4 44bd
00000040: 65b4 8a3c 2a00 13bd df9f a23d 97b9 94bd
00000050: 457a ff3c 897e 3dbd df19 7ebd d176 0bbd
00000060: 9758 80bd 83e6 10be bf36 efbd bcac 5e3d
00000070: ef77 1e3c 2886 e33b 8733 ccbc e1eb 833c
00000080: 1727 253d 9008 8fbc 6052 603d cff8 d63d
00000090: 40cb 55bd f5a1 24bd 8a29 0b3a fe26 873d
000000a0: fbab 4e3d 8f7c 4d3d a594 91bc 4228 52bd
000000b0: aeaa 703d 9f32 be3d 8472 e83d 5e0e 7fbd
000000c0: 29c8 72bc a1e9 db3d e73f d8bd b7cb 603d
000000d0: e51b d0bd 94d3 23be 27e4 16bf 850e 58bc
000000e0: 4898 283d fdb5 a0ba 5bb9 be3c 3270 4c3c
000000f0: 159c 87bc df2b fcbb e16d 8a3a 0d48 3db9
00000100: 2767 803c e83b 08bd 5c89 8dbd 4b50 2bbd
00000110: 81d9 e2bc 4405 7ebc eb6f c53b dabb 02bb
00000120: a1d0 babd 6c37 d23c 3074 83bb fb41 5e3d
00000130: 0d64 fabc 5854 1bbc 88f7 c6bb c3af 07be
00000140: 5e86 b6bc 53b8 12be 6e24 88bd cf51 e7bd
00000150: 8a48 a4bd a5d0 56bd a565 3ebd ad67 10bf
00000160: ebb2 e4bd 2c6a c0bd 30cc ccbd 2b29 a43d
00000170: a041 983c 8bd1 943d f104 5a3c 4d3f 27bf
00000180: 4066 2cbf 7b7b 1dbf
