models/2_context_2_embedding_32_activation_2.pt (torch, 683290 bytes, 5 tensors)

emb.weight f4 [98, 32]
-1.1545633 1.2888412 -1.1859851 -0.57997984 -0.8933897 0.88351786 -0.7563885 -0.19062454
-0.6143998 0.20291996 -0.4669773 -0.18843116 0.81907594 -1.1555904 -0.09393767 -0.34106025
-0.97841686 -0.2686917 -0.7615511 0.24609485 -0.06499794 0.23870651 0.6275206 0.6508344
0.3298972 -0.40321967 0.0531123 2.1681223 -0.07515468 0.7914446 0.43688574 1.1350557
-0.48650694 0.91631037 -0.23454618 -0.09341288 -0.5142091 -0.032265622 -0.04303925 -0.34385476
0.50841105 0.22731158 -0.5088697 -0.17740351 -0.27119786 -0.2700524 -0.51232415 -0.06430637
-0.48488557 0.16177413 -0.70284444 0.55606085 -0.040614963 0.8152137 -0.315073 0.5076188
0.105793156 -0.22743382 -0.39053372 -0.12920834 -1.2231692 0.3109734 -0.2813861 -0.19276541
1.1704072 -1.303729 -0.9625315 -1.4655995 -0.5771816 1.5457114 1.1897256 1.3047315
2.2523754 -1.5173005 -0.10843749 -0.35184306 -0.9921071 0.2834234 0.067565605 1.06315
1.2680155 -0.8280842 1.5182277 0.76683027 -0.6367884 -1.0316015 0.14705054 -0.5772536
1.7327489 -0.033256944 0.52812535 1.5496031 -0.529122 -0.56216604 -0.76204437 -1.6455265
2.3266485 0.7223366 1.8957812 1.1520823 3.7263787 -0.1998838 2.2778993 3.2060905
2.2270713 -2.4532614 0.84717524 2.3505545 -4.075377 -2.23863 -3.2997596 0.13796072
1.9235097 -2.589127 4.0696173 3.5194347 -2.4294276 1.6743132 0.4533155 3.0557327
1.4420766 -4.8564644 2.383999 0.4426882 -5.096178 2.5764205 2.2813659 -4.505503
-0.064352445 0.32154718 0.59075135 -1.4196633 0.8279211 -0.29685503 0.7120363 -0.20681562
-0.1547582 0.1553099 -0.048888016 0.34295565 0.12640086 0.15189151 -1.3638682 -1.6592906
1.0311496 -1.9556775 -0.14820474 1.737566 2.2039497 -0.658927 1.3314381 -0.44979757
0.54933023 0.053876013 0.260064 0.8570226 2.5210645 -0.045239992 -0.3105232 -0.9407292
-0.003390141 1.51987 0.26540986 -0.14413533 0.54069275 -1.5476484 0.64552003 -1.1381513
0.6051678 1.1903902 1.2194879 -0.04704221 -1.0913936 1.0223486 0.21128413 0.030614927
0.36038134 0.3165828 -0.89751744 -0.6392758 0.62067485 -0.1689594 -0.58155125 1.2631882
0.069538094 1.1862317 1.8126987 -1.4458934 -0.21577099 -0.97923577 -1.4391539 0.6508391
2.8687508 -1.1039345 -0.4985382 -0.3944709 -0.45170775 -0.8975751 0.6440749 -1.3635979
1.0533912 -0.34445137 -1.4699267 0.7816328 -0.20517646 -2.3989632 -3.1589546 2.2192335
-1.0923097 -0.56721294 0.4389569 3.2683175 -1.7392364 1.1813978 0.9667493 -0.3627021
0.10409909 -0.9675221 2.8504336 -0.7563484 0.59164244 3.130566 1.2326027 1.3536913
-1.1747495 0.018135604 -0.666102 -0.78667283 -2.1572204 -0.48976764 0.5943951 0.6282103
-0.12284849 0.84508955 -0.45076203 0.13728806 0.78675693 -0.33192238 1.493093 2.269614
-0.1606554 0.026785528 -0.8327962 -2.8139856 -1.8502849 1.651765 0.13358493 -0.36369103
1.9122012 1.0484713 0.78948313 0.969636 -1.916133 -1.5305299 1.0010831 -1.6620376
00000000: bbc8 93bf c0f8 a43f 5cce 97bf 8f79 14bf
00000010: 30b5 64bf 3a2e 623f ada2 41bf 1433 43be
00000020: 4e49 1dbf 40ca 4f3e a617 efbe 19f4 40be
00000030: f6ae 513f 63ea 93bf 6562 c0bd 739f aebe
00000040: 8779 7abf f591 89be 03f5 42bf 4a00 7c3e
00000050: a41d 85bd 7b6f 743e 31a5 203f 159d 263f
00000060: 49e8 a83e cf72 cebe 488c 593d 84c2 0a40
00000070: b2ea 99bd 1d9c 4a3f 7daf df3e 8149 913f
00000080: 7017 f9be 5193 6a3f e02c 70be 414f bfbd
00000090: 35a3 03bf f528 04bd ed49 30bd bb0d b0be
000000a0: 3a27 023f 5ec4 683e 4945 02bf 44a9 35be
000000b0: 72da 8abe 4f44 8abe ad27 03bf 0fb3 83bd
000000c0: ec42 f8be 1ea8 253e 9ded 33bf 015a 0e3f
000000d0: e05b 26bd d8b1 503f 4051 a1be 4ef3 013f
000000e0: 15aa d83d 69e4 68be 09f4 c7be 314f 04be
000000f0: cf90 9cbf e837 9f3e d711 90be 4c64 45be
00000100: e7cf 953f 98e0 a6bf 7768 76bf c498 bbbf
00000110: 2cc2 13bf dfd9 c53f ee48 983f 7101 a73f
00000120: eb26 1040 e736 c2bf 7a14 debd c624 b4be
00000130: bbfa 7dbf df1c 913e d65f 8a3d 4d15 883f
00000140: 554e a23f 53fd 53bf 4955 c23f fd4e 443f
00000150: 9104 23bf 850b 84bf 6b94 163e e4c6 13bf
00000160: b7ca dd3f 6f38 08bd 3933 073f 6559 c63f
00000170: 8a74 07bf 1dea 0fbf 5715 43bf 9da0 d2bf
00000180: cfe7 1440 0deb 383f f5a8 f23f 6f77 933f
00000190: fd7c 6e40 57ae 4cbe 1ac9 1140 9630 4d40
000001a0: 5688 0e40 3c02 1dc0 7ae0 583f 7c6f 1640
000001b0: 7d69 82c0 b745 0fc0 432f 53c0 9345 0d3e
000001c0: 9135 f63f 42b4 25c0 4e3a 8240 6b3e 6140
000001d0: be7b 1bc0 e54f d63f f818 e83e 2091 4340
000001e0: f795 b83f 2868 9bc0 7193 1840 07a8 e23e
000001f0: e413 a3c0 13e4 2440 e601 1240 152d 90c0
00000200: 37cb 83bd d5a1 a43e 7b3b 173f 87b7 b5bf
00000210: a3f2 533f 62fd 97be 0348 363f 79c7 53be
00000220: ef78 1ebe 8f09 1f3e cd3e 48bd e297 af3e
00000230: 3a6f 013e 7389 1b3e 3c93 aebf a263 d4bf
00000240: b6fc 833f a453 fabf fcc2 17be 9068 de3f
00000250: 830d 0d40 71af 28bf 906c aa3f de4b e6be
00000260: e8a0 0c3f 18ad 5c3d 1c27 853e d565 5b3f
00000270: 1f59 2140 924d 39bd e6fc 9ebe a1d3 70bf
00000280: 212d 5ebb 1a8b c23f cde3 873e 3698 13be
00000290: d76a 0a3f 5819 c6bf cd40 253f f1ae 91bf
000002a0: 47ec 1a3f b55e 983f 2e18 9c3f 55af 40bd
000002b0: c9b2 8bbf 52dc 823f de5a 583e 28cc fa3c
000002c0: e783 b83e 2417 a23e b4c3 65bf 94a7 23bf
000002d0: 8ce4 1e3f b103 2dbe 8be0 14bf 27b0 a13f
000002e0: fd69 8e3d 71d6 973f 8306 e83f 0913 b9bf
000002f0: 12f3 5cbe 32af 7abf 3236 b8bf 649d 263f
00000300: 9d99 3740 ba4d 8dbf 6640 ffbe 17f8 c9be
00000310: 3d46 e7be 7bc7 65bf 18e2 243f 608a aebf
00000320: 86d5 863f ee5b b0be 8f26 bcbf 1619 483f
00000330: c719 52be 9d88 19c0 502c 4ac0 ec07 0e40
00000340: ced0 8bbf de34 11bf f5be e03e 1d2c 5140
00000350: 4c9f debf 0b38 973f e27c 773f 17b4 b9be
00000360: e731 d53d 87af 77bf 816d 3640 0ca0 41bf
00000370: e175 173f 315b 4840 edc5 9d3f c245 ad3f
00000380: 315e 96bf 1e91 943c a985 2abf 6463 49bf
00000390: e60f 0ac0 d3c2 fabe 472a 183f 64d2 203f
000003a0: fd97 fbbd ca57 583f 48ca e6be 3e95 0c3e
000003b0: e768 493f bbf1 a9be ac1d bf3f 5b41 1140
000003c0: d982 24be 536d db3c 2232 55bf 5718 34c0
000003d0: 23d6 ecbf 096d d33f 7dca 083e b635 babe
000003e0: 02c3 f43f 4f34 863f 911b 4a3f 113a 783f
000003f0: d943 f5bf 67e8 c3bf 7e23 803f a6bd d4bf

lin1.weight f4 [1024, 64]
-0.9379665 0.45779467 -0.4297275 -0.16139925 -0.4997954 0.12828045 -0.22736186 -0.5905128
0.021757118 0.22485904 -0.10796235 -0.09736398 0.30844587 0.13943978 0.2159871 0.13451205
-0.3319337 0.16794848 -0.579946 0.17755444 -0.2011635 0.19488339 -0.045778234 0.077852115
0.5683044 -0.5217659 -0.3624396 -0.18275122 -0.37326625 -0.10174734 -0.16443479 -0.061361346
-0.09716968 0.9906512 -0.25098202 -0.16622055 -0.2562722 -0.007733519 0.13134295 0.059422344
-0.35016012 0.42170236 -0.6987324 -0.12731136 -0.21609512 0.31934813 -0.089293495 0.07455785
-0.58737826 0.2643388 0.2603811 -0.3658308 0.7855374 -0.29236138 0.07424343 -0.0014230246
0.46708584 -0.050399657 0.17873032 0.2618243 -0.2704187 0.10828581 -0.6896773 -0.12540437
-0.006255632 -0.0036750163 0.00018335061 0.0072763218 -0.0062827254 -0.00016200397 0.004229164 -0.014383698
0.010845795 0.006970005 0.0011005064 -0.003259846 -0.011365375 -0.00048534112 -0.004588013 -0.009916489
-0.0041609104 0.011650444 0.016422339 0.0035914828 0.0034778297 -0.006795308 0.008905188 0.0015572951
-0.0027308587 0.0040682405 -0.0038792423 0.0094891405 -0.0035442002 -0.01113732 0.004478445 -0.0033641923
0.0027525097 0.0050628255 0.009065231 -0.0027960471 0.006233615 -0.008507906 -0.011924393 0.007367706
-0.014594939 0.0043704174 0.005194029 0.006759872 0.006366425 -0.002965778 -0.0062621445 0.0051340275
0.0057587572 0.0056161736 0.0017517734 0.007389957 0.003420045 -0.0116843525 -0.0007237138 0.00036825615
-0.0037098606 -0.020760905 0.0022931027 0.0010216229 0.0060352325 0.0047947136 0.009084024 -0.0030391032
0.0008638897 0.0005940007 0.001530109 -0.0054734834 -0.0053233923 -0.00453191 -0.0032113662 0.0059573785
-0.004327218 -0.0015594967 -0.00012578271 0.0034341516 0.006407552 -0.0073675197 -0.0005361652 0.008913772
0.00092412956 -0.00040524188 0.005000359 0.0053120432 -0.009286908 0.0028232017 -0.002431183 -0.0005133095
0.007169975 -0.01170581 -0.0037053123 0.0050197933 0.0036911485 0.001718468 -0.0011079055 0.0018747573
-0.004536222 -0.004810852 -0.003914934 0.0006535258 0.0005563299 0.010945456 0.0026868547 -0.002760682
0.0047266516 0.00650951 0.0009896707 0.000995309 0.0023205301 -0.00950515 0.004698179 -0.0021558038
-0.010586129 -0.00041316304 -0.00025316203 -0.0022373658 -0.0155188395 0.00015676871 -0.0037264153 -0.003967428
0.0028953766 0.008727833 -0.0062189694 0.0069119376 -0.0050180214 -0.003348374 -0.0006178608 0.001928875
0.0074301157 -0.013809689 0.0013686408 -0.0030591341 -0.0019163749 0.008597652 -0.0009206304 0.012109796
-0.01762045 -0.0037913858 -0.0051383716 0.0013554476 0.002874256 0.006310338 0.0069054696 0.0026004817
-0.0033765745 -0.00965854 -0.025575288 -0.003272988 -0.022854246 0.013220546 -0.006121647 -0.00933505
0.008245344 -0.006151423 -0.0019218673 -0.015750952 0.008747148 0.013391265 -0.0025913217 -0.0037493997
-0.0029227233 -0.008083071 -0.0069620903 -0.00016732662 -0.014744555 0.009543219 -0.0031332227 -0.007760872
0.00965971 -0.007681456 -0.011280786 -0.009171966 -0.012759278 0.0105818445 0.0036541794 -0.0063872677
-0.0035796822 -0.0008123193 -0.0011758993 0.0027962723 -0.0007908973 0.014082563 -0.0063588293 -0.00536023
0.017020205 -0.00013849372 0.0013680144 -0.0013949828 -0.0019602962 0.00055123743 -0.01895009 -0.0028740629
00000000: 931e 70bf 1064 ea3e 3e05 dcbe d845 25be
00000010: 2fe5 ffbe f35b 033e 8cd1 68be d92b 17bf
00000020: fc3b b23c 7341 663e 5d1b ddbd c466 c7bd
00000030: 9eec 9d3e 4dc9 0e3e b92b 5d3e 87bd 093e
00000040: 37f3 a9be b0fa 2b3e 5777 14bf d5d0 353e
00000050: cefd 4dbe 838f 473e f581 3bbd ee70 9f3d
00000060: 667c 113f 7392 05bf af91 b9be 2323 3bbe
00000070: c11c bfbe e960 d0bd 9861 28be 0956 7bbd
00000080: e600 c7bd 519b 7d3f b780 80be b835 2abe
00000090: 1c36 83be 7669 fdbb c47e 063e d864 733d
000000a0: 3048 b3be 5fe9 d73e 20e0 32bf e95d 02be
000000b0: 0a48 5dbe 9981 a33e 82df b6bd c9b1 983d
000000c0: 6c5e 16bf 6a57 873e ac50 853e 2d4e bbbe
000000d0: fb18 493f 64b0 95be f00c 983d c884 baba
000000e0: e025 ef3e df6f 4ebd 1505 373e d60d 863e
000000f0: 5274 8abe f3c4 dd3d b18e 30bf 016a 00be
00000100: 0bfc ccbb 8bd8 70bb ce41 4039 366e ee3b
00000110: 52df cdbb 9cdf 29b9 cd94 8a3b 9aa9 6bbc
00000120: 90b2 313c a464 e43b de3e 903a 24a3 55bb
00000130: d635 3abc 6275 feb9 0b57 96bb c578 22bc
00000140: 3f58 88bb 81e1 3e3c 2488 863c 155f 6b3b
00000150: 4dec 633b 2dab debb 11e7 113c 271e cc3a
00000160: 35f8 32bb e04e 853b e33a 7ebb 5778 1b3c
00000170: d045 68bb 4e79 36bc ebbf 923b c879 5cbb
00000180: 7363 343b 0fe6 a53b 5686 143c e33d 37bb
00000190: 5a43 cc3b bf64 0bbc 875e 43bc cc6c f13b
000001a0: 9c1f 6fbc b835 8f3b ac32 aa3b eb81 dd3b
000001b0: 729d d03b 805d 42bb ad32 cdbb 583b a83b
000001c0: f5b3 bc3b e107 b83b c39b e53a 7427 f23b
000001d0: d522 603b ba6f 3fbc 9cb7 3dba 8112 c139
000001e0: 2221 73bb c612 aabc e147 163b fae7 853a
000001f0: 33c3 c53b f91c 9d3b 28d5 143c b12b 47bb
00000200: a876 623a b6b6 1b3a f08d c83a e85a b3bb
00000210: da6f aebb 6b80 94bb c975 52bb 1d36 c33b
00000220: 56cb 8dbb 0768 ccba 8ae4 03b9 810f 613b
00000230: 71f6 d13b 3c6b f1bb 708d 0cba 120b 123c
00000240: 4941 723a a576 d4b9 0dda a33b a610 ae3b
00000250: 1e28 18bc 7705 393b 7b54 1fbb 9e8f 06ba
00000260: 1cf2 ea3b bac9 3fbc d3d4 72bb 147d a43b
00000270: 32e7 713b 383e e13a 2437 91ba 6bba f53a
00000280: 97a4 94bb 5aa4 9dbb d948 80bb 6051 2b3a
00000290: abd6 113a 9254 333c f115 303b 8fec 34bb
000002a0: 07e2 9a3b ba4d d53b d7b7 813a 0775 823a
000002b0: 0914 183b 7dbb 1bbc 2ff3 993b 6348 0dbb
000002c0: 7171 2dbc ce9d d8b9 d5ba 84b9 c5a0 12bb
000002d0: bb42 7ebc 4862 2439 e036 74bb 3301 82bb
000002e0: 5cc0 3d3b 2fff 0e3c 7fc8 cbbb 897d e23b
000002f0: 376e a4bb 6570 5bbb f0f7 21ba 4ed2 fc3a
00000300: 5478 f33b 0942 62bc f763 b33a c17b 48bb
00000310: df2e fbba 2bdd 0c3c 7656 71ba 2a68 463c
00000320: c358 90bc e678 78bb c95f a8bb 46a9 b13a
00000330: 045e 3c3b f4c6 ce3b 4747 e23b d86c 2a3b
00000340: 8549 5dbb da3e 1ebc 4483 d1bc a07f 56bb
00000350: d438 bbbc fd9a 583c 1998 c8bb 0af2 18bc
00000360: 7b17 073c e091 c9bb 2ae7 fbba 2408 81bc
00000370: 3350 0f3c 0967 5b3c 2ad3 29bb 7db8 75bb
00000380: 298b 3fbb db6e 04bc 3f22 e4bb 6674 2fb9
00000390: 2593 71bc 295b 1c3c c156 4dbb ea4e febb
000003a0: c343 1e3c b9b4 fbbb 0cd3 38bc 0446 16bc
000003b0: 4a0c 51bc 795f 2d3c f57a 6f3b 494c d1bb
000003c0: 1a99 6abb d3f1 54ba a220 9aba aa41 373b
000003d0: 3854 4fba 8dba 663c ba5d d0bb dea4 afbb
000003e0: f56d 8b3c a038 11b9 f24e b33a dbd7 b6ba
000003f0: 5078 00bb eb80 103a 383d 9bbc c65a 3cbb

lin1.bias f4 [1024]
-0.10628023 -0.0048490465 -0.0055134306 -0.011691151 0.002584591 0.27416667 -0.014621345 -0.00020189339
-0.1965841 -0.03699468 -0.13212329 0.0004690798 -0.008398942 -0.14256708 -0.0014600852 0.002832395
-0.20512615 0.013809989 -0.27668694 0.32830966 0.013884924 0.11707633 -0.00093675277 0.23021807
-0.78570944 -0.24375343 -0.009659676 0.18110411 -0.013156767 0.0049818647 -0.2631459 0.304107
0.004717028 -0.4742777 0.5294881 -0.08386781 0.4805788 -0.0067311297 0.31057012 -0.0030106874
-0.042780332 0.039272368 0.06723771 -0.23323438 -0.0063445834 0.012716518 0.0065434976 0.010603499
-0.009977879 0.70539814 -0.0061314693 0.0005958963 -0.38162258 0.0030833965 -0.0016161195 -0.08005893
0.016544085 0.578573 0.33792806 -0.007167388 -0.21652615 -0.5959075 -0.08240214 0.0026433119
-0.13234368 0.0036548073 -0.0052831885 -0.27382776 -0.0032129337 0.23832543 0.33900037 0.009380098
-0.34719545 0.2094631 -0.7235228 -0.0011963262 -0.0709355 0.25646183 0.0105948895 0.002043742
0.07849837 0.004186348 0.008318395 0.011582761 0.4028988 0.0065966537 -0.0010790016 0.0077827293
0.011552741 0.0049536736 0.0076000215 -0.54696375 0.0005089115 -0.13409007 0.21273622 -0.55567324
0.2804193 -0.007775565 -0.12581776 -0.008636448 0.27885625 0.024142014 -0.4493088 -0.0035875917
-0.007135716 -0.0022979497 -0.0077006673 0.007040241 0.44965863 -0.12036688 0.07069215 -0.12232712
-0.010509739 0.42666483 -0.06535677 -0.006569724 0.17521115 -0.09801452 -0.20850009 0.00019744743
0.69449043 -0.124618985 0.0011388971 -0.019959092 -0.20718795 0.0025636447 0.0013358969 0.011554554
-0.0074996348 -0.09287949 0.09955626 -0.2620386 0.00018118274 -0.00032977105 0.0029536802 0.3957731
-0.0020560406 -0.008392378 -0.35529903 0.10777117 0.00076062384 -0.026733486 0.01226703 0.011072751
0.21193328 -0.06072077 0.0030184425 0.2741891 -0.2058873 0.014151479 0.25802645 -0.008747656
-0.009703335 -0.018249253 0.0028714347 -0.010379126 -0.006204745 -0.17360704 0.006252355 -0.0070416313
-0.003015543 0.22914697 -0.006207765 0.0002675295 0.009032146 -0.05938124 -0.53064466 -0.00619814
-0.41135162 0.22698724 0.002725813 -0.056732137 -0.036196847 0.0019415545 -0.002943326 0.017812738
0.053056084 0.008797268 0.014840114 -0.009829987 -0.0020979263 -0.25757816 0.54073507 0.11577597
-0.18369076 -0.16056377 0.05497175 -0.011340144 0.12936476 0.028075142 -0.13464119 0.004062176
-0.14585473 0.0015062495 0.074072994 -0.0041849255 0.0028170417 0.4565016 -0.014875227 0.2145851
-0.2437153 -0.0024933731 -0.0052324263 0.004468007 0.46597424 0.003129427 0.54445946 -0.14714386
0.0057210387 -0.045732636 -0.5330208 0.009266164 -0.0064200056 0.0111547215 -0.36493227 -0.22449684
0.48771617 0.029473875 0.0038460046 -0.009796332 -0.00022974785 -0.3715037 -0.35357377 0.0023829183
-0.25654078 -0.01022984 -0.4084811 0.26988885 0.04991587 0.37782344 0.012721372 0.0056093596
-0.004962545 -0.00585976 0.0029036985 -0.38276187 0.06903819 0.01206993 0.65986836 -0.5950167
-0.009457377 0.3097871 -0.0052419645 -0.00799851 0.020623883 -0.0005371511 0.015498768 0.12167385
-0.6849289 -0.00369001 0.0019222912 0.0065588057 0.40530518 0.010181857 -0.10540788 -0.0014559212
00000000: 73a9 d9bd c0e4 9ebb 02aa b4bb 3e8c 3fbc
00000010: 3e62 293b 935f 8c3e 5e8e 6fbc 58b3 53b9
00000020: 584d 49be bc87 17bd 544b 07be d3ee f539
00000030: b79b 09bc 1bfd 11be 5460 bfba b49f 393b
00000040: 970c 52be 4b43 623c e9a9 8dbe 3418 a83e
00000050: 987d 633c b7c5 ef3d 6a90 75ba 49be 6b3e
00000060: 4124 49bf 809a 79be 9e43 1ebc 5b73 393e
00000070: 7b8f 57bc e93e a33b 0fbb 86be eab3 9b3e
00000080: 4c91 9a3b 87d4 f2be 888c 073f e3c2 abbd
00000090: 6d0e f63e cf90 dcbb 0c03 9f3e f44e 45bb
000000a0: 6e3a 2fbd 10dc 203d edb3 893d fed4 6ebe
000000b0: 39e6 cfbb f158 503c d66a d63b 4cba 2d3c
000000c0: 427a 23bc f994 343f 7eea c8bb ec35 1c3a
000000d0: 0964 c3be cf12 4a3b f9d3 d3ba f0f5 a3bd
000000e0: 7687 873c 5c1d 143f e804 ad3e 69dc eabb
000000f0: 08b9 5dbe 658d 18bf 74c2 a8bd 6a3b 2d3b
00000100: 1a85 07be 7e85 6f3b 991e adbb 2733 8cbe
00000110: 1590 52bb 950b 743e 7591 ad3e fcae 193c
00000120: 9ac3 b1be 7f7d 563e ca38 39bf 0cce 9cba
00000130: a246 91bd f74e 833e 3096 2d3c 4df0 053b
00000140: c1c3 a03d a22d 893b e149 083c 9fc5 3d3c
00000150: c048 ce3e be28 d83b 496d 8dba 4406 ff3b
00000160: b547 3d3c 6d52 a23b 9a09 f93b d105 0cbf
00000170: 7968 053a e84e 09be 86d7 593e 9a40 0ebf
00000180: 1e93 8f3e 2bca febb 5fd6 00be e37f 0dbc
00000190: 3fc6 8e3e 79c5 c53c ce0b e6be cd1d 6bbb
000001a0: b9d2 e9bb 3399 16bb e155 fcbb d2b1 e63b
000001b0: a839 e63e e982 f6bd 0cc7 903d a486 fabd
000001c0: 0a31 2cbc d073 da3e c5d9 85bd d746 d7bb
000001d0: 8d6a 333e d6bb c8bd 0c81 55be e409 4f39
000001e0: 20ca 313f 3d38 ffbd 0c47 953a 4081 a3bc
000001f0: 1429 54be d202 283b 4319 af3a 504f 3d3c
00000200: 7fbf f5bb 9a37 bebd 27e4 cb3d ec29 86be
00000210: dffb 3d39 1fe5 acb9 8892 413b c6a2 ca3e
00000220: a3be 06bb 2f80 09bc c1e9 b5be 22b7 dc3d
00000230: 9a64 473a 2f00 dbbc a7fb 483c 7c6a 353c
00000240: 0a05 593e 58b6 78bd 10d1 453b 8462 8c3e
00000250: 1fd4 52be 9bdb 673c 0b1c 843e 5452 0fbc
00000260: bdfa 1ebc 757f 95bc ae2e 3c3b 360d 2abc
00000270: 2c51 cbbb 0bc6 31be 8ee0 cc3b 7cbd e6bb
00000280: 6ba0 45bb 81a5 6a3e 826a cbbb 3443 8c39
00000290: 91fb 133c be39 73bd 54d8 07bf c419 cbbb
000002a0: ae9c d2be 586f 683e 8ea3 323b f55f 68bd
000002b0: 2543 14bd c27b fe3a d1e4 40bb 05ec 913c
000002c0: 5651 593d 6b22 103c f323 733c f40d 21bc
000002d0: 5d7d 09bb 49e1 83be 9d6d 0a3f f41b ed3d
000002e0: 6e19 3cbe d46a 24be 0f2a 613d 03cc 39bc
000002f0: 3278 043e d7fd e53c 61df 09be 011c 853b
00000300: f15a 15be 596d c53a 95b3 973d b321 89bb
00000310: 1e9e 383b 94ba e93e 39b7 73bc 32bc 5b3e
00000320: 8190 79be dc67 23bb c674 abbb 5c68 923b
00000330: 2d94 ee3e 1317 4d3b b261 0b3f e1ac 16be
00000340: 8d77 bb3b 2552 3bbd 0d74 08bf 1cd1 173c
00000350: e95e d2bb 4bc2 363c 67d8 babe 80e2 65be
00000360: efb5 f93e 3273 f13c 400d 7c3b cb80 20bc
00000370: 78e8 70b9 bc35 bebe 9f07 b5be bc2a 1c3b
00000380: 5059 83be 0f9b 27bc 6f24 d1be df2e 8a3e
00000390: 9574 4c3d 1372 c13e 4d6d 503c b8ce b73b
000003a0: d89c a2bb 3b03 c0bb fa4b 3e3b 5df9 c3be
000003b0: e563 8d3d f5c0 453c 22ed 283f 0453 18bf
000003c0: 1df3 1abc 6a9c 9e3e c9c4 abbb 2f0c 03bc
000003d0: 6bf3 a83c 9acf 0cba 8bee 7d3c 2430 f93d
000003e0: 8057 2fbf 18d4 71bb 64f5 fb3a 40eb d63b
000003f0: 2984 cf3e ced1 263c 16e0 d7bd 9cd4 beba

lin2.weight f4 [98, 1024]
-0.27813607 -0.0013880951 -0.012628355 -0.009031766 -0.005724671 -0.02110055 -0.3039695 -0.010655249
-0.007588615 0.14957565 0.0063132886 0.0053237434 -0.17528032 0.08355666 0.01296622 -0.009210229
0.06370626 -0.0019309019 0.0390236 0.17810085 0.010615444 0.16412914 -0.005682424 0.045967024
0.060564324 -0.28524905 -0.004309032 -0.07856982 0.01629314 0.0066004335 -0.08298494 -0.046183012
-0.001627042 -0.025543949 -0.09077859 -0.2098627 0.34101596 -0.0023544766 0.06452556 -0.013910135
-0.011810108 -0.08619002 0.0070581916 -0.2774355 -0.2643448 -0.0013908936 0.2619571 0.012865704
-0.007973525 0.08425263 0.008279763 0.0053277044 -0.088178836 -0.006180533 0.012811178 0.38787797
0.0014981482 0.014598524 -0.23797756 0.002491327 -0.005132631 -0.11166924 0.064022854 0.01305482
0.06789692 -0.009925517 0.0025992051 -0.39476806 -0.008043401 0.20374571 -0.018486 -0.007345754
0.03491151 -0.029539037 0.1409334 0.005082729 -0.012948665 0.028245801 0.012489331 0.009232663
-0.25205573 0.008459652 -0.019461393 0.038909815 0.08376827 -0.01200556 -0.0063184905 0.0012804747
0.008753373 -0.0074204933 -0.003406907 0.5150932 0.0024868883 -0.1708082 -0.02788995 -0.25108734
0.035018146 0.009448699 -0.010113497 0.0011101563 -0.030532662 0.23625386 -0.16284773 -0.002458374
-0.0021751714 0.009895301 0.004860295 -0.015949007 -0.26529443 -0.061618246 0.018762026 0.029191798
-0.0093511585 -0.06342518 0.0053986097 0.00053119194 0.022200802 0.009296207 -0.03974693 -0.01170069
-0.0045195953 -0.028608423 -0.0012014692 0.010575115 -0.05049167 0.011466344 0.0061209756 -0.008123978
-0.005955318 0.13733022 0.05351471 -0.0951673 4.616173e-06 0.003231888 0.0032463365 0.036798514
-0.0037785494 -0.00016395084 -0.0756762 0.0065224245 0.00741414 -0.14103144 -0.00041337256 0.10938361
-0.042087924 -0.22758593 -0.00016387344 -0.17562142 0.061466966 0.014743243 -0.02650809 0.012404262
-0.00065492874 -0.007443968 0.0068233795 -0.008439939 0.00589136 -0.02452569 -0.01496572 -0.0083054695
-0.005841918 -0.2917371 -0.17813008 0.00049097533 0.00041532278 -0.01250965 0.12221349 0.0028457898
-0.051994935 0.08908665 0.013375196 -0.0056355987 -0.03506928 0.010962218 -0.0017312557 -0.007223575
0.006023102 0.0061705345 -0.0030189045 -0.002433155 0.0047478485 -0.04691539 0.019816656 0.0053642625
0.25488642 0.06649315 0.02227361 0.0025794602 0.0987291 -0.019225195 -0.021984711 -0.014396603
0.03861784 0.014581968 -0.10860676 0.012031707 -0.004159495 -0.014819912 0.0009076332 0.13154332
0.21268521 0.0069390093 -0.01654396 0.010102731 0.0077022067 -0.0013221669 -0.29141933 -0.102558896
-0.008910699 0.031635385 0.017103555 0.015819216 0.008049031 -0.0009773351 0.12891993 -0.026021203
-0.0849637 0.00302428 -0.0009737297 0.0022551985 -0.00559375 -0.15477651 0.14794275 -0.007602331
-0.033013348 -0.017391633 0.09163758 0.01978162 -0.17894115 -0.047885053 -0.0050727627 -0.007406093
-0.0075175674 0.008062935 0.001966911 0.14931794 -0.35847372 -0.0007473653 0.16876471 0.16551748
0.007352501 -0.048749357 0.008961345 -0.0072021885 0.005044504 0.008217695 -0.006077508 0.0004518658
0.105428115 0.00065898406 -0.0041568363 0.006407696 0.10962335 0.00870518 0.03847532 0.0045369253
00000000: da67 8ebe bef0 b5ba 29e7 4ebc f9f9 13bc
00000010: 0596 bbbb 10db acbc e4a1 9bbe 5a93 2ebc
00000020: eba9 f8bb 5c2a 193e b4df ce3b cc72 ae3b
00000030: af7c 33be c11f ab3d 4570 543c 80e6 16bc
00000040: 6d78 823d 5116 fdba 36d7 1f3d 1260 363e
00000050: 66ec 2d3c 7811 283e a133 babb eb47 3c3d
00000060: 4c12 783d 2a0c 92be c832 8dbb 37e9 a0bd
00000070: 3179 853c 7348 d83b 02f4 a9bd 662a 3dbd
00000080: 7842 d5ba 8b41 d1bc 20ea b9bd 3fe6 56be
00000090: a599 ae3e 904d 1abb fa25 843d 56e7 63bc
000000a0: 2f7f 41bc 6584 b0bd 6748 e73b 070c 8ebe
000000b0: 3458 87be a54e b6ba 3e1f 863e acca 523c
000000c0: 63a3 02bc a58c ac3d d8a7 073c 0694 ae3b
000000d0: 1b97 b4bd 1286 cabb fae5 513c f197 c63e
000000e0: 835d c43a a62e 6f3c 64b0 73be 8845 233b
000000f0: a12f a8bb d8b2 e4bd 6a1e 833d e2e3 553c
00000100: 8a0d 8b3d a39e 22bc 6d57 2a3b 0a1f cabe
00000110: 78c8 03bc b7a2 503e f46f 97bc a7b4 f0bb
00000120: 5fff 0e3d dafb f1bc d850 103e 058d a63b
00000130: a326 54bc bd63 e73c 0da0 4c3c 9844 173c
00000140: 730d 81be 5a9a 0a3c 806d 9fbc e65f 1f3d
00000150: b38e ab3d f8b2 44bc 570b cfbb 9ad5 a73a
00000160: 4f6a 0f3c 9c27 f3bb 6a46 5fbb 26dd 033f
00000170: 10fb 223b 58e8 2ebe 7779 e4bc 858e 80be
00000180: 306f 0f3d b7ce 1a3c 15b3 25bc aa82 913a
00000190: a21f fabc 88ec 713e 8ec1 26be ac1c 21bb
000001a0: 528d 0ebb e71f 223c 1c43 9f3b 7ea7 82bc
000001b0: acd4 87be 6a63 7cbd d2b2 993c a323 ef3c
000001c0: 9a35 19bc 10e5 81bd d2e6 b03b b03f 0b3a
000001d0: 75de b53c 1e4f 183c adcd 22bd 40b4 3fbc
000001e0: 1d19 94bb 365c eabc 9e7a 9dba 3f43 2d3c
000001f0: 5ad0 4ebd 55dd 3b3c 7792 c83b 6f1a 05bc
00000200: d424 c3bb 4ba0 0c3e 3e32 5b3d 13e7 c2bd
00000210: a0e4 9a36 15ce 533b 7dc0 543b 0aba 163d
00000220: 8aa1 77bb 38ea 2bb9 20fc 9abd 10ba d53b
00000230: 50f2 f23b 8c6a 10be edb9 d8b9 8404 e03d
00000240: 6364 2cbd 490c 69be 71d5 2bb9 1ad6 33be
00000250: c9c4 7b3d a58d 713c 7e27 d9bc 3f3b 4b3c
00000260: 86af 2bba 88ec f3bb a896 df3b ab47 0abc
00000270: 4f0c c13b 1aea c8bc c732 75bc aa13 08bc
00000280: 8f6d bfbb 915e 95be bb67 36be ccb4 003a
00000290: aebf d939 46f5 4cbc 114b fa3d 6e80 3a3b
000002a0: a4f8 54bd 1073 b63d a323 5b3c d4aa b8bb
000002b0: cea4 0fbd e09a 333c 4deb e2ba bdb3 ecbb
000002c0: 715d c53b 3232 ca3b d0d8 45bb 9175 1fbb
000002d0: d793 9b3b 5a2a 40bd 8a56 a23c b2c6 af3b
000002e0: 7980 823e 902d 883d 2577 b63c 290c 293b
000002f0: 7b32 ca3d 287e 9dbc 4819 b4bc bbdf 6bbc
00000300: bd2d 1e3d 35e9 6e3c 396d debd a320 453c
00000310: 5f4c 88bb 37cf 72bc 3cee 6d3a 4bb3 063e
00000320: 27ca 593e a160 e33b 3387 87bc ed85 253c
00000330: cb62 fc3b 8f4c adba ea34 95be 660a d2bd
00000340: 2efe 11bc 1b94 013d c11c 8c3c 4d97 813c
00000350: 15e0 033c ed19 80ba 9603 043e 6b2a d5bc
00000360: 7301 aebd 0033 463b e541 7fba f4cb 133b
00000370: c74b b7bb bc7d 1ebe 4e7e 173e fa1c f9bb
00000380: 0139 07bd e678 8ebc 7cac bb3d 100d a23c
00000390: 593c 37be 1e23 44bd 6b39 a6bb d0ae f2bb
000003a0: ed55 f6bb 671a 043c 4ae7 003b cde6 183e
000003b0: de89 b7be d6ea 43ba a8d0 2c3e 6a7d 293e
000003c0: 40ed f03b 68ad 47bd 9bd2 123c 5600 ecbb
000003d0: 5e4c a53b 83a3 063c d525 c7bb 67e8 ec39
000003e0: b2ea d73d acbf 2c3a 1236 88bb a6f7 d13b
000003f0: 3582 e03d 2ca0 0e3c 4c98 1d3d 7daa 943b

lin2.bias f4 [98]
-0.192948 0.4488228 -0.33319682 -0.7551422 -1.3222378 -1.2701784 -0.42610928 -0.6946964
-0.527077 -0.6487158 -0.13770099 -0.4724243 -0.034843896 -1.3023938 -0.68782514 -0.5326655
-0.29967296 -0.43151224 -0.46009082 -0.4686681 -0.35513964 -0.4536114 -0.44141334 -0.4884905
-0.30128378 -0.60428643 -0.39001808 0.03539285 -0.249823 -0.12100228 -0.28100696 -0.019940443
-0.26259923 -0.22713605 -0.06848645 0.06572276 -0.32622153 -0.47925988 -0.024274046 -0.021306278
-0.11546382 -0.074775375 -0.23517004 -0.44266573 -0.19397692 0.07334549 -0.09444097 -0.48017457
-0.42496514 -0.23341995 -0.47782278 -0.13913494 -0.50567245 -0.7364594 -1.5110736 -0.19168165
0.2390858 -0.20242883 0.03088674 -0.029108047 0.17022249 -0.10578652 -0.10215944 0.03261712
0.17050733 -0.55789423 -0.34526974 0.05952694 -0.19051738 0.11353993 0.15381835 -0.29020056
-0.582599 0.23525526 0.2073351 0.19562775 -0.12333714 -0.16036195 -0.003271372 -0.42267555
0.00982393 -0.57018 -0.31633645 -0.48600113 -0.49244955 -0.55891716 -0.545776 -1.5037168
-0.8034849 -0.43216082 -0.42051578 -0.077180326 0.00011984697 -0.39551732 -0.28861874 -1.3045925
-1.2867883 -1.2712264
00000000: 2994 45be 1acc e53e c698 aabe 0051 41bf
00000010: 173f a9bf 3595 a2bf ff2a dabe a0d7 31bf
00000020: 85ee 06bf 3d12 26bf 7d01 0dbe 99e1 f1be
00000030: 79b8 0ebd d7b4 a6bf 4f15 30bf c45c 08bf
00000040: bc6e 99be 2cef dcbe 0691 ebbe 44f5 efbe
00000050: ddd4 b5be c13f e8be ee00 e2be 6d1b fabe
00000060: de41 9abe 84b2 1abf 73b0 c7be 18f8 103d
00000070: 9ad1 7fbe 0bd0 f7bd 25e0 8fbe 245a a3bc
00000080: 6873 86be 5a96 68be a042 8cbd a899 863d
00000090: 8206 a7be 8d61 f5be 5dda c6bc 818a aebc
000000a0: 4c78 ecbd d523 99bd 6ad0 70be 15a5 e2be
000000b0: e3a1 46be 2936 963d 446a c1bd 71d9 f5be
000000c0: 0895 d9be a405 6fbe 30a5 f4be 6479 0ebe
000000d0: c073 01bf 9a88 3cbf dc6a c1bf 3248 44be
000000e0: e8d2 743e 8149 4fbe 3006 fd3c 0074 eebc
000000f0: ce4e 2e3e 9aa6 d8bd f838 d1bd 8799 053d
00000100: 7999 2e3e 28d2 0ebf 32c7 b0be 85d2 733d
00000110: fd16 43be 9f87 e83d 8f82 1d3e 2b95 94be
00000120: 3525 15bf c1e6 703e a74f 543e a452 483e
00000130: 2f98 fcbd ec35 24be 8464 56bb ee68 d8be
00000140: 8df4 203c 51f7 11bf daf6 a1be 24d5 f8be
00000150: 5922 fcbe 3215 0fbf fab7 0bbf cb79 c0bf
00000160: 30b1 4dbf 2f44 ddbe d84d d7be b810 9ebd
00000170: 5a56 fb38 3f81 cabe d6c5 93be e3fc a6bf
00000180: 7bb5 a4bf 8cb7 a2bf
