models/2_context_2_embedding_32_activation_1.pt (torch, 683290 bytes, 5 tensors)

emb.weight f4 [98, 32]
00000000: c45d 1ebf b367 433f a402 4dbf 79f1 c4be
00000010: acc7 1abf 185a 1a3f 10f8 ddbe 5080 0fbd
00000020: a61d 40be 4081 073e 9250 c4be b46f 61be
00000030: 5590 ee3e ab1c 30bf 6d61 4bbe ab06 75bd
00000040: 2f6e ebbe 1934 36be 7d55 b4be adaa 243e
00000050: 6273 b53d 83d2 9a3e 1b78 063f ee2f c43e
00000060: 8905 b43e dc06 09be 65e6 e4bd e7d1 ba3f
00000070: efe6 b63b 88f3 273f 176a 853d d294 f03e
00000080: 6e98 ffbe 28ae 2d3f 7dee b8bd 2bad 06be
00000090: b074 08bf 4e21 05bd a0b9 7e3d c01c 5fbe
000000a0: 942c 3e3e 7a96 833e 1f9e d5be 2b2d 87be
000000b0: b544 43be bbd3 47be dcac 99be c130 a1bd
000000c0: b701 84be 08c1 a73d 8971 d0be d1ad c73e
000000d0: 7393 adbd 4b2b 2d3f 0367 0dbd 48b1 9d3e
000000e0: 5dee f93d e9e5 5abe 64c2 20be b9f0 a83c
000000f0: 8c9c 2dbf 51ae 9a3e a6b1 8abe 92bb 72bd
00000100: a53b 733f 4e04 f4be ffad 61bf 6dc6 72bf
00000110: 702f 28bf 3a08 693f 9d3a 133f e0ae 083f
00000120: 3c7d 9f3f 867c 69bf edee 873e b31a 6a3d
00000130: 48b6 4cbf 2720 fc3d 0c75 6cbe 13fb 7a3f
00000140: aec3 443f 7ebd 08be 275d 903e 92bc 4f3f
00000150: e2af d8bd 6c1c 1fbf 1549 273e 6e6c bdbe
00000160: 6daa c63f 2d1e 243f fe19 533e 669e 293f
00000170: c158 15bf 4048 8e3d 3997 05bf af06 30bf
00000180: 7812 86bf da94 553f dec8 3ebf 83df 9b3f
00000190: 517e 0540 66fa 21bf a971 2540 2e4f 1f40
000001a0: 26aa 893f c0fe a6bf a0fb 1dbf 7218 8bbf
000001b0: 0f2a d93e 3278 0cbf 6d6d 2bc0 9d3c 32bf
000001c0: ca71 0540 ca28 c3bf 4a1a f33f 6ad6 ff3f
000001d0: 347f 62bf 282e 3140 e41d 99be 15b1 e53f
000001e0: 182d 9fbf e417 46c0 6707 ea3e 11ba 9dbe
000001f0: 18d8 70be 2875 2e40 6920 bd3e 7488 50bf
00000200: 37cb 83bd d5a1 a43e 7b3b 173f 87b7 b5bf
00000210: a3f2 533f 62fd 97be 0348 363f 79c7 53be
00000220: ef78 1ebe 8f09 1f3e cd3e 48bd e297 af3e
00000230: 3a6f 013e 7389 1b3e 3c93 aebf a263 d4bf
00000240: b6fc 833f a453 fabf fcc2 17be 9068 de3f
00000250: 830d 0d40 71af 28bf 906c aa3f de4b e6be
00000260: e8a0 0c3f 18ad 5c3d 1c27 853e d565 5b3f
00000270: 1f59 2140 924d 39bd e6fc 9ebe a1d3 70bf
00000280: 212d 5ebb 1a8b c23f cde3 873e 3698 13be
00000290: d76a 0a3f 5819 c6bf cd40 253f f1ae 91bf
000002a0: 47ec 1a3f b55e 983f 2e18 9c3f 55af 40bd
000002b0: c9b2 8bbf 52dc 823f de5a 583e 28cc fa3c
000002c0: e783 b83e 2417 a23e b4c3 65bf 94a7 23bf
000002d0: 8ce4 1e3f b103 2dbe 8be0 14bf 27b0 a13f
000002e0: fd69 8e3d 71d6 973f 8306 e83f 0913 b9bf
000002f0: 12f3 5cbe 32af 7abf 3236 b8bf 649d 263f
00000300: dd71 0140 96f4 873f 4d70 d13e f7ab 51bf
00000310: e0b2 1dbf 013f 1dbf 8074 57bf 60c1 f5bd
00000320: db34 963f e615 febe 4837 413e 4410 113f
00000330: 7490 5abe 6bb8 00bf a139 f6bf 6189 c63e
00000340: 2e91 2e3e 8d2e 3dbf 4904 53bf a001 0140
00000350: 3f41 90bf 8ce1 733f d95e 993f edda c6bf
00000360: 3a11 fdbd e0e8 593f be19 0040 9512 6a3f
00000370: 34d5 233f afa1 eb3f 3379 3940 fb02 05bf
00000380: 1159 c7bf ee11 73bf d882 9abf 0e78 87bf
00000390: a080 babf 1dc4 99bd c254 643e df12 103f
000003a0: 3005 e3bf 0593 bc3f b46e c5be 5548 5cbd
000003b0: 32c8 5d3f c46a 30be 7495 f93e 9a8d 973f
000003c0: 747a f33e fa15 2e3f 9eff 25bf cb91 273f
000003d0: 24a4 a5bf 10f1 b93f 0957 15bd 0435 183d
000003e0: bf94 0140 70ff 4c3f 5580 11bd 406b 0a3f
000003f0: e7b4 cbbf 09b7 a1be da7f cb3f d617 b1bf
-0.61861825 0.7633011 -0.80082154 -0.3846548 -0.60460925 0.6029372 -0.4335332 -0.035034478
-0.1876131 0.13232899 -0.3834272 -0.22015268 0.46594492 -0.68793744 -0.19861384 -0.059820812
-0.459825 -0.17793311 -0.35221472 0.16080733 0.08859898 0.30238733 0.52527016 0.38317817
0.35160473 -0.13381523 -0.11176757 1.4595307 0.0055817286 0.65605974 0.06514376 0.4698854
-0.49920982 0.67843866 -0.09029863 -0.13151996 -0.5330305 -0.032502465 0.062188745 -0.21788311
0.18571693 0.25700742 -0.417222 -0.26401648 -0.19069178 -0.19514363 -0.30014694 -0.07870627
-0.25782558 0.08191115 -0.4071162 0.389998 -0.08475389 0.67644185 -0.034522068 0.30799317
0.12203667 -0.21376766 -0.15699154 0.020622598 -0.67816997 0.30211118 -0.2708866 -0.059260912
0.95012885 -0.47659534 -0.8815612 -0.94834024 -0.65697384 0.9102818 0.5751131 0.5339184
1.2460093 -0.9120563 0.26549473 0.05715437 -0.7996564 0.1231082 -0.23091525 0.9803936
0.76861084 -0.13353536 0.2819607 0.8114711 -0.10580422 -0.62152743 0.16336472 -0.36996788
1.552076 0.64108545 0.20615384 0.6625732 -0.5833855 0.06947374 -0.5218387 -0.687602
-1.0474386 0.83430254 -0.7452525 1.2177585 2.0858347 -0.632727 2.5850623 2.4892077
1.075505 -1.3046494 -0.61712074 -1.0866835 0.424149 -0.54870903 -2.6785538 -0.6962374
2.0850701 -1.5246823 1.8992398 1.9987309 -0.88475347 2.7684422 -0.29905617 1.7944666
-1.2435637 -3.0952082 0.45708773 -0.3080602 -0.23519933 2.7259007 0.3693879 -0.8145821
-0.064352445 0.32154718 0.59075135 -1.4196633 0.8279211 -0.29685503 0.7120363 -0.20681562
-0.1547582 0.1553099 -0.048888016 0.34295565 0.12640086 0.15189151 -1.3638682 -1.6592906
1.0311496 -1.9556775 -0.14820474 1.737566 2.2039497 -0.658927 1.3314381 -0.44979757
0.54933023 0.053876013 0.260064 0.8570226 2.5210645 -0.045239992 -0.3105232 -0.9407292
-0.003390141 1.51987 0.26540986 -0.14413533 0.54069275 -1.5476484 0.64552003 -1.1381513
0.6051678 1.1903902 1.2194879 -0.04704221 -1.0913936 1.0223486 0.21128413 0.030614927
0.36038134 0.3165828 -0.89751744 -0.6392758 0.62067485 -0.1689594 -0.58155125 1.2631882
0.069538094 1.1862317 1.8126987 -1.4458934 -0.21577099 -0.97923577 -1.4391539 0.6508391
2.0225747 1.0621517 0.4090599 -0.8190302 -0.61601067 -0.6142426 -0.8416214 -0.11999774
1.173488 -0.49626082 0.18868744 0.56665444 -0.21344167 -0.502814 -1.9236337 0.38776687
0.17047569 -0.73899156 -0.82428414 2.0157242 -1.1269912 0.9526603 1.198207 -1.5535561
-0.12356801 0.85120964 2.0015712 0.91434604 0.639972 1.8408717 2.8980224 -0.5195767
-1.5574056 -0.94949234 -1.207118 -1.0583513 -1.4570503 -0.07508109 0.22297958 0.56278795
-1.7735958 1.4732367 -0.38561022 -0.05377992 0.866336 -0.17228228 0.48746836 1.1840088
0.47554362 0.68002284 -0.64843166 0.6545684 -1.2940717 1.4526691 -0.036459956 0.037159935
2.0247037 0.80077267 -0.035522778 0.540699 -1.5914582 -0.31584957 1.5898392 -1.3835399

lin1.weight f4 [1024, 64]
00000000: 743e b0be 2c4f 403d afc9 333e 775a 9d3e
00000010: 644e 613e be28 c03d e21a d03e dd4d 8a3e
00000020: c427 093f 1ce8 aebe c568 3d3e 7a52 833d
00000030: ecf4 cf3d f7cf 7f3e 88cf 4ebe 1d0b 12be
00000040: f7e2 a9be 44c6 f63d 59ed f93d c49f 1cbf
00000050: a02f 4dbd 425d 97be 9799 f2be cbb5 d4be
00000060: 087f fcbd 0480 d83d 26c0 ba3e 86a6 61be
00000070: 20e1 3abe 9655 79be ea1a 6b3a c5a6 8abd
00000080: e2c3 c53d 683d 873c dd66 613e a063 ba3d
00000090: c88b 283e 5e69 323e 8069 41be 6a32 b33d
000000a0: cde5 bfbc ceaf a9bd e077 f1bd 140a 11bd
000000b0: 2af5 aebd 095b 033d 848b c5be c81b 023e
000000c0: 89e9 563f 4eea 5d3e 93e6 3d3e d53f 9dbe
000000d0: 233e 1f3d 3d89 05be c807 75bd be59 013f
000000e0: ec52 f7be 35a6 19be 6f85 dabd e2d4 0b3e
000000f0: a14f 48be ebba 74bd 7d5e 583e ca9d 473e
00000100: 94e1 7d3e 9ae3 183e 325c 0dbe 2a32 ad3e
00000110: a740 c23e 6ca8 9bbe c410 013f f5ba a43e
00000120: 2813 2cbd c4df 8dbc 69ba 90be 4916 c33d
00000130: a6cf 89be d7b0 dc3e cfcd cf3c 9b72 abbe
00000140: d78f 3d3e 3d3f b2bd 97a7 70be c179 6ebc
00000150: 6182 8f3e d1f0 cdbc 2cb6 18be d8b9 493c
00000160: fc8b 3f3d 2cc4 d1bd 33d6 213e 3010 af3e
00000170: 84bb 00bd 4381 35be 1846 403e 0a8d 19be
00000180: 817f 18be b7c0 d6be e871 963d 62db 6c3e
00000190: 6554 0a3f 398a 09be f97d a03e a1da 883e
000001a0: 6836 133d 3832 3fbe e6cb b93d 4dae cd3c
000001b0: 465a cd3e f5cd ab3d 3ea5 823e 65d0 70bd
000001c0: 0b0a 073f 551c 293e d669 64be d41d 34bd
000001d0: f0bb bbbe 2fdf 553e e2e1 1abe 4e1c 07bb
000001e0: 1f8f 793d 15f5 24be 905a 903e d86d 983d
000001f0: 634d 80be 75a9 813e 7f93 9c3e 4fe9 3d3e
00000200: c92a b33c 8c9f 5bbe a362 b83d 0114 793e
00000210: a254 223d d0ed c73e 5fe0 6ebe d9b1 873e
00000220: 9134 9d3d 718d 28bd 4b7c 093e 5eab c43d
00000230: 702d 0f3d 2dc1 15bf be9a a0be e132 ccbd
00000240: 90d9 e33d 4ede a6bd f346 3dbd 9e0b 2d3e
00000250: 4f48 32be fb3c 133e 17d8 84be 930f 2c3e
00000260: 3cd1 f7bd bcf3 d03d 84fc 5f3d b07e 73bd
00000270: 0198 8dbe 5674 4e3c cf08 163e cead 17be
00000280: f711 333e 936c 5cbe ecab a43c 81d9 643e
00000290: 3093 253e c815 463e b2b8 b5be c012 b43c
000002a0: 815a dc3d 01b6 cfbd 9b5a 8e3d e8be 993d
000002b0: 5530 073c 6e6c 393e c3ef 25be 4944 123f
000002c0: e772 f83d 01e3 a13d 1eda 9c3e 309c 8dbe
000002d0: b44e 903e 5a78 373e e760 8bbe 32c0 9cbe
000002e0: cc33 b6bd 194b bd3e a371 8cbd df8d 47be
000002f0: 2687 66be f1ad 263d 1425 403e 97a1 0cbe
00000300: 3c53 ce3d 1737 67be 5138 4fbd 8005 53be
00000310: cabc c83d 0e8c 653e dc26 debe 8a8c 263e
00000320: 6f45 853b 6348 babd 953a b1be 2890 f63c
00000330: 39a5 9c3d 17fb e7bd e49a d63d a5ad 8fbd
00000340: 858b 013e d29e 743d c1c6 1d3e 398e 6dbe
00000350: d8fa ca3d 692a a2be 9b7a b7be bc3c 45be
00000360: bf87 72be 8172 ca3e 7428 363e 5f35 86be
00000370: 7d1f 53be fd6a 5fbd 3fd1 c33e 9e19 4f3d
00000380: 6f66 dcbe d8ab 183e eb9b aebe 58ed a9bd
00000390: 54da b8bd 9567 e8bd 78e2 0e3e 01f2 5a3e
000003a0: 2927 11be 5a43 f1ba d941 593d fd77 b13e
000003b0: e58d 5d3d 4f4c 79bd c1bb e0bd 7451 f13d
000003c0: 4c44 6ebd f872 b63c 68bd 023e 84d3 bb3d
000003d0: 30cd dabe 2b9c 3bbd 17b2 5cbe d779 ec3d
000003e0: 1a89 503c 440a 923e 08f0 353d 7629 46be
000003f0: ddc6 823e 534c c13d 6f4a df3d 6b3f a8bd
-0.34422648 0.046950504 0.17557405 0.30733082 0.2200256 0.09382771 0.4064551 0.2701253
0.535763 -0.3416146 0.18496998 0.064122155 0.10154137 0.24981676 -0.20196354 -0.14262052
-0.33180973 0.12049535 0.122034736 -0.61181283 -0.050094247 -0.29563338 -0.47382805 -0.41544947
-0.12328917 0.10571292 0.36474723 -0.2203618 -0.18249941 -0.24349055 0.0008968549 -0.0677009
0.09656502 0.016508773 0.22011895 0.09101033 0.16459572 0.17423007 -0.18887901 0.0874985
-0.023425007 -0.08285485 -0.117904425 -0.035410002 -0.08542855 0.03206924 -0.38583004 0.1270591
0.83950096 0.21671411 0.18544988 -0.30712762 0.038877618 -0.13040633 -0.059821874 0.5052756
-0.48305452 -0.15004809 -0.10669982 0.13655427 -0.19561626 -0.05974857 0.21129794 0.19493786
0.24793082 0.14930573 -0.13804701 0.33827335 0.3793995 -0.30401933 0.5041621 0.32173887
-0.042010456 -0.017318614 -0.2826722 0.09525735 -0.26916236 0.43103668 0.025366692 -0.33485875
0.18511902 -0.08703468 -0.2350143 -0.014555396 0.2802916 -0.025139244 -0.14913243 0.012312375
0.04676436 -0.10242495 0.15804367 0.34192038 -0.03142883 -0.1772509 0.18776739 -0.14995208
-0.14892389 -0.41943905 0.07345945 0.23130563 0.54035026 -0.13431634 0.3134611 0.267293
0.035940558 -0.186715 0.09072094 0.025107527 0.40107936 0.083888926 0.25516695 -0.05879249
0.527497 0.16514714 -0.22305998 -0.04397376 -0.36666822 0.20885919 -0.1512523 -0.0020616236
0.060927507 -0.16109116 0.28194094 0.07442826 -0.2505904 0.25324598 0.3058128 0.18546031
0.021870987 -0.21447581 0.090031885 0.24324037 0.039631493 0.39048624 -0.23327778 0.26502874
0.07676042 -0.041150514 0.1342632 0.09602998 0.034955442 -0.5849789 -0.3136806 -0.09970642
0.11125481 -0.0814787 -0.04621024 0.16898963 -0.17410396 0.14378731 -0.25946113 0.16802816
-0.12100455 0.10202739 0.054684177 -0.05944699 -0.27655032 0.012600979 0.14651798 -0.14812395
0.17487322 -0.21525793 0.02010151 0.22348596 0.16169429 0.19344246 -0.35492474 0.021981597
0.1075945 -0.10142136 0.06950875 0.075071156 0.008251269 0.18107769 -0.16204743 0.57135445
0.12131291 0.07904626 0.3063516 -0.27658224 0.28185046 0.17917004 -0.27222368 -0.30615383
-0.08896598 0.36971357 -0.06857612 -0.19487713 -0.22512493 0.040693227 0.18764144 -0.13733517
0.100744694 -0.22579609 -0.050590817 -0.20607567 0.09801634 0.22416708 -0.43389022 0.16264549
0.004067115 -0.09095838 -0.34615007 0.030098036 0.07648701 -0.113271885 0.10478762 -0.07015542
0.12650879 0.059721775 0.1540785 -0.23198785 0.09911126 -0.3167298 -0.35835728 -0.1926145
-0.23684596 0.39540485 0.17788869 -0.26212594 -0.2061748 -0.05454539 0.3824558 0.05056154
-0.430469 0.14909303 -0.3410333 -0.08297223 -0.09026018 -0.11347882 0.13953578 0.2138138
-0.14175095 -0.0018406913 0.053041313 0.34661856 0.0540904 -0.06086379 -0.10973311 0.11783114
-0.0581706 0.022271618 0.12767565 0.09171203 -0.4273467 -0.04580323 -0.21552311 0.115466766
0.012728 0.28523457 0.044418365 -0.19351754 0.25542346 0.09438386 0.10902869 -0.08215221

lin1.bias f4 [1024]
00000000: 00d9 12bf 1e89 11be 960e e4bd 93ce 11be
00000010: e0be 2fbe 0775 4cbf 37dc 563d b7dd 13bf
00000020: 1547 52bf 6227 d1be f7d9 18bf ff5a efbe
00000030: 5862 a3be 9a4b 8dbe 1d4c 51bf 1f8c 8cbe
00000040: f800 b7be 9c6d bfbe a2c5 25bf 7a98 0dbf
00000050: 590d e1be 0c3b 65bf 436c f4be cfb8 e1be
00000060: 91b3 6bbe 332f 13bf 3b0e 35bf b4f2 f8be
00000070: a259 6fbf ec16 64be 1c14 1fbf 0fbd 0cbf
00000080: f5c2 d0bc ef03 13bf 00a3 92be d398 c7bd
00000090: d079 c6be bcdb bebe c287 6dbf c78d 7abe
000000a0: d870 86be 1208 81be 2858 ebbe 328f 52be
000000b0: d69b c2be f7b3 42be 7213 d6be eb87 1cbf
000000c0: 6a3f 89be 0c44 2ebf 885a 0ebf dc75 5abe
000000d0: f12d 28bf a201 83be e9c2 19bf da71 0fbe
000000e0: 1f8a fcbd 6a36 83be ccc4 0ebf a092 8fbe
000000f0: ba87 18bf fdc5 93be ac08 0bbf 143d 15bf
00000100: c251 5bbe b0a0 69be 4e74 f3be db58 3dbf
00000110: 743e 3abf 8aa1 d6be efba 1ebe b265 e0be
00000120: 439b 13be 9e24 dcbe ba68 23bf b385 4abf
00000130: c19c fcbe ec10 24bf ab38 4abf 0088 8cbf
00000140: ef40 47bf 5a65 37bf b89b 11be c83f d4bd
00000150: 987e bebe f9e2 a5be 5291 1fbe f0a0 a3be
00000160: 1863 55bf ab8b 95be ff2d 1fbf 778a 89be
00000170: 42d5 1fbe 7dff 3cbf 110c 0abf 50a6 5bbe
00000180: 0e64 45bf 99f5 d1be 4188 86be 22a3 aabd
00000190: 13bf bcbe e368 a3be aff6 c1be 76f7 85be
000001a0: 5cda a6be c31e b0be 8830 37bf 96f8 45be
000001b0: 5b0a 40bf 1be8 81bf 0d24 96be 4ee7 b5be
000001c0: 29cd d2bd 427b 09bf 4a5e 5abf d4a4 b3be
000001d0: a57b 65be cacd 00bf 98fe b0be bf70 a8be
000001e0: fbce 26bf df07 95be fa5b 98be fff3 1bbf
000001f0: bd33 f1be b2d0 f5be 55a9 d8be dd52 563d
00000200: 9966 d3be 8c5a 2fbe b25e a5bd b992 56bf
00000210: b1c1 57bd eef7 b0be 2a2a fabe a4fe efbe
00000220: cbc1 f9be 8006 8bbe e722 62bf c722 adbe
00000230: 870a 5ebe 2021 9bbe 8800 c7be 417b ffbe
00000240: e180 73bf ddae 92be 471f e5be fe8d 1abf
00000250: 8c89 73be 42e9 3ebf 32bd 0fbf 4b3f 39bf
00000260: 1462 80be debc 01bf bc71 afbe 4f18 6dbe
00000270: 9f38 05bf a0c0 27be 27fd 39bf e3f4 28be
00000280: 0c82 13bf 37b5 3bbf 4995 93be 6c66 b6be
00000290: 74b8 81be dc8f 6ebf af55 a5be 9789 a3be
000002a0: 8781 61be 1dac 28bf b225 2dbf 9d2f 44bf
000002b0: ba64 45bf bb04 10bf 2b4f a6be 2104 01bd
000002c0: a19d adbd 6e51 c1be 6a5b 19bf f4f3 9cbe
000002d0: cd6e 26be eab5 9fbe b7aa 6dbe 1647 e1be
000002e0: f63d eebe 010e b6bd 9c74 4ebf 43dc 2dbe
000002f0: 5d44 09be b023 6ebe dad2 0fbf 22cc 4cbe
00000300: ff8e 00be 3bef f8be 190c 16bf df38 cabe
00000310: cb47 5ebe 1470 03bf ab44 89be a7d7 0ebf
00000320: b38b 51bf dd6b ccbe 78b4 1cbf 9bb5 31bf
00000330: 4968 83be 0f97 a3be 4e31 e6be b46f aebe
00000340: 3e13 8fbe fe8d 06bf 8814 4cbe 461d f2be
00000350: 2775 b4be 9483 3cbf c9fd 10bf 0c92 16bf
00000360: f22f ecbe 6e82 16bf 6c18 52be a8a6 14bf
00000370: 55a6 b7bd 1072 99be 2d63 81be 180f 62bd
00000380: d2d7 a7be 5907 2fbe ddaa 12be b125 20bf
00000390: 4d85 35bf 66ab bcbe dc9c 63be 1ffa 0bbf
000003a0: 6487 99be bf21 34bf 12eb f6be f4b5 90be
000003b0: ca08 bebe 8e06 dcbe 52a3 22bf 46f4 9cbe
000003c0: 18c6 e4be 6565 05bf 53e7 4cbe 9527 90be
000003d0: 09f2 cabe b440 b73c d3e1 25be 8502 90be
000003e0: 5032 8fbe bdb0 f9be b184 3fbe 17cd e7be
000003f0: f27f d5bd e6b1 31bf 9578 5bbe f803 35be
-0.57362366 -0.14212462 -0.111355945 -0.14238958 -0.17162657 -0.7986607 0.052456107 -0.57760185
-0.8213971 -0.4085036 -0.5970759 -0.46749112 -0.31910968 -0.27596742 -0.81756765 -0.27450654
-0.35742927 -0.37388313 -0.6475469 -0.55310786 -0.43955496 -0.89543223 -0.47738847 -0.4408631
-0.23017718 -0.57493895 -0.7072484 -0.48622668 -0.93496144 -0.22274369 -0.6214006 -0.5497598
-0.025483588 -0.5742788 -0.28639984 -0.09745946 -0.3876481 -0.3727702 -0.92785275 -0.24468146
-0.26257968 -0.2520147 -0.45965695 -0.20562437 -0.38009518 -0.19013964 -0.4181171 -0.61144894
-0.26806194 -0.6807258 -0.5560689 -0.21334022 -0.656951 -0.25587183 -0.60063034 -0.14008275
-0.12331032 -0.25627452 -0.5576904 -0.28041553 -0.595821 -0.2886199 -0.5431011 -0.5829632
-0.21417907 -0.22815204 -0.4754967 -0.7396371 -0.72751546 -0.4192012 -0.15500997 -0.43827587
-0.14414696 -0.42996687 -0.63831675 -0.7911026 -0.49338344 -0.6408832 -0.7899272 -1.0979004
-0.77833456 -0.71639025 -0.14219558 -0.10363728 -0.37205958 -0.3239973 -0.15582779 -0.31958723
-0.8335433 -0.2920812 -0.6217956 -0.26863453 -0.15608695 -0.73827344 -0.5392466 -0.21450162
-0.77105796 -0.4100769 -0.26275828 -0.08331896 -0.36864528 -0.3191596 -0.37883517 -0.2616536
-0.3258847 -0.3439847 -0.7155843 -0.1933311 -0.750158 -1.0148958 -0.2932438 -0.35528034
-0.102930374 -0.537037 -0.85300124 -0.3508669 -0.22410448 -0.5031401 -0.3456924 -0.32898518
-0.6515958 -0.29107568 -0.29757673 -0.60919183 -0.47109786 -0.48010784 -0.4231669 0.05232512
-0.41289213 -0.17124385 -0.08074702 -0.8381763 -0.052674953 -0.34564155 -0.48860294 -0.46873963
-0.48780665 -0.27153397 -0.88334507 -0.33815596 -0.21683703 -0.3029871 -0.38867593 -0.49898723
-0.9511853 -0.28649035 -0.44750425 -0.6037291 -0.23782939 -0.74574673 -0.56148064 -0.723622
-0.25074828 -0.50678813 -0.3426646 -0.23153804 -0.5203952 -0.16382074 -0.72651905 -0.16499667
-0.5762031 -0.73323387 -0.28824833 -0.35625017 -0.2533604 -0.9318826 -0.32291934 -0.3194091
-0.22022067 -0.65887624 -0.67635643 -0.7663515 -0.7710682 -0.5625722 -0.32482275 -0.03149808
-0.08477331 -0.37757438 -0.5990511 -0.3065487 -0.16253205 -0.31193477 -0.23209654 -0.43999547
-0.46531647 -0.0888939 -0.8064668 -0.16978554 -0.13404985 -0.23255801 -0.5618111 -0.19999745
-0.12554549 -0.48620018 -0.5861221 -0.39496514 -0.21707074 -0.5134289 -0.26810202 -0.5579781
-0.8185379 -0.39926043 -0.61212873 -0.6941773 -0.256655 -0.31951186 -0.44959491 -0.34069598
-0.27944368 -0.5256041 -0.19929707 -0.4728796 -0.3524563 -0.7363827 -0.56637245 -0.588166
-0.4613033 -0.5879277 -0.20517129 -0.580668 -0.08967272 -0.29969835 -0.25270978 -0.055190176
-0.32781845 -0.17092647 -0.14322992 -0.6255751 -0.70906526 -0.36849517 -0.22227806 -0.5467853
-0.29986107 -0.7036399 -0.4822622 -0.2826382 -0.3711608 -0.4297375 -0.6353046 -0.30655116
-0.44682384 -0.5210784 -0.20010118 -0.281552 -0.39637783 0.02236972 -0.16199426 -0.28126922
-0.27968073 -0.48767653 -0.18702962 -0.4527366 -0.10424794 -0.69412076 -0.21432717 -0.17677295

lin2.weight f4 [98, 1024]
00000000: 1438 71bf 80fe 6d3d 8e83 9cbd d1f5 123e
00000010: f881 9e3d 089d 5a3e 922f c7bd 062f d03d
00000020: b0a5 e7bd e345 b0bc cf04 53be a954 a83e
00000030: 4789 46be 3917 5c3e a206 8c3d 5958 7cbd
00000040: c640 3f3d 851b 353d c20c 0abe b45f abbe
00000050: 5231 34bd eaa2 1ebd 70a5 b53d f5b8 16be
00000060: b5b4 86bb c43d 4a3d a4d0 81bf 35a9 2dc0
00000070: a222 edbd bb33 cc3e 5578 5fbd ba33 50be
00000080: 8603 25be 8214 f1bd 6f68 2fbb ad2e 0fbe
00000090: c9c4 023e 169e c33c 2cfd 8d3d fbca 7abe
000000a0: bb45 e7bc 950d f03b 59a1 e0bc 1d02 9c3b
000000b0: 6d39 c5bc 787d 2f3d 556a 30bd f8a8 2638
000000c0: 1841 373e 33f0 eb3d c8de b23e e1bf ce3d
000000d0: e7ea 02bf b2ed 4abe 7872 07bd c8c3 9bbd
000000e0: 1261 ac3d 6591 6cbd 2857 42bd 4ea3 043d
000000f0: 3f40 373e 6dca 5bbe 91e6 cfbd a8d7 02bd
00000100: eccc 2fbe 295a 873d 14ae a5bc 67a8 f2bf
00000110: 224f 5ebe 200a f3bd 43cd 7fbc d7cc 96bc
00000120: 2bbe debb 3824 25be 548e ec3a afdf d03d
00000130: e493 e3bd 3b26 eabe 3aee 0f3e 02bc ca3e
00000140: d07e 30bf 7039 08bf 38a7 76be 3b7e 9c3d
00000150: d525 9dbd 4b37 4abd e788 1f3d f133 05bd
00000160: 891e 53bd 604e 533e 676d 94bd a3b8 c6bb
00000170: 5006 82bc 5bf8 e6bf c130 083e cd04 973d
00000180: be6a 043e 78dd 84bc f427 0dbf 281e babd
00000190: 0603 123e 31df 19bd 37bf 42bc 4df3 943e
000001a0: 4e4e 86bd fa0a 05be d670 b33d 26c4 73be
000001b0: 518d f4bd 778d bdbd afc4 15bd 4b42 833d
000001c0: 666c f83d 18cc 0dbe 3582 3cbf 6f55 57be
000001d0: 28bd eebc 9f11 e53b 043f 463c ee5f 0ebe
000001e0: ebce 06be 574c 063e fa26 77b7 de85 153e
000001f0: d029 c6bd 8737 ec3d 9eec 8dbd 4d16 adbd
00000200: cefd 1d3c 610a 69bb de98 be3d 4c26 11c0
00000210: cbf6 0fbe d8ac 253e 30e8 83be 3f8f 643d
00000220: 8744 bdbd 98d5 aebc 934d 133f 67d5 44be
00000230: 26a3 813e 9e28 ca3d 7e33 b1be e1bf c5bd
00000240: a41c 8fbe 6f24 c3bd f3bc 643e 787d 053e
00000250: ec56 c63c 5162 9cbe 0f88 e6be 83d1 12bf
00000260: 7104 e43d 9f0e d73d a9dd 4cbe bf46 03bf
00000270: e21c 063b 6c8a 763d dd2d 153e 284a 223e
00000280: 64ec 06be 8505 c5bd 1825 04be 882d 473d
00000290: 2d69 a33d 9c58 b0bf 8b22 063d e9a9 123d
000002a0: cf96 0bbd b2a8 3abe 43d3 b7bd 8b13 a4bf
000002b0: 9d2f 0a3e 4142 593e 8f85 22be e122 0d3e
000002c0: a84c c03d 49ec d6bc d2b8 443d 9c31 5ebf
000002d0: 219e 3dba c331 403d 8321 8c3d f0a6 f4bd
000002e0: eafa 333d 3066 913d 3919 c5be b1e0 3cbe
000002f0: e91d e53d f8d3 6ebd ef3c 3e3d 3e86 413d
00000300: fb89 ec3c 3169 a0be df30 9dbd 7cd2 8e3d
00000310: e76a c43d 9688 913c 28b5 19be c273 11be
00000320: 6e3d fc3d cfdf 903d 71bc 413e 2e79 50bf
00000330: 9b91 7dbc 1d92 123e 9bd7 72be acc3 ccbd
00000340: 15e7 20bd 3c36 283d 2894 90bd 7dc7 ba3b
00000350: 75ee a8bd d73e 08c0 ae32 60bd f2c4 3cbe
00000360: 6f61 78bc 3b43 21be 1b31 fb3c cf28 04be
00000370: bbff 98bf 46a0 523d ef5d a73e bcda babf
00000380: b365 d6bc 3178 073e f04b 443d dd12 31be
00000390: 3c90 c4be c3a5 ea3d 23e9 773d 7449 8ebc
000003a0: b404 c737 b66b 043e 1c37 0d3e 2783 333e
000003b0: 971c c13e 29db e23d ccbe dbbe 6ba4 613e
000003c0: ed06 343e d928 43bd 78dc 12be 3f9e 1abd
000003d0: d442 93bc 4a48 aabd 9516 223e 4819 803c
000003e0: cede b6bd 5aa3 8d3e 5194 58bc 4432 853d
000003f0: e3e6 f23c d353 0ebc 5722 93bc f488 aebb
-0.94226193 0.05810404 -0.076422796 0.14351584 0.07739633 0.21348965 -0.0972587 0.10165219
-0.11310899 -0.0215177 -0.20607303 0.3287709 -0.19388305 0.21493234 0.068372026 -0.061607692
0.046692632 0.044215698 -0.13481429 -0.33471453 -0.043992348 -0.038729586 0.08869445 -0.14718993
-0.0041108974 0.04937531 -1.0141797 -2.7134526 -0.11578871 0.39883217 -0.054558117 -0.20332232
-0.16114625 -0.1177149 -0.0026765128 -0.13982649 0.1277038 0.023879092 0.06933054 -0.24491493
-0.028231492 0.007325838 -0.027420687 0.004760994 -0.024075234 0.042844266 -0.043070156 3.973485e-05
0.17895925 0.11520424 0.34935594 0.10095192 -0.5113968 -0.19817236 -0.03306815 -0.07605702
0.08416952 -0.057755847 -0.0474464 0.032382302 0.17895602 -0.21463938 -0.10151399 -0.031943947
-0.17168015 0.066089936 -0.020224608 -1.8957642 -0.21709874 -0.118671656 -0.015612903 -0.018408222
-0.006797572 -0.16127098 0.0018047788 0.10198914 -0.11112192 -0.45732293 0.1405572 0.39596564
-0.689435 -0.5321264 -0.24087226 0.07641264 -0.076732315 -0.049369138 0.03894892 -0.03252024
-0.051542792 0.20635366 -0.07247429 -0.006064491 -0.01587215 -1.8044542 0.13299848 0.073739626
0.12931344 -0.016218886 -0.5513909 -0.09087783 0.14258966 -0.037566368 -0.0118864095 0.29091874
-0.06557904 -0.12992468 0.08761756 -0.23805293 -0.119410165 -0.09255498 -0.036564525 0.06409129
0.1213005 -0.13847387 -0.7363618 -0.21028684 -0.029142931 0.006990626 0.012099985 -0.13903782
-0.1316487 0.13115059 -1.4731422e-05 0.14601848 -0.09675944 0.115340285 -0.06929897 -0.08451519
0.009643031 -0.0035559165 0.09306501 -2.2679625 -0.14058988 0.16179216 -0.25763083 0.055800673
-0.09241586 -0.021342084 0.57540244 -0.19222032 0.25319785 0.09871028 -0.34609598 -0.096557386
-0.2795154 -0.095284335 0.22337703 0.13036144 0.02421137 -0.3054376 -0.4502568 -0.5735094
0.1113366 0.105008356 -0.20006432 -0.51279825 0.0020463993 0.060190603 0.14568277 0.15848601
-0.13176113 -0.096201934 -0.12904775 0.048627406 0.07979045 -1.3777041 0.032747786 0.03580657
-0.03407937 -0.18228415 -0.08975842 -1.2818464 0.13494726 0.2121668 -0.15871261 0.13782836
0.09389621 -0.026235716 0.04802782 -0.8679445 -0.0007233341 0.046922456 0.06842329 -0.11945903
0.043940462 0.07099569 -0.38495806 -0.18445088 0.111873455 -0.058307618 0.04644483 0.047247164
0.028874388 -0.31330255 -0.07675337 0.069737405 0.095907025 0.017765325 -0.15010512 -0.14204314
0.12316404 0.07073938 0.18919541 -0.81434906 -0.01547661 0.1431355 -0.2371506 -0.09998259
-0.039282877 0.041067347 -0.070595086 0.0057000504 -0.08248607 -2.1288354 -0.054735832 -0.18434504
-0.015159949 -0.15748303 0.030663064 -0.12906192 -1.1953043 0.05142238 0.32688853 -1.4598002
-0.02617154 0.13229443 0.047923982 -0.17292352 -0.38391292 0.11457398 0.06052507 -0.01736901
2.3724839e-05 0.12931713 0.13790554 0.175305 0.37717125 0.11076958 -0.42919004 0.22035377
0.17580767 -0.047646377 -0.14341915 -0.03774857 -0.017976202 -0.08314569 0.15828927 0.015637055
-0.08929215 0.2766369 -0.013218955 0.06503728 0.029651111 -0.008686977 -0.01796071 -0.0053263847

lin2.bias f4 [98]
00000000: c415 c5be 112f 2f3f b4d1 d4be 8318 19be
00000010: ccbe 38c0 e03d 35c0 8b84 4bbe 248a 3ebf
00000020: 426d dabd a0a6 40be 0956 09be 585c 03bf
00000030: 6cd1 d5be 9d23 37c0 ce80 a2bd 1a37 11bf
00000040: 6f0f 89be ce4b 0cbe 167c 53bd f691 43be
00000050: db76 14be ad9c 0bbe 0bbb dabd 73ea adbe
00000060: 8aa3 b1be 53d2 efbe c0f0 9abe a78f cdbe
00000070: ded5 d8be 81a3 01be 6294 abbe e0df 33bf
00000080: 8524 9fbe 8041 e3be d731 85bd 8fdf 6dbe
00000090: da85 b5bc 2679 aebe 01dc eabe 394f b33d
000000a0: 67e5 bbbe ff59 8ebe a4de fabe 676e 14be
000000b0: b973 e6be f3b8 2bbe 959e fcbd fa3d 1dbf
000000c0: 9974 7cbe 9451 e8bd 3c9d b6bd f33a 013d
000000d0: aca9 f4bd fa6c 39be a1a9 4dc0 3136 c2be
000000e0: 6a92 da3d 98ac 323d 10aa ccbd 00cd e63c
000000f0: 0b56 d43d db8c bd3d aef5 e0bd a84e 253e
00000100: 70c4 fd3c 972b 1dbf 2803 6bbe 585b a2bd
00000110: aba6 1cbe 2e4f eb3d b253 cc3d 3c76 05be
00000120: 3c24 02bf a18f 3fbd 7619 453e 432b 0a3f
00000130: 60fa 23be 1ef5 bbbd 7386 4b3e 9e10 80be
00000140: 33a3 11be 4067 2abf 8bfe 97be ad55 a8bd
00000150: 0d2e 63be b5f5 bbbd 00cd b2bd 4ec6 43c0
00000160: 9616 bcbd 5538 33be eeb0 07bf 3556 b13d
00000170: 4a7e 8ebe bd33 613e edcf 90bd 2a7f 38c0
00000180: 2f93 36c0 5725 36c0
-0.38493168 0.6843119 -0.4156624 -0.14950757 -2.8866453 -2.8319016 -0.1987478 -0.74429536
-0.106653705 -0.18813562 -0.13411726 -0.5131278 -0.4176134 -2.8615487 -0.07934724 -0.56724703
-0.26769587 -0.13700792 -0.05163201 -0.19098648 -0.14498465 -0.13633986 -0.10680207 -0.33967933
-0.34695083 -0.46840152 -0.30261803 -0.4014866 -0.42350668 -0.12660028 -0.33511645 -0.7026348
-0.3108255 -0.4438591 -0.06503647 -0.23229812 -0.022158552 -0.34076804 -0.45870975 0.08755345
-0.36698458 -0.27803037 -0.48997986 -0.1449524 -0.45010164 -0.16769771 -0.123349346 -0.61422694
-0.24653853 -0.11343685 -0.08916709 0.03155036 -0.11946425 -0.18107978 -3.2134783 -0.3793197
0.106724575 0.04362163 -0.09993374 0.028173923 0.10367974 0.09255382 -0.1098436 0.16143286
0.030977458 -0.6139464 -0.22950423 -0.07927579 -0.15297954 0.11489712 0.09976901 -0.13033384
-0.5083654 -0.046767835 0.19247994 0.5397226 -0.16013479 -0.09177612 0.19875507 -0.25012678
-0.14222412 -0.66563797 -0.29686388 -0.08219466 -0.22185536 -0.09177724 -0.08730507 -3.0589786
-0.091839954 -0.17501958 -0.5300435 0.08659021 -0.27830726 0.21992393 -0.07070909 -2.8827615
-2.8527334 -2.846029
