models/2_context_2_embedding_32_activation_3.pt (torch, 683290 bytes, 5 tensors)

emb.weight f4 [98, 32]
000000 16 31 2f c0 b0 99 11 40 c3 38 26 c0 c3 07 d7 bf
       -2.737371 2.2750053 -2.5972145 -1.6799244
000010 41 85 25 c0 22 73 e5 3f ee aa cb bf 4a 35 ad be
       -2.5862582 1.7925761 -1.5911539 -0.3382972
000020 ff 7c 47 bf 10 0a 64 3f a5 e5 a4 bf 06 0b 4b bf
       -0.77925104 0.89077854 -1.2882582 -0.79313695
000030 1a 43 8b 3f 3e 94 0b c0 a5 77 06 bf f4 be 20 bf
       1.0879853 -2.180923 -0.52526313 -0.6279137
000040 64 bf 34 c0 ce f6 07 bf 07 b5 00 c0 ad 43 99 3f
       -2.8241816 -0.5311097 -2.011049 1.1973778
000050 20 e2 28 3c 11 bb 95 3f 7d a2 d9 3f 0e 5b 88 3f
       0.010307819 1.1697713 1.7002712 1.0652788
000060 7e ab 9d 3f ae d4 a2 bf df 22 63 bd 2b 48 93 40
       1.231796 -1.2721155 -0.055453178 4.6025596
000070 13 31 11 bf ba 2f 00 40 40 79 bc 3e 8a 08 fe 3f
       -0.56715506 2.002913 0.36811256 1.9846356
000080 03 fc e4 bf d4 a4 3c 40 63 bd 29 bf e4 b3 b5 bf
       -1.7889408 2.9475603 -0.66304606 -1.4195523
000090 62 c3 23 c0 a6 fd ba 3e 46 76 9f 3e 1d e8 60 bf
       -2.5588002 0.36521643 0.31144923 -0.87854177
0000a0 79 a3 95 3f 2c d8 9e 3f 77 33 c9 bf bd 46 d5 bf
       1.1690513 1.240972 -1.5718831 -1.6662213
0000b0 d1 c3 04 c0 43 73 8d bf 84 22 f5 bf 4f b2 94 be
       -2.0744517 -1.10508 -1.9151158 -0.2904229
0000c0 a9 d7 b1 bf 0d 2a ef 3e 85 5f 21 c0 7c 1e 25 40
       -1.3893939 0.4671177 -2.521455 2.5799856
0000d0 1a 52 50 3d df 0b 0a 40 c1 f3 ee be 2e 5d 88 3f
       0.05085955 2.1569746 -0.46670344 1.0653436
0000e0 e6 34 c2 3f 45 77 04 c0 e9 83 2d bf cb 35 c4 bd
       1.5172393 -2.0697796 -0.67779404 -0.09580573
0000f0 54 19 00 c0 6d a7 03 40 46 a8 ec bf 4b f8 ec 3b
       -2.001546 2.0570939 -1.8488853 0.0072317473
000100 b9 c6 ef 3f 6d cd ec bf 25 2f 92 bf 8a 8b 9b bf
       1.873252 -1.8500191 -1.1420637 -1.2151959
000110 71 83 00 c0 a0 9d 02 40 41 c8 d9 3f 3a 63 d0 3e
       -2.0080225 2.0408707 1.7014238 0.40700704
000120 b0 e4 69 40 ed 62 08 c0 d4 63 e1 be 02 d0 e1 3e
       3.654583 -2.131038 -0.44021475 0.4410401
000130 e8 4d 1c c0 ed 93 2c be a6 4e d3 be 44 c6 e0 3f
       -2.442255 -0.16853304 -0.41270941 1.7560506
000140 da 4f c5 3f e6 a0 93 bf 3a 46 a8 3f 43 cc d1 3f
       1.5414994 -1.1533477 1.3146431 1.6390461
000150 58 fd 4a bf 21 09 03 c0 ff 43 de be 3d 4c 80 bf
       -0.7929282 -2.0474322 -0.43411252 -1.0023266
000160 51 21 4e 40 70 4d 66 3f 86 d7 6c 3f c0 a9 01 40
       3.2207835 0.8996191 0.9251636 2.0259857
000170 c8 d2 8c bf 71 97 69 be 6a 45 3f be c8 ff 8e bf
       -1.1001825 -0.22811677 -0.18678823 -1.1171808
000180 ea 37 1a c0 0c ef 76 40 fd 18 c9 be b9 f4 f8 bc
       -2.4096627 3.8583403 -0.39276877 -0.03039013
000190 4e b4 8b 40 8c f0 59 bf 01 b2 5e 40 fa 15 97 40
       4.36576 -0.8513267 3.4796145 4.7214327
0001a0 30 e2 e5 bf 27 b8 78 c0 9b 24 5a be c2 1d 2e 3e
       -1.7959652 -3.8862398 -0.21303026 0.17003539
0001b0 a8 0c 92 bf 95 c0 be 3f 2a 25 23 3f f0 a3 35 be
       -1.1410112 1.4902521 0.6372858 -0.17738318
0001c0 d6 fc 7c 40 93 35 af bf 32 d3 17 40 7a 26 83 40
       3.952932 -1.3688225 2.3722653 4.098447
0001d0 dd 37 10 c0 4a 1a d5 3e 31 8d 4c bf a2 77 a0 3f
       -2.2534096 0.4162162 -0.7990294 1.2536509
0001e0 25 f9 fc 3f be 57 8c c0 be 44 5f 40 58 aa 0d 40
       1.9763533 -4.3857107 3.4885707 2.213522
0001f0 17 28 85 c0 ae 0c a4 3f 4f 33 48 40 53 ce 8d c0
       -4.161144 1.281637 3.1281316 -4.431436
000200 37 cb 83 bd d5 a1 a4 3e 7b 3b 17 3f 87 b7 b5 bf
       -0.064352445 0.32154718 0.59075135 -1.4196633
000210 a3 f2 53 3f 62 fd 97 be 03 48 36 3f 79 c7 53 be
       0.8279211 -0.29685503 0.7120363 -0.20681562
000220 ef 78 1e be 8f 09 1f 3e cd 3e 48 bd e2 97 af 3e
       -0.1547582 0.1553099 -0.048888016 0.34295565
000230 3a 6f 01 3e 73 89 1b 3e 3c 93 ae bf a2 63 d4 bf
       0.12640086 0.15189151 -1.3638682 -1.6592906
000240 b6 fc 83 3f a4 53 fa bf fc c2 17 be 90 68 de 3f
       1.0311496 -1.9556775 -0.14820474 1.737566
000250 83 0d 0d 40 71 af 28 bf 90 6c aa 3f de 4b e6 be
       2.2039497 -0.658927 1.3314381 -0.44979757
000260 e8 a0 0c 3f 18 ad 5c 3d 1c 27 85 3e d5 65 5b 3f
       0.54933023 0.053876013 0.260064 0.8570226
000270 1f 59 21 40 92 4d 39 bd e6 fc 9e be a1 d3 70 bf
       2.5210645 -0.045239992 -0.3105232 -0.9407292
000280 21 2d 5e bb 1a 8b c2 3f cd e3 87 3e 36 98 13 be
       -0.003390141 1.51987 0.26540986 -0.14413533
000290 d7 6a 0a 3f 58 19 c6 bf cd 40 25 3f f1 ae 91 bf
       0.54069275 -1.5476484 0.64552003 -1.1381513
0002a0 47 ec 1a 3f b5 5e 98 3f 2e 18 9c 3f 55 af 40 bd
       0.6051678 1.1903902 1.2194879 -0.04704221
0002b0 c9 b2 8b bf 52 dc 82 3f de 5a 58 3e 28 cc fa 3c
       -1.0913936 1.0223486 0.21128413 0.030614927
0002c0 e7 83 b8 3e 24 17 a2 3e b4 c3 65 bf 94 a7 23 bf
       0.36038134 0.3165828 -0.89751744 -0.6392758
0002d0 8c e4 1e 3f b1 03 2d be 8b e0 14 bf 27 b0 a1 3f
       0.62067485 -0.1689594 -0.58155125 1.2631882
0002e0 fd 69 8e 3d 71 d6 97 3f 83 06 e8 3f 09 13 b9 bf
       0.069538094 1.1862317 1.8126987 -1.4458934
0002f0 12 f3 5c be 32 af 7a bf 32 36 b8 bf 64 9d 26 3f
       -0.21577099 -0.97923577 -1.4391539 0.6508391
000300 40 30 33 40 3b 37 e1 bf 95 31 9c bf 58 91 46 c0
       2.79982 -1.759498 -1.2202631 -3.102621
000310 c3 2e b5 3f 7c c7 0b bf be 06 a6 be 77 4a 49 bf
       1.4154896 -0.54601264 -0.3242702 -0.7862925
000320 86 d5 0e c0 eb 16 49 c0 bf 85 c6 bf fe d8 fd 3e
       -2.2317824 -3.1420238 -1.5509566 0.49579614
000330 5c f2 a1 bf 82 72 84 c0 73 28 80 c0 66 80 0e be
       -1.2652087 -4.138978 -4.0049376 -0.13916168
000340 10 5a f1 3e 7a 66 4a bf 2c 09 08 3f de 70 80 40
       0.47139025 -0.79062617 0.53138995 4.0137777
000350 4f 0b 33 bf c3 26 0f bd 46 97 94 3f 59 1d 59 bf
       -0.6993913 -0.034949075 1.1608665 -0.84810406
000360 24 96 60 bf 3e cc 91 3f 21 11 6d 40 5b 62 58 3f
       -0.87729096 1.1390455 3.7041705 0.8452508
000370 6f 50 96 3f 44 a1 1f 40 23 69 6e 40 3f 18 18 c0
       1.1743296 2.4942179 3.725167 -2.3764799
000380 ff 81 a9 bf a0 d9 d2 3e dc c5 de bf 39 ae b6 bf
       -1.3242797 0.4118166 -1.7404132 -1.4271919
000390 b9 2d 1c c0 6c da c9 be 82 c3 6f 3f d2 83 e5 3f
       -2.4402907 -0.39424455 0.93657696 1.7930853
0003a0 71 ae 42 c0 2d c0 de 3f 3f b6 33 bf 01 02 b2 3e
       -3.041897 1.7402397 -0.7019996 0.34767154
0003b0 1c 87 e2 3f 4a 2c 5e bf d8 81 c0 3f d5 5c 93 3f
       1.7697482 -0.8678633 1.5039625 1.1512705
0003c0 a6 ba 41 3e 7e 38 aa be cb 30 d4 be 2f ee 42 bf
       0.18918857 -0.33246225 -0.41443476 -0.7614469
0003d0 3a 69 ed bf 85 60 07 40 c0 41 bd bf 74 5f 46 bf
       -1.8547738 2.115266 -1.478569 -0.774894
0003e0 6a f4 69 40 6b 04 6a 3f 73 98 46 be 70 04 c7 3f
       3.6555429 0.9141299 -0.19394092 1.5548229
0003f0 65 4d 05 c0 e9 6a 1c c0 1e 96 f2 3f 9d 60 26 c0
       -2.0828488 -2.4440253 1.8952062 -2.5996468

lin1.weight f4 [1024, 64]
000000 9b 55 89 bf b8 2c e6 3e 28 e7 f8 be 3c 5b 32 bf
       -1.072925 0.44955993 -0.48613858 -0.6967046
000010 c6 52 7b be 18 73 57 3e 06 20 94 bd 6f e8 67 be
       -0.24543294 0.21039999 -0.072326705 -0.2264726
000020 25 23 55 bd 0b 15 06 3f c6 0e e1 be fa c2 87 3f
       -0.05203547 0.5237586 -0.43956584 1.0606377
000030 d2 bf 20 3f 21 63 4e bd af 95 8c bb 22 01 df 3e
       0.62792695 -0.050387505 -0.0042903046 0.43555552
000040 73 0e 8d be 80 38 b2 3e b2 73 df 3e 86 58 ef 3d
       -0.27550086 0.3480873 0.43642956 0.116868064
000050 4b 2d 03 be b4 45 30 3f a3 10 1a bf 47 71 57 3f
       -0.12810247 0.6885636 -0.60181636 0.8415722
000060 cb 68 2e 3f aa c7 c7 be be d2 cf bd 0b 88 40 bd
       0.6812865 -0.3901952 -0.10147618 -0.04700474
000070 ba ec 59 bf e6 2c 50 bf e9 b4 21 3e ba 01 99 3e
       -0.8512684 -0.8131851 0.15791668 0.2988413
000080 dd 79 d1 3e b3 7d 5b 3e 8d ad b1 3e 3b e2 02 bf
       0.40913287 0.21434669 0.3470272 -0.5112645
000090 16 1c 66 bc c1 0c 20 3f 9a 27 05 be c4 f0 97 3e
       -0.014044782 0.6251946 -0.13003388 0.29675877
0000a0 96 49 2e bf f2 85 51 3f a1 66 e6 be 15 cd c8 3c
       -0.68081033 0.8184501 -0.45000175 0.024511853
0000b0 8d 3e 54 bf 3f ff 00 3f 6d 22 2e bf 5b a2 2b 3c
       -0.82907945 0.50389475 -0.6802128 0.01047572
0000c0 39 2a db 3d a2 1b 0c 3f 44 a9 24 3f e0 bf f0 bd
       0.10701413 0.54729664 0.6432078 -0.11755347
0000d0 4b 3e 83 bc 24 f7 5c 3e 05 0e 0e bf 1b ec 6d 3f
       -0.016020915 0.21578652 -0.5549014 0.92938393
0000e0 dc ec 65 be a5 cd ee 3d 49 8f 0a 3d e7 42 28 3d
       -0.22453636 0.11660317 0.033828054 0.041079428
0000f0 2f c0 4f bf d2 95 02 3f 40 64 bb 3d e7 4f 2c bf
       -0.81152624 0.5100986 0.091499805 -0.6730942
000100 e0 af c4 be c2 04 de be 69 36 c9 be dd da 21 3f
       -0.38415432 -0.43363005 -0.39299324 0.63224584
000110 9c dc 4e 3e f0 ab ac bb fc 8c 59 be 3a ec 8b 3d
       0.20201343 -0.00526952 -0.21245188 0.06832166
000120 27 45 9b 3e f6 58 40 bc 59 57 8a 3f 53 25 dc 3e
       0.30326197 -0.01173996 1.0807906 0.42997226
000130 a0 31 d2 be 46 bf c4 3e fe bb 54 be bb c1 af 3e
       -0.41053486 0.3842718 -0.20774838 0.34327492
000140 ab a1 04 3f 9a 55 b5 be c1 00 d9 3e 27 3b ad 3e
       0.51809186 -0.3541687 0.42383388 0.33834192
000150 8f 89 12 3e 1f 52 8d bd 91 d2 37 bf 57 29 b2 3e
       0.14310287 -0.06900429 -0.71805674 0.34797165
000160 d7 ee d2 bd 2e 19 03 bf e3 6c 03 bf 77 88 60 be
       -0.10299461 -0.51210296 -0.5133802 -0.21927057
000170 6b 8f b4 3d e7 a5 f6 bc bf 04 f0 3e 5b c3 9b bd
       0.08816417 -0.030108405 0.4687862 -0.076056205
000180 68 a9 2c be e5 e0 88 be 8e e2 b1 be ef 6e 9e be
       -0.16861498 -0.2673408 -0.3474316 -0.3094401
000190 63 71 2c 3f 58 41 18 bf c0 f1 1b be 7c 87 cc 3e
       0.67360514 -0.59474707 -0.15228939 0.39947116
0001a0 6f bd 2a 3e 08 97 5f be 33 3c a7 3d 97 ec c9 3d
       0.16673826 -0.21834958 0.08165779 0.09859579
0001b0 11 1e 2c 3f c1 55 26 be f5 66 85 3e 0c 99 86 be
       0.6723338 -0.1624365 0.26055112 -0.2628864
0001c0 79 ec 80 3f 44 9b 00 3f c1 d8 8a 3e 76 59 d1 bd
       1.0072166 0.50236917 0.27118495 -0.102221414
0001d0 d6 d6 2e be 72 2e 06 3e 17 65 6c 3e 0a cd 98 bd
       -0.17074141 0.13103655 0.23085438 -0.07460983
0001e0 cc d9 30 bd c4 9c 72 3f 15 23 a1 be 9c d6 05 3f
       -0.043176457 0.94770455 -0.31472078 0.5228059
0001f0 72 9c 3e be ca 0b be 3e 9d 3f 05 3f c0 ab 43 bd
       -0.18614367 0.3711837 0.5205019 -0.047771215
000200 e8 3b a5 3e a4 7c d5 be 93 d0 2a bf 55 2c d8 3e
       0.32272267 -0.41696656 -0.6672451 0.42221323
000210 43 08 08 3f b5 05 d6 3e 5d 4a 2a be e3 ec f7 3e
       0.53137606 0.4180123 -0.1662993 0.48422918
000220 ae 0b 46 3e 91 74 ef bc 70 71 f4 37 08 27 96 3d
       0.19340393 -0.029230388 2.913989e-05 0.07331663
000230 aa 19 e8 bb a8 b5 02 3e fb 37 68 be c3 96 99 3e
       -0.0070831375 0.12764609 -0.22677605 0.29997835
000240 d4 1f 79 3f 86 3f d9 bd 02 d0 ea 3e 16 1c b4 be
       0.9731419 -0.10607819 0.45861822 -0.35177678
000250 f8 89 cc bd 62 e6 98 3e 2b fa f6 be 93 4d 8a bd
       -0.09987253 0.29863268 -0.48237738 -0.06753077
000260 9f b5 b9 be ff f0 bb 3e d1 c2 41 3e 97 2e 17 be
       -0.36271378 0.36707303 0.18921973 -0.14763866
000270 e9 ad 0a bf b2 04 9a bd 47 7a 67 3f 04 fe 26 be
       -0.54171616 -0.07520427 0.90420955 -0.16307837
000280 04 36 35 3e c1 5c b2 be 7e a2 5e bf 23 6c 24 3f
       0.17696387 -0.3483639 -0.86966693 0.64227504
000290 7e a7 80 3f 11 40 9c 3e 18 ac 26 3f 08 d2 d8 3e
       1.0051115 0.3051763 0.65106344 0.4234774
0002a0 42 31 3c 3d 2b 97 03 be 81 2a cc 3e c1 68 0d 3f
       0.045945413 -0.12850635 0.39876178 0.55237967
0002b0 5b c0 53 3f 8c 92 f1 3e 30 e8 c2 bc 4f ac f9 bd
       0.82715386 0.4718212 -0.023792356 -0.121910684
0002c0 26 23 90 3e 2a 97 da 3e 9a 00 1a 3e 1d a8 08 bf
       0.28151816 0.42693454 0.15039292 -0.5338152
0002d0 a9 80 c8 3e 2a 4b c2 bd bc cc 2d bf dc 57 e9 3d
       0.3916066 -0.09486993 -0.67890525 0.11393711
0002e0 0e c0 a9 3e 67 9e 7a bc 87 91 33 3e 34 bc b6 bd
       0.3315434 -0.015296555 0.17535983 -0.08922616
0002f0 6a 8c a3 3c 02 7d e9 be c4 8a 94 3e 5c 73 46 be
       0.019964416 -0.45603186 0.2901212 -0.19379944
000300 0b 1e a6 3e aa c8 c7 be 5f 2f 6d bf 5c a6 9e 3d
       0.32444796 -0.39020282 -0.9265041 0.07746574
000310 06 be e4 3e 2f d4 88 bd 6d 02 d0 be bb 58 d2 3e
       0.44676226 -0.06681096 -0.4062685 0.4108332
000320 b1 c3 7a be fa fc 78 bd 8b e1 7e be 98 be 16 3f
       -0.24488713 -0.060788132 -0.24890725 0.58884573
000330 d5 ff bc 3e 8e df 30 be 10 5f 51 be e1 9e 05 bf
       0.36913934 -0.1727278 -0.2044642 -0.52195555
000340 04 ab 6e 3e 16 94 e2 3e 68 8a 8a 3e b6 6c 65 3e
       0.23307425 0.44253606 0.2705872 0.22404751
000350 81 d2 25 3e 82 80 85 be c4 1c 10 bf 73 41 e7 3e
       0.16193582 -0.26074606 -0.5629389 0.4516712
000360 ee 67 3f 3d c1 e6 f2 3e 1c 23 f8 3e e3 2e aa bd
       0.046729974 0.47441676 0.48464286 -0.08309724
000370 9e 74 1b bf 63 0e d8 3e 36 a4 c9 3e 51 79 4f bf
       -0.6072482 0.42198476 0.39383096 -0.8104449
000380 4e 1b 26 be 37 76 b3 3e 65 ec 7a bf d1 2f 54 bc
       -0.16221353 0.35051128 -0.9801696 -0.012950853
000390 3c 69 da 3e 62 a2 0b bd e6 18 24 3e cb ed 8a 3e
       0.42658412 -0.034090407 0.16025123 0.27134547
0003a0 61 3e 67 be 70 17 4f be 36 0d 9b be 74 53 d3 3e
       -0.2258239 -0.20223784 -0.30283517 0.41274607
0003b0 d2 5f a9 3e 56 6b 12 3f 38 b0 5a 3e d2 ec 32 bf
       0.33080918 0.5719503 0.21356285 -0.6989261
0003c0 6b 44 49 be 8b f6 4a 3f e1 d6 a0 3c c0 a3 28 bf
       -0.19655006 0.79282445 0.019633712 -0.6587486
0003d0 0a f6 31 be 4b 83 9f be 42 b9 0b bf 61 3a ba 3e
       -0.17379013 -0.31154856 -0.54579556 0.36372665
0003e0 9a 59 fb bd 09 72 a8 3e 04 87 02 be 3e ec 71 3e
       -0.122729495 0.32899502 -0.12746817 0.23625275
0003f0 15 23 85 be cc a8 37 3e b0 84 71 3f 9a ba 7a bf
       -0.26003328 0.17935485 0.9434309 -0.9794098

lin1.bias f4 [1024]
000000 98 4c a0 be c7 1e d3 be e2 ad 06 bf a5 7a 80 bf
       -0.31308436 -0.4123442 -0.52609074 -1.0037428
000010 3d 7c 19 bf 8b a0 e3 be da 2f ca bc 15 e9 8b be
       -0.599552 -0.44458422 -0.02468102 -0.27326265
000020 8d dc a0 be 6a ec ac bf 7c 70 5f be 82 45 b0 bf
       -0.31418267 -1.3509648 -0.21820253 -1.3771212
000030 d8 40 b7 be ad 87 42 bf 89 66 41 be dd 33 14 bf
       -0.3579166 -0.75988275 -0.1888677 -0.5789164
000040 8d 64 df be f4 e3 9e bf 90 1a ad bd b3 b9 a7 be
       -0.43631402 -1.2413316 -0.08452332 -0.32758865
000050 f2 f9 dc be d2 6c d0 bf 9b 46 a0 bf 76 4a 17 bd
       -0.43159443 -1.6283209 -1.2521547 -0.036936246
000060 ac 03 63 3d d4 db b4 be ad 3e cc bf a6 45 a8 be
       0.055423424 -0.35323966 -1.5956627 -0.32865638
000070 56 a7 cb bf fc 09 d3 bf 40 11 65 bf 6c aa 76 be
       -1.5910442 -1.6487422 -0.89479446 -0.24088448
000080 c7 fc b2 bf 3d 94 04 bf e1 32 08 be ff 40 ef be
       -1.3983392 -0.51788694 -0.13300659 -0.46729276
000090 78 90 87 bf 30 2d 8e bf a4 9e ce be d1 75 32 bf
       -1.0590963 -1.110754 -0.40355408 -0.69711024
0000a0 7b 86 34 bf b5 5b c9 be 47 70 8f be 03 e0 1c be
       -0.705177 -0.3932778 -0.28015348 -0.15319829
0000b0 51 62 0e be aa bd ab bf 03 e2 f2 bf bc 10 9c be
       -0.13904692 -1.3417256 -1.8975223 -0.30481517
0000c0 8e 59 14 bf c2 ac 0e bd 94 57 e3 bf 57 86 e3 bd
       -0.5794915 -0.034832723 -1.7761102 -0.11109608
0000d0 39 54 b2 be 2b 16 b2 bf 31 5d c3 bf 04 98 e4 3d
       -0.34829882 -1.3913015 -1.5262815 0.11161807
0000e0 46 28 92 be 02 d4 cb bd bf 50 95 bf 0e 7d 38 bf
       -0.2854635 -0.09952547 -1.1665267 -0.7206582
0000f0 bf eb b6 bf aa 78 28 bf e9 df e8 be cb 62 ae be
       -1.4290694 -0.6580912 -0.4548333 -0.34059748
000100 93 aa 96 be 1c 07 9e be 50 7f 3b bf c2 af c1 bc
       -0.29427013 -0.308648 -0.7324114 -0.023643378
000110 09 a1 1f bf 8b 31 02 bf 70 d6 41 3e 41 d3 8e be
       -0.62355095 -0.50856847 0.18929458 -0.2789555
000120 64 4f 2b bf 15 88 9e bd b6 2e 81 bf b2 29 c7 be
       -0.66918015 -0.07740799 -1.009238 -0.38898998
000130 76 32 70 bf b1 9b 23 bd 36 78 c0 bf 0b 0c df bf
       -0.93827 -0.0399434 -1.5036685 -1.742555
000140 4d 23 29 be 50 0a b8 bf bb 2a 4c bf df ad 9d bd
       -0.16517372 -1.4378147 -0.797527 -0.07699179
000150 51 a4 44 be 55 6a 6d bf 76 b1 bb be d4 da 83 bf
       -0.19203307 -0.92740375 -0.3665883 -1.0301156
000160 0c 6b 26 be bd 33 1c bf 1d ca 37 bf 81 5b 07 be
       -0.16251773 -0.61016446 -0.71792775 -0.132185
000170 40 04 8d be 94 3c 10 bf 08 28 95 be 85 85 84 be
       -0.27542305 -0.56342435 -0.29132104 -0.25883117
000180 86 43 6e bf 3d 43 22 be 47 67 a2 be 5d 98 37 bf
       -0.9307178 -0.15845962 -0.3171942 -0.7171686
000190 81 d7 b0 be 96 30 ec be 7f a3 d9 be 20 1f c8 be
       -0.34539416 -0.46130818 -0.4250755 -0.39086246
0001a0 e2 0c 6b be 56 54 ca be 2e 3c c0 bf 6f 43 93 be
       -0.22954133 -0.39517468 -1.5018365 -0.28762385
0001b0 ef 19 4b be 45 b2 ff bd ee a0 ae bf 14 3e 52 be
       -0.19834112 -0.12485174 -1.3642862 -0.20531493
0001c0 5b bf 16 be 51 32 e4 be 85 bd 04 bf ff 1d 66 bf
       -0.14721434 -0.44569638 -0.51851684 -0.8988952
0001d0 e1 67 f3 be 9f a7 96 bf 97 25 3b be 9a 46 d2 be
       -0.4754019 -1.1769904 -0.18276058 -0.4106949
0001e0 99 3e 21 3e 67 0b 09 be 05 85 72 bf 3f e1 97 be
       0.15746535 -0.13383256 -0.9473422 -0.29664037
0001f0 96 d9 f8 be 25 50 e0 bf 7f ea ef be 2f f3 e3 bd
       -0.48603505 -1.7524458 -0.46858594 -0.11130368
000200 ca 3c f7 be 29 64 94 be e9 44 40 bc 7d ea 3e be
       -0.48288566 -0.28982666 -0.011735179 -0.18644138
000210 45 67 91 be 00 25 62 bf e9 27 1c bf 79 c0 a4 be
       -0.283991 -0.8833771 -0.609984 -0.32178095
000220 46 5d bf bf 45 7a 5e bf 91 45 9d be 5f 9d 97 bf
       -1.495034 -0.8690532 -0.30717137 -1.1844901
000230 30 9d 98 bf 96 b2 de be 20 b0 06 bf 00 d7 94 3c
       -1.192297 -0.43495625 -0.52612495 0.018168926
000240 1e 4a 92 bf cf 1c 69 be 03 62 e1 be 6d 39 d0 bd
       -1.1428869 -0.22764896 -0.4402009 -0.10167203
000250 87 76 00 bf 06 55 29 bf 7e a3 29 3e ea 1f 8b bf
       -0.5018086 -0.6614536 0.16566274 -1.0869114
000260 32 bf b9 bf fc 70 ad be 52 57 c5 bf c3 6e bb be
       -1.4511473 -0.33875263 -1.5417273 -0.36607942
000270 d4 ff 6d 3d 5a 95 11 bf c9 43 e1 be 6f 57 5d be
       0.058105305 -0.5686852 -0.43997028 -0.21615385
000280 d2 61 99 be 42 e1 51 bf 3d c0 48 be e8 af b1 be
       -0.29957443 -0.8198434 -0.19604583 -0.34704518
000290 5c 61 c7 bf 2a 7f 7c be bf 84 c2 be 75 e0 83 bd
       -1.5576587 -0.24657884 -0.37991902 -0.06439296
0002a0 74 a5 ba bf 84 d2 c1 be 6c e4 98 be cb c4 a0 be
       -1.4581742 -0.37855923 -0.29861772 -0.3140014
0002b0 3c e5 84 bd 0f 15 4b bf 2a bb 89 bf 5a cf ca be
       -0.064890355 -0.7932901 -1.0760243 -0.39611322
0002c0 73 db cf be 8e 95 d3 bd 7b 35 a7 bf e0 d7 e5 be
       -0.40597114 -0.1033126 -1.3063196 -0.44891262
0002d0 fd 6d db be 76 41 68 bf 9f 5b e3 3c e4 eb a1 bf
       -0.42857352 -0.90724885 0.02775365 -1.2650113
0002e0 07 35 73 be 5e 77 b5 bf 8f a4 21 bf c5 f4 c4 be
       -0.23750697 -1.4177053 -0.6314172 -0.38467994
0002f0 0e 60 05 bf 7d 64 ce be c4 2f 11 bf 1e 3a 9f 3e
       -0.5209969 -0.4031104 -0.5671351 0.31099027
000300 17 24 1c bc ba f3 93 bf ee 33 61 be 3d d0 33 be
       -0.009530089 -1.1558754 -0.21992466 -0.17559905
000310 6d c0 4f be f3 2e 0b bf 0b b2 8e bf 04 e2 71 be
       -0.20288248 -0.54368514 -1.1148084 -0.23621374
000320 ef 93 c7 be a7 80 2a bf 68 f5 be bf 53 fd 20 be
       -0.38980052 -0.6660256 -1.4918642 -0.15721636
000330 1e 63 9b bf b7 ad ca be 73 08 b5 be aa 87 8f bf
       -1.2139623 -0.3958566 -0.3535801 -1.1213276
000340 53 a7 0e bf 8c 71 c9 be f2 fa 2b bf 64 fc fb be
       -0.55724066 -0.39344442 -0.6717979 -0.49215996
000350 b2 a4 4d bf 63 5d d7 bf 2a 4c c9 be 84 87 80 bf
       -0.8032943 -1.6825374 -0.3931592 -1.0041356
000360 b8 0c 74 3d b5 4c 97 bd 80 9d 83 3d ff 87 96 be
       0.059582442 -0.073876776 0.06426525 -0.29400632
000370 fb 76 74 bf 50 c0 06 bf 86 e5 51 be a3 e0 f9 bf
       -0.9549405 -0.52637196 -0.20497712 -1.9521679
000380 dd fc a3 be 44 fa 16 bf 91 79 fb 3c 0d 61 10 be
       -0.32028857 -0.58975625 0.030697616 -0.14099522
000390 80 c8 8e be 82 da 53 bf 0c 7d d8 be c5 e8 6c bc
       -0.27887344 -0.8275529 -0.42282903 -0.014459793
0003a0 17 56 d5 bf e9 7f 50 bf b8 82 98 bf 9a aa 85 bd
       -1.6666898 -0.81445175 -1.1914892 -0.0652668
0003b0 bc 38 35 bf c8 5c bf 39 6e f7 45 bf eb 71 13 bf
       -0.70789695 0.00036499486 -0.7733067 -0.575957
0003c0 13 c4 99 bf 11 5b a7 be a8 6c c4 bf 76 f8 97 be
       -1.2012962 -0.32686666 -1.5345659 -0.29681748
0003d0 13 ad 99 bf 07 12 14 bf 1b c1 bc be 66 6d bd bf
       -1.2005943 -0.5784001 -0.36866078 -1.4799011
0003e0 81 18 8c be ea d7 6f be 35 00 3b bf a5 8b 2e bf
       -0.27362445 -0.23422208 -0.7304719 -0.6818183
0003f0 a6 58 9c be 82 b3 89 bf d7 97 c9 be 5a 95 49 be
       -0.30536383 -1.0757906 -0.39373657 -0.1968588

lin2.weight f4 [98, 1024]
000000 ec 83 a4 be ca 9e f2 3d 47 9e 81 be 91 73 34 3e
       -0.32131898 0.11846693 -0.2531607 0.1762221
000010 54 6d 76 3e 41 57 6e bb f7 84 48 be 40 97 82 3d
       0.24065143 -0.0036367925 -0.19581972 0.06376505
000020 5e f9 21 3e 4c a1 7a 3d da 85 15 be 93 62 e0 3d
       0.15817782 0.06118898 -0.14601842 0.109563015
000030 db 1b 69 be 68 d3 a0 3e fc 9b 98 3b ed f7 91 bd
       -0.22764532 0.3141129 0.0046572667 -0.07127366
000040 31 cd 45 3e 5f d7 46 3e 47 85 f7 3d 86 f5 34 bd
       0.19316556 0.19418095 0.120859675 -0.044179462
000050 c3 94 c0 3d b6 47 09 3d ac f5 5c be 87 7b 28 be
       0.09403374 0.033515655 -0.21578091 -0.16453372
000060 72 6e 07 3e 8a 78 9a be 8b 4c 68 be 21 1e e5 bd
       0.13225725 -0.3017009 -0.22685449 -0.11187387
000070 09 5e 01 3d 37 a0 07 3d 64 de 61 3e 19 8f af bd
       0.03158382 0.033111777 0.22057492 -0.085722156
000080 26 b4 b3 bc b2 e7 31 bd a9 bc fc 3d 28 5d 03 3e
       -0.021936487 -0.043433852 0.123406716 0.12828505
000090 08 91 13 3e 65 62 8a 3e df 73 96 bd 2a 91 9b be
       0.14410794 0.27028194 -0.073463194 -0.3038419
0000a0 4e ca 85 be 20 04 0d 3e bd 13 8d be d5 1f c9 be
       -0.2613091 0.13771105 -0.27554122 -0.39282098
0000b0 04 e8 19 bd 05 89 54 3d c4 16 a5 bb 56 8a 65 3c
       -0.037574783 0.051888485 -0.0050381143 0.014010033
0000c0 08 01 9e 3e 32 72 04 3e 0c d5 20 3c 4c e3 6f 3d
       0.30860162 0.12934187 0.009816419 0.058566377
0000d0 89 ca f3 be 13 d7 05 3d 95 9b 7c 3d 86 b8 60 3e
       -0.4761546 0.032675814 0.061671812 0.2194539
0000e0 c7 db 59 bd be 89 aa 3c ff cf 26 3d 9a 83 98 bd
       -0.05318811 0.020817634 0.040725704 -0.07446976
0000f0 bb c7 2e 3d c7 8f 56 3e 26 db be bc ce d8 17 bd
       0.042670947 0.20953284 -0.023297857 -0.037071995
000100 51 ed da 3c 06 7b 91 be df da a4 bd 79 b7 a1 be
       0.02672449 -0.28414172 -0.08049559 -0.3158529
000110 4e 75 58 bd 20 fd 31 3e a4 35 c7 3d c9 52 ad 3d
       -0.052846245 0.17381716 0.09727028 0.08463056
000120 1e 46 c0 bd 2d 70 77 be 24 e5 62 bd ce cc 15 3e
       -0.09388374 -0.24163885 -0.055394307 0.14628908
000130 a6 ef 09 bd 30 f9 57 3d ec 10 83 bc 05 cc 40 3d
       -0.033675812 0.052727878 -0.01599928 0.04706957
000140 b4 8f 70 be e5 97 dc bb d4 b1 c4 bd 94 79 37 3d
       -0.23492318 -0.0067319744 -0.096042305 0.04479368
000150 52 03 aa 3d c7 95 45 bd 7b ba c9 3d 62 ed 29 be
       0.083014145 -0.048238542 0.098500215 -0.1659446
000160 06 d4 b1 bd fb 18 55 bd fc 4e c5 bd e9 b4 a2 3e
       -0.086830184 -0.052025776 -0.09634206 0.31778648
000170 a3 8d ab be 3a 33 ec 3c 78 1a 04 3e 06 d3 22 3e
       -0.33506498 0.02883302 0.12900722 0.15900812
000180 c2 7d d6 bc 70 19 86 3d 8c ff 22 bb 57 96 b1 3d
       -0.026183013 0.065478206 -0.0024871556 0.08671253
000190 f4 6f 36 be ba 26 25 3e 61 42 0d be d4 4c e4 bc
       -0.17816144 0.16128054 -0.13794853 -0.027868666
0001a0 f1 ef ab bd 9d c5 b2 bd a7 69 d6 3d f8 4c ca 3b
       -0.083953746 -0.08729098 0.1046937 0.006173726
0001b0 7d bb ae bc a7 e4 3b be 1c d5 87 bd ba cc 92 be
       -0.021329636 -0.18348943 -0.06632444 -0.2867182
0001c0 37 92 c2 3d eb d2 9a 3c b9 b9 9e 3d dc 5f 88 3d
       0.095005445 0.018899402 0.077502675 0.06658909
0001d0 80 0f 5a 3e f1 fa bc 3c 7a 65 33 be 6f 43 d0 bd
       0.21294975 0.023068877 -0.17519179 -0.10169112
0001e0 ed d1 ae 3c a8 a4 14 be 04 71 0e 3e 4f a6 e4 bd
       0.021340335 -0.14515936 0.139103 -0.11164533
0001f0 37 cd 80 3e 68 ef 89 3b f8 37 fa bd ef d5 b9 3c
       0.25156567 0.0042094477 -0.122177064 0.02268502
000200 0b d7 4d bd 44 ff a0 3c 58 4e 5d 3e 82 28 3c 3d
       -0.05025391 0.01965297 0.21611917 0.04593707
000210 21 68 cd 3d 6e a6 51 bd 94 b3 cd bd 7f b9 e3 3d
       0.10029627 -0.05118411 -0.100440174 0.11119365
000220 5a e8 75 3d 49 e8 2a be 3f 67 93 3d 63 7b 45 be
       0.06003604 -0.16690172 0.07197427 -0.1928535
000230 0c fa 6b 3e 05 20 a8 3d 83 de 64 3e 41 3f b6 3d
       0.23044604 0.08209232 0.22350506 0.088987835
000240 8b a5 13 be 78 e5 f1 3d ee 95 28 bd 8d 68 91 be
       -0.14418618 0.11811346 -0.04115861 -0.28400078
000250 47 a4 fd bd 60 9b d9 3d f2 41 f2 bd fe 20 c2 b9
       -0.12384849 0.106253386 -0.11828984 -0.00037027145
000260 76 89 26 3e 24 ff 1b bd a4 04 0a bd 43 9e 2e bd
       0.16263375 -0.038085118 -0.033695832 -0.0426314
000270 52 9c 39 be e4 b0 19 3e 3e 25 04 3e d9 4f 91 3e
       -0.18126038 0.15008885 0.12904832 0.2838123
000280 8d 70 71 3e 73 9c ae bd 6f fe 6d be a9 d0 96 3d
       0.23578091 -0.08525934 -0.2324159 0.073640175
000290 6f 18 d3 bd ba 12 a6 bd 76 33 7b 3e 5a 4a 7d bd
       -0.10307395 -0.081090406 0.2453135 -0.061838485
0002a0 a8 86 30 3d ab 40 3a bc 97 f7 08 3e 95 d4 8c 3d
       0.04309717 -0.011367957 0.13375698 0.06876484
0002b0 59 53 0a be 5b 1b 63 3d 9c 03 dc bd ca 28 e4 3d
       -0.13508357 0.05544601 -0.10742876 0.111405924
0002c0 7a 6e 15 bd 87 68 c9 bd 98 87 1e 3d 69 0a 48 3d
       -0.03648231 -0.0983439 0.03870353 0.048838053
0002d0 73 8c 12 3e f4 ea ae 3d 01 d7 63 bd 3c 0f 94 3c
       0.1431139 0.085409075 -0.055624966 0.01807367
0002e0 54 90 83 3e a7 09 f1 3d 82 e1 85 bc 78 49 25 3e
       0.2569605 0.11769419 -0.016342882 0.16141307
0002f0 0c 0e 89 bc ac e8 26 be 35 0a 6c bd b6 dc d1 3c
       -0.01673033 -0.16299695 -0.05762692 0.025617938
000300 20 2b 3f 3e ab 78 05 3e 25 db b5 3d f0 cd 3a be
       0.18668795 0.13034312 0.08879689 -0.18242621
000310 75 e5 14 3e fa da 26 be a0 10 0a 3e c1 8a d2 bd
       0.14540656 -0.1629447 0.13482904 -0.102803715
000320 57 6f 25 3e 28 5d 38 3e b2 08 c9 bc fa fa 6c 3d
       0.16155754 0.18004286 -0.024540279 0.057856537
000330 55 bb 0f 3c ef 50 32 3e 01 5f f4 bc d4 cb 0f bd
       0.008772691 0.17413686 -0.029830458 -0.035106495
000340 ff 89 19 be 33 54 04 be 75 c0 a0 be 38 04 17 3e
       -0.14994048 -0.12922744 -0.31396833 0.14747703
000350 bd 49 28 3d 9e b9 af bd a9 04 2b 3c b2 2a 7e bd
       0.041085947 -0.085803255 0.010438123 -0.062052436
000360 e6 1e 5c 3e b0 dd 1a bc 24 b6 26 3c cc 0b 19 3e
       0.21496162 -0.0094522685 0.010175262 0.14945906
000370 3f 9a 4d bd ff 92 01 be 8f ba 9e 3e de 26 2c bf
       -0.05019593 -0.12653731 0.31001708 -0.67246807
000380 f8 56 61 bd 86 50 f4 3c 6e db 7d 3e e6 3c a7 3c
       -0.05501458 0.029823553 0.24790737 0.02041478
000390 5f 74 80 be ad b1 a4 3d c1 ac 8d 3d f5 45 05 bd
       -0.25088784 0.080417015 0.06917716 -0.03253742
0003a0 6a 92 71 3f 31 a6 b8 3d 7c 8c 1c bd 7c 19 86 3e
       0.94364035 0.090160735 -0.038219914 0.26191318
0003b0 2e 3d dd be 1a a3 1d 3e d6 4e ce 3d 4b fe 13 be
       -0.4321074 0.1539425 0.100736305 -0.14452474
0003c0 ab b9 75 bb ea b3 d6 bd 94 a0 a4 bc 58 66 bd bd
       -0.00374947 -0.10483535 -0.0200961 -0.09248036
0003d0 bb f1 f3 bd 28 b1 c0 be c1 b5 09 bd d8 86 77 3c
       -0.11911341 -0.3763516 -0.0336206 0.015107833
0003e0 47 18 f9 3d 8a 63 c2 3d f0 68 cc 3d a2 34 86 bd
       0.12162834 0.09491642 0.09980953 -0.06553008
0003f0 fd 33 da 3d a7 48 ee bb dc 02 30 3e 46 c6 45 bd
       0.10654447 -0.0072718444 0.17188591 -0.04828479

lin2.bias f4 [98]
000000 42 30 fa bd 17 b4 c5 3c 6a 95 02 be a9 e0 f2 bd
       -0.12216236 0.024133725 -0.1275231 -0.11859257
000010 f3 66 2f bf 44 b5 21 bf 63 3c 87 bd 1c c0 14 be
       -0.68516463 -0.63167214 -0.06603315 -0.14526409
000020 42 d5 91 bd aa 71 e0 bd 04 88 9f bd c5 85 38 be
       -0.07120754 -0.1095918 -0.07789615 -0.18019779
000030 cf a9 e9 bd f3 4f 2e bf 2f e0 8c bd 17 b7 3b bd
       -0.114093415 -0.6809074 -0.06878697 -0.045828905
000040 cf dd 63 bc a5 4c 6d bd 9e 55 83 bd a2 5d cf bd
       -0.013907864 -0.057934422 -0.064128146 -0.10125281
000050 85 c3 08 bd 96 f7 27 bd ec bc ac bd 10 56 ab bd
       -0.033389587 -0.0410076 -0.084344715 -0.083660245
000060 59 8f 7a bd 8f 8e 24 be d7 bb 68 bd 2e 02 01 3d
       -0.061171863 -0.16070007 -0.056819763 0.03149622
000070 fb 74 92 3c 65 be 50 3d aa c0 cf 3c 4e 73 73 b9
       0.017878046 0.050962824 0.025360424 -0.0002321724
000080 79 e0 aa bc db 2d 3b 3c 0c f7 a4 3d 42 71 b1 3d
       -0.02085899 0.011424507 0.08054933 0.0866418
000090 af 2b f3 bc 85 ec 99 bc 3c 78 ba 3b 5d e4 9f 3d
       -0.029683916 -0.01878954 0.0056906026 0.07807229
0000a0 87 7d 51 3d 1a fd c8 3c 65 78 9f bb 26 cd 51 bc
       0.051145103 0.02453475 -0.004866647 -0.012805259
0000b0 46 0d 82 3d 47 a2 99 3d 5e f5 36 3d 65 c7 9f bd
       0.06350188 0.07501655 0.044667594 -0.07801703
0000c0 8c df 5d bd 11 44 82 3d d0 24 81 bd 7c 97 60 3d
       -0.05416827 0.06360639 -0.063058496 0.054831967
0000d0 53 90 bc bd de c4 bf bd f7 0a 0a bf 82 39 a7 bd
       -0.09207215 -0.09363721 -0.5392298 -0.081652656
0000e0 e7 d2 6b 3d e2 25 4e 3d 13 59 0f bc 16 7f f9 3b
       0.05757418 0.050329097 -0.008749264 0.007614027
0000f0 2e 89 0b 3d 31 d8 13 3d a8 39 06 3d 6f 8f a3 3c
       0.03406637 0.036094848 0.03276983 0.019965855
000100 ba 3e 03 3d 76 50 b1 bd 02 41 89 bd 2e 9e 0f bd
       0.032042243 -0.08657925 -0.067018524 -0.03506296
000110 de 0a 08 bd a5 81 85 bc fc 88 4f 3d 78 e6 cd bc
       -0.03321349 -0.01629717 0.050667748 -0.02513431
000120 04 32 17 be a5 10 da 3a 2b cc 48 3c 50 56 5d 3d
       -0.14765173 0.001663704 0.012255709 0.054037392
000130 49 c8 75 bd d1 5c 9b bb f2 98 e3 3c a5 e3 0f be
       -0.06000546 -0.004741289 0.027782891 -0.14051683
000140 67 11 d2 3a 9a 04 43 be 20 30 24 bd 1c 68 67 bd
       0.0016026915 -0.19044724 -0.040084958 -0.05649577
000150 04 cb 66 bd 94 08 46 bd 02 38 39 bd c2 99 1f bf
       -0.056345955 -0.048348024 -0.04521943 -0.6234399
000160 eb 9e 10 be 2b 74 9b bd 48 f5 11 be 09 ef 93 3d
       -0.14123122 -0.07590517 -0.14253724 0.07223327
000170 fb d2 d9 bc 98 aa 11 3d 38 df 8d 39 30 5e 2d bf
       -0.026589861 0.03556308 0.00027059927 -0.67721844
000180 c6 ff 27 bf 77 ca 22 bf
       -0.65624654 -0.63590187
