models/2_context_2_embedding_32_activation_4.pt (torch, 683290 bytes, 5 tensors)

emb.weight f4 [98, 32]
-0.994368 1.0009209 -0.98816466 -0.62635314 -0.7942869 1.0448536 -0.7676022 -0.13738038
-0.46230215 0.14255732 -0.4083842 -0.058763713 0.70334387 -0.98726964 -0.1678676 -0.37688735
-0.9278225 -0.43496227 -0.81237984 0.1952161 0.047705613 0.07732607 0.5708087 0.5832048
0.34167325 -0.28344172 -0.102010965 2.0856593 0.027989917 0.7868399 0.3371288 0.7609181
-0.5496236 0.9647287 -0.14692011 -0.115065195 -0.39597237 -0.11372164 0.031474493 -0.37767243
0.5322518 0.28959975 -0.5675015 -0.18277618 -0.2677719 -0.25826204 -0.50836116 -0.058544908
-0.4304572 0.12964466 -0.5989404 0.6110547 0.004326737 0.71344817 -0.20647414 0.58733225
0.1436986 -0.2669415 -0.32347772 -0.17596762 -1.2055732 0.30767298 -0.2740427 -0.09708774
1.5331619 -1.3545166 -0.9003131 -1.0507034 -1.0797695 1.1349674 0.9316716 0.8226965
2.0121686 -1.1954577 0.20051607 -0.2223261 -0.79308945 -0.28001583 -0.24021731 0.8505749
1.4488794 -0.3576884 1.1583605 0.49072433 -0.49484822 -1.1295737 0.15614668 -0.70103824
1.5144769 0.6358712 0.739653 0.85623777 -0.73908836 0.121663556 -0.5496693 -0.9895801
0.6668841 -0.98189926 0.13007925 0.19924907 0.2791714 -1.047336 1.5734805 1.1540141
0.8021153 0.71185005 0.36400685 0.533564 -2.063886 -0.45630428 0.4873608 0.9779719
0.7195868 -0.19995302 -0.1992159 0.48470291 -1.0406293 1.8118689 -1.9975487 1.4645844
1.1936102 0.21440715 3.3291671 -0.5120541 -0.6675813 -1.0752745 2.2874856 -1.9206636
-0.064352445 0.32154718 0.59075135 -1.4196633 0.8279211 -0.29685503 0.7120363 -0.20681562
-0.1547582 0.1553099 -0.048888016 0.34295565 0.12640086 0.15189151 -1.3638682 -1.6592906
1.0311496 -1.9556775 -0.14820474 1.737566 2.2039497 -0.658927 1.3314381 -0.44979757
0.54933023 0.053876013 0.260064 0.8570226 2.5210645 -0.045239992 -0.3105232 -0.9407292
-0.003390141 1.51987 0.26540986 -0.14413533 0.54069275 -1.5476484 0.64552003 -1.1381513
0.6051678 1.1903902 1.2194879 -0.04704221 -1.0913936 1.0223486 0.21128413 0.030614927
0.36038134 0.3165828 -0.89751744 -0.6392758 0.62067485 -0.1689594 -0.58155125 1.2631882
0.069538094 1.1862317 1.8126987 -1.4458934 -0.21577099 -0.97923577 -1.4391539 0.6508391
2.0007656 0.2994474 -1.2439795 -0.50450504 -0.9403826 -0.38741848 2.6410766 0.11967326
1.2395198 1.2487652 -0.6261998 -0.953012 -0.4533669 -0.9419834 -2.5505893 2.381885
-0.8448364 -1.2071979 -0.22690417 2.8923595 -1.1006892 0.17576703 0.21111596 -0.62860805
-0.5942756 0.38694066 0.43835425 0.09826391 0.26996094 1.6380769 0.7218951 -1.8177129
-0.5203329 -0.71608394 -0.33398536 -1.4994208 -1.1740179 -0.5229064 0.93749726 0.9144505
-0.8737484 0.33864278 0.42046744 0.5255201 0.8794621 -0.36044547 -0.114686444 1.555995
0.04529736 0.018980453 -0.14981435 -1.098515 -1.3167821 1.6141921 0.66687256 -0.082462914
1.6612272 0.01238846 -0.27288392 -0.10584064 -2.0135238 -1.6927276 0.6382984 -1.5423169
00000000: e78e 7ebf 2d1e 803f 5cf8 7cbf ae58 20bf
00000010: 6356 4bbf c3bd 853f 9481 44bf 71ad 0cbe
00000020: deb2 ecbe 8cfa 113e bc17 d1be 38b2 70bd
00000030: 580e 343f b4bd 7cbf 7ce5 2bbe 61f7 c0be
00000040: c685 6dbf 60b3 debe 20f8 4fbf bbe6 473e
00000050: f666 433d 215d 9e3d 8520 123f e94c 153f
00000060: ccef ae3e 461f 91be 20eb d0bd 717b 0540
00000070: 1c4b e53c 576e 493f 259c ac3e 87cb 423f
00000080: 22b4 0cbf 76f8 763f 3a72 16be 4da7 ebbd
00000090: e4bc cabe e4e6 e8bd 66eb 003d 485e c1be
000000a0: a741 083f 6b46 943e c747 11bf ae29 3bbe
000000b0: 6619 89be ec3a 84be f523 02bf c9cc 6fbd
000000c0: e364 dcbe 92c1 043e 2854 19bf 156e 1c3f
000000d0: 4dc7 8d3b 8aa4 363f f56d 53be 685b 163f
000000e0: ba25 133e 8eac 88be df9e a5be db30 34be
000000f0: 3950 9abf 5087 9d3e 534f 8cbe f0d5 c6bd
00000100: a63e c43f cd60 adbf eb7a 66bf 737d 86bf
00000110: e335 8abf 9d46 913f 0882 6e3f 3d9c 523f
00000120: 5fc7 0040 c204 99bf 1654 4d3e 74a9 63be
00000130: e907 4bbf 3c5e 8fbe 87fb 75be 47bf 593f
00000140: e174 b93f ef22 b7be 2845 943f 3840 fb3e
00000150: bf5c fdbe df95 90bf eae4 1f3e 3e77 33bf
00000160: 61da c13f 74c8 223f e659 3d3f 6632 5b3f
00000170: e534 3dbf be2a f93d 21b7 0cbf 1f55 7dbf
00000180: ebb8 2a3f c05d 7bbf 7f33 053e f307 4c3e
00000190: 8eef 8e3e 1b0f 86bf cf67 c93f bcb6 933f
000001a0: 6e57 4d3f ce3b 363f 1b5f ba3e a697 083f
000001b0: b516 04c0 b7a0 e9be 5b87 f93e 5e5c 7a3f
000001c0: d736 383f 7cc0 4cbe 41ff 4bbe fb2a f83e
000001d0: 5733 85bf 52eb e73f adaf ffbf 8077 bb3f
000001e0: 38c8 983f 8c8d 5b3e 1311 5540 fa15 03bf
000001f0: 9ce6 2abf 98a2 89bf 2a66 1240 4ed8 f5bf
00000200: 37cb 83bd d5a1 a43e 7b3b 173f 87b7 b5bf
00000210: a3f2 533f 62fd 97be 0348 363f 79c7 53be
00000220: ef78 1ebe 8f09 1f3e cd3e 48bd e297 af3e
00000230: 3a6f 013e 7389 1b3e 3c93 aebf a263 d4bf
00000240: b6fc 833f a453 fabf fcc2 17be 9068 de3f
00000250: 830d 0d40 71af 28bf 906c aa3f de4b e6be
00000260: e8a0 0c3f 18ad 5c3d 1c27 853e d565 5b3f
00000270: 1f59 2140 924d 39bd e6fc 9ebe a1d3 70bf
00000280: 212d 5ebb 1a8b c23f cde3 873e 3698 13be
00000290: d76a 0a3f 5819 c6bf cd40 253f f1ae 91bf
000002a0: 47ec 1a3f b55e 983f 2e18 9c3f 55af 40bd
000002b0: c9b2 8bbf 52dc 823f de5a 583e 28cc fa3c
000002c0: e783 b83e 2417 a23e b4c3 65bf 94a7 23bf
000002d0: 8ce4 1e3f b103 2dbe 8be0 14bf 27b0 a13f
000002e0: fd69 8e3d 71d6 973f 8306 e83f 0913 b9bf
000002f0: 12f3 5cbe 32af 7abf 3236 b8bf 649d 263f
00000300: 8b0c 0040 2b51 993e b83a 9fbf 3e27 01bf
00000310: eabc 70bf b75b c6be 6607 2940 4117 f53d
00000320: 96a8 9e3f 8ad7 9f3f a14e 20bf 98f8 73bf
00000330: b51f e8be d325 71bf db3c 23c0 ce70 1840
00000340: 3347 58bf 7685 9abf 9159 68be 6b1c 3940
00000350: 62e3 8cbf 46fc 333e c82e 583e 75ec 20bf
00000360: 7222 18bf 161d c63e f86f e03e 973e c93d
00000370: 5238 8a3e 81ac d13f 1ece 383f d1aa e8bf
00000380: 8934 05bf 4751 37bf 2100 abbe 05ed bfbf
00000390: 3846 96bf 32dd 05bf d2ff 6f3f 6e19 6a3f
000003a0: faad 5fbf 9662 ad3e 8247 d73e 7c88 063f
000003b0: 6e24 613f 4f8c b8be bae0 eabd d82a c73f
000003c0: b989 393d e57c 9b3c ef68 19be 249c 8cbf
000003d0: 518c a8bf d99d ce3f 29b8 2a3f 51e2 a8bd
000003e0: 18a3 d43f f8f8 4a3c 71b7 8bbe fac2 d8bd
000003f0: 93dd 00c0 4cab d8bf 8667 233f a46a c5bf

lin1.weight f4 [1024, 64]
-0.67434585 0.21968888 -0.36556068 -0.08558821 -0.084490895 0.18960796 0.057570666 -0.24233556
0.33908108 0.22271852 -0.100413285 0.39759606 0.39997998 0.014155531 -0.07136507 0.18002412
-0.18026167 -0.026890729 -0.43096724 -0.30175623 -0.029952126 0.037850466 -0.11110481 -0.09946487
0.16968845 -0.4714151 -0.32581162 -0.0707722 -0.3445003 0.004843602 -0.43930924 -0.041626852
0.14737739 0.8574606 -0.057931863 -0.120523326 -0.2049019 0.0827244 0.18418552 -0.055251013
-0.28712967 0.23782548 -0.8797346 -0.01981121 -0.3165882 0.28107432 -0.41722676 0.22994666
-0.51550627 -0.0029371055 0.12035349 -0.1078219 0.3312839 -0.21930444 0.09379919 0.096867815
0.26937225 0.019772807 -0.010358706 0.099672884 -0.26212415 0.26617536 -0.5231107 -0.115149826
0.36484832 -0.07793198 -0.24092337 0.5670882 -0.19263236 -0.0702646 -0.49906984 0.3471587
0.039144337 0.10249573 -0.27247342 -0.02829989 0.22127311 0.26934093 -0.059065726 0.2686993
-0.22197562 -0.33552033 -0.36712632 -0.17465204 0.6995726 0.012460237 -0.5160138 0.044175316
0.10083162 -0.40119326 0.17261878 0.05384125 -0.14903837 -0.17326804 0.029253503 -0.09162541
-0.5417143 0.12521626 -0.019288968 0.44725177 -0.04189555 -0.2636942 0.18235376 -0.024379812
0.21496755 -0.18571496 0.3735618 -0.26448816 0.19148749 -0.21269229 0.2998875 -0.015723873
0.09751718 0.42948037 -0.13447522 0.40434346 -0.1939623 -0.09252276 -0.023819571 -0.17191483
-0.06559319 0.17284802 0.10185016 0.044197407 0.01729544 0.20398526 0.28196695 0.24658464
-0.0029138015 -0.00046328298 0.00789227 -0.0024111788 0.005430554 -0.0019543315 0.003789296 -0.009636587
-0.0034830407 -0.0019450218 0.0073012514 -0.0149982935 -0.006986345 0.00461034 0.0029367423 0.000911984
-0.0077329185 -0.0019791191 -0.004695193 -0.006168571 0.0049523492 -0.0013658087 -0.010205873 0.0030843175
-0.004076186 0.0018144409 0.003967298 -0.01356952 -0.003785239 -0.0012846041 0.0015723801 0.0034115626
0.008252466 0.005084954 -0.0027929207 0.009580202 -0.00015071337 -0.0071016275 -0.009056919 0.0017109651
0.0084864795 0.00034440527 -0.003356475 -0.004432087 -0.008469988 0.012072409 -0.0027282895 -0.006924102
0.0054270667 -0.006685736 -5.0693052e-05 0.0066056717 0.015260956 0.000782427 0.0019552936 0.0021172184
-0.007914303 -0.012193994 0.002186316 -0.0039776526 0.003922466 0.0023576498 0.0021186918 0.0028486724
0.0042379526 0.011655922 0.010394557 0.0025569764 -0.006143353 -0.008570259 -0.0072992076 -0.0058853095
-0.0019119804 -0.006572367 0.0032929361 0.006510434 -0.0015188397 -0.007745195 0.0071611586 -0.00246536
-0.0057053957 -0.0022796453 0.011771384 0.0017158488 -0.0008933649 -0.0012208613 0.003116829 0.0022137251
0.007659658 0.003447818 0.0001403556 0.0037034624 0.011394664 0.0002750308 -0.0037996373 -0.0021385704
-0.0016300948 0.0027193388 -0.000259438 -0.0075665135 -0.011883636 0.0050097657 -0.0013905171 -0.0019274153
-0.0057178275 -0.0090680495 -0.003523638 -0.00456932 -0.0068275356 -0.011045375 0.0073088747 0.00024633927
-0.0016675172 -0.00034729822 -0.0010155989 0.0017032563 0.007958875 -0.00037082192 -0.0012173991 -0.00036808557
-0.007815484 0.0033987428 -0.00396642 -0.00842579 -0.009149811 -0.008488958 -0.0075642634 0.0076309876
00000000: eea1 2cbf 1ff6 603e c52a bbbe df48 afbd
00000010: 9009 adbd 9728 423e 38cf 6b3d d026 78be
00000020: 099c ad3e 5310 643e 7ba5 cdbd b691 cb3e
00000030: 2dca cc3e 9aec 673c da27 92bd 3e58 383e
00000040: 8496 38be f249 dcbc bda7 dcbe cb7f 9abe
00000050: 295e f5bc 1709 1b3d eb8a e3bd 3db4 cbbd
00000060: cfc2 2d3e 525d f1be c8d0 a6be 04f1 90bd
00000070: 5862 b0be 14b7 9e3b 24ed e0be eb80 2abd
00000080: 19ea 163e 8a82 5b3f f649 6dbd efd4 f6bd
00000090: ced1 51be 696b a93d 219b 3c3e e34e 62bd
000000a0: a902 93be 8688 733e 4936 61bf 1e4b a2bc
000000b0: d917 a2be f9e8 8f3e bf9e d5be 2377 6b3e
000000c0: 38f8 03bf 747c 40bb e47b f63d bad1 dcbd
000000d0: 0b9e a93e 5891 60be ca19 c03d a262 c63d
000000e0: 29eb 893e 95fa a13c 90b7 29bc 4c21 cc3d
000000f0: 2335 86be 2348 883e 95ea 05bf acd3 ebbd
00000100: 66cd ba3e cd9a 9fbd 9eb4 76be b12c 113f
00000110: 6b41 45be e3e6 8fbd 1586 ffbe c9be b13e
00000120: d055 203d 48e9 d13d a381 8bbe 2cd5 e7bc
00000130: 6b95 623e 0ee7 893e e7ee 71bd f492 893e
00000140: 944d 63be 52c9 abbe fbf7 bbbe fcd7 32be
00000150: 3117 333f 0626 4c3c 7b19 04bf 2df1 343d
00000160: cf80 ce3d 3469 cdbe fac2 303e a488 5c3d
00000170: 849d 18be 2d6d 31be 0ba5 ef3c 1aa6 bbbd
00000180: caad 0abf b138 003e e603 9ebc 2ffe e43e
00000190: ab9a 2bbd ed02 87be f2ba 3a3e 2cb8 c7bc
000001a0: 7420 5c3e 102c 3ebe 7e43 bf3e fe6a 87be
000001b0: 4c15 443e 02cc 59be db8a 993e 5acf 80bc
000001c0: 16b7 c73d dae4 db3e dfb3 09be 1b06 cf3e
000001d0: 0e9e 46be 937c bdbd 4321 c3bc 710a 30be
000001e0: b955 86bd 12ff 303e d196 d03d 5708 353d
000001f0: 2baf 8d3c 83e1 503e f95d 903e af80 7c3e
00000200: 7af5 3ebb cae4 f2b9 944e 013c de04 1ebb
00000210: caf2 b13b 3e14 00bb d655 783b c7e2 1dbc
00000220: ba43 64bb 1af0 feba 563f ef3b 67bb 75bc
00000230: b6ed e4bb 5612 973b 5c76 403b 3612 6f3a
00000240: 6c64 fdbb 1cb4 01bb 22da 99bb b921 cabb
00000250: 5147 a23b ef04 b3ba 8936 27bc 4322 4a3b
00000260: 8791 85bb 89d2 ed3a 1c00 823b b152 5ebc
00000270: c611 78bb 2960 a8ba 5218 ce3a 8694 5f3b
00000280: 5a35 073c b09f a63b 6f09 37bb 48f6 1c3c
00000290: d008 1eb9 c5b4 e8bb 7963 14bc 7642 e03a
000002a0: e00a 0b3c 4b91 b439 4ef8 5bbb 0a3b 91bb
000002b0: b4c5 0abc 5acb 453c 1acd 32bb 94e3 e2bb
000002c0: 89d5 b13b 0514 dbbb 409f 54b8 6474 d83b
000002d0: 1709 7a3c ca1b 4d3a 6224 003b 08c1 0a3b
000002e0: feaa 01bc 51c9 47bc 4c48 0f3b f856 82bb
000002f0: 0888 803b cd82 1a3b c0d9 0a3b cbb0 3a3b
00000300: 86de 8a3b 7bf8 3e3c ef4d 2a3c f292 273b
00000310: 2e4e c9bb 466a 0cbc 312e efbb 8ed9 c0bb
00000320: 6b9b faba 035d d7bb 4dce 573b 7b55 d53b
00000330: ce13 c7ba 68cb fdbb 27a8 ea3b e191 21bb
00000340: 54f4 babb 1a66 15bb c3dc 403c 55e6 e03a
00000350: b430 6aba 4f05 a0ba b743 4c3b 2514 113b
00000360: defd fa3b caf4 613b 6b2c 1339 cab5 723b
00000370: afb0 3a3c 0232 9039 5603 79bb 4227 0cbb
00000380: e8a8 d5ba ef36 323b 2e05 88b9 84f0 f7bb
00000390: 95b3 42bc f628 a43b 0342 b6ba 53a1 fcba
000003a0: 9d5c bbbb 2892 14bc d6ec 66bb 3cba 95bb
000003b0: 85b9 dfbb a9f7 34bc 497f ef3b 1927 8139
000003c0: 9890 daba 9415 b6b9 d81d 85ba cc3f df3a
000003d0: f165 023c e06a c2b9 2391 9fba 9cfb c0b9
000003e0: 840c 00bc 71bd 5e3b bef8 81bb 530c 0abc
000003f0: 17e9 15bc 4515 0bbc a4dd f7bb 5d0d fa3b

lin1.bias f4 [1024]
-0.16315334 -0.4036154 -0.0005498831 -0.0008583185 -0.31355813 0.4430219 -0.11155488 -0.00063069345
0.061150696 0.039025914 -0.19802484 0.38379425 -0.25854328 -0.45288295 0.15428425 0.003734473
0.008235523 -0.53158367 -0.3088549 -0.22284721 0.002297463 0.282896 -0.18119639 0.07687758
-0.68004084 -0.24069431 0.00018167016 0.10372691 -0.0044684066 -0.0060656886 -0.18536067 0.5159819
-0.0022227368 -0.18912815 0.39340445 -0.09274209 0.36972478 -0.33794567 0.46087417 -0.00051351613
-0.6271525 -0.036850248 0.09121532 -0.22451553 -0.2398319 0.46302933 0.08090114 0.41889548
-0.35104224 0.38050964 0.0038283363 0.0033416166 -0.22358505 0.22644092 0.00089548633 0.06032132
-0.06628845 0.67943776 0.10938499 -0.00042416225 -0.11443127 -0.5367657 0.081122436 -0.0021384938
0.08248448 0.3986557 -0.0020780151 -0.01986496 0.0010664412 0.27260906 0.5389513 0.0013602979
-0.28217134 0.41002578 -0.57358354 0.00043593335 -0.51764643 0.16264115 -0.006994601 0.07160566
0.20534039 0.34048647 -0.003621469 -0.31810668 0.17489392 -0.0023425282 0.001396816 -0.007960453
-0.089358374 -0.07306177 0.004961753 -0.42468378 -0.04340244 -0.15261613 0.066204615 -0.38689768
0.13111933 0.5012588 -0.23744231 -0.013592145 0.003282185 -0.2662964 -0.48684207 -0.0032333354
-0.4069238 -0.007598688 -0.005009385 0.07931551 0.21110415 0.07668373 0.25351295 0.012019766
-0.24194913 0.60705966 -0.12401926 0.028537536 0.058123954 -0.08556016 -0.025962427 0.059347942
0.313881 -0.092452645 0.0023525427 0.24585529 -0.24987021 -0.066103555 0.5185134 -0.335129
0.011832619 -0.009073401 0.009686856 -0.21959628 0.057213157 -0.0060953097 0.003682162 0.48348546
0.0059801647 -0.0015827861 -0.24631937 0.37165597 -0.001955782 -0.007468629 -0.20098107 -0.004515486
0.20275486 -0.17578211 0.004812995 0.49057442 -0.31365132 0.1058904 0.17705838 0.0019225507
-0.09256747 -0.14074077 0.00017048582 0.010447579 0.0040986016 -0.0029302589 0.16089149 -0.4917925
0.005006128 -0.053161323 0.007577634 -0.0048048105 0.005150923 -0.15283234 -0.38576868 0.002449547
-0.3426738 0.48205042 0.43807995 0.3408303 -0.13554992 0.04596832 0.010547328 -0.28113854
0.2250517 0.4070808 0.002464176 0.0018670452 0.00042248206 -0.061927926 0.4559156 0.17532991
-0.152749 -0.42080092 0.30371234 -0.15008257 0.0025937979 0.00070565473 -0.13420893 -0.0035133676
0.14344735 -0.0034458328 0.10814253 -0.00311827 0.3154261 0.19883972 0.006180426 0.20195958
-0.45188975 -0.0012398169 -0.00654205 -1.815136e-05 0.0042163115 0.36496627 0.21647562 -0.035191115
-0.09645504 -0.11050145 -0.72118783 -0.2890202 -0.0021298358 -0.033768777 -0.19486581 -0.036501735
0.65450317 0.15898891 0.0063511925 -0.3837613 -0.14287075 -0.08822974 -0.27020028 0.004964125
-0.35973233 0.25584146 -0.17984833 0.26317525 -0.035411444 -0.21716782 0.17098238 -0.4335136
-0.40528867 -0.0022331276 0.0041154833 -0.40021947 -0.13097033 0.3969512 0.068702795 0.06303575
-0.07745495 0.14885761 0.009561757 -0.19141614 0.13438149 0.22069342 -0.0006898306 -0.0059820972
-0.3543284 0.005790799 0.007846505 0.004471562 0.38215566 0.46797004 -0.07119932 -0.00047854663
00000000: ab11 27be ada6 cebe 0826 10ba c800 61ba
00000010: b18a a0be c4d3 e23e e376 e4bd 1f55 25ba
00000020: 2779 7a3d a3d9 1f3d 06c7 4abe ae80 c43e
00000030: c95f 84be 46e0 e7be b1fc 1d3e 0fbe 743b
00000040: 49ee 063c de15 08bf 3b22 9ebe 0f32 64be
00000050: 0891 163b bfd7 903e 8c8b 39be fe71 9d3d
00000060: 2817 2ebf 9278 76be b67e 3e39 c66e d43d
00000070: b66b 92bb afc2 c6bb 30cf 3dbe 6417 043f
00000080: 56ab 11bb cfaa 41be 4f6c c93e 91ef bdbd
00000090: 914c bd3e 3707 adbe b3f7 eb3e 7c9d 06ba
000000a0: 118d 20bf 49f0 16bd 19cf ba3d 66e7 65be
000000b0: 7e96 75be 2e12 ed3e 7faf a53d 7879 d63e
000000c0: cfbb b3be 29d2 c23e d3e4 7a3b 06ff 5a3b
000000d0: 7bf3 64be 21e0 673e 12bf 6a3a 7d13 773d
000000e0: 3dc2 87bd a2ef 2d3f 3d05 e03d 1862 deb9
000000f0: f15a eabd 7a69 09bf 8523 a63d f925 0cbb
00000100: a0ed a83d 9a1c cc3e 4f2f 08bb d7bb a2bc
00000110: d4c7 8b3a 6a93 8b3e b6f8 093f 064c b23a
00000120: c378 90be e6ee d13e 5fd6 12bf fc8d e439
00000130: 7a84 04bf 678b 263e f732 e5bb fda5 923d
00000140: c044 523e 3e54 ae3e 2b56 6dbb e1de a2be
00000150: 6417 333e 1a85 19bb 5e15 b73a 8f6c 02bc
00000160: 8601 b7bd 69a1 95bd 3396 a23b 2770 d9be
00000170: c2c6 31bd 6747 1cbe 4996 873d 7417 c6be
00000180: 2544 063e 7f52 003f 1424 73be 97b1 5ebc
00000190: ed19 573b 0058 88be 5d43 f9be 5ee6 53bb
000001a0: 5158 d0be 6afe f8bb c425 a4bb 2c70 a23d
000001b0: b02b 583e 5c0c 9d3d 73cc 813e 8dee 443c
000001c0: 83c1 77be 4368 1b3f cffd fdbd 8dc7 e93c
000001d0: 6213 6e3d 2a3a afbd 28af d4bc d416 733d
000001e0: 03b5 a03e d057 bdbd 1e2d 1a3b 7dc1 7b3e
000001f0: fadd 7fbe 4d61 87bd 4bbd 043f 0796 abbe
00000200: 9add 413c 9aa8 14bc 9eb5 1e3c d9dd 60be
00000210: 5858 6a3d 2abb c7bb 6d50 713b 688b f73e
00000220: 42f5 c33b 7d75 cfba 253b 7cbe b149 be3e
00000230: 942c 00bb 67bb f4bb fbcd 4dbe a4f6 93bb
00000240: f89e 4f3e 3a00 34be 54b6 9d3b 922c fb3e
00000250: e896 a0be 11dd d83d cb4e 353e 19fe fb3a
00000260: 0494 bdbd 591e 10be 70c4 3239 532c 2b3c
00000270: 904d 863b 9609 40bb bdc0 243e 3acc fbbe
00000280: 720a a43b b0bf 59bd cd4d f83b ac71 9dbb
00000290: 13c9 a83b 1580 1cbe 7983 c5be 9488 203b
000002a0: f172 afbe 50cf f63e 044c e03e 4f81 ae3e
000002b0: 99cd 0abe 4749 3c3d b3ce 2c3c 64f1 8fbe
000002c0: f473 663e e56c d03e 037e 213b a4b7 f43a
000002d0: 9580 dd39 23a8 7dbd c56d e93e af89 333e
000002e0: 3c6a 1cbe 3873 d7be 2f80 9b3e 3faf 19be
000002f0: b5fc 293b b0fb 383a 116e 09be 8740 66bb
00000300: dde3 123e 7bd3 61bb d579 dd3d e45b 4cbb
00000310: 887f a13e a49c 4b3e 2c85 ca3b 7ece 4e3e
00000320: 185e e7be 5a81 a2ba b15e d6bb c043 98b7
00000330: fc28 8a3b dcdc ba3e c9ab 5d3e 8f24 10bd
00000340: 388a c5bd 964e e2bd c49f 38bf 75fa 93be
00000350: b794 0bbb 2151 0abd e78a 47be d882 15bd
00000360: 858d 273f fdcd 223e aa1d d03b 5c7c c4be
00000370: b64c 12be cbb1 b4bd b157 8abe 19aa a23b
00000380: d62e b8be a7fd 823e 292a 38be e8be 863e
00000390: 970b 11bd 3e61 5ebe 0116 2f3e 7ff5 ddbe
000003a0: ff81 cfbe aa59 12bb 2ddb 863b 91e9 ccbe
000003b0: 161d 06be 303d cb3e 0db4 8c3d e318 813d
000003c0: b3a0 9ebd 216e 183e eaa8 1c3c 9802 44be
000003d0: 4d9b 093e 75fd 613e bfd5 34ba 7805 c4bb
000003e0: 886a b5be bec0 bd3b a18e 003c 2e86 923b
000003f0: e8a9 c33e c599 ef3e f3d0 91bd 71e5 fab9

lin2.weight f4 [98, 1024]
-0.41621816 0.004468693 -0.013993227 0.0023991566 -0.0006899938 -0.048400912 -0.3012382 -0.0020540603
-0.023241546 0.0749076 -0.0761618 0.012981479 -0.0074420674 -0.002808129 0.0044161547 -0.0030784686
-0.015030177 0.00730561 -0.0037507792 0.1044206 0.0031441892 0.12177856 -0.0052129696 0.00023401284
-0.08626608 -0.30982095 -0.010578211 0.024281578 0.0030685666 -0.0005991402 0.0050784447 0.0041192127
0.0030801443 -0.22071189 0.015504563 0.040459942 0.13762136 0.0031419268 0.073937126 -0.0275852
-0.0015789494 -0.0071465215 -0.002916655 -0.14754324 -0.12001776 0.0020672923 0.15140943 0.11219228
-0.008568605 0.029742943 0.016335018 0.008060212 -0.101197146 -0.017180461 0.016890064 0.09756695
-0.016998053 0.06937618 0.014333712 0.0029041115 -0.004385501 -0.023045754 -0.13101819 0.01639487
-0.028058577 0.0012010515 0.0031618876 -0.19447622 0.00019156018 -0.06566953 0.008155183 -0.013110805
0.16490714 0.035066724 0.17329401 0.003084851 0.012105451 -0.057265036 0.009728105 0.010169077
-0.2430533 0.008232925 -0.0100872265 -0.0004688257 -0.10286454 -0.0071203085 -0.004048469 -0.0055108857
0.011741664 0.00091172935 -0.00031110144 0.31379768 0.00467044 -0.0046170196 0.01921168 -0.011463402
0.23410633 0.08863352 -0.061067674 -0.015713433 0.0036894865 -0.004264689 -0.20318785 -0.021669365
-0.06583321 0.0062174844 0.0065041026 -0.0064794635 -0.056196902 -0.06588111 0.038187686 -0.092652045
-0.0008503376 0.0018280626 0.0015968303 0.0020354188 0.057726197 0.0020293624 -0.0065176548 0.0019889856
0.005345126 0.018062096 0.006581116 0.007821772 -0.009086604 0.0068390765 -0.0025055008 -0.0005425619
-0.009156545 -0.0061800783 0.0069998098 -0.10592393 0.0013246214 -0.00276434 -0.009218684 -0.017080696
-0.0013696683 -0.004836415 0.06696519 0.009936082 0.0042085447 -0.078190774 0.027687887 -0.08073412
0.02273085 -0.1072951 0.0035902753 0.021232367 0.022660276 0.06412456 -0.22103362 0.018482272
0.0039447597 -0.008726594 0.009307438 0.0012159497 0.003994041 -0.009985709 -0.014722908 -0.0107115535
0.011114722 0.006483112 -0.13060391 0.010840049 0.004820619 0.09560206 0.08049376 0.0049453746
0.020855501 -0.005563021 0.0044308505 0.013693177 -0.19872127 -0.010322517 0.0012653593 0.002938318
-0.0007144816 0.012617097 0.011182914 -0.0029200467 -0.00076843036 0.13423127 -0.017642066 0.013725225
0.16689487 -0.05558957 -0.19019155 0.0011677434 0.005769268 -0.007787814 0.10609432 0.0048696157
-0.0010202222 0.014161549 -0.0066012787 0.007176252 -0.0040946975 0.007659425 0.009324001 0.086021334
0.010860755 0.007207666 0.0057115857 0.005319633 0.008717415 -0.0041725673 -0.16387998 0.00038666622
-0.04488181 -0.1766316 -0.01641919 2.4062727e-05 0.0012113394 0.0070195072 -0.035051003 -0.00051731383
-0.0066118506 0.029368944 0.010849609 -0.028475245 -0.010656135 -0.0982663 0.07303979 0.005399819
-0.006900071 -0.016377404 -0.029123664 0.06354052 0.031814523 0.041143056 0.006935765 -0.0039477134
-0.002955646 0.004922073 -5.053083e-05 0.20481731 -0.20582707 0.007952059 0.0031826114 0.0043710703
-0.0063724676 -0.0043475744 0.015645722 -0.0039753695 -0.15560943 -0.026702505 -0.019589439 6.5294735e-06
-0.018081551 0.0054292446 0.0067753242 0.0043007014 -0.015933871 0.005273693 -0.10203971 0.002131419
00000000: 8c1a d5be 1d6e 923b d943 65bc 2b3b 1d3b
00000010: b3e0 34ba 0940 46bd e53b 9abe 6a9d 06bb
00000020: 0e65 bebc 2869 993d b8fa 9bbd 45b0 543c
00000030: 96dc f3bb 9608 38bb 64b5 903b 22c0 49bb
00000040: 2241 76bc e663 ef3b a2cf 75bb 78da d53d
00000050: be0e 4e3b 0a67 f93d 8fd1 aabb 5861 7539
00000060: 45ac b0bd daa0 9ebe 3c50 2dbc 29ea c63c
00000070: 011a 493b 9e0f 1dba 1569 a63b 76fa 863b
00000080: 3fdc 493b 4c02 62be da06 7e3c 53b9 253d
00000090: 9dec 0c3e c9e8 4d3b 596c 973d 5bfa e1bc
000000a0: c0f4 ceba 5e2d eabb 5a25 3fbb 9315 17be
000000b0: dfcb f5bd 697b 073b 130b 1b3e 11c5 e53d
000000c0: 5663 0cbc 79a7 f33c 04d1 853c fb0e 043c
000000d0: 7340 cfbd 0abe 8cbc 085d 8a3c 2ed1 c73d
000000e0: 803f 8bbc 1915 8e3d f2d7 6a3c e852 3e3b
000000f0: 40b4 8fbb 73ca bcbc a229 06be 894e 863c
00000100: 1adb e5bc 9a6c 9d3a ac37 4f3b c624 47be
00000110: 8bdd 4839 bf7d 86bd 519d 053c b4ce 56bc
00000120: 6bdd 283e 20a2 0f3d fc73 313e 362b 4a3b
00000130: f155 463c be8e 6abd a162 1f3c 339c 263c
00000140: f7e2 78be 64e3 063c e544 25bc b8cc f5b9
00000150: a5aa d2bd 7a51 e9bb 05a9 84bb a994 b4bb
00000160: 1c60 403c 1f01 6f3a 541b a3b9 17aa a03e
00000170: 7e0a 993b 5e4a 97bb d061 9d3c fed0 3bbc
00000180: 92b9 6f3e 7e85 b53d 1922 7abd 75b9 80bc
00000190: 50cb 713b cebe 8bbb 7a10 50be f483 b1bc
000001a0: 90d3 86bd 0abc cb3b 5e20 d53b ae51 d4bb
000001b0: b92e 66bd adec 86bd b16a 1c3d 5bc0 bdbd
000001c0: 31e9 5eba 9a9b ef3a bc4c d13a a964 053b
000001d0: 4e72 6c3d 0dff 043b 0d92 d5bb a459 023b
000001e0: 2b26 af3b f6f6 933c 67a6 d73b e426 003c
000001f0: fbdf 14bc 551a e03b 5433 24bb b63a 0eba
00000200: 5505 16bc 4182 cabb a95e e53b a5ee d8bd
00000210: eb9e ad3a ee29 35bb f709 17bc d1ec 8bbc
00000220: 7186 b3ba ca7a 9ebb 0c25 893d f3ca 223c
00000230: d5e7 893b 7c22 a0bd b5d1 e23c ee57 a5bd
00000240: 0c36 ba3c 89bd dbbd d34a 6b3b 80ef ad3c
00000250: 0ba2 b93c bd53 833d a356 62be 2268 973c
00000260: 0b43 813b fdf9 0ebc 397e 183c 8060 9f3a
00000270: 72e0 823b 199b 23bc 5a38 71bc 837f 2fbc
00000280: 861a 363c 4970 d43b 08bd 05be 769a 313c
00000290: 48f6 9d3b 03cb c33d ead9 a43d cf0c a23b
000002a0: 28d9 aa3c 014a b6bb ab30 913b 5959 603c
000002b0: 977d 4bbe c61f 29bc 6ada a53a cc90 403b
000002c0: 0c4c 3bba f1b7 4e3c 8a38 373c 415e 3fbb
000002d0: 7d70 49ba ec73 093e 1886 90bc c4df 603c
000002e0: 7de6 2a3e e4b1 63bd 93c1 42be f70e 993a
000002f0: 210c bd3b eb30 ffbb fb47 d93d 4c91 9f3b
00000300: fab8 85ba d705 683c 8a4f d8bb c426 eb3b
00000310: d02c 86bb eafb fa3b b2c3 183c f42b b03d
00000320: 4ff1 313c 492e ec3b 4128 bb3b 5150 ae3b
00000330: 7dd3 0e3c 08ba 88bb 27d0 27be 76b9 ca39
00000340: fdd5 37bd eade 34be 8a81 86bc 50da c937
00000350: cec5 9e3a e503 e63b a491 0fbd 589c 07ba
00000360: 39a8 d8bb 2497 f03c 8fc2 313c eb44 e9bc
00000370: 1297 2ebc d83f c9bd e395 953d f7f0 b03b
00000380: fe19 e2bb e829 86bc c094 eebc 8821 823d
00000390: f24f 023d 9f85 283d 6a45 e33b d25b 81bb
000003a0: 83b3 41bb 5749 a13b 11f1 53b8 a1bb 513e
000003b0: 55c4 52be 5a49 023c 5c93 503b 323b 8f3b
000003c0: 22d0 d0bb 1976 8ebb 752b 803c d143 82bb
000003d0: 1458 1fbe 36bf dabc 087a a0bc c017 db36
000003e0: c31f 94bc cee7 b13b 8a03 de3b e6ec 8c3b
000003f0: c087 82bc f1ce ac3b 32fa d0bd 47af 0b3b

lin2.bias f4 [98]
-0.21874063 0.78761077 -0.60479164 -1.3312544 -2.8328679 -2.7761602 -0.8259201 -1.2335057
-0.98883337 -1.0422788 -0.28922555 -0.8811544 -0.24236438 -2.8175855 -1.0668746 -0.8707775
-0.58168715 -0.8326039 -0.67153436 -0.8583339 -0.76101726 -0.816201 -0.78927326 -0.89985937
-0.57866925 -0.8237374 -0.6337924 -0.14981332 -0.4997093 -0.2970789 -0.48357433 -0.32021216
-0.3350936 -0.5693824 -0.16029032 -0.022852693 -0.4883715 -0.6804652 -0.16376601 -0.20544487
-0.40200135 -0.26426476 -0.48911482 -0.66856694 -0.5506521 -0.08004084 -0.17290583 -0.89146686
-0.7849781 -0.27344164 -0.82232916 -0.2601804 -0.97490424 -1.2124184 -2.9279902 -0.4527197
0.41610628 -0.14796597 -0.05335356 -0.0191079 0.45487452 -0.2691035 -0.30181825 -0.09750335
0.33531314 -0.94335854 -0.5641459 0.12790135 -0.15219694 0.13122597 0.23129368 -0.32765082
-0.91765666 0.35690555 0.51694083 0.4547023 -0.101171926 -0.39298674 0.0008555235 -0.83603173
-0.14394754 -1.1121435 -0.7031788 -0.9162206 -0.91512275 -1.1879269 -0.9451641 -2.8927617
-1.2120842 -0.9781479 -0.7449912 -0.14496085 -0.21305345 -0.528051 -0.49433345 -2.8312466
-2.8191535 -2.8030112
00000000: 8bfd 5fbe dca0 493f a0d3 1abf 8b66 aabf
00000010: b54d 35c0 9cac 31c0 806f 53bf 84e3 9dbf
00000020: 2f24 7dbf 6469 85bf 5f15 94be 5693 61bf
00000030: 5e2e 78be 5253 34c0 598f 88bf 46eb 5ebf
00000040: 73e9 14bf 8725 55bf ade9 2bbf c5bb 5bbf
00000050: 07d2 42bf 8cf2 50bf d00d 4abf 2f5d 66bf
00000060: ab23 14bf 74e0 52bf 3840 22bf aa68 19be
00000070: e6d9 ffbe ba1a 98be 0e97 f7be d9f2 a3be
00000080: 6391 abbe 0cc3 11bf 2523 24be 9235 bbbc
00000090: d40b fabe f832 2ebf 47b2 27be 2460 52be
000000a0: 1fd3 cdbe b64d 87be 426d fabe 3427 2bbf
000000b0: 89f7 0cbf 74ec a3bd 3a0e 31be 2c37 64bf
000000c0: 53f4 48bf 8b00 8cbe 2a84 52bf 5e36 85be
000000d0: 5393 79bf 8730 9bbf 3164 3bc0 e0ca e7be
000000e0: e20b d53e 6484 17be 4389 5abd 2c88 9cbc
000000f0: 50e5 e83e efc7 89be ec87 9abe d6af c7bd
00000100: 2aae ab3e f27f 71bf de6b 10bf 92f8 023e
00000110: 84d9 1bbe 1a60 063e 40d8 6c3e d9c1 a7be
00000120: 8ceb 6abf 53bc b63e 3c56 043f bdce e83e
00000130: 3a33 cfbd 8f35 c9be 3645 603a 2d06 56bf
00000140: fc66 13be b85a 8ebf 8703 34bf 6f8d 6abf
00000150: 7c45 6abf fd0d 98bf 46f6 71bf 0223 39c0
00000160: 9325 9bbf e767 7abf beb7 3ebf 9e70 14be
00000170: af2a 5abe 5a2e 07bf 4619 fdbe 2533 35c0
00000180: 036d 34c0 8964 33c0
