models/3_context_2_embedding_32_activation_2.pt (torch, 683290 bytes, 5 tensors)

emb.weight f4 [98, 32]
0.023719018 0.74327224 -0.8022123 0.43318257 0.69675666 -0.37794837 1.567262 -1.0923434
0.21770354 0.05207385 0.26191813 -0.24998444 0.34946728 0.33660913 0.18974616 0.90079886
0.4687791 1.1097884 -0.46591786 -1.4861792 0.74510956 0.15808527 0.12640712 -0.15526891
0.94031626 1.3401556 1.5180346 -0.8863538 0.48398986 0.7143526 1.9877831 0.23018108
-0.18856065 -0.11732742 0.10561389 0.046162926 0.02342668 0.0074485787 0.22844559 -0.43383592
-0.047868773 0.106365085 0.08168232 0.18524852 -0.30433938 0.059020225 0.21776025 0.29321748
-0.2498189 1.0648291 -0.3556253 -0.2897811 0.40911794 -1.0112646 0.76644564 -0.22417033
0.41408753 -0.45442775 -0.90432084 0.43081537 -0.412489 0.104328476 0.40554544 0.58853465
-0.30229068 0.19855545 1.2550291 -0.70396143 -1.8742703 1.2472271 -0.6366726 1.2116519
0.5797067 0.56191635 -2.0032647 -0.95570236 0.037212186 -1.2551357 -0.61959356 -0.8354018
-0.74106926 0.8469638 0.1581952 -1.0591315 1.1405394 0.3642713 -1.410823 0.030754698
0.07776692 1.0243461 -0.44933546 -1.2931929 1.0867418 -0.6386045 -0.14600125 0.41162395
-1.8135527 1.7995706 4.0995283 -4.715123 0.81677544 1.5265589 1.8891525 -3.8562965
1.6411973 0.12928547 2.727481 2.779035 -1.399599 4.208756 -3.338969 -3.4075618
-2.11867 -1.6501923 0.49739215 1.0307292 -0.5637069 -1.5013509 -2.8371525 -1.9761665
-0.48783526 2.590123 -3.5608776 -1.4378272 -1.7725593 -0.27703163 -2.064045 3.0031517
-0.12634699 0.31135935 2.466688 -1.0854398 1.6575441 -0.9762163 -0.51161575 -0.7035837
-1.0138646 -1.1900104 0.4634328 0.479546 0.19082555 -0.037590474 -0.07142557 -1.1517835
-0.7927441 1.0546854 1.2911229 0.15998074 1.1808813 -2.845025 -0.39030343 -1.2372092
-0.4096316 -0.035131227 -0.53135896 0.077629134 -1.1600807 -0.30693504 -0.3987924 2.6922617
-0.45668238 -0.8640379 -1.4276618 -1.4490898 0.39817557 -0.07234904 -1.5398144 -0.12119608
0.021202875 0.91701186 -0.009296404 -0.8272475 0.09753861 -0.16551933 -0.55423206 -1.0033085
-0.6555156 -1.7448301 -1.048451 0.32687405 2.2695966 -1.2888683 2.3588097 1.499292
-0.35192356 -0.9714973 -1.5764993 -0.6823285 0.63518494 -0.025467638 -0.33318153 1.9829662
0.33839348 -0.5399133 1.9612437 1.3315727 2.0874233 0.8891294 -0.5504001 -0.5182878
0.85610753 -1.1634309 -2.0273247 1.8743289 0.025509428 1.661221 0.17455035 3.2835636
-2.9839098 -3.0090764 1.286307 -0.33428356 1.0560544 2.6082568 -2.432027 1.0205352
-0.06414585 0.615564 -1.4318388 -0.52504706 2.858324 0.9195853 3.3939884 -2.0637586
1.1054459 0.57615113 -0.84001106 1.7080455 -0.39219043 -1.1870568 -0.49075046 -0.18363543
-1.8136927 0.4723768 -0.814444 -0.03738449 1.3412843 1.7421914 -1.1541303 -0.6883162
-1.9906577 -3.9930818 0.26420498 -1.1672976 1.5796616 0.4346175 0.040523212 1.0987399
0.026051005 0.41532794 -0.9106094 0.3106226 -1.7071127 1.8556921 1.1935278 1.343456
00000000: 634e c23c 1747 3e3f c95d 4dbf 1bca dd3e
00000010: a55e 323f 7382 c1be 0b9c c83f e9d1 8bbf
00000020: aded 5e3e 644b 553d 221a 863e ecfb 7fbe
00000030: 60ed b23e 0858 ac3e d14c 423e c19a 663f
00000040: d003 f03e 8c0d 8e3f c98c eebe 1f3b bebf
00000050: 80bf 3e3f 1be1 213e de70 013e d0fe 1ebe
00000060: 91b8 703f 388a ab3f f54e c23f 15e8 62bf
00000070: 85cd f73e d0df 363f ad6f fe3f 97b4 6b3e
00000080: 0b16 41be 5c49 f0bd 184c d83d 5615 3d3d
00000090: 4fe9 bf3c 3513 f43b a4ed 693e be1f debe
000000a0: 0c12 44bd f0d5 d93d 0f49 a73d cab1 3d3e
000000b0: 5fd2 9bbe 31bf 713d 8bfc 5e3e 9a20 963e
000000c0: 87d0 7fbe 524c 883f 8514 b6be 305e 94be
000000d0: e877 d13e 1e71 81bf c835 443f e88c 65be
000000e0: 4803 d43e c1aa e8be 9281 67bf d593 dc3e
000000f0: c231 d3be 2baa d53d a7a3 cf3e 35aa 163f
00000100: d8c5 9abe 1f52 4b3e cba4 a03f d136 34bf
00000110: 17e8 efbf 23a5 9f3f fafc 22bf 6917 9b3f
00000120: a967 143f c0d9 0f3f 7d35 00c0 e9a8 74bf
00000130: ce6b 183d 49a8 a0bf af9d 1ebf e4dc 55bf
00000140: b7b6 3dbf 9fd2 583f ecfd 213e 9f91 87bf
00000150: 32fd 913f c581 ba3e d995 b4bf 47f1 fb3c
00000160: 4344 9f3d c61d 833f 4c0f e6be 5887 a5bf
00000170: 5b1a 8b3f 967b 23bf 5a81 15be 60c0 d23e
00000180: 7f22 e8bf 5458 e63f 562f 8340 4ae2 96c0
00000190: 3218 513f 4866 c33f c0cf f13f 90cd 76c0
000001a0: c112 d23f 6963 043e 0c8f 2e40 b6db 3140
000001b0: 0f26 b3bf 21ae 8640 abb1 55c0 7e15 5ac0
000001c0: 4a98 07c0 8039 d3bf 2faa fe3e efee 833f
000001d0: 184f 10bf 442c c0bf e893 35c0 06f3 fcbf
000001e0: 8bc5 f9be 93c4 2540 6be5 63c0 b90a b8bf
000001f0: 39e3 e2bf 17d7 8dbe 5019 04c0 a333 4040
00000200: 1b61 01be 7e6a 9f3e 37de 1d40 b1ef 8abf
00000210: 682a d43f 50e9 79bf 40f9 02bf 101e 34bf
00000220: 51c6 81bf 4352 98bf 1047 ed3e 0e87 f53e
00000230: c667 433e 78f8 19bd 9247 92bd a46d 93bf
00000240: 47f1 4abf eeff 863f 8443 a53f fed1 233e
00000250: 1e27 973f e414 36c0 dad5 c7be df5c 9ebf
00000260: 3cbb d1be c3e5 0fbd 2407 08bf 06fc 9e3d
00000270: 867d 94bf 9726 9dbe 842e ccbe 044e 2c40
00000280: 46d2 e9be 9631 5dbf 9fbd b6bf c67b b9bf
00000290: abdd cb3e bc2b 94bd a318 c5bf a735 f8bd
000002a0: a7b1 ad3c 4ac1 6a3f f24f 18bc 7ec6 53bf
000002b0: 53c2 c73d e67d 29be 27e2 0dbf 6a6c 80bf
000002c0: dfcf 27bf 9856 dfbf a433 86bf 095c a73e
000002d0: 1241 1140 a3f9 a4bf bdf6 1640 cde8 bf3f
000002e0: 532f b4be 0cb4 78bf bbca c9bf 15ad 2ebf
000002f0: 7b9b 223f 82a1 d0bc c596 aabe d6d1 fd3f
00000300: e941 ad3e c237 0abf 090a fb3f f970 aa3f
00000310: 5898 0540 fc9d 633f 05e7 0cbf 82ae 04bf
00000320: dd29 5b3f 4eeb 94bf b0bf 01c0 02ea ef3f
00000330: 26f9 d03c e4a2 d43f 54bd 323e e825 5240
00000340: 61f8 3ec0 b594 40c0 b5a5 a43f 3727 abbe
00000350: ca2c 873f aeed 2640 55a6 1bc0 e6a0 823f
00000360: e65e 83bd 9a95 1d3f 7e46 b7bf 7c69 06bf
00000370: c8ee 3640 f169 6b3f 1b37 5940 9f14 04c0
00000380: 407f 8d3f a47e 133f f70a 57bf 3ca1 da3f
00000390: 2fcd c8be 7af1 97bf a543 fbbe ed0a 3cbe
000003a0: 1527 e8bf 5fdb f13e 677f 50bf 7b20 19bd
000003b0: 34af ab3f 2100 df3f 8bba 93bf 7e35 30bf
000003c0: dfcd febf a78e 7fc0 e045 873e 026a 95bf
000003d0: 5a32 ca3f 2f86 de3e abfb 253d 82a3 8c3f
000003e0: eb68 d53c dda5 d43e b31d 69bf ed09 9f3e
000003f0: ab82 dabf 5287 ed3f 85c5 983f 5ef6 ab3f

lin1.weight f4 [1024, 64]
-0.20966828 -0.37741494 0.38938797 -0.37875402 0.2171075 0.55892456 -0.06776409 -0.4408115
-0.17359209 0.51446855 -0.0015451711 0.41096216 -0.14387639 -0.0193498 -0.2570404 0.07812528
0.42845213 -0.23684405 0.557781 0.31814504 -0.5204784 -0.20644847 0.08158724 -0.23453674
0.4723705 -0.18435739 -0.13710046 -0.11167809 0.18933156 -0.69091713 -0.2603009 -0.17921181
0.20841478 0.04790969 -0.45099103 0.49298143 -0.4096884 -0.19533654 0.12230922 -0.13778128
0.78640157 -0.6942032 0.13666202 -0.21904081 -0.018864296 -0.26429373 0.2778488 0.18551065
-0.17312764 0.10021954 -0.099300295 -0.23992795 0.67944425 -0.025746658 0.14480793 -0.24200302
0.10031698 -0.5158477 -0.21167451 0.3208472 0.32324517 -0.04319828 0.16887131 -0.08543188
0.0023697526 0.0045407326 -0.003605798 -0.008558707 -0.000533379 0.008093107 0.0018899001 0.0074351705
0.001810947 0.008938434 -0.004719099 -0.009135778 -0.0035631114 -0.0074342494 -0.008370182 -0.005187684
0.008912173 0.0024470962 -0.0011325325 -0.002410366 0.0029243845 0.00964693 0.004559724 -0.00017153993
0.006032254 -0.0027360308 -0.0016663694 -0.00048803384 -0.0041056313 0.00802849 -0.0029735826 0.0043253954
-0.00059943704 0.0016022399 -0.0025806339 0.009251475 -0.0038883565 -0.004720278 0.0034392606 -0.0029629173
-0.006375844 -0.005933017 0.0007774279 -0.0026138288 -0.00017488854 -3.803034e-06 0.002677184 0.002894662
-0.0008909169 -0.015277722 0.002658421 0.0011270961 -0.0076213004 0.0077887364 -0.009004679 0.0023797113
-0.0008742515 0.00842001 -0.001344513 -0.00354959 -0.004671952 -0.0037107512 -0.007977487 -0.005047159
-0.07290903 0.07584523 0.34991887 0.080334 -0.17137422 0.024096834 0.48649582 -0.25215095
0.19640757 -0.12799795 -0.0302224 0.011961363 0.1264934 -0.22396694 -0.11873686 0.41987544
-0.19747542 -0.08217382 -0.06446022 -0.088249244 0.07302702 -0.57077456 0.34239992 -0.04173025
-0.10916624 0.0450699 -0.2698933 0.19163108 0.34404236 -0.13830063 -0.021781603 0.6740996
0.07602631 -0.32467628 -0.48684204 0.022012355 -0.6058797 0.24611941 0.04791858 -0.33532265
-0.116716236 0.028969254 0.65388334 0.025229156 0.010519827 0.5951145 -0.06002313 -0.045525044
0.08952559 -0.113239005 0.007728317 -0.21939376 -0.007433455 -0.093897656 -0.6049795 0.023838697
0.20382877 0.08156837 0.15668945 0.21234691 0.06740366 -0.11452706 -0.33246428 -0.0682277
0.51195663 -0.31662974 -0.7011151 -0.20337206 -0.04644708 0.38948548 -0.17999215 0.144635
0.063270845 -0.04311183 0.39921817 0.28902858 -0.16473024 -0.06294768 0.20545189 0.07895169
-0.18195699 0.3552259 0.22890377 -0.19443145 -0.59238976 0.06958492 0.19541332 0.48725083
-0.03268376 -0.38491338 0.053837836 -0.26703626 0.47691646 0.3476944 0.31203654 -0.31302726
-0.30351043 -0.1488128 -0.21795328 -0.01195322 0.5430342 -0.21487877 -0.061120223 0.100779735
0.1795945 -0.18277411 -0.22697516 0.42714697 -0.26592404 -0.47878945 -0.21242404 0.43708405
0.62472355 -0.0108167995 0.22861248 0.13660024 -0.2924302 0.22113158 0.34353897 0.28511992
0.06664387 -0.13529076 0.17731233 -0.32118395 -0.3774981 0.081477255 -0.15621185 0.3910619
00000000: 48b3 56be 883c c1be dc5d c73e 0cec c1be
00000010: 6e51 5e3e ae15 0f3f e6c7 8abd 0cb2 e1be
00000020: 20c2 31be 36b4 033f 5787 caba a269 d23e
00000030: 5554 13be 7983 9ebc cd9a 83be 2600 a03d
00000040: 145e db3e 3f87 72be bcca 0e3f e8e3 a23e
00000050: 133e 05bf 3a67 53be 3617 a73d 662a 70be
00000060: 8cda f13e 2fc8 3cbe 1064 0cbe 7cb7 e4bd
00000070: 22e0 413e f2df 30bf 2946 85be 4d83 37be
00000080: af6a 553e f33c 443d 4ce8 e6be 1068 fc3e
00000090: aec2 d1be 4d06 48be 427d fa3d 8916 0dbe
000000a0: 9d51 493f 4db7 31bf 21f1 0b3e 3c4c 60be
000000b0: 4c89 9abc 8251 87be 3342 8e3e 81f6 3d3e
000000c0: 5f48 31be e73f cd3d f45d cbbd acaf 75be
000000d0: 0ff0 2d3f a8ea d2bc 8848 143e a4cf 77be
000000e0: fd72 cd3d 980e 04bf 34c1 58be 1646 a43e
000000f0: 6480 a53e aef0 30bd 9aec 2c3e e9f6 aebd
00000100: da4d 1b3b 6dca 943b 404f 6cbb d239 0cbc
00000110: 75d2 0bba f398 043c 86b6 f73a bba2 f33b
00000120: 4c5d ed3a 8272 123c aca2 9abb 3bae 15bc
00000130: 1783 69bb 019b f3bb 1623 09bc 73fd a9bb
00000140: 5d04 123c 765f 203b 7c71 94ba 3bf7 1dbb
00000150: 08a7 3f3b 280e 1e3c bd69 953b 66df 33b9
00000160: 37aa c53b fb4e 33bb 146a daba cbde ffb9
00000170: 8888 86bb ed89 033c 70e0 42bb 0cbc 8d3b
00000180: 8a23 1dba 4002 d23a da1f 29bb 8093 173c
00000190: ccd3 7ebb 90ac 9abb 3865 613b 812d 42bb
000001a0: 75ec d0bb c169 c2bb 4ecc 4b3a c54c 2bbb
000001b0: 4962 37b9 a037 7fb6 b273 2f3b 5fb4 3d3b
000001c0: 6c8c 69ba 694f 7abc e738 2e3b 12bb 933a
000001d0: 1abc f9bb a838 ff3b 5c88 13bc eef4 1b3b
000001e0: 062e 65ba 15f4 093c 5f3a b0ba 3da0 68bb
000001f0: 2d17 99bb 1330 73bb 01b4 02bc a362 a5bb
00000200: 5451 95bd be54 9b3d 9128 b33e 2786 a43d
00000210: b97c 2fbe b966 c53c fb15 f93e ee19 81be
00000220: 111f 493e e511 03be f794 f7bc 98f9 433c
00000230: 7c87 013e 9757 65be 502c f3bd eaf9 d63e
00000240: ff36 4abe bf4a a8bd b803 84bd 05bc b4bd
00000250: 318f 953d 481e 12bf 0b4f af3e 57ed 2abd
00000260: 8d92 dfbd 379b 383d 742f 8abe f03a 443e
00000270: 5226 b03e ae9e 0dbe 556f b2bc cb91 2c3f
00000280: afb3 9b3d f83b a6be 5c43 f9be 4153 b43c
00000290: ef1a 1bbf ba06 7c3e 4646 443d 69af abbe
000002a0: ec08 efbd ee50 ed3c e664 273f 60ad ce3c
000002b0: 5a5b 2c3c 6d59 183f d0da 75bd 7878 3abd
000002c0: 3159 b73d dae9 e7bd d23d fd3b c2a8 60be
000002d0: 5794 f3bb 6a4d c0bd f0df 1abf 5f49 c33c
000002e0: 7db8 503e 510d a73d 3373 203e 7871 593e
000002f0: ee0a 8a3d 2a8d eabd c238 aabe f7ba 8bbd
00000300: 970f 033f 4b1d a2be 477c 33bf c440 50be
00000310: 4b3f 3ebd a46a c73e dd4f 38be 331b 143e
00000320: 2594 813d 0896 30bd 5366 cc3e 8efb 933e
00000330: 0baf 28be b7ea 80bd fb61 523e 6cb1 a13d
00000340: ef52 3abe 2be0 b53e c065 6a3e 0a19 47be
00000350: dba6 17bf 8a82 8e3d 6e1a 483e f178 f93e
00000360: 68df 05bd 5e13 c5be 1085 5c3d fab8 88be
00000370: 652e f43e 0005 b23e 41c3 9f3e 1c45 a0be
00000380: b865 9bbe 6262 18be 252f 5fbe 70d7 43bc
00000390: 4a04 0b3f 2e09 5cbe 3359 7abd 9b65 ce3d
000003a0: 9fe7 373e 2329 3bbe 2d6c 68be 02b3 da3e
000003b0: 3227 88be e423 f5be b085 59be 7bc9 df3e
000003c0: e2ed 1f3f f238 31bc 6419 6a3e efe0 0b3e
000003d0: 69b9 95be 5170 623e 57e4 af3e 3dfb 913e
000003e0: 957c 883d a989 0abe 5d91 353e 3972 a4be
000003f0: 6e47 c1be 8cdd a63d 00f6 1fbe 4439 c83e

lin1.bias f4 [1024]
0.20330502 -0.006329318 0.24613713 0.23853457 -0.75025797 0.09463712 -0.004331894 -0.3740643
0.17277151 0.36873242 0.00452986 0.26343563 0.015463455 0.03148832 0.108149074 -0.34775728
-0.01052691 -0.0042733704 -0.002950152 0.040141065 -0.09430564 -0.007768252 0.0046386207 0.1771618
0.0012332711 -0.2305146 0.15049607 -0.0015495914 0.4500341 0.0010526069 -0.006871282 -0.0066374084
-0.12060262 0.3999259 -0.002737146 0.21439222 0.6332124 0.0028931792 0.0038293405 0.0018747589
-0.033129822 0.36615744 0.0064511504 0.35574225 0.009416262 -0.3941318 0.18732645 0.19420962
-0.49327862 0.24766447 0.31528962 -0.003932471 -0.008105839 0.009252678 0.20511128 0.006124087
0.21714218 0.005130801 0.00033887522 -0.35888892 0.68374366 -0.37185985 -0.0121925315 -0.059211053
-0.3782329 0.00390353 -0.0015682809 0.17145176 -0.0016281421 -0.73955715 -0.0052553327 -0.003896995
0.27385494 -0.0006610906 -0.0046524364 -0.0055010584 -0.0006649343 0.0005607153 -0.0014631436 -0.102932416
-0.0013675753 -0.0055059837 -0.0107509745 0.34284267 -0.11768857 -0.26921514 0.005497003 -0.44444627
0.076016515 0.0004683466 0.0039059145 0.40014872 0.5122565 0.20371467 -0.0054285587 0.37686333
0.06640419 -0.17664093 -0.0012771531 -0.0040810457 0.2929863 0.00284502 -0.0067401044 0.014630181
-0.91697216 -0.0058821402 -0.12645525 -0.2763332 -2.168263e-05 0.0043135514 0.0071406104 0.22100796
0.004685702 0.0038093298 -0.0037240756 0.116069674 0.027095472 0.048077624 0.077630594 0.005613507
-0.0016999549 -0.1303573 -0.30744234 0.002025196 0.55749565 0.5384225 0.3490908 0.00038061387
0.06122701 -0.008522736 -0.30357254 0.080947734 0.0066961357 -0.1273764 0.24489747 -0.3396289
-0.2077739 -0.023511555 0.07303436 -0.14708148 0.0065252013 0.0047960565 -0.11423749 0.055651765
0.29572052 0.038284447 0.002448516 0.5566788 -0.09666669 0.40857017 -0.28786743 0.003840563
-0.00014693673 -0.008822697 0.6941386 -0.0033662017 0.54627323 0.0059916475 0.0006486595 0.00242005
-0.23012757 -0.18138386 -0.002771432 -0.38512614 -0.31381196 -0.0011724926 -0.16645557 -2.3659668e-05
0.24018031 0.009141117 0.36181805 -0.21907187 0.0026611688 -0.046152048 0.65994716 -0.0038046374
-0.003987487 0.014282141 -0.0070982846 0.57651657 -0.3146311 -0.08362783 0.0018562907 -0.13075267
0.1501325 -0.21244381 -0.0010842965 0.14852372 0.0062142303 -0.07652302 -0.1590775 -0.0015495126
0.26962268 -0.002141997 -0.001918963 0.004405749 0.434271 -0.0044333953 -0.29109153 -0.26824138
0.34158176 0.00068148744 0.15784459 0.006302416 -0.0017666614 0.0017569208 0.0075098574 -0.0014355946
0.047747996 -0.527098 0.20374906 -0.070934944 -0.22253136 0.0022013069 -0.095676035 -0.00615185
-0.110207796 0.0005999486 -0.26131132 -0.0065137707 0.6635946 -0.18901458 -0.004493753 0.3115722
-0.003295058 0.4538929 0.03641025 0.003865316 0.001049231 0.0064702746 -0.00641133 0.0032941522
0.0041839625 -0.09669528 -0.008652024 0.00018404487 -0.006665908 -0.0039167567 -0.04427908 0.36257362
0.099316694 -0.0023500917 0.15198845 -0.007953657 -0.004258397 0.010086868 0.41535413 0.014064789
0.00279048 0.7947819 -0.41944063 0.10532285 0.044604655 0.3230991 0.14439954 -0.109488316
00000000: 312f 503e 2b66 cfbb 5f0b 7c3e 6842 743e
00000010: e810 40bf 1bd1 c13d 90f2 8dbb 5b85 bfbe
00000020: 04eb 303e 7fca bc3e 386f 943b 09e1 863e
00000030: 6e5a 7d3c e6f9 003d 437d dd3d 3e0d b2be
00000040: 1079 2cbc a107 8cbb 5657 41bb f56a 243d
00000050: 5123 c1bd d28c febb 92ff 973b e769 353e
00000060: b6a5 a13a 050c 6cbe a41b 1a3e a91b cbba
00000070: df6a e63e a0f7 893a 7e28 e1bb 9e7e d9bb
00000080: 82fe f6bd 16c3 cc3e b161 33bb a289 5b3e
00000090: 351a 223f 7e9b 3d3b acf5 7a3b 78ba f53a
000000a0: 23b3 07bd fd78 bb3e 2c64 d33b d923 b63e
000000b0: aa46 1a3c a5cb c9be 81d2 3f3e e3de 463e
000000c0: 048f fcbe c19b 7d3e a46d a13e f5db 80bb
000000d0: 5ace 04bc 8b98 173c b108 523e 91ac c83b
000000e0: 855a 5e3e 4720 a83b 10ab b139 4ac0 b7be
000000f0: d309 2f3f 6a64 bebe 2fc3 47bc 4a87 72bd
00000100: bea7 c1be 5ed2 7f3b c68e cdba 0d91 2f3e
00000110: 6267 d5ba 9e53 3dbf ed34 acbb ba64 7fbb
00000120: b736 8c3e 0a4d 2dba 7773 98bb 3942 b4bb
00000130: fc4e 2eba f8fc 123a f4c6 bfba 3bce d2bd
00000140: 3640 b3ba 8a6b b4bb db24 30bc 1389 af3e
00000150: b406 f1bd 91d6 89be 3420 b43b 768e e3be
00000160: 8cae 9b3d 6b8c f539 5ffa 7f3b 4be0 cc3e
00000170: 3e23 033f 949a 503e 0de2 b1bb 3bf4 c03e
00000180: ecfe 873d 5ce1 34be 2666 a7ba 4bba 85bb
00000190: 4d02 963e 8473 3a3b 18dc dcbb 6db3 6f3c
000001a0: b0be 6abf f8be c0bb 7c7d 01be 8c7b 8dbe
000001b0: 18e3 b5b7 b158 8d3b c8fb e93b e94f 623e
000001c0: 848a 993b f3a5 793b 9f0f 74bb f0b5 ed3d
000001d0: 53f7 dd3c 0bed 443d cafc 9e3d 82f1 b73b
000001e0: 05d1 deba 627c 05be 1569 9dbe 27b9 043b
000001f0: 09b8 0e3f 0fd6 093f 08bc b23e 218d c739
00000200: 2cc9 7a3d f2a2 0bbc dc6d 9bbe edc7 a53d
00000210: 426b db3b f66e 02be 67c6 7a3e d7e3 adbe
00000220: aec2 54be 4e9b c0bc 0a93 953d 879c 16be
00000230: 5bd1 d53b 3d28 9d3b 58f5 e9bd 1bf3 633d
00000240: ae68 973e 27d0 1c3d 4877 203b 8082 0e3f
00000250: 30f9 c5bd 1c30 d13e 5c63 93be f4b1 7b3b
00000260: 0713 1ab9 138d 10bc 11b3 313f 7e9b 5cbb
00000270: 90d8 0b3f 9555 c43b cd0a 2a3a b499 1e3b
00000280: 90a6 6bbe b1bc 39be eaa0 35bb 412f c5be
00000290: f6ab a0be 53ae 99ba 5473 2abe c078 c6b7
000002a0: d4f1 753e a0c4 153c 3740 b93e 6054 60be
000002b0: 0167 2e3b ee09 3dbd 4cf2 283f 3957 79bb
000002c0: 77a9 82bb a4ff 693c ba98 e8bb 9796 133f
000002d0: 5417 a1be 1145 abbd c84e f33a 07e4 05be
000002e0: 56bc 193e df8a 59be f41e 8eba 9a16 183e
000002f0: bea0 cb3b 1ab8 9cbd 36e5 22be 0419 cbba
00000300: fc0b 8a3e bf60 0cbb b785 fbba 1a5e 903b
00000310: c558 de3e 0446 91bb f309 95be ef56 89be
00000320: cee3 ae3e d9a5 323a 03a2 213e 7f84 ce3b
00000330: 528f e7ba 7b48 e63a 4015 f63b 902a bcba
00000340: 6793 433d e5ef 06bf 98a3 503e 5746 91bd
00000350: 43df 63be cd43 103b ccf1 c3bd 7595 c9bb
00000360: a0b4 e1bd de45 1d3a 99ca 85be 7871 d5bb
00000370: 56e1 293f 0a8d 41be 5540 93bb 6486 9f3e
00000380: e6f1 57bb a664 e83e ea22 153d 3e51 7d3b
00000390: 5a86 893a 9904 d43b 2216 d2bb b4e2 573b
000003a0: 9f19 893b 2d08 c6bd 38c1 0dbc 2bfc 4039
000003b0: b06d dabb 2358 80bb fb5d 35bd 40a3 b93e
000003c0: 8d66 cb3d ff03 1abb dca2 1b3e 0e50 02bc
000003d0: 068a 8bbb 6443 253c 4ca9 d43e 0070 663c
000003e0: 7ce0 363b d476 4b3f ecc0 d6be 82b3 d73d
000003f0: 5fb3 363d 3f6d a53e 79dd 133e 693b e0bd

lin2.weight f4 [98, 1024]
-0.029736076 0.00063533545 -0.07770398 0.11230838 0.23536645 0.027771642 -0.008675667 -0.17216119
0.16924909 -0.024794646 0.0018498881 0.025897205 0.013850624 0.09296266 -0.136259 0.10066113
-0.013007282 0.0041623297 -0.0055377027 0.1807668 -0.009524008 0.0029525107 0.015505368 0.014368836
0.007832816 0.0008642138 0.07599579 0.014664453 0.18783377 -0.0040552216 -0.008795148 -0.12905158
-0.0023793508 0.00042450367 0.007350866 -0.15309146 0.20113349 0.0015130733 3.216831e-05 0.037516665
-0.004910931 -0.19501542 0.004965207 -0.052049994 0.0027575872 -0.047066025 0.11619397 0.24097104
-0.018273465 -0.045557994 0.012292304 0.0009214628 -0.007533695 -0.011507239 -0.07032078 0.00059168757
-0.18150641 -0.0049709533 -0.0032607743 -0.00054120587 0.23332764 -0.04302997 0.0014694777 0.01413673
-0.04934214 0.005563744 0.0018502646 -0.0061820145 1.1760632e-05 -0.37754992 -0.0031387603 -0.012248714
0.0067694546 0.0076256096 -0.011384394 -0.010253255 0.0044121007 0.010636146 -0.0039170864 0.07796777
-0.008508355 0.0050049718 -0.21096782 0.16542377 -0.08704298 -0.028132075 0.016889928 0.067586064
-0.00855776 0.0032266052 -0.0066330982 -0.20074895 -0.2943732 0.010009455 -0.0026435342 0.04243196
-0.08321073 0.012641049 0.0022601946 -0.010650218 -0.18721256 -0.004471151 -0.0013500047 -0.09316787
0.11137087 -0.009688994 -0.17516008 -0.15744431 -0.018569294 -0.002010665 0.0072951824 -0.15675426
0.004512586 -0.009265804 0.0025396172 -0.035412222 0.016082767 0.002844748 -0.010183449 -0.012009279
0.0009836559 0.128456 0.050282102 0.0026039362 0.12850186 -0.10210948 -0.07003029 -0.0042794603
-0.00598664 0.002552013 0.08938383 -0.012100212 -0.006693562 -0.05260499 0.049399547 -0.13139662
0.12498467 -0.3027551 -0.12930082 0.11817855 0.0015203817 0.004235686 -0.08692732 0.023560066
-0.079053774 -0.05320922 0.005529863 -0.014005423 0.006244563 0.025160259 0.029387256 0.0026256663
-0.0006930445 0.0019971689 -0.33622918 0.0056401 0.17576686 -0.009280245 -0.00036874926 0.0041053793
-0.1241292 -0.0041111987 0.011110477 -0.0131123755 0.077997446 -0.0008168461 0.13221408 -0.01570971
0.08674695 0.014539273 0.048009507 -0.10387736 0.0048400266 0.007245016 0.07449536 0.008021333
-0.005961346 0.00383651 0.000965687 0.13348937 0.055264547 0.11048689 0.01495458 0.055055268
-0.113438524 -0.26040104 0.00424647 -0.3157508 0.0060180807 -0.060712893 0.010592251 -0.001243689
-0.107713476 -0.005109895 -0.009903244 0.0029886449 0.021689495 -0.0006246954 -0.15210195 0.21753536
0.071313165 -0.0010948185 0.049895838 0.0026424374 -0.0016775694 0.010053913 -0.0022340624 -0.0044902526
0.10777596 -0.33456877 0.12590753 -0.04967405 -0.11470545 0.0022406399 0.1595375 -0.00810246
-0.06752076 0.0072847656 -0.26995608 -0.010395451 0.28158626 -0.23905393 -0.002501246 -0.037538648
0.011214263 0.040157877 0.022895277 0.0029633134 -0.00080989086 0.009230402 -0.003792153 0.003323327
0.011240433 0.0791355 0.03713043 -0.011632983 -0.0007938056 0.004124054 0.25157964 0.11480454
0.12913637 0.0036161172 0.03575509 -0.012763677 0.004014085 0.0036914614 0.1056182 -0.0007523751
-0.011706863 -0.1258442 -0.013528088 0.19391277 -0.0717966 -0.09132684 -0.03454604 0.14721003
00000000: 1299 f3bc a48c 263a 4423 9fbd f001 e63d
00000010: e703 713e 5b81 e33c 6324 0ebc 064b 30be
00000020: a24f 2d3e 241e cbbc f277 f23a 6026 d43c
00000030: baed 623c 3563 be3d 7b87 0bbe 6c27 ce3d
00000040: 7f1c 55bc 2764 883b 9e75 b5bb ef1a 393e
00000050: 960a 1cbc e97e 413b 3a0a 7e3c 446b 6b3c
00000060: 3655 003c 688c 623a aea3 9b3d 2d43 703c
00000070: 7f57 403e aae1 84bb 8619 10bc 1926 04be
00000080: e2ee 1bbb eb8f de39 89df f03b 02c4 1cbe
00000090: f0f5 4d3e 5152 c63a 76ec 0638 13ab 193d
000000a0: e0eb a0bb 1fb2 47be 2db3 a23b 6032 55bd
000000b0: a3b8 343b 4ec8 40bd 1bf7 ed3d 1dc1 763e
000000c0: 3cb2 95bc 059b 3abd a965 493c 528e 713a
000000d0: 37dd f6bb dc88 3cbc 5704 90bd 7b1b 1b3a
000000e0: d1dc 39be 61e3 a2bb b7b2 55bb b6df 0dba
000000f0: 71ed 6e3e 3240 30bd 7d9b c03a be9d 673c
00000100: fc1a 4abd 1150 b63b 9484 f23a 7f92 cabb
00000110: 884f 4537 394e c1be a9b3 4dbb d5ae 48bc
00000120: 4dd2 dd3b 40e0 f93b 9c85 3abc 45fd 27bc
00000130: 6293 903b 3b43 2e3c e75a 80bb 91ad 9f3d
00000140: a166 0bbc bf00 a43b f307 58be d964 293e
00000150: 9743 b2bd 3d75 e6bc bf5c 8a3c 906a 8a3d
00000160: d935 0cbc 7475 533b 765a d9bb 2291 4dbe
00000170: 16b8 96be b2fe 233c 253f 2dbb 23cd 2d3d
00000180: 636a aabd 671c 4f3c c61f 143b 417e 2ebc
00000190: a6b4 3fbe bc82 92bb a4f2 b0ba ccce bebd
000001a0: 6916 e43d 96be 1ebc 2a5d 33be 1539 21be
000001b0: a21e 98bc 5cc5 03bb 6d0c ef3b 3084 20be
000001c0: 51de 933b 99cf 17bc b56f 263b 680c 11bd
000001d0: 02c0 833c f46e 3a3b 7bd8 26bc 91c2 44bc
000001e0: 04ee 803a f889 033e 9bf4 4d3d cda6 2a3b
000001f0: fe95 033e c61e d1bd 0a6c 8fbd b73a 8cbb
00000200: 942b c4bb ac3f 273b df0e b73d f83f 46bc
00000210: ab55 dbbb 5478 57bd 2e57 4a3d d68c 06be
00000220: f6f7 ff3d b702 9bbe 6f67 04be 9807 f23d
00000230: 8b47 c73a 82cb 8a3b f306 b2bd 0a01 c13c
00000240: f2e6 a1bd e9f1 59bd da33 b53b 0077 65bc
00000250: 319f cc3b e31c ce3c 8bbd f03c 5f13 2c3b
00000260: 6ead 35ba efe2 023b 3b26 acbe 97d0 b83b
00000270: 3afc 333e 2b0c 18bc b054 c1b9 6b86 863b
00000280: 7337 febd 3cb7 86bb b808 363c 4ad5 56bc
00000290: 20bd 9f3d 9d21 56ba 2163 073e a6b1 80bc
000002a0: 63a8 b13d 2236 6e3c 9ea5 443d a7bd d4bd
000002b0: 1699 9e3b 9967 ed3b 0691 983d e96b 033c
000002c0: 6557 c3bb f56d 7b3b 2826 7d3a 70b1 083e
000002d0: 145d 623d f346 e23d 0e04 753c a281 613d
000002e0: 7552 e8bd 4953 85be f925 8b3b 17aa a1be
000002f0: 5233 c53b 15ae 78bd 1f8b 2d3c 4703 a3ba
00000300: e298 dcbd e870 a7bb 3741 22bc 24dd 433b
00000310: 2bae b13c 99c2 23ba 9dc0 1bbe 97c1 5e3e
00000320: a30c 923d 0380 8fba 945f 4c3d be2c 2d3b
00000330: e3e1 dbba 2bb9 243c 5969 12bb f822 93bb
00000340: a4b9 dc3d 994c abbe e7ed 003e 0477 4bbd
00000350: b1ea eabd b3d7 123b cc5d 233e 2ec0 04bc
00000360: 5348 8abd 0bb5 ee3b af37 8abe af51 2abc
00000370: 132c 903e 8eca 74be f2eb 23bb 20c2 19bd
00000380: 07bc 373c 967c 243d e08e bb3c 2634 423b
00000390: db4e 54ba 1d3b 173c c585 78bb 2dcc 593b
000003a0: cb29 383c cb11 a23d 1416 183d 4498 3ebc
000003b0: 6417 50ba 1323 873b 0ccf 803e a51e eb3d
000003c0: 533c 043e 61fc 6c3b ee73 123d be1e 51bc
000003d0: 9688 833b 72ec 713b 5b4e d83d 0a3b 45ba
000003e0: 24ce 3fbc 4ddd 00be eaa4 5dbc 1291 463e
000003f0: 190a 93bd 9109 bbbd 2680 0dbd 3abe 163e

lin2.bias f4 [98]
-0.009598275 0.4082022 -0.4077035 -0.75011337 -1.4123921 -1.420591 -0.4993439 -0.7417358
-0.6248614 -0.5522633 -0.03417864 -0.5811486 0.028426936 -1.4454929 -0.66874254 -0.5267597
-0.4081652 -0.5207223 -0.36928186 -0.40311304 -0.42759013 -0.43547228 -0.4641575 -0.41648144
-0.4327322 -0.5759851 -0.40497017 0.05221231 -0.15717268 -0.1510983 -0.20088959 -0.022434175
-0.20168981 -0.2744385 -0.029226694 0.07904397 -0.30750513 -0.4494662 -0.07146239 0.045842525
-0.21835296 0.09430517 -0.24966137 -0.41097972 -0.16860494 0.06487433 0.024792299 -0.5108387
-0.3262388 -0.18650919 -0.6094581 -0.080883056 -0.49464542 -0.7910599 -1.9785385 -0.32869944
0.24278663 -0.08172541 0.040618625 -0.08481119 0.16423407 -0.021802908 -0.074075244 0.060875308
0.14250399 -0.53558433 -0.36602688 0.027094176 -0.055266533 0.15827231 0.033102166 -0.2453816
-0.6449945 0.15202603 0.23575571 0.2128919 -0.044589214 -0.14884362 0.0110551 -0.46653163
-0.040350124 -0.6766772 -0.39699933 -0.51098686 -0.58231413 -0.64580584 -0.61499214 -1.783027
-0.7681935 -0.5567421 -0.54526687 -0.17435913 0.040226664 -0.48962736 -0.31165585 -1.4350563
-1.4116932 -1.413153
00000000: 1542 1dbc e1ff d03e 83be d0be 6e07 40bf
00000010: 44c9 b4bf edd5 b5bf 01aa ffbe 66e2 3dbf
00000020: ebf6 1fbf 2161 0dbf e7fe 0bbd 28c6 14bf
00000030: 9bdf e83c e905 b9bf b632 2bbf b9d9 06bf
00000040: 07fb d0be 0f4e 05bf 8312 bdbe d564 cebe
00000050: 18ed dabe 39f6 debe 0da6 edbe 0e3d d5be
00000060: 138f ddbe c273 13bf 4058 cfbe 93dc 553d
00000070: e0f1 20be 83b9 1abe 00b6 4dbe e0c7 b7bc
00000080: c687 4ebe 3483 8cbe d26c efbc cee1 a13d
00000090: 5071 9dbe 6f20 e6be e05a 92bd 5fc5 3b3d
000000a0: eb97 5fbe 1223 c13d 3ba7 7fbe ef6b d2be
000000b0: c6a6 2cbe d5dc 843d 3819 cb3c 53c6 02bf
000000c0: c608 a7be 44fc 3ebe 7205 1cbf 04a6 a5bd
000000d0: 2a42 fdbe e782 4abf c040 fdbf 4b4b a8be
000000e0: 0f9d 783e a75f a7bd b75f 263d 7db1 adbd
000000f0: fa2c 283e 039c b2bc c3b4 97bd 6358 793d
00000100: 91ec 113e 0e1c 09bf e067 bbbe 9bf4 dd3c
00000110: 295f 62bd 2312 223e 2396 073d 5045 7bbe
00000120: 5c1e 25bf b6ac 1b3e f269 713e 5600 5a3e
00000130: 2ea3 36bd 766a 18be 7320 353c 3cdd eebe
00000140: 2c46 25bd b83a 2dbf 7f43 cbbe 09d0 02bf
00000150: 8a12 15bf 8853 25bf 2070 1dbf 3b3a e4bf
00000160: 54a8 44bf a686 0ebf 9c96 0bbf 338b 32be
00000170: b7c4 243d 70b0 fabe 5b91 9fbe edaf b7bf
00000180: 5db2 b4bf 33e2 b4bf
