models/3_context_2_embedding_64_activation_4.pt (torch, 957978 bytes, 5 tensors)

emb.weight f4 [98, 64]
000000 e2 dc 65 3b 9f 75 ec 3b b8 bc ef be 54 09 26 3e
       0.0035074283 0.00721617 -0.46823668 0.16214496
000010 5e 06 91 3e d5 09 89 bd 40 fe 82 3f 9e 83 2a bf
       0.2832517 -0.066913284 1.0233841 -0.6660708
000020 2e 24 08 be 35 8d 05 be 07 48 17 bd 80 e5 c1 be
       -0.13295051 -0.13042147 -0.036933925 -0.37870407
000030 8a 33 bb 3e ef 27 9f bd 37 b4 8b 3e 56 df 5f 3e
       0.3656276 -0.077712886 0.2728593 0.2186254
000040 3c 88 ed 3c 61 b4 d7 3e 47 c0 6b be 67 24 a6 bf
       0.028995626 0.42129806 -0.23022567 -1.2979859
000050 c9 cc 2d 3f 96 07 ac 3e c6 2b 05 be 62 fd 0c 3e
       0.678906 0.33599538 -0.1300498 0.13768533
000060 17 d0 cc 3e ba ea 98 3f 43 4b 8e 3f 31 ba 58 bf
       0.4000251 1.1946633 1.1116718 -0.84659106
000070 04 06 f7 3e 5a 38 a3 3d 71 57 83 3f e1 39 2a be
       0.48246777 0.079697326 1.026106 -0.16623642
000080 7c eb 8b be f7 9c 9b be 26 7f 93 be 17 d2 d0 3d
       -0.27328098 -0.30393192 -0.28807944 0.101963215
000090 d3 8f e5 3c e0 64 75 be 85 12 29 3e 00 ba d8 be
       0.028022682 -0.23964262 0.16510971 -0.42329407
0000a0 37 ce f6 bd df 28 06 3e be 2e 1d bc 93 a7 d7 3e
       -0.12051051 0.13101529 -0.009593664 0.42120036
0000b0 25 93 e0 be f7 1f 2d 3e e7 a6 97 3e 23 8c 84 3e
       -0.43862262 0.16906725 0.29619524 0.25888166
0000c0 c7 7c b7 be 0e ca 9a 3f 5e c2 67 be 14 a5 89 be
       -0.35837385 1.2092912 -0.22632739 -0.26883757
0000d0 29 79 3b 3f 44 16 80 bf c9 a2 31 3f 3f 87 8f be
       0.7323175 -1.0006795 0.69389015 -0.28032872
0000e0 f3 1e c6 3e a8 73 36 bf 3b 36 50 bf 38 74 dc 3e
       0.38695487 -0.7127023 -0.8133275 0.43057418
0000f0 ac f2 10 bf a6 32 85 be 61 12 1f 3f 25 c6 2f 3f
       -0.5662029 -0.26015204 0.6213742 0.6866172
000100 0e ce 6d 3c 80 4b fc bd 46 ef 75 3d ab 78 76 bd
       0.014514459 -0.12319088 0.060042642 -0.06017367
000110 1b f1 8f be dd ea 0d 3f f5 8f aa be 98 1b b2 3e
       -0.28113636 0.554365 -0.33312955 0.34786677
000120 25 67 a2 3d 9c 79 87 3d f8 4e 9c be a8 14 fc bd
       0.079298295 0.06614992 -0.30528998 -0.12308627
000130 65 af 36 bc da 9b 77 be 95 a0 2c be a8 eb ed be
       -0.011150216 -0.24180546 -0.16858132 -0.46468854
000140 12 f7 4e 3d 47 4b 0b bd c7 52 4b bc 6e 67 bd be
       0.050528593 -0.034007337 -0.012409872 -0.36992973
000150 6f 85 2e 3f 52 18 e9 3d a0 d9 90 be 1d 42 ae bd
       0.68172354 0.11381592 -0.28291035 -0.08508704
000160 70 74 f3 3d bc 6e 99 3d 2e 32 57 3e 4a 18 af be
       0.11887443 0.07491824 0.21015236 -0.3419822
000170 99 6e 08 3e b9 4c 13 bc 5d 05 05 be 43 83 ab bd
       0.1332344 -0.00899046 -0.12990327 -0.083746456
000180 b5 f0 c3 bd e2 66 62 bd da b1 46 be 29 56 bc bd
       -0.095673956 -0.055273898 -0.19403782 -0.09196121
000190 33 73 9f 3d d6 e0 04 3e 96 b1 23 be dc a8 ac 3c
       0.077856444 0.12976393 -0.15985712 0.021076612
0001a0 34 1c ed bc 2c fc 9f 3e 58 3a 85 3e 5d 98 66 3e
       -0.028944112 0.3124708 0.26021075 0.2251906
0001b0 81 2f 1e be e3 dd 90 3e 88 56 9c be 5c ab 05 be
       -0.15447809 0.28294286 -0.30534768 -0.1305365
0001c0 dc 44 ec bd b4 50 86 3d 1e 5a e5 3d 2e 69 2c 3d
       -0.115365714 0.06558362 0.11198829 0.042092495
0001d0 a8 e3 87 3f 13 45 b2 bd bb 6e 43 be d8 6b 4c bf
       1.061635 -0.08704581 -0.19085209 -0.79852057
0001e0 d7 79 00 be 07 60 1d bd 6b 28 c8 3b 1d 65 a5 3d
       -0.12546478 -0.038421657 0.006108334 0.080759265
0001f0 0c 55 f9 bc 89 56 68 3f 4b 75 11 be 23 46 04 bb
       -0.030436061 0.9075704 -0.142049 -0.0020183406
000200 a7 0c f5 3e 47 8e 6f 3f 86 17 fb 3f e7 df 99 bf
       0.47861215 0.93576473 1.9616554 -1.2021455
000210 c1 46 98 3f 0d 10 af be dc ee 93 bf ae e4 7c bf
       1.1896592 -0.34191933 -1.1557269 -0.9878644
000220 45 3a fd bf 32 fc d9 bf 50 c1 ca 3e b9 bb 37 3f
       -1.9783407 -1.7030089 0.3960061 0.7177082
000230 e3 3e 30 be 32 7a 9e be 1a 5b 10 3f dc 04 18 3e
       -0.1721149 -0.30952603 0.5638901 0.14845604
000240 16 bc 85 3e 67 44 ce 3f 9f 6a 90 3f c3 1c 50 3e
       0.2612006 1.6114625 1.1282538 0.20323472
000250 19 5f 68 3f 6e 55 37 c0 29 7f 99 3e 43 28 d9 be
       0.9077011 -2.8645892 0.29979828 -0.4241353
000260 19 04 92 be b9 3f 07 be d7 52 a3 bf 8a d6 91 3f
       -0.2851875 -0.13207902 -1.2759656 1.1393597
000270 a1 46 1c bf 94 b7 e5 3d 3c 4f 95 be 72 78 11 40
       -0.6104527 0.112166554 -0.29162014 2.2729764
000280 61 a3 b7 be 70 23 98 bf 1e ff 46 bf e4 59 90 bf
       -0.35866836 -1.1885815 -0.7773303 -1.1277432
000290 d4 78 2a be 83 db fd be e9 45 97 bf c4 3d 38 bf
       -0.16647655 -0.49581537 -1.181821 -0.71969247
0002a0 a1 67 43 3e 32 b1 18 be b7 91 97 be 24 45 87 be
       0.190825 -0.14911345 -0.2960336 -0.26419938
0002b0 e9 d1 3a bf db 06 03 bf a6 72 82 bf 2d 2b d8 bf
       -0.7297655 -0.51182336 -1.0191238 -1.6888176
0002c0 4d d6 ce bc af b6 12 bf a5 79 8f bf cf b8 de be
       -0.025248671 -0.57310003 -1.1208998 -0.43500373
0002d0 fd c9 1b 40 b4 66 55 bf 1c f5 df 3f 7f a5 fc 3f
       2.4342034 -0.8335984 1.7496676 1.9738005
0002e0 9d fa b2 3e 2c 1d 16 bf c7 e8 71 bf 79 81 36 bf
       0.34956828 -0.5863826 -0.94495815 -0.7129131
0002f0 d0 85 18 3f e8 d2 14 3f 8c 84 64 bf 9a ab a3 3f
       0.5957918 0.5813432 -0.8926475 1.2786744
000300 9e dd 47 bf 2a 9f 15 40 51 fe 04 40 cf 96 22 3f
       -0.78072536 2.3378396 2.0780222 0.63511366
000310 c8 ac 17 be 58 30 b0 3e 7e 89 6e be 3e c9 35 40
       -0.14812005 0.34411883 -0.23294637 2.8404078
000320 c0 71 9d 3f 67 6c 90 bf e6 d1 7f be 37 8f 69 3f
       1.2300339 -1.1283082 -0.24982414 0.91234154
000330 c5 95 6e bf de c4 ab bf e8 04 b9 3e d7 9a 72 40
       -0.9319728 -1.3419454 0.36136556 3.7907007
000340 b8 78 60 3f 34 79 b9 3d 04 31 a3 bf ec 14 bc be
       0.876842 0.09056321 -1.2749333 -0.36734712
000350 8b af 22 40 dd 81 38 be 63 5a ec be 1d 28 11 3f
       2.5419643 -0.18018289 -0.4616271 0.56701833
000360 8d 57 4f c0 c2 a3 ba bf fd ba 81 bf d2 e5 09 bf
       -3.2397187 -1.4581225 -1.0135189 -0.538663
000370 37 40 7e 40 84 4e a7 3f 80 cc a9 be 29 f1 2c 3f
       3.9726694 1.3070836 -0.33163834 0.6755548
000380 fa 47 fc 3f c1 bf 74 bd c9 f6 dc 3e 21 ed 22 40
       1.9709466 -0.059753183 0.43157032 2.5457232
000390 db dc 57 40 45 ff 75 3f 98 ac 81 be e5 6e 98 3f
       3.372855 0.96092635 -0.2532699 1.1908842
0003a0 de 45 57 bf 4a ca c9 3e 29 d9 15 c0 b5 34 74 3f
       -0.84090984 0.39412147 -2.3413794 0.95392925
0003b0 b1 7c d7 3f b3 96 3b be a1 ea 94 3e 04 05 f6 bf
       1.6834928 -0.18319206 0.29085258 -1.9220281
0003c0 ba 01 1c c0 42 a3 27 c0 86 84 d8 bf 63 12 1d 3f
       -2.4376054 -2.6193395 -1.6915443 0.6135618
0003d0 ef c4 c6 bf 13 50 27 3f 76 18 e7 bf af 0e 5b 3e
       -1.5528849 0.6535656 -1.805434 0.2139232
0003e0 1e 50 e3 bd 73 6f 5c 3f aa 96 00 bf ce e3 c5 bd
       -0.110992655 0.8610756 -0.50229895 -0.09662591
0003f0 1a 6b 00 c0 df 56 2a 3f ec 7c c8 3f ab a5 18 40
       -2.006537 0.66538805 1.5663123 2.3851116

lin1.weight f4 [1024, 128]
000000 62 63 44 bb 09 e1 4f bb 0e 75 9c 3b 80 35 ce 38
       -0.0029966463 -0.0031719825 0.004774696 9.8328106e-05
000010 45 33 26 3c 7f 8d d9 3b eb 0a a0 bc 48 14 bc 3b
       0.01014406 0.006639182 -0.019536456 0.0057397224
000020 5e b4 9f bb e0 56 5a 3c 12 2e 1a 3b 91 2f 6d 3b
       -0.0048737964 0.013326377 0.0023525995 0.0036191682
000030 dc 17 61 3c 50 94 b5 b6 68 ad 60 3c 7a 0b 2c 3c
       0.013738599 -5.411486e-06 0.013713218 0.010500783
000040 35 58 34 bb e0 a3 ec 3b 1b fc 07 bc 34 55 7f ba
       -0.0027518396 0.007221684 -0.008299853 -0.0009740174
000050 30 db b0 bc 89 5c 17 3b d2 e1 d7 b8 00 14 1c bc
       -0.021588892 0.0023095927 -0.00010294061 -0.009526253
000060 a6 42 94 3b 21 bb b6 bb a6 02 01 3b 09 7f 17 3c
       0.0045245467 -0.0055765067 0.0019685416 0.009246596
000070 32 7b eb 3b f8 f4 13 bc f0 41 a0 3b 3d b6 86 bc
       0.007186317 -0.009030573 0.004890673 -0.01644432
000080 81 f7 cf bb cc cc b9 bb 06 26 e9 3a 5c 9c 52 bb
       -0.0063466434 -0.0056701656 0.0017787821 -0.0032136654
000090 56 e9 5c b9 5d bb 4a 3b 26 41 6b bc 12 7d 65 bc
       -0.0002106776 0.003093443 -0.014358794 -0.01400687
0000a0 52 ad 4d b9 a6 9e bf 3b 42 60 ff bb 37 9b c7 bb
       -0.0001961489 0.00584777 -0.0077934572 -0.006091501
0000b0 0b 8e 08 3c fe 08 8b 3c 90 83 57 b9 0b 15 d3 3b
       0.008334647 0.016972061 -0.00020553009 0.0064417175
0000c0 dd 9f 75 bb 35 18 06 3c 7f 29 f0 bb 71 3e 00 3c
       -0.003747932 0.008184482 -0.0073291655 0.007827387
0000d0 1c 0c cf 3b c5 3f 1b 3c c2 1c f1 ba c3 bc 76 bb
       0.006318582 0.009475653 -0.0018395411 -0.0037649132
0000e0 d8 07 7a ba 3c d3 25 3c f0 54 e7 3b c0 18 c8 3b
       -0.0009537912 0.010121163 0.007059686 0.006106466
0000f0 c3 00 24 bc e0 be 13 bc bd 83 8c bb 24 3b ac 3b
       -0.010009947 -0.009017676 -0.0042881654 0.0052560735
000100 36 84 35 bb 8e 02 25 bc 7a e3 0b bb b0 96 55 3c
       -0.0027697212 -0.01007141 -0.0021345303 0.013036415
000110 f6 d6 c8 3b 50 d9 11 3b 73 af dd ba 86 19 c7 3b
       0.006129141 0.0022254772 -0.001691325 0.0060760407
000120 90 1d 80 bb ed 2a 99 3b db f5 ba 3b 66 74 30 bb
       -0.003909774 0.0046743066 0.005705578 -0.0026924848
000130 54 c5 c4 3b ac fb 28 bc b6 d1 2c bc f9 31 52 b9
       0.0060049687 -0.0103139095 -0.010548046 -0.00020045777
000140 04 03 49 3b 3f 3f 23 bc 19 f8 cb bb 0b a7 11 bc
       0.0030671963 -0.0099638095 -0.006224644 -0.008889924
000150 2c 54 c3 3a bd c6 bb bb c3 59 09 bb f5 11 3b bb
       0.0014902405 -0.0057304786 -0.0020958043 -0.0028544639
000160 3c 2e e6 3a 6d 3d 8a bb da 11 4e ba a3 0d c9 3b
       0.0017561386 -0.0042187483 -0.00078609365 0.006135659
000170 e3 f9 f6 bb 2a f0 29 bc e0 40 42 bb df f5 c2 3b
       -0.007537113 -0.010372201 -0.002964072 0.0059497203
000180 f9 fe 2c 3c 36 22 03 bb 93 7b f8 bb 45 0d 6e bc
       0.010558837 -0.0020009405 -0.0075830906 -0.014529531
000190 9e bc bf 3b b9 aa 81 3a 30 21 88 bb 2d cf f8 bb
       0.0058513423 0.0009892798 -0.004154347 -0.0075930567
0001a0 ef 82 b9 39 b3 1d c7 bb 79 5f f2 bb a6 16 09 bc
       0.00035383503 -0.0060765385 -0.007396635 -0.008367216
0001b0 88 49 cb bb 91 57 0c 3b 1a 9b 1d 3b 3c ce 38 3c
       -0.006203834 0.0021414498 0.0024048747 0.011279639
0001c0 f4 e4 c6 3b 9d 43 94 3b 53 2a 82 3b 58 25 56 37
       0.006069774 0.0045246617 0.0039723306 1.2764089e-05
0001d0 77 d4 df bb 29 43 85 bb 68 fb e9 3b b3 f1 44 3c
       -0.0068307477 -0.004066844 0.0071405657 0.012020516
0001e0 38 ab 40 3b a2 b0 21 3c 30 c5 b5 3b 3b 2a 1f bc
       0.002939893 0.009868773 0.005547188 -0.009714658
0001f0 eb 84 c4 3a 81 b4 08 bc 3a 0e 23 ba 6e a0 ac 3b
       0.0014993226 -0.008343817 -0.00062200765 0.005268148
000200 68 78 a8 3c 47 77 60 bc 6b e7 d5 bc 5f 60 24 3c
       0.020565227 -0.013700313 -0.026111325 0.010032742
000210 6f 97 de bc 23 a0 ca 3c 23 e7 8e bb 50 96 02 bc
       -0.027171819 0.024734562 -0.0043610497 -0.007970408
000220 a4 3e 2e 3c f0 96 a6 bb 13 3d 64 bc 76 04 8d bc
       0.010635052 -0.005083911 -0.013930577 -0.017214041
000230 b2 b6 51 3c c7 41 69 bc 00 a0 98 3b ef 01 02 bc
       0.012799906 -0.014236874 0.0046577454 -0.007935031
000240 ab c5 53 3c 03 9d 23 bc 00 bb 57 3c 91 3b d3 3c
       0.012925546 -0.009986165 0.013167143 0.02578524
000250 c7 3c aa bc fa ab 16 b9 45 c2 b9 3a f1 2b e0 3a
       -0.020780934 -0.00014369181 0.0014172277 0.0017102939
000260 1f 2c 98 bc bd 65 52 3c 19 58 da 3c 09 5c 5a 3c
       -0.018575726 0.012841639 0.026653336 0.013327607
000270 3d 00 ee bc c2 39 05 bb d5 e8 27 bc 2e 3a 80 3d
       -0.029052848 -0.0020328616 -0.010248383 0.06261097
000280 cd 35 82 3c 24 7e 23 bb c3 e9 9c bb 88 c7 31 bb
       0.015894795 -0.0024947012 -0.0047886088 -0.0027126987
000290 cc ee a5 ba 3c 00 ee bc 7b c4 4e bb 7b bb 6c bc
       -0.0012659668 -0.029052846 -0.0031550217 -0.014448996
0002a0 59 6b 0c bd e9 4e 65 3b 38 09 86 bb 0a 84 99 3b
       -0.034282062 0.003498966 -0.0040904544 0.0046849297
0002b0 e1 8d 6f 3c 39 3b 7e bc df c9 44 bb 54 f5 b1 3c
       0.014621229 -0.0155170495 -0.003002755 0.021723427
0002c0 e1 9f aa bc c7 90 48 bb e7 63 9d 3c a0 1e 30 bb
       -0.02082819 -0.0030603872 0.019212676 -0.0026873723
0002d0 33 48 e3 bb a7 4e 23 bc 35 b1 86 3c 84 9f 5d 3b
       -0.006936097 -0.009967483 0.01644192 0.0033817003
0002e0 de 4b bc 3c 3e 54 1b 3b e7 76 c9 3c ec 02 a2 3b
       0.022985395 0.0023701335 0.02459283 0.004944196
0002f0 1e 5f d0 3b db e9 16 3c c4 af 1e bc f5 d8 91 3b
       0.006358995 0.009211029 -0.0096854605 0.004450912
000300 6e d9 49 3d 4c 44 81 bd 37 4f b0 3c 5e 6a f1 3d
       0.049279623 -0.06311855 0.021522148 0.11787866
000310 09 95 a0 bd a1 11 87 3d b5 2a 54 bc fc 42 ff bc
       -0.07840926 0.06595159 -0.012949635 -0.03115987
000320 8c 7f 75 bc 4a 5d 68 3d 64 69 54 3d 66 bc aa bd
       -0.014984023 0.056729592 0.05185832 -0.083367154
000330 32 3f fa 3d 72 a6 db bb 4b 89 c3 bd f9 f1 a3 3c
       0.12219085 -0.0067031914 -0.09547671 0.020012842
000340 00 66 21 bd 5b 9b 12 3e bc a6 c9 bc a2 83 c2 bc
       -0.039403915 0.14317076 -0.024615638 -0.023744408
000350 10 58 d9 bc 17 73 2c 3c da eb 3e bb 20 64 92 bd
       -0.02653125 0.010525486 -0.0029132278 -0.071480036
000360 c4 54 cc bc 9d ac 9c bd d6 7c 8b 3d 83 1e ab bc
       -0.024942763 -0.07650111 0.0681092 -0.020888573
000370 66 0b aa 3d f0 20 39 bc b1 b7 fd 3d a0 c1 34 3d
       0.08302955 -0.011299357 0.12388552 0.044129968
000380 4a 12 a3 bb 82 68 40 3c 67 9d eb 3c 4b f8 1f 3d
       -0.0049765455 0.011743667 0.028761579 0.03905515
000390 18 b4 15 3e f5 00 5c bd 39 ec df bd cc 66 98 3d
       0.14619482 -0.05371185 -0.10933728 0.07441482
0003a0 e9 40 05 3d 81 72 bc 3d e0 7b e0 3d 94 3d 7a 3c
       0.032532606 0.092015274 0.10961127 0.01527347
0003b0 fa ad 6f 3e 47 cd 16 3e b7 e4 9e 3d e0 11 61 3d
       0.2340621 0.14726745 0.07758468 0.054948688
0003c0 a3 b9 fe bd 52 56 90 bd 0a b4 28 3d b3 d2 95 3d
       -0.12437751 -0.07047714 0.041187324 0.07315578
0003d0 2e 5d 94 bd 87 5c a4 3d e7 d0 87 bd 5f eb be bd
       -0.07244335 0.08025461 -0.06631642 -0.09322237
0003e0 8f e6 20 be ca f9 c1 bc 65 e9 be bc 23 3c c6 bc
       -0.15712951 -0.023678679 -0.02330465 -0.024198597
0003f0 bd 85 60 bc 10 01 98 bd df ab e0 3d df 5d bb 3d
       -0.013703761 -0.07422078 0.10970282 0.09148764

lin1.bias f4 [1024]
000000 bf 12 aa 3c 51 b8 10 bd 08 1c 55 3e 25 65 44 3e
       0.020760892 -0.035332028 0.20811474 0.19179209
000010 a0 13 89 3b 36 df f3 3c 30 01 90 bd db 43 04 3e
       0.0041832477 0.029769521 -0.070314765 0.1291651
000020 67 20 ef 3e e4 59 0c bd e2 07 55 3e 2a 6d 6f 3e
       0.4670441 -0.034265414 0.20803788 0.23381487
000030 a4 00 b6 be 89 20 1c 3c b3 75 68 3e 36 51 a0 3e
       -0.35547364 0.009529241 0.22701149 0.3131196
000040 f0 9f fb bb 4c 2f b8 bc 5b 10 9a bd ef 88 89 be
       -0.007678978 -0.02248349 -0.07522651 -0.26862285
000050 61 7c 7a be b5 40 47 bc 45 d1 e8 bd 96 77 51 3d
       -0.2446151 -0.012161423 -0.1136804 0.051139437
000060 19 4c 80 3c 0e 8f 63 be a1 b0 66 3c 03 f4 4c be
       0.015661286 -0.2222254 0.014080198 -0.20014958
000070 63 73 3c 3e 8c 73 50 3d c7 e1 3e bc 33 e8 a2 b9
       0.18403392 0.050891444 -0.011650509 -0.0003107205
000080 83 e1 a0 3e b5 11 a2 3e ae bc ae 3c c5 d1 a5 3b
       0.31422052 0.31654134 0.021330204 0.005060407
000090 48 4e 41 bc b8 77 36 bd 14 bc 2e 3d cc c4 30 be
       -0.011798449 -0.044547766 0.042659834 -0.17262572
0000a0 13 59 5f 3d 8c 59 3b 3e b9 f1 86 3d d3 01 81 3d
       0.054528307 0.18295878 0.06589074 0.06299176
0000b0 51 18 e5 bc 50 57 97 3e 52 f8 c3 bd 3e 5f 8c 3e
       -0.027965697 0.29558802 -0.09568848 0.27416414
0000c0 ae b6 a0 3e eb 4f 08 3d 70 73 2d 3c 1f 11 a5 3e
       0.31389374 0.03327934 0.0105866045 0.32239625
0000d0 65 11 a9 bd b1 c8 62 be 0c 53 5c 3e 33 22 67 be
       -0.08255271 -0.2214687 0.21516055 -0.2257164
0000e0 56 e8 62 3e a2 48 80 be d4 d7 f0 3e 20 56 8b be
       0.22158942 -0.25055414 0.47039664 -0.27214146
0000f0 b2 70 9c be 0b be 1a 3d 19 b0 1e 3e ec 26 bd bd
       -0.3055473 0.037778895 0.15496863 -0.092359394
000100 4f a7 01 3c e4 a6 be bd cd 3e c9 3d f0 71 f2 3e
       0.007913425 -0.093091756 0.098264314 0.47352552
000110 94 6b 63 3e 85 da 99 3b fc 28 8f 3e 35 26 3f be
       0.22209007 0.004695239 0.27960956 -0.18666919
000120 33 47 f9 3d 9f 74 70 bc 8d 13 6d 3e 8a a4 98 3e
       0.12171783 -0.014676242 0.2315199 0.29813033
000130 0a 66 aa be 1c d4 dd 3e 70 bd a4 bd 4b 2d e9 bc
       -0.33280975 0.4332589 -0.08043945 -0.02846398
000140 c6 2b 00 bd ee 5e 47 be 9a 3b 92 3e be 2c 9f be
       -0.031291746 -0.19469807 0.28561097 -0.31088823
000150 dc fd 8b be c6 ef 2b be f7 b6 d9 3d 72 25 bd 3d
       -0.27342117 -0.16790685 0.10630601 0.09235658
000160 6b 49 75 3e f2 7f c6 be 9e 6f 8b bd f7 00 80 be
       0.23953788 -0.3876949 -0.06808399 -0.25000736
000170 44 38 ed 3d ad c0 b4 3d 26 61 c2 3c 78 65 80 3c
       0.115829974 0.088258125 0.023727965 0.015673384
000180 2f 9c 13 be 36 26 a6 3e 37 55 f6 be 4d b1 9f bd
       -0.14415048 0.32451028 -0.4811189 -0.07797489
000190 0a df 61 3e 54 6b 34 3e e8 1c 03 be 53 14 c9 3b
       0.22057739 0.17619067 -0.12803996 0.006136456
0001a0 df e4 e6 bd c7 3a f2 3e b3 eb 84 3e 69 56 f9 3d
       -0.112741224 0.4731047 0.25961074 0.121746846
0001b0 38 3a c3 bb ec 52 89 3d c1 74 07 be 3b 1f 96 be
       -0.005957868 0.06705269 -0.13228132 -0.29320702
0001c0 d9 9f 00 3f 39 7e df 3c d3 5b e9 3d 1e f8 e6 bd
       0.5024391 0.027281867 0.11394467 -0.11277793
0001d0 20 95 6e bb 94 1d 46 bc a1 29 a3 bd 71 ac a3 3e
       -0.0036404803 -0.012092013 -0.079669245 0.319675
0001e0 95 98 a3 3c 3d 26 24 be 75 db 3e bd a8 4f bc bd
       0.019970218 -0.16030212 -0.04659601 -0.09194881
0001f0 7d c1 98 3e 31 d6 8e 3e 91 d1 9a bb 58 a5 1f bc
       0.2983512 0.2789779 -0.0047246893 -0.009744011
000200 58 ee a8 3d 19 6f e5 bc 6c 54 0f bc f4 6b 6f be
       0.082485855 -0.028007077 -0.008748155 -0.23381025
000210 90 ad 84 3e 30 35 c3 3d 15 dd c1 bd 41 91 18 3d
       0.25913668 0.09531629 -0.09465996 0.0372479
000220 07 87 3b 3e 3c 6e 2f be a6 74 81 be f4 00 f2 3c
       0.18313228 -0.17131895 -0.25284308 0.02954147
000230 b1 51 0a 3e 8a e6 5b 3e 9e fa 9b be 44 02 c1 3d
       0.13507725 0.21474662 -0.30464643 0.0942426
000240 d1 7d c4 3c bc ea 6a 3e e0 03 8f 3e 4b 33 82 3e
       0.023985775 0.22941107 0.27932644 0.25429758
000250 6b ff e4 3d 93 f3 1c 3e b1 49 a8 bc e6 f5 f3 3c
       0.111815296 0.15327291 -0.020542951 0.02978034
000260 b4 24 20 bc 9a f5 26 be aa 7d 41 be 36 23 1c be
       -0.009774376 -0.16304627 -0.18895593 -0.15247807
000270 a2 44 9b bd 5a cd 45 3d bf ea cf 3b 97 6a 52 3e
       -0.0758145 0.04829154 0.0063451226 0.20548473
000280 5a d5 cf bc 29 ab fd bc 8a 45 19 bb aa 03 41 be
       -0.025370289 -0.030965405 -0.0023387396 -0.18849054
000290 bf 3a 67 3e e5 7e 8d 3e 4c b4 6f bd 2a b6 03 bd
       0.22581004 0.27635875 -0.058521554 -0.032156147
0002a0 f7 9a fa bd 29 91 dc bd b8 e5 ea bc d9 bc 2c be
       -0.122365884 -0.107698746 -0.028673992 -0.16868915
0002b0 ff f7 45 3e 6c d6 92 be 0f 9b dd bc 34 5a 22 be
       0.19332884 -0.28679216 -0.027051477 -0.15854722
0002c0 b6 c7 c9 bb 23 d5 c3 bd 4f 56 41 3e 87 ef 44 3c
       -0.0061578406 -0.09562137 0.1888058 0.012019998
0002d0 50 0f 45 be 02 88 c8 3d 5f e0 3f 3e 1a d0 ce 3a
       -0.19244123 0.097915664 0.18737935 0.0015778572
0002e0 a1 d1 b7 3e b8 e9 43 3e 80 7e 30 be 05 93 d0 b9
       0.35902122 0.19132125 -0.17235756 -0.0003978239
0002f0 d9 73 d4 3d f9 02 13 3e 77 c5 28 3e 9b 7f 03 bf
       0.10373659 0.14356603 0.16481577 -0.51366585
000300 d9 c1 bb be 05 12 88 3c 22 5f fb 3b 2d 3b 7d 3e
       -0.36671332 0.016610155 0.007671253 0.24729605
000310 43 db 20 bd 17 f7 f6 3e 57 13 ca 3d 53 7a cc bd
       -0.039271604 0.4823539 0.0986697 -0.09984269
000320 cb 2f b2 bd bb eb 8e be 8e 5b ed 3e 91 c5 2a be
       -0.08700522 -0.27914223 0.46358913 -0.16676928
000330 d3 6b 4a bc f9 0f 5b be a9 58 d3 3d e2 75 f8 bc
       -0.012354809 -0.21392812 0.10319645 -0.030329648
000340 76 14 9f bd b9 b6 ad bc c8 d2 9d 3c f6 f7 90 bc
       -0.077675745 -0.021205293 0.019265547 -0.017696362
000350 10 cc 74 be e5 24 bd 3d 9d c7 67 3e 04 b8 e3 bd
       -0.23905969 0.09235553 0.2263474 -0.111190826
000360 92 2f d6 bc 32 4d b5 bb ef 0f 6e be 8c 14 32 bc
       -0.02614573 -0.005532884 -0.23248266 -0.010869157
000370 d0 41 4f 3e b4 df d2 bd 43 7c 2d be da d7 72 be
       0.20239949 -0.10296574 -0.16941933 -0.23715153
000380 e5 cc 0b 3e 2c e2 ce 3d f9 dd 6f bc 43 34 26 3e
       0.1365238 0.101017326 -0.014640325 0.16230874
000390 f1 8b 9c be 31 73 b6 3e a9 16 7b 3e 14 65 12 be
       -0.30575517 0.3563476 0.24520363 -0.1429637
0003a0 88 1f 55 be 7f ee ef bd f6 c7 aa 3e dd 7d 8b 3e
       -0.2081281 -0.117154114 0.33355683 0.27244464
0003b0 4d 57 ac 3e 5d 43 d3 3c 2a 0c e3 bc 26 b4 82 bd
       0.33660355 0.025788957 -0.027715761 -0.06382017
0003c0 c3 49 77 be d2 a8 b9 be 07 3f c7 3d 02 ff 55 3d
       -0.24149232 -0.36261612 0.097288184 0.052245148
0003d0 ae 95 da bd c4 aa fe 3d c1 8f 65 be 4c cc ff bc
       -0.106730804 0.12434915 -0.22418119 -0.031225346
0003e0 5b 57 71 be 7b 6b 87 be cc eb 2f 3e b4 fd 1e bd
       -0.2356848 -0.2644919 0.17179793 -0.03881617
0003f0 e6 16 e9 3d 92 94 b9 bc 7d 4c e9 be 8b c9 a1 bd
       0.11381321 -0.022653852 -0.45566168 -0.078997694

lin2.weight f4 [98, 1024]
000000 7d 42 67 bb a1 2e 8d 3c f5 4f dc bc b9 c8 a0 bb
       -0.0035287433 0.017234148 -0.026893595 -0.0049067405
000010 fe 92 e1 3a ac 86 38 bc 3a 41 0f be ae 8b cf bb
       0.0017209945 -0.011262577 -0.13989726 -0.00633379
000020 9d d7 ed 3b 8c c2 85 3c 12 b7 97 3b 32 ef dd 3b
       0.007258369 0.016328119 0.004629978 0.006772899
000030 f6 f6 ab bb 46 e4 53 3c 58 b0 86 3c ed 3b d1 bd
       -0.005247946 0.012932843 0.01644151 -0.10216508
000040 c1 26 3b bc 20 37 e8 3a cb 1b 54 bb a8 72 5a bc
       -0.011422814 0.0017716624 -0.0032365199 -0.013333
000050 8b 4b c2 3d 59 e7 63 bb 14 02 bf b8 2f eb 2d bc
       0.09487065 -0.0034775345 -9.107977e-05 -0.010615154
000060 90 08 d0 bb 43 53 98 bc 44 1e 1a bc 16 11 49 bc
       -0.006348677 -0.01859439 -0.00940663 -0.01227214
000070 79 05 b1 3b 53 29 4e 3d 32 69 6b 3c 07 6f c3 3b
       0.0054022637 0.05033238 0.014368342 0.005964163
000080 e2 91 97 3c f4 33 38 be 41 14 95 3b 52 62 f0 bd
       0.01850218 -0.17988569 0.0045495336 -0.11737503
000090 d7 10 87 bb f5 2b 44 3e 36 76 0f bd 64 cb cf 3d
       -0.0041218805 0.19157393 -0.035024844 0.101462156
0000a0 ee 13 6f 3c c3 27 68 3b a1 5d 77 bc bf 3c 95 bc
       0.014592154 0.003542409 -0.015098006 -0.018217443
0000b0 1d 5c 5e 3b 4f 8a 8f 3d ae 5f 04 bb 4c 74 7a 3d
       0.0033929416 0.07008802 -0.002019863 0.061146066
0000c0 3c 11 b5 bc 6b 4e 06 3f a2 6c b2 bb dc e5 f7 3b
       -0.022102945 0.52463406 -0.005445079 0.007565243
0000d0 56 48 0a be 9b a2 1a 3c e8 1e 99 3b 24 3a b7 3a
       -0.13504156 0.009438182 0.0046728738 0.0013979119
0000e0 42 da fa 3d 2b 4b b0 3b 87 7a 0c be 1e 9f cc bb
       0.122486606 0.0053800545 -0.13718615 -0.006244554
0000f0 4d 7b ba 3d ee d3 ba be e8 11 ee 3d 7a a7 78 3d
       0.09105549 -0.36489815 0.11624509 0.060706593
000100 2c 86 09 3b ea 40 95 bb 65 10 a7 3b 19 c0 59 3c
       0.0020984514 -0.0045548575 0.00509839 0.013290429
000110 29 76 ac 3b e6 b0 ca 3a 51 61 96 bd db d7 ab 3b
       0.005263109 0.0015464097 -0.073427804 0.005244238
000120 9e 90 8e 3b b0 b4 28 3c 12 4b 5c 3b dd f1 f9 bc
       0.004350736 0.0102969855 0.0033614081 -0.030510837
000130 c8 3e f8 bb d6 bf 1e 3c 0f 06 e2 3b 43 c9 1b 3c
       -0.0075758435 0.009689292 0.006897695 0.009508434
000140 e9 f8 bf bb 3b 1b 4a bd 81 06 2d 3d f3 26 44 bb
       -0.00585853 -0.049342375 0.04224253 -0.0029930442
000150 74 7a 2e bc 06 ea 13 be b1 06 17 3e 84 0d 10 3d
       -0.010649312 -0.14444742 0.14748646 0.03516914
000160 41 37 80 3c 09 83 68 bd cc 11 29 bb 47 d2 c8 bd
       0.015651347 -0.05676559 -0.0025797961 -0.09805732
000170 65 8a 70 bc bf 1e 83 bd 07 a4 56 bb 2e ed 18 bc
       -0.014681433 -0.06402349 -0.0032751577 -0.009333892
000180 ec 12 94 bb 03 b3 e9 bd 46 c4 40 3d 28 ad 2a bc
       -0.004518857 -0.11411097 0.04706218 -0.01041726
000190 1d 7a 3f 3c 7c b4 64 ba 8e 24 d1 bb 69 63 40 bc
       0.011686829 -0.0008724404 -0.0063825315 -0.011742451
0001a0 66 3d 01 bc d0 8c c0 bd 20 90 7b 38 9d d4 55 3b
       -0.007888174 -0.09401858 5.997729e-05 0.0032627948
0001b0 73 89 34 3b da 82 9e bc 6a 26 f3 ba c8 5c 02 bb
       0.0027547746 -0.019349504 -0.0018550877 -0.0019891728
0001c0 fc ce 29 3c da e4 0f 3d 14 9e 80 3c 7b 5d cf bd
       0.01036429 0.03513036 0.015700378 -0.10125252
0001d0 32 af a4 bb f0 fa 99 bc 89 53 83 bc 5f 30 a9 3d
       -0.0050257677 -0.018796414 -0.016031044 0.08261179
0001e0 56 2a aa bb 60 29 ad be e5 17 37 bb 8e cc 56 bb
       -0.005193035 -0.3382063 -0.0027937826 -0.0032775733
0001f0 59 5a 6d 3b 85 98 89 3d 8c 6e bc bb 8f 1c 66 bb
       0.0036217181 0.06718544 -0.005750483 -0.0035112237
000200 6d fb 1c 3c a8 72 5e ba d6 e5 e5 3a b5 01 01 bb
       0.009581429 -0.0008485713 0.001753981 -0.0019684855
000210 a9 08 bc 3b 8f 8e 7f ba 39 e7 ab bd 89 3c 66 3c
       0.005738337 -0.0009748721 -0.083937116 0.014052519
000220 98 54 60 3c a1 3b 0d 3b 9d 2c 90 3d 36 5c 86 3b
       0.013692044 0.0021550434 0.07039759 0.004100348
000230 9f 19 93 bd 80 0c a4 3c 5a 76 b6 3c 4b e7 42 3c
       -0.07182621 0.020025492 0.022273231 0.011895965
000240 bb fe c2 3d f7 86 43 3c ea 76 17 bd 5c 60 b2 3c
       0.09521242 0.011934034 -0.03697864 0.021774463
000250 7d 73 c1 3c a2 7f 39 3c f0 51 7a 3b d4 b1 05 bc
       0.02361464 0.011321934 0.0038195811 -0.008160073
000260 ad d7 f3 bb 08 b0 32 bc f0 68 99 bc 83 84 a3 3b
       -0.007441482 -0.010906227 -0.018726796 0.004990162
000270 bb 24 1a 3d d7 89 9b bb 37 90 18 bc 0f f7 b1 bb
       0.037632685 -0.0047466564 -0.009311727 -0.005431063
000280 38 fd 17 bc 6e 29 c9 3b bb 01 fb bb 25 f8 07 ba
       -0.009276681 0.006138972 -0.0076601184 -0.0005186818
000290 87 1d 8d bb f3 d1 3d 3c f6 dc 12 bc ab 97 fe bb
       -0.0043064984 0.0115857 -0.008963814 -0.007769545
0002a0 0a b5 55 3d a6 43 84 bb 34 e0 e5 bb c6 cf f2 bb
       0.052174605 -0.0040363846 -0.0070152525 -0.0074100224
0002b0 67 fe b5 3d 17 a1 7a bb eb 99 48 bb 63 c9 8c 3c
       0.08886414 -0.003824299 -0.003060932 0.017185872
0002c0 8f eb 8a be 17 8f 3c 3c 86 7b 86 bb 75 19 ec ba
       -0.27132842 0.011508725 -0.0041040806 -0.0018012958
0002d0 08 aa 6a be 74 14 dc 3c 33 26 3d 3c 1c 5c a3 3b
       -0.22916424 0.026865222 0.011544752 0.0049853455
0002e0 a6 0f 4f 3c 1f f1 b5 3d 89 b1 f4 bb 95 68 ae 3d
       0.012638008 0.08883881 -0.007467453 0.08516041
0002f0 66 d8 92 3a 7b 9e 76 3a e5 e2 fa 3b 3e 0b 25 be
       0.0011203408 0.00094077707 0.0076564425 -0.1611757
000300 00 a6 a4 3d 1f d3 5f bb 27 43 1a bc d2 6d 9e 3b
       0.080394745 -0.0034152938 -0.009415424 0.004834869
000310 25 2e 1d bd 8d 73 1a ba a9 5e 86 3b dc ba 77 bd
       -0.038374085 -0.0005891852 0.00410064 -0.060480937
000320 46 52 66 bb 76 c9 47 bd a1 d2 99 bd 60 cf 15 bc
       -0.0035144254 -0.048776112 -0.075108774 -0.00914368
000330 e5 6e 19 3c c4 6e 1b 3b 80 bc 87 3b 9b f9 c7 bb
       0.009364818 0.0023717145 0.004142344 -0.0061027533
000340 cc 2f 91 bb 08 52 17 3a 74 f7 74 3b a5 44 39 bc
       -0.0044307467 0.00057724165 0.003737894 -0.01130787
000350 d1 00 21 bd 43 18 2b bd ee 5a 8d 3b a3 a2 85 ba
       -0.03930742 -0.041771185 0.004313818 -0.0010195564
000360 2b cd 0d 3b 18 48 62 bb ad 95 29 bd 0c bf cc bb
       0.0021637182 -0.0034527835 -0.041402508 -0.0062483605
000370 86 a4 9a 3b 77 8d 11 3d 63 30 8b bb 46 f2 2a bc
       0.0047193198 0.035535302 -0.0042477115 -0.010433739
000380 a5 44 a5 be 33 09 b0 3d 07 05 e6 3a 58 78 d8 bd
       -0.32278934 0.085955046 0.0017549106 -0.10569829
000390 d1 b5 31 ba de 2d f9 3d ba f5 2d 39 0c 93 68 3b
       -0.0006779107 0.121669516 0.00016590106 0.0035488037
0003a0 32 6d 64 3c 3e 7e 00 bc ea 93 c2 bb d3 e5 95 3b
       0.01394205 -0.0078425985 -0.005938043 0.0045745163
0003b0 37 f5 6c bc 6e 82 91 bb 2f 5a c2 bd 30 59 75 bb
       -0.014462761 -0.0044405973 -0.094898574 -0.0037437193
0003c0 a9 57 43 3b 24 a5 cb 3d 14 39 98 3b 4d 48 1f 3e
       0.0029806888 0.099436074 0.004645476 0.15554924
0003d0 0c fe bf bb 50 eb cf 3b a8 c2 81 b8 25 18 d4 bb
       -0.005859142 0.00634519 -6.187457e-05 -0.006472605
0003e0 0c 48 b2 bb 2c 0a a7 bd b5 87 53 3b 4a d3 3d bb
       -0.0054407176 -0.08156237 0.0032276933 -0.002896505
0003f0 a0 fc 1e bc 9a 3a 7f 3b 09 30 50 bd 19 1a a0 bb
       -0.009703785 0.0038944841 -0.05082706 -0.0048859236

lin2.bias f4 [98]
000000 20 d1 51 be 16 64 0a 3f 48 9e 15 bf 3a 45 99 bf
       -0.20489931 0.5405897 -0.58444643 -1.1974251
000010 6c 73 38 c0 5b fa 38 c0 7c fe 63 bf 7b 7b a4 bf
       -2.8820448 -2.8902805 -0.8906019 -1.2850183
000020 30 58 91 bf dd 8a 7f bf 3c 10 7c be 76 18 57 bf
       -1.1355038 -0.99821264 -0.24615568 -0.840217
000030 db 71 87 be 81 ae 3a c0 90 13 7c bf a5 d3 85 bf
       -0.26454052 -2.9169009 -0.9846735 -1.0455214
000040 31 88 1f bf 25 18 45 bf 82 ca 28 bf 74 b9 48 bf
       -0.62317187 -0.76989967 -0.65934 -0.7840798
000050 9d fe 24 bf bd 31 3b bf 10 ce 60 bf ec fc 57 bf
       -0.6445101 -0.7312277 -0.87814426 -0.84370303
000060 69 6c 21 bf 27 88 5f bf e7 7b 2b bf 1e e2 4e be
       -0.63056046 -0.87317127 -0.66985935 -0.20203444
000070 d3 fe 0a bf 8f 29 bf be b4 ce 02 bf b3 52 c8 be
       -0.5429508 -0.37336394 -0.51096654 -0.39125594
000080 a9 89 ae be fe 05 2d bf 36 8f 1a be 5e 3c ad bc
       -0.340894 -0.6758727 -0.15093693 -0.02114695
000090 a7 0d e4 be 7b 6a 4f bf 37 93 a2 be dc c5 11 be
       -0.44541666 -0.8102185 -0.3175294 -0.14235634
0000a0 e4 f9 99 be 37 0a a7 bd 12 0e eb be 87 0d 44 bf
       -0.30073464 -0.08156245 -0.45909172 -0.7658314
0000b0 45 bb b7 be 9d ec a2 bd fb 2b f5 bd cf 0b 54 bf
       -0.35885063 -0.07955287 -0.11971279 -0.8283052
0000c0 e1 04 21 bf 92 78 76 be 44 e3 47 bf 2e 65 b3 be
       -0.6289807 -0.24069431 -0.78081155 -0.3503813
0000d0 e9 8f 77 bf 2c 10 a1 bf aa 2a 3f c0 4f 87 00 bf
       -0.96703964 -1.258306 -2.986979 -0.50206465
0000e0 dd 37 e0 3e 25 9a d1 bd f9 f6 fd bc c6 95 b1 3c
       0.4379262 -0.10234479 -0.031001555 0.021677863
0000f0 06 ea d9 3e cc a1 b8 bd 96 1d a7 be ed 74 59 bd
       0.42561358 -0.09015235 -0.3263976 -0.053090025
000100 e0 93 d1 3e f3 80 68 bf 73 df fe be 1a 03 16 3e
       0.40933132 -0.9082176 -0.49779853 0.1464962
000110 6f 01 d4 bd ca 0d 3e 3e 59 7f 68 3e 94 0d 85 be
       -0.10351836 0.18559948 0.2270483 -0.25986922
000120 ba 60 5b bf 64 6a b1 3e b4 b0 f0 3e 2e 8d fc 3e
       -0.8569447 0.34651482 0.47009814 0.49326462
000130 a4 2d 60 bc 50 57 bd be a2 11 6f bd 99 f2 30 bf
       -0.013682757 -0.36980677 -0.058366425 -0.69120175
000140 68 42 a5 bd 41 a9 83 bf ab 55 37 bf 9e 4c 82 bf
       -0.080693066 -1.0286027 -0.71615094 -1.0179632
000150 01 a4 9a bf e3 b2 a9 bf 0e fc 8d bf 3a 2c 3e c0
       -1.20813 -1.3257717 -1.1092546 -2.9714494
000160 6b 1e 8d bf ac 1c 7f bf d2 fa 42 bf a3 a2 42 be
       -1.1024908 -0.99653125 -0.7616397 -0.19007353
000170 0b 71 4a be 6c d4 fc be 73 0b 02 bf 1e cc 3a c0
       -0.19769685 -0.49380815 -0.5079872 -2.9187083
000180 85 7f 3a c0 80 4e 38 c0
       -2.9140332 -2.8797913
