models/3_context_2_embedding_64_activation_1.pt (torch, 957978 bytes, 5 tensors)

emb.weight f4 [98, 64]
-0.022669457 0.10859165 -0.15663926 0.078734115 0.23239605 0.030998949 0.72837585 -0.59107715
0.055678297 -0.10031174 -0.07412001 -0.10260482 0.07224619 0.098362 0.17193234 0.041682903
-0.058685236 0.14728476 -0.022310823 -0.8735269 0.69521904 0.19622113 -0.10089328 0.010013991
0.33038294 0.8767367 0.58996767 -0.51397943 0.5038729 0.066246144 0.6286482 0.0064811483
-0.1973409 -0.24654979 -0.23221228 0.116135135 -0.034356534 -0.09423593 0.019418202 -0.13358578
-0.08492018 -0.013046999 -0.0410394 0.4006601 -0.4749054 0.2147163 0.13914247 0.08654711
-0.07210955 0.772461 -0.02453793 -0.08094878 0.47818294 -0.96771646 0.21804613 -0.2571294
0.06355858 -0.37432316 -0.73569375 0.27357996 -0.44874623 0.17928381 0.2581614 0.2716765
-0.040265597 -0.12242457 0.041271187 -0.07479985 -0.28936535 0.45397383 -0.05696008 0.1384302
0.11905366 -0.028675774 -0.37156695 -0.13552338 -0.25533298 -0.090150654 -0.070764564 -0.43917698
-0.01171843 -0.006395622 -0.046605337 -0.24670061 0.9073844 0.10121808 -0.317552 -0.17838617
0.237155 0.21766102 0.13218158 -0.38336787 0.3380851 0.13073227 -0.03991924 0.0031854876
-0.10498372 -0.11163998 -0.009899302 -0.0403117 0.036782864 0.07174776 -0.05057686 0.046190742
-0.05551311 0.23825876 0.22627231 0.17260121 -0.29754838 0.32376134 -0.1905577 -0.1818681
0.06263976 0.06630301 0.1041584 0.06720688 0.6603438 -0.22391501 -0.0018226131 -0.8368379
0.010438398 -0.056625582 -0.07153958 0.034938086 0.15390413 0.8847106 -0.103627555 -0.020185648
0.18276428 0.63226324 1.437558 -0.9204933 0.74796623 -0.62531555 -0.687314 -0.7141422
-1.1776663 -1.7065357 -0.2752213 0.61024684 -0.4799409 -0.13942024 0.35575375 -0.2515289
-0.31813002 0.78387785 1.1177503 0.18633917 1.0124226 -2.1545744 -0.28961647 -0.48774388
-0.11039534 0.5346909 -0.75503033 0.5164211 -0.39330897 0.51832056 -0.31011206 1.9264742
-0.3202375 -1.0586506 -1.178199 -0.4910752 -0.096227445 0.20785087 -0.4982589 -0.39476153
0.011308601 -0.12595935 -0.20734432 -0.033256356 -0.6797137 -0.792066 -0.8905876 -1.2029988
0.26325715 -0.7757174 -0.93342644 -0.21752504 2.057254 -1.1966634 1.2639204 1.0838342
0.23339689 -0.69516635 -0.85451806 -0.11689986 0.7499387 0.7521476 -0.64518255 1.0230755
-0.6115557 1.9532434 0.8215932 0.3089172 0.89475256 -0.55133164 -0.66487646 2.1927154
0.084451735 -1.6288086 -1.0674331 -2.5663755 -1.4479548 -0.14365518 -0.14518617 2.7627232
-2.6646385 -0.29215536 1.244225 0.6161093 1.7966825 0.27322462 0.02672928 1.6967741
-0.65575 -1.011318 -2.2331815 -0.50711507 1.5404648 0.31860024 -1.5434796 -0.49665302
1.3545451 1.8598714 -0.24164496 1.9600433 1.286442 0.16195707 1.1868811 0.08881094
-1.5631943 -0.9029752 -1.0481457 -0.892384 0.32439563 -0.42369452 -1.7227968 -3.8680675
-0.48725772 -1.8066974 0.76423484 1.1399816 -0.5416518 0.8845078 -2.0433242 1.2037579
2.1517193 1.2793038 -0.8379485 0.17740998 -2.1969717 2.002681 0.41455647 1.2685596
00000000: 4cb5 b9bc 4d65 de3d 0b66 20be 5a3f a13d
00000010: 3bf9 6d3e 82f1 fd3c d776 3a3f d550 17bf
00000020: ed0e 643d 3e70 cdbd 3bcc 97bd 7a22 d2bd
00000030: cff5 933d 0472 c93d 080f 303e b1bb 2a3d
00000040: ee5f 70bd d1d1 163e 30c5 b6bc 759f 5fbf
00000050: e0f9 313f 31ee 483e 23a1 cebd b911 243c
00000060: f427 a93e d171 603f 1f08 173f 2894 03bf
00000070: d0fd 003f 0fac 873d 17ef 203f d05f d43b
00000080: bc13 4abe 8c77 7cbe 0ec9 6dbe 42d8 ed3d
00000090: 70b9 0cbd c4fe c0bd ec12 9f3c b6ca 08be
000000a0: a2ea adbd 15c3 55bc ee18 28bd 5223 cd3e
000000b0: cd26 f3be 97de 5b3e 5d7b 0e3e 9c3f b13d
000000c0: 2cae 93bd 01c0 453f c503 c9bc 79c8 a5bd
000000d0: 65d4 f43e 44bc 77bf 7c47 5f3e 77a6 83be
000000e0: 002b 823d 49a7 bfbe 6d56 3cbf ac12 8c3e
000000f0: 11c2 e5be 2d96 373e bb2d 843e 2f19 8b3e
00000100: 8aed 24bd bcb9 fabd fa0b 293d aa30 99bd
00000110: b227 94be 426f e83e f94e 69bd a5c0 0d3e
00000120: 68d2 f33d 75e9 eabc 063e bebe a4c6 0abe
00000130: 01bb 82be e8a0 b8bd 03ed 90bd cedb e0be
00000140: a8fe 3fbc 5e92 d1bb 3de5 3ebd 169f 7cbe
00000150: 584a 683f 6d4b cf3d 2d96 a2be ddaa 36be
00000160: c3d8 723e 88e2 5e3e 9c5a 073e cb48 c4be
00000170: 7d19 ad3e aede 053e 5b82 23bd 9dc3 503b
00000180: b401 d7bd 80a3 e4bd af30 22bc e21d 25bd
00000190: a1a9 163d 7df0 923d ae29 4fbd 8132 3d3d
000001a0: b761 63bd 1bfa 733e eeb3 673e 5fbe 303e
000001b0: 4358 98be 0cc4 a53e 8f21 43be a23b 3abe
000001c0: 4649 803d dfc9 873d 0051 d53d c3a3 893d
000001d0: 4b0c 293f fa49 65be bfe4 eeba 023b 56bf
000001e0: d105 2b3c 3af0 67bd 5883 92bd 3d1b 0f3d
000001f0: 0b99 1d3e 657c 623f af3a d4bd 5f5c a5bc
00000200: 8f26 3b3e 01dc 213f e701 b83f 73a5 6bbf
00000210: b77a 3f3f ae14 20bf cff3 2fbf 06d2 36bf
00000220: c5bd 96bf c36f dabf cee9 8cbe 2339 1c3f
00000230: d0ba f5be 2ec4 0ebe 5b25 b63e 65c8 80be
00000240: f0e1 a2be 38ac 483f 7112 8f3f b2cf 3e3e
00000250: 1097 813f 8ce4 09c0 9c48 94be 91b9 f9be
00000260: f416 e2bd 81e1 083f ab49 41bf 2c34 043f
00000270: cb5f c9be a8b0 043f 02c7 9ebe b596 f63f
00000280: 2bf6 a3be dd81 87bf 3acf 96bf 356e fbbe
00000290: e512 c5bd dcd6 543e ca1b ffbe 2f1e cabe
000002a0: b647 393c 7dfb 00be 1252 54be d137 08bd
000002b0: b801 2ebf d6c4 4abf 8dfd 63bf ddfb 99bf
000002c0: a4c9 863e 6a95 46bf 09f5 6ebf e2be 5ebe
000002d0: 0daa 0340 442c 99bf 25c8 a13f 14bb 8a3f
000002e0: 98ff 6e3e 6cf6 31bf b2c1 5abf 3269 efbd
000002f0: fcfb 3f3f bf8c 403f af2a 25bf 23f4 823f
00000300: ea8e 1cbf e103 fa3f ef53 523f 652a 9e3e
00000310: 810e 653f 1224 0dbf 5835 2abf 7355 0c40
00000320: 08f5 ac3d cd7c d0bf a6a1 88bf 7f3f 24c0
00000330: 9556 b9bf 581a 13be afab 14be 75d0 3040
00000340: 7089 2ac0 6395 95be c442 9f3f 57b9 1d3f
00000350: b1f9 e53f 19e4 8b3e 5df7 da3c e52f d93f
00000360: 3bdf 27bf de72 81bf 72ec 0ec0 4bd2 01bf
00000370: f32d c53f 921f a33e bd90 c5bf 4e49 febe
00000380: bc61 ad3f 4410 ee3f c771 77be b3e2 fa3f
00000390: 22aa a43f 13d8 253e b8eb 973f 83e2 b53d
000003a0: c016 c8bf 6229 67bf a329 86bf 4773 64bf
000003b0: 2f17 a63e 7dee d8be 9b84 dcbf 6b8e 77c0
000003c0: d879 f9be dc41 e7bf e5a4 433f ebea 913f
000003d0: b1a9 0abf 1a6f 623f d3c5 02c0 bd14 9a3f
000003e0: c5b5 0940 3ac0 a33f cb83 56bf f6aa 353e
000003f0: 2f9b 0cc0 ed2b 0040 bf40 d43e 2960 a23f

lin1.weight f4 [1024, 128]
0.07750205 -0.036742855 -0.09829943 -0.019503787 0.066229776 0.028975666 0.031633332 0.074477084
-0.31847158 0.15559226 -0.109444015 0.010574195 0.20272398 0.18763673 0.22065702 0.11503196
-0.097202346 0.21891972 0.3603917 0.16629225 -0.309745 0.25804693 0.10321403 0.17967322
-0.2158719 -0.09185198 -0.10861771 0.19695325 -0.11553825 -0.33387288 0.23971795 -0.21958084
0.31614834 0.19111574 -0.17956054 -0.13618009 0.21398722 -0.12137461 -0.16056268 -0.2126868
0.008778845 0.23586261 0.088305205 -0.26483095 0.4170253 -0.21081927 0.14527299 0.17310052
-0.02419064 -0.3108935 -0.11394653 -0.116772816 -0.020598803 0.054860502 -0.120018974 0.21144964
0.100156724 0.107336015 0.0035438482 0.07100968 -0.29265478 -0.24031332 -0.004694734 0.010138207
0.22613358 -0.1052456 0.19832702 0.07778094 0.5214705 0.09399771 -0.04500733 0.3155962
0.11381295 0.22749063 0.3580916 0.32426924 0.3801552 0.05410863 0.20577048 0.03370828
0.13994741 -0.1338642 0.09801663 0.009624829 -0.21325041 -0.50313425 0.25223705 0.20352766
-0.15734512 -0.14529781 0.35475007 -0.12589344 -0.37014252 -0.20338497 -0.13735867 -0.13615185
0.07382597 0.31071186 -0.014742166 -0.1730817 0.15847045 0.014763343 -0.1383439 0.14096484
0.31947908 0.13246436 -0.11420534 0.07174234 0.026392002 0.30203423 -0.039321706 0.33995306
-0.40800607 -0.15974829 0.04580367 0.059189912 0.09821771 0.35744146 0.22495191 0.06964313
-0.17025886 -0.06603455 0.25050098 -0.23315121 -0.4125817 -0.06199239 0.25628528 -0.59109753
0.056562185 0.13490407 0.041339397 0.26223183 -0.09824652 -0.093547784 -0.04518457 0.08563922
-0.044737402 0.21886052 0.18472083 0.04124237 0.3127851 0.07201926 -0.14033289 0.29900286
-0.020996084 0.28245133 0.32549295 -0.41579852 -0.29645506 -0.028183652 -0.17310853 0.47783542
0.12185257 0.16729341 0.10272977 -0.13089629 0.021299865 -0.24826153 0.055741165 -0.2537216
0.023074726 -0.053297576 -0.01983935 -0.059974935 -0.18819293 -0.41630727 -0.21401961 -0.123685874
-0.24345294 -0.14567462 0.018258339 0.05894595 0.20167068 0.07931785 0.41030845 0.54238933
-0.18887538 -0.3636383 -0.50664085 -0.3586294 0.028664442 0.009332187 -0.34445515 0.26902622
0.025900114 -0.11933835 0.15549769 -0.10919314 -0.45631593 -0.10490601 0.2287711 0.123987734
-0.19098213 0.08016525 -0.14380693 0.16181757 0.32993236 0.20817332 -0.21880169 0.49336788
0.0764937 0.35215116 -0.0086013395 -0.15123723 -0.2981822 0.107338004 -0.0847117 -0.3568111
-0.1717217 0.08276124 0.13075313 -0.014913677 0.3217525 -0.23729753 0.020808773 -0.052084636
0.13516185 -0.2580541 -0.09402198 0.24274015 -0.052578285 -0.31749976 0.16712978 -0.39160055
0.5042035 0.099478856 -0.25928172 0.08713673 -0.0038981757 -0.061004054 0.094902895 -0.3630925
-0.09521989 0.07205274 -0.42162716 0.0906002 -0.38422623 -0.33753765 0.23063517 -0.0671875
-0.08910962 -0.0677839 0.05287422 -0.31836176 0.5493955 0.3244936 0.073518425 -0.34613675
0.28768498 0.3341807 0.08803688 -0.31845126 -0.35210395 0.17030245 -0.24310373 0.010715502
00000000: 65b9 9e3d ad7f 16bd 3651 c9bd 68c6 9fbc
00000010: 7aa3 873d 605e ed3c f491 013d 7187 983d
00000020: b50e a3be 9453 1f3e 2f24 e0bd 633f 2d3c
00000030: e096 4f3e d823 403e eaf3 613e e095 eb3d
00000040: 0612 c7bd 7e2c 603e 4385 b83e 8448 2a3e
00000050: e696 9ebe ba1e 843e e161 d33d 42fc 373e
00000060: 860d 5dbe e41c bcbd f672 debd 1dae 493e
00000070: 519f ecbd 63f1 aabe 9f78 753e cdd9 60be
00000080: 32de a13e d8b3 433e b8de 37be cb72 0bbe
00000090: 771f 5b3e 4093 f8bd 8b6a 24be 92ca 59be
000000a0: 25d5 0f3c f885 713e 5cd9 b43d ec97 87be
000000b0: 5784 d53e 02e1 57be 71c2 143e 4341 313e
000000c0: 732b c6bc 6f2d 9fbe cc5c e9bd 9626 efbd
000000d0: d2be a8bc 68b5 603d 82cc f5bd 4186 583e
000000e0: f81e cd3d fcd2 db3d e83f 683b 866d 913d
000000f0: d9d6 95be b214 76be 48d6 99bb b91a 263c
00000100: 908f 673e 018b d7bd 3d16 4b3e 9d4b 9f3d
00000110: 177f 053f df81 c03d 9b59 38bd d395 a13e
00000120: c416 e93d 4ef3 683e c857 b73e 9e06 a63e
00000130: b4a3 c23e 03a1 5d3d 7fb5 523e b211 0a3d
00000140: 604e 0f3e b213 09be f1bc c83d 75b1 1d3c
00000150: 515e 5abe 68cd 00bf 3725 813e 8e69 503e
00000160: 141f 21be f3c8 14be cda1 b53e 36ea 00be
00000170: 5283 bdbe 2644 50be c0a7 0cbe 646b 0bbe
00000180: 1232 973d a015 9f3e 2089 71bc 543c 31be
00000190: 1446 223e f3e1 713c 06aa 0dbe 1659 103e
000001a0: c392 a33e bda4 073e 7de4 e9bd a6ed 923d
000001b0: 0a34 d83c 3ba4 9a3e cc0f 21bd 540e ae3e
000001c0: 2ce6 d0be 0e95 23be a19c 3b3d 1f71 723d
000001d0: 5e26 c93d 9102 b73e cb59 663e 0fa1 8e3d
000001e0: 5758 2ebe 1f3d 87bd aa41 803e 31bf 6ebe
000001f0: e93d d3be bbeb 7dbd d337 833e 2b52 17bf
00000200: c0ad 673d 4b24 0a3e 8053 293d 4043 863e
00000210: 7935 c9bd fb95 bfbd 7513 39bd 9e63 af3d
00000220: 913e 37bd f91c 603e 7527 3d3e c2ed 283d
00000230: 5e25 a03e d57e 933d 6db3 0fbe e716 993e
00000240: fbff abbc 769d 903e 03a7 a63e 8be3 d4be
00000250: f5c8 97be 67e1 e6bc 5d43 31be d8a6 f43e
00000260: d78d f93d f74e 2b3e fc63 d23d ad09 06be
00000270: 0e7d ae3c 4538 7ebe d950 643d cce7 81be
00000280: 3507 bd3c 8f4e 5abd 2286 a2bc 47a8 75bd
00000290: a6b5 40be 3a26 d5be f527 5bbe 054f fdbd
000002a0: ba4b 79be ba2b 15be 8392 953c 4f71 713d
000002b0: c282 4e3e 6671 a23d f313 d23e 07da 0a3f
000002c0: 8c68 41be cd2e babe 37b3 01bf 469e b7be
000002d0: b1d1 ea3c 07e6 183c 6d5c b0be cebd 893e
000002e0: 7a2c d43c aa67 f4bd c93a 1f3e a7a0 dfbd
000002f0: 3ea2 e9be f6d8 d6bd f942 6a3e 48ed fd3d
00000300: d290 43be ae2d a43d 2042 13be 81b3 253e
00000310: e5ec a83e 632b 553e 8d0d 60be b79a fc3e
00000320: bba8 9c3d 284d b43e a2ec 0cbc efdd 1abe
00000330: 56ab 98be 07d4 db3d 547d adbd f2af b6be
00000340: d0d7 2fbe ba7e a93d 26e4 053e 7f58 74bc
00000350: bebc a43e 20fe 72be 2977 aa3c b356 55bd
00000360: de67 0a3e ab1f 84be 998e c0bd e090 783e
00000370: 545c 57bd 548f a2be 1224 2b3e de7f c8be
00000380: 7b13 013f 92bb cb3d 93c0 84be be74 b23d
00000390: 8978 7fbb 63df 79bd 735c c23d 43e7 b9be
000003a0: a502 c3bd 6390 933d 84df d7be 998c b93d
000003b0: 4db9 c4be bcd1 acbe a02b 6c3e 9a99 89bd
000003c0: 1b7f b6bd 49d2 8abd a392 583d 5000 a3be
000003d0: 2fa5 0c3f 0624 a63e d490 963d d638 b1be
000003e0: 724b 933e bc19 ab3e ae4c b43d 0b0c a3be
000003f0: f846 b4be c463 2e3e 2ff0 78be 1390 2f3c

lin1.bias f4 [1024]
-0.775652 -0.6241579 -0.6550497 -0.12887862 -0.50041837 -0.37209913 -0.33010653 -0.5368418
-0.15166055 -0.7588946 -0.33763975 -0.5798775 -0.17827025 -0.62562126 -0.723062 -0.32228577
-0.12349017 -0.26887804 -0.40225342 -0.29194987 -0.2772142 -0.51445585 -0.24923165 -0.47030824
-0.14827359 -0.1958944 -0.60667586 -0.20438275 -0.4498547 -0.438153 -0.33079034 -0.75422364
-0.44653708 -0.58049625 -0.41817647 -0.31552255 -0.18115194 -0.18998015 -0.7433984 -0.4419769
-0.6335185 -0.4891583 -0.205828 -0.31954694 -0.29265788 -0.5166989 -0.53923 -0.30837262
-0.39211175 -0.42748955 -0.17984405 -0.59243673 -0.29671428 -0.14814334 -0.563029 -0.36194208
-0.323932 -0.11618854 -0.2641457 -0.0033537215 -0.25657797 -0.70097756 -0.12343207 -0.63075364
-0.5343696 -0.3669903 -0.16101055 -0.55117196 -0.4561543 -0.38803548 -0.22900836 -0.5016329
-0.5200151 -0.29011384 -0.5731805 -0.55210304 -0.36051118 -0.48115212 -0.6619186 -0.45842648
-0.25911734 -0.10008419 -0.30170482 -0.07967258 -0.25612402 -0.4499359 -0.4166923 -0.20042656
-0.5034752 -0.20044638 -0.6014686 -0.47587058 -0.38767913 -0.63298994 -0.6533294 -0.31214127
-0.2299704 -0.24474253 -0.31069055 -0.3325925 -0.29942858 -0.28112683 -0.11906864 -0.239928
-0.48531556 -0.7701233 -0.30935234 -0.22209436 -0.4566888 -0.4376148 -0.07822886 -0.15719561
-0.61542016 -0.35883346 -0.10116683 -0.13349222 -0.3280422 -0.3571956 -0.36752233 -0.44124007
-0.3993536 -0.44856384 -0.25613245 -0.19335364 -0.4632927 -0.23100878 -0.4803907 -0.44358137
-0.63432926 -0.5104202 -0.20757058 -0.2400258 -0.63654625 -0.6636278 -0.47414637 -0.46347463
-0.58500606 -0.5627579 -0.15970904 -0.36478394 -0.28702018 -0.18877272 -0.22768655 -0.26129854
-0.08737434 -0.7225274 -0.21648747 -0.6231644 -0.44228917 -0.6060192 -0.23679526 -0.5851706
-0.23952448 -0.19565973 -0.31146276 -0.31316993 -0.17001319 -0.16064318 -0.24729523 -0.5928525
-0.432715 -0.28946838 -0.2695619 -0.34161338 -0.5916871 -0.57779866 -0.1019259 -0.16369995
-0.16233273 -0.16912174 -0.32738236 -0.30607954 -0.7870371 -0.30153444 -0.3961657 -0.09108525
-0.19813344 -0.45224765 -0.47673383 -0.30750427 -0.39114428 -0.42540962 -0.29451174 -0.23029776
-0.2808328 -0.110447265 -0.18845126 -0.5334963 -0.23362954 -0.47981733 -0.6042211 -0.2130729
-0.090540774 -0.60956657 -0.053357203 -0.31514347 -0.4955676 -0.3174221 -0.41213402 -0.3630891
-0.101747796 -0.32541266 -0.57188165 -0.24933736 -0.7522665 -0.2353452 -1.0096307 -0.2410289
-0.55949384 -0.8580568 -0.49803966 -0.2979525 -0.27627778 -0.6824602 -0.5288931 -0.08366068
-0.95110226 -0.62657416 -0.452776 -0.2736689 -0.5773959 -0.20169197 -0.1860406 -0.29951042
-0.4420954 -0.086843625 -0.2875451 -0.36362377 -0.18404144 -0.45241767 -0.26169947 -0.56687397
-0.51356804 -0.48798025 -0.81181103 -0.35002086 -0.5464078 -0.118693635 -0.55388594 -0.46709087
-0.4482326 -0.057139877 -0.41268483 -0.40506104 -0.22295727 -0.41071463 -0.18316816 -0.21025711
-0.20619829 -0.6164515 -0.34230912 -0.22425637 -0.604967 -0.33592892 -0.15267457 -0.2855846
00000000: 2191 46bf d0c8 1fbf 56b1 27bf c2f8 03be
00000010: 6b1b 00bf c783 bebe b903 a9be 776e 09bf
00000020: e74c 1bbe eb46 42bf 1edf acbe da72 14bf
00000030: 7a8c 36be b728 20bf 971a 39bf a402 a5be
00000040: 6ae8 fcbd 62aa 89be 29f4 cdbe 747a 95be
00000050: 05ef 8dbe 61b3 03bf 9536 7fbe 3ecc f0be
00000060: 08d5 17be 8b98 48be 1c4f 1bbf b649 51be
00000070: 5b53 e6be 9755 e0be 5a5d a9be cd14 41bf
00000080: 82a0 e4be 679b 14bf 3a1b d6be 2c8c a1be
00000090: e57f 39be 288a 42be 5c4f 3ebf cc4a e2be
000000a0: 452e 22bf f572 fabe 93c4 52be a89b a3be
000000b0: 41d7 95be 6146 04bf fa0a 0abf 04e3 9dbe
000000c0: dfc2 c8be e9df dabe 0a29 38be efa9 17bf
000000d0: efea 97be e3b2 17be ab22 10bf 7950 b9be
000000e0: 6ada a5be 42f4 edbd 1b3e 87be 1cca 5bbb
000000f0: 305e 83be 4473 33bf f4c9 fcbd 1279 21bf
00000100: 72cc 08bf 27e6 bbbe f3df 24be 9b19 0dbf
00000110: 0e8d e9be 96ac c6be 2b81 6abe 046b 00bf
00000120: b61f 05bf cd89 94be f5bb 12bf a056 0dbf
00000130: ec94 b8be 9259 f6be 7f73 29bf e0b6 eabe
00000140: 07ab 84be f1f8 ccbd 0e79 9abe 612b a3bd
00000150: b022 83be 005e e6be b158 d5be 9f3c 4dbe
00000160: c0e3 00bf d141 4dbe d9f9 19bf 4fa5 f3be
00000170: e17d c6be a10b 22bf 9840 27bf fbd0 9fbe
00000180: 5c7d 6bbe c99d 7abe d512 9fbe 9049 aabe
00000190: b44e 99be dbef 8fbe 42da f3bd b0af 75be
000001a0: 487b f8be cd26 45bf 6e63 9ebe b46c 63be
000001b0: 1dd3 e9be 0c0f e0be 7436 a0bd e3f7 20be
000001c0: 2d8c 1dbf 05b9 b7be 8e30 cfbd 2fb2 08be
000001d0: 26f5 a7be 57e2 b6be e32b bcbe 38ea e1be
000001e0: 1378 ccbe 29aa e5be cb23 83be 7ffe 45be
000001f0: b334 edbe 918d 6cbe c5f5 f5be 191d e3be
00000200: 6763 22bf e6aa 02bf 628d 54be 53c9 75be
00000210: b2f4 22bf 83e3 29bf 50c3 f2be 8c4c edbe
00000220: f5c2 15bf e710 10bf c48a 23be f6c4 babe
00000230: 4ff4 92be a34d 41be aa26 69be ecc8 85be
00000240: 51f1 b2bd 8ef7 38bf e4ae 5dbe b487 1fbf
00000250: ba73 e2be 1324 1bbf 757a 72be becd 15bf
00000260: e845 75be 065b 48be 0c78 9fbe cf57 a0be
00000270: f017 2ebe a57f 24be f63a 7dbe 2ec5 17bf
00000280: d28c ddbe 3335 94be 0404 8abe f3e7 aebe
00000290: ce78 17bf 9dea 13bf 87be d0bd f6a0 27be
000002a0: 8d3a 26be 402e 2dbe a99e a7be 75b6 9cbe
000002b0: 437b 49bf b962 9abe 3bd6 cabe e78a babd
000002c0: 7ee3 4abe 018d e7be 7516 f4be 3371 9dbe
000002d0: 1044 c8be 4acf d9be 3eca 96be 2dd3 6bbe
000002e0: 51c9 8fbe 2d32 e2bd 5ef9 40be 3793 08bf
000002f0: 953c 6fbe 9eaa f5be 3cae 1abf c82f 5abe
00000300: 716d b9bd 8e0c 1cbf 158d 5abd 7c5a a1be
00000310: 09bb fdbe 2685 a2be 3b03 d3be d1e6 b9be
00000320: 2661 d0bd 7d9c a6be d666 12bf 4b52 7fbe
00000330: 8a94 40bf 55fe 70be 943b 81bf 48d0 76be
00000340: fd3a 0fbf 9ca9 5bbf 0eff febe 3b8d 98be
00000350: 4874 8dbe b6b5 2ebf 8a65 07bf 4a56 abbd
00000360: 707b 73bf 2a67 20bf 42d2 e7be 541e 8cbe
00000370: 38d0 13bf 5788 4ebe 6d81 3ebe 6e59 99be
00000380: 545a e2be 12db b1bd 1d39 93be e52c babe
00000390: 5c75 3cbe 4aa3 e7be 79fd 85be a71e 11bf
000003a0: 3279 03bf 8cd8 f9be d9d2 4fbf ef35 b3be
000003b0: 62e1 0bbf a615 f3bd 78cb 0dbf 8926 efbe
000003c0: be7e e5be 810b 6abd 6d4b d3be 2964 cfbe
000003d0: e94e 64be 3049 d2be 6f90 3bbe a44d 57be
000003e0: a525 53be c4cf 1dbf 2443 afbe 76a3 65be
000003f0: 1edf 1abf e0fe abbe b956 1cbe 2538 92be

lin2.weight f4 [98, 1024]
-0.15325117 -0.10150732 0.0045831623 0.03007613 -0.14942881 0.058220018 -0.009911718 -0.22420742
0.14171793 -0.9876219 0.17156444 0.07414138 -0.061868418 -0.45716026 0.04662459 -0.11732218
0.068546064 -0.1215118 -0.009091549 0.12881997 0.0796472 -0.30336723 0.052368235 -0.0036435265
-0.1086329 0.13431266 -0.09956436 -0.0014630505 -0.0007335755 -0.71506613 -0.004998149 0.12092397
0.00703314 0.12975743 0.09646724 -0.06637637 0.068123855 0.19830708 1.10817 0.05577434
-0.9607787 0.03720363 0.13513932 0.29586232 -0.12284069 -0.005039642 -1.277626 -0.160158
-0.101832435 -0.0038154665 -1.9656339 -0.12631771 -0.44856843 0.07570997 0.030133683 -0.39668748
-0.046804644 -0.123801984 -0.11425257 -0.3949023 0.057454355 -2.2259324 -0.089828126 -0.03318858
0.077742115 -0.23257932 0.039035212 -0.6928261 -0.17266485 -0.37671214 -0.011176586 -0.046104204
0.23756464 0.101753876 0.1284889 -2.7661507 -0.004349162 -0.4437638 2.1256154 -0.15703921
-0.023277268 -0.016773315 -0.22909817 -0.0030872342 0.14177866 -0.5949917 -0.14039734 -0.07666527
0.20941025 -0.1086145 -0.14605224 0.013633714 -0.056110382 -0.60795045 -1.5945563 0.11784069
-0.0022921613 0.22437192 -0.124523826 -0.15776476 -1.5813807 -0.1813791 0.0004253305 0.1179172
-0.02645037 0.45967773 -0.15449077 0.0047243494 -0.24330966 0.027097838 -0.03968921 0.03647901
-0.31983182 -0.24343814 0.17684539 -0.5321363 -0.018945087 -0.3231722 -0.050976973 0.58987355
-0.35640836 0.0031479816 -0.21975668 0.12063743 -0.07817413 -0.06399778 -0.28549471 -0.18036531
-0.4071325 -0.34446543 0.060306307 0.0003264043 -3.2403061 -6.024381 -0.008477564 -0.03493775
-0.04808217 -0.45776388 0.050022025 -0.065570116 -0.29312533 -0.14902547 -0.13409993 -0.057373703
-0.12648311 -0.4644329 0.006269994 -3.2351909 -0.46127015 -0.12586187 -0.09882486 -0.17966384
0.005378199 -0.01489582 -0.028801588 0.10814421 -0.07012986 0.12236449 -0.06123573 -3.457066
-1.6951996 0.09390698 -0.02056364 -0.0836374 -2.2099876 -0.52799064 0.061886612 0.1345805
0.051305063 -0.00031430478 -0.40516612 0.13250181 -2.2419448 -0.07721797 -0.014222776 0.016110482
-0.8668465 0.006169254 -0.07948907 -0.15525228 -0.042822532 -0.105625995 0.022875637 0.059038214
-0.12332517 0.04474073 -0.41837746 0.07957953 -0.081544675 0.179304 -0.044419527 -0.22345582
-0.23237255 -3.3672085 0.029799834 -0.05361053 -0.07990727 -0.03655018 0.020993287 0.0069261626
0.02427746 0.014337397 0.22347614 0.041298375 -4.6976047 -0.082593516 -3.5647962 0.05206598
-0.04679417 -0.4417605 0.13942395 0.028517665 -0.23984368 0.008008507 -0.12633923 0.07362246
-0.9103616 -0.0034300447 0.06309838 0.10011447 -1.8713483 -0.23754592 -0.0029685951 -0.07285408
0.02000036 0.029078824 -0.13322416 0.0385174 0.12873489 0.1471149 0.06525655 -7.026844
-0.5033396 0.04642123 -0.25967926 0.0034865518 0.011684047 0.031796608 -0.195937 -0.040551927
-0.076508 0.13539855 -0.36443564 -0.4738191 -0.13762768 -0.03673952 0.023257466 -2.2138414
-0.19288248 -0.90980095 0.007180372 -0.375571 -0.616383 0.016817898 0.012949352 -0.004153669
00000000: e0ed 1cbe 12e3 cfbd 5a2e 963b 3762 f63c
00000010: de03 19be 1d78 6e3d c264 22bc a196 65be
00000020: 811e 113e cad4 7cbf 97ae 2f3e 70d7 973d
00000030: bd69 7dbd e910 eabe 6df9 3e3d 9c46 f0bd
00000040: e161 8c3d 2edb f8bd b8f4 14bc 62e9 033e
00000050: 121e a33d f352 9bbe 1380 563d 3bc8 6ebb
00000060: ed7a debd 4289 093e 66e8 cbbd d4c3 bfba
00000070: 6b4d 40ba 930e 37bf 83c7 a3bb fda6 f73d
00000080: 4176 e63b 22df 043e 9e90 c53d 56f0 87bd
00000090: 8584 8b3d 0311 4b3e 84d8 8d3f a273 643d
000000a0: 98f5 75bf d562 183d f661 0a3e 447b 973e
000000b0: e693 fbbd 9523 a5bb 4089 a3bf 7500 24be
000000c0: 868d d0bd e80c 7abb e499 fbbf 6e59 01be
000000d0: c3aa e5be d40d 9b3d eada f63c 9f1a cbbe
000000e0: 3ab6 3fbd e58b fdbd 40fd e9bd a230 cabe
000000f0: 4255 6b3d ad75 0ec0 cff7 b7bd c0f0 07bd
00000100: 4237 9f3d 4629 6ebe 63e3 1f3d 0d5d 31bf
00000110: 0ecf 30be 6ae0 c0be 001e 37bc c3d7 3cbd
00000120: 2544 733e 5664 d03d 9892 033e 9d08 31c0
00000130: 6a83 8ebb 0235 e3be 150a 0840 e3ce 20be
00000140: f8af bebc 3168 89bc b698 6abe 3253 4abb
00000150: 6d2e 113e 6051 18bf 52c4 0fbe ae02 9dbd
00000160: a46f 563e 4771 debd b88e 15be f15f 5f3c
00000170: 00d4 65bd a4a2 1bbf 6c1a ccbf 7656 f13d
00000180: 1638 16bb c1c1 653e 5906 ffbd 168d 21be
00000190: af6a cabf 71bb 39be e5fe de39 937e f13d
000001a0: 72ae d8bc e15a eb3e d432 1ebe b7ce 9a3b
000001b0: 2b26 79be 49fc dd3c 2791 22bd 046b 153d
000001c0: ffc0 a3be d947 79be f516 353e 163a 08bf
000001d0: ba32 9bbc d476 a5be 3bcd 50bd f401 173f
000001e0: 287b b6be 5e4e 4e3b e507 61be c210 f73d
000001f0: c219 a0bd 4511 83bd 5d2c 92be afb1 38be
00000200: ac73 d0be c65d b0be bf03 773d 3e21 ab39
00000210: 2d61 4fc0 bbc7 c0c0 7be5 0abc e31a 0fbd
00000220: cff1 44bd 0760 eabe e5e3 4c3d a049 86bd
00000230: 8614 96be 229a 18be 7e51 09be b000 6bbd
00000240: ca84 01be 26ca edbe 8674 cd3b 5e0d 4fc0
00000250: 9a2b ecbe efe1 00be b064 cabd ccf9 37be
00000260: 9a3b b03b 990d 74bc 4ff1 ebbc b67a dd3d
00000270: 3ea0 8fbd 3c9a fa3d 51d2 7abd 9240 5dc0
00000280: 4dfc d8bf 4d52 c03d 1475 a8bc 164a abbd
00000290: 7070 0dc0 652a 07bf d17c 7d3d 78cf 093e
000002a0: 4225 523d 46c9 a4b9 ef71 cfbe 8eae 073e
000002b0: 067c 0fc0 7424 9ebd a506 69bc 21fa 833c
000002c0: a7e9 5dbf 7427 ca3b 2acb a2bd 74fa 1ebe
000002d0: ae66 2fbd 7152 d8bd b065 bb3c 0ed2 713d
000002e0: e891 fcbd 0e42 373d 9235 d6be 98fa a23d
000002f0: e500 a7bd 789b 373e 40f1 35bd 9ad1 64be
00000300: 12f3 6dbe 5880 57c0 c81e f43c b796 5bbd
00000310: 6ca6 a3bd a4b5 15bd 1dfa ab3c ddf4 e23b
00000320: 86e1 c63c 67e7 6a3c eed6 643e 7c28 293d
00000330: c752 96c0 ca26 a9bd 9f25 64c0 2343 553d
00000340: 3eab 3fbd 6f2e e2be 27c5 0e3e e19d e93c
00000350: 9599 75be 1d36 033c 125f 01be 5fc7 963d
00000360: 750d 69bf 9aca 60bb b939 813d d108 cd3d
00000370: 5788 efbf 3d3f 73be c38c 42bb 8534 95bd
00000380: ccd7 a33c b736 ee3c ea6b 08be 6cc4 1d3d
00000390: 14d3 033e 4aa5 163e 3aa5 853d e8db e0c0
000003a0: ddda 00bf 3024 3e3d aef4 84be a27e 643b
000003b0: 726e 3f3c 293d 023d b5a3 48be c719 26bd
000003c0: 3ab0 9cbd eba5 0a3e 4f97 babe 6b98 f2be
000003d0: 45ee 0cbe 2e7c 16bd 7186 be3c 94af 0dc0
000003e0: fc82 45be b7e8 68bf 5349 eb3b d84a c0be
000003f0: 47cb 1dbf b0c5 893c 8529 543c 801b 88bb

lin2.bias f4 [98]
-0.5756987 0.98767227 -0.49817428 -0.1287919 -3.094503 -3.0491982 -0.24285176 -0.8843789
-0.10540078 -0.30654368 -0.07250634 -0.5591657 -0.46309742 -3.0975752 -0.055583965 -0.6030654
-0.33599043 -0.12143604 -0.17078248 -0.30862612 -0.23671046 -0.2180613 -0.09308787 -0.3037824
-0.52657443 -0.46423784 -0.3839681 -0.32712725 -0.47314325 -0.088452645 -0.3764609 -0.61719877
-0.42403835 -0.5272365 -0.09772376 -0.23886207 -0.08731097 -0.25412047 -0.3876161 0.12280664
-0.4002736 -0.27505016 -0.4515925 -0.21520415 -0.4682638 -0.20116624 -0.17959179 -0.6381109
-0.28553963 -0.09682816 -0.16446418 0.025364261 -0.049932368 -0.24410701 -3.288082 -0.387996
0.15945593 -0.003015011 -0.09068337 0.08096013 0.18137787 0.06644499 -0.198182 0.12705663
-0.09096457 -0.5999105 -0.144945 -0.13815929 -0.24021551 0.116768375 0.09287924 -0.12131962
-0.6370881 0.018284665 0.16801473 0.6127977 -0.21680674 -0.27892357 0.08704717 -0.30584818
-0.19179083 -0.7124738 -0.33842623 -0.17604291 -0.34090945 -0.07905308 -0.15665632 -3.4337
-0.20838888 -0.18437752 -0.54918313 0.17521971 -0.36764577 0.26893798 -0.024075007 -3.1045463
-3.1027513 -3.0632532
00000000: fd60 13bf 17d8 7c3f b310 ffbe 06e2 03be
00000010: 560c 46c0 1026 43c0 22ae 78be a866 62bf
00000020: 5ddc d7bd 4bf3 9cbe 347e 94bd 7c25 0fbf
00000030: 1b1b edbe ac3e 46c0 03ac 63bd 7e62 1abf
00000040: f006 acbe 75b3 f8bd 9ae1 2ebe 3e04 9ebe
00000050: 3a64 72be 764b 5fbe daa4 bebd 5e89 9bbe
00000060: 95cd 06bf 95b0 edbe 7897 c4be 397d a7be
00000070: d53f f2be a926 b5bd 7cbf c0be bd00 1ebf
00000080: 8e1b d9be f9f8 06bf 6523 c8bd 4298 74be
00000090: 18d0 b2bd 141c 82be 9e75 c6be 0c82 fb3d
000000a0: a9f0 ccbe 60d3 8cbe 2237 e7be 7a5e 5cbe
000000b0: 46c0 efbe 86fe 4dbe e9e6 37be 3c5b 23bf
000000c0: 4032 92be d84d c6bd 4c69 28be b6c8 cf3c
000000d0: e285 4cbd 30f7 79be ef6f 52c0 69a7 c6be
000000e0: 6a48 233e 7e97 45bb 34b8 b9bd 6dce a53d
000000f0: 1fbb 393e 5014 883d 39f0 4abe 221b 023e
00000100: a24b babd bc93 19bf 766c 14be a179 0dbe
00000110: 0efb 75be 4224 ef3d 7937 be3d 6c76 f8bd
00000120: 3518 23bf b9c9 953c 0e0c 2c3e 4fe0 1c3f
00000130: 9602 5ebe 12cf 8ebe c945 b23d 2298 9cbe
00000140: d164 44be af64 36bf 3446 adbe 9844 34be
00000150: af8b aebe 95e6 a1bd 846a 20be bec1 5bc0
00000160: e563 55be 76cd 3cbe 4497 0cbf cc6c 333e
00000170: 113c bcbe 3db2 893e f338 c5bc e3b0 46c0
00000180: 7a93 46c0 570c 44c0
