models/3_context_2_embedding_32_activation_4.pt (torch, 683290 bytes, 5 tensors)

emb.weight f4 [98, 32]
0	0xbd8b724b	-0.06808909
1	0x3f328aae	0.6974286
2	0xbf175f9d	-0.5913027
3	0x3f0a2e3b	0.5397679
4	0x3f05ff67	0.5234284
5	0xbe9bda4c	-0.30439985
6	0x3fb1e8ab	1.389913
7	0xbf971a67	-1.1804932
8	0x3e4a32c8	0.19745934
9	0x3c2592b3	0.010105777
10	0x3e8696c7	0.2628691
11	0xbe13f4f4	-0.14448911
12	0x3e9efe91	0.31053594
13	0x3e6c19b2	0.23056677
14	0x3e9bd63f	0.30436894
15	0x3f421711	0.75816447
16	0x3e709d47	0.23497497
17	0x3f8e8ec2	1.1137316
18	0xbed8fc49	-0.42379978
19	0xbfb074f8	-1.3785696
20	0x3f2c5a6d	0.6732548
21	0x3ded4388	0.11585146
22	0x3e129ba0	0.14317179
23	0xbe363a17	-0.17795597
24	0x3f52868c	0.8223655
25	0x3fb25f37	1.3935307
26	0x3fb1cdd7	1.3890942
27	0xbf5e063c	-0.8672826
28	0x3f082faa	0.5319773
29	0x3f21abcb	0.6315276
30	0x3ff03f47	1.8769311
31	0x3e3a9433	0.18220596
32	0xbe857f38	-0.26073623
33	0xbe08210b	-0.13293855
34	0x3d347803	0.044059765
35	0x3df49262	0.11941983
36	0xbc97a2b9	-0.01851021
37	0x3d0933c4	0.033496633
38	0x3e3eca89	0.18631949
39	0xbebd1a72	-0.3693424
40	0xbc906e3f	-0.017630694
41	0x3dbfbaa7	0.09361773
42	0x3db2e1d7	0.08734482
43	0x3e1c39ea	0.15256467
44	0xbe3aabee	-0.18229648
45	0x3d149c5c	0.03628193
46	0x3e3d3f22	0.18481115
47	0x3ebd1b86	0.3693506
48	0xbdd555fa	-0.10416789
49	0x3fa283de	1.2696493
50	0xbe52c6b4	-0.20583612
51	0xbe4fda1d	-0.20298047
52	0x3ebe16f0	0.37126875
53	0xbf8c8cfa	-1.0980523
54	0x3f49c1ea	0.78811514
55	0xbe4b40dc	-0.1984896
56	0x3ed1fb50	0.4101205
57	0xbf1a6823	-0.6031515
58	0xbf812d6b	-1.0091985
59	0x3eb16c73	0.34653053
60	0xbea978e5	-0.33100048
61	0x3ca34996	0.01993255
62	0x3ec28b1f	0.37996766
63	0x3efa40d1	0.48877576
64	0xbed2ffc3	-0.41210756
65	0xbed8ac6e	-0.42319053
66	0x3fa0d7a1	1.2565805
67	0xbf668895	-0.9005216
68	0xbfe74683	-1.8068393
69	0x3f6407d4	0.89074445
70	0xbf4635a4	-0.774256
71	0x3ee4c954	0.4468485
72	0xbe13afbe	-0.14422509
73	0x3f5256b5	0.82163554
74	0xbfb1a3aa	-1.3878071
75	0xbf305775	-0.6888345
76	0xbf0c619b	-0.54836434
77	0xbfa6ffc9	-1.304681
78	0xbf36e72a	-0.7144648
79	0xbf94499b	-1.1584963
80	0xbed99231	-0.42494348
81	0x3f7dd48d	0.9915245
82	0x3ebdc466	0.37063903
83	0xbf89f3b0	-1.0777493
84	0x3f910962	1.1330988
85	0x3f3e271a	0.74278414
86	0xbfb98153	-1.4492592
87	0xbee20534	-0.44144595
88	0xbe8d4f72	-0.27599674
89	0x3f8c95fe	1.0983274
90	0xbca75d06	-0.0204301
91	0xbfb42bcf	-1.4075869
92	0x3f8b972b	1.0905508
93	0xbf189cdf	-0.59614366
94	0xbd7f5316	-0.062335096
95	0x3e6009e4	0.21878773
96	0x3ecb0575	0.396526
97	0x3f9ccd14	1.2250085
98	0x3fc25031	1.5180722
99	0xbf0ad7e6	-0.54235685
100	0xbdaca9e2	-0.0843084
101	0x4086bc24	4.2104664
102	0xbdc7adc5	-0.09749941
103	0x3fd1a27f	1.6377715
104	0x400044bd	2.0041955
105	0x3f6b5887	0.91931957
106	0xc01b158f	-2.4231908
107	0x3f9e1908	1.2351389
108	0xc00dc33a	-2.2150407
109	0x401c1228	2.4386082
110	0x3f24297f	0.6412582
111	0xc08322fa	-4.0980196
112	0x3fa164a8	1.2608843
113	0x3eb52a24	0.35383713
114	0x3d9f2383	0.07770445
115	0x3ff180f4	1.8867478
116	0x401c7fd6	2.4453025
117	0xbe590d00	-0.21196365
118	0xbf4335b0	-0.76253796
119	0xbef8a0c9	-0.4856017
120	0xbef82223	-0.48463544
121	0x3fbb0452	1.4610693
122	0xc0254b5c	-2.5827246
123	0x3fb3bb70	1.4041576
124	0x3fa48abd	1.285484
125	0x403efd97	2.984228
126	0xbf7252b6	-0.94657457
127	0x3fc56590	1.542162
128	0xbe01611b	-0.12634699
129	0x3e9f6a7e	0.31135935
130	0x401dde37	2.466688
131	0xbf8aefb1	-1.0854398
132	0x3fd42a68	1.6575441
133	0xbf79e950	-0.9762163
134	0xbf02f940	-0.51161575
135	0xbf341e10	-0.7035837
136	0xbf81c651	-1.0138646
137	0xbf985243	-1.1900104
138	0x3eed4710	0.4634328
139	0x3ef5870e	0.479546
140	0x3e4367c6	0.19082555
141	0xbd19f878	-0.037590474
142	0xbd924792	-0.07142557
143	0xbf936da4	-1.1517835
144	0xbf4af147	-0.7927441
145	0x3f86ffee	1.0546854
146	0x3fa54384	1.2911229
147	0x3e23d1fe	0.15998074
148	0x3f97271e	1.1808813
149	0xc03614e4	-2.845025
150	0xbec7d5da	-0.39030343
151	0xbf9e5cdf	-1.2372092
152	0xbed1bb3c	-0.4096316
153	0xbd0fe5c3	-0.035131227
154	0xbf080724	-0.53135896
155	0x3d9efc06	0.077629134
156	0xbf947d86	-1.1600807
157	0xbe9d2697	-0.30693504
158	0xbecc2e84	-0.3987924
159	0x402c4e04	2.6922617
160	0xbee9d246	-0.45668238
161	0xbf5d3196	-0.8640379
162	0xbfb6bd9f	-1.4276618
163	0xbfb97bc6	-1.4490898
164	0x3ecbddab	0.39817557
165	0xbd942bbc	-0.07234904
166	0xbfc518a3	-1.5398144
167	0xbdf835a7	-0.12119608
168	0x3cadb1a7	0.021202875
169	0x3f6ac14a	0.91701186
170	0xbc184ff2	-0.009296404
171	0xbf53c67e	-0.8272475
172	0x3dc7c253	0.09753861
173	0xbe297de6	-0.16551933
174	0xbf0de227	-0.55423206
175	0xbf806c6a	-1.0033085
176	0xbf27cfdf	-0.6555156
177	0xbfdf5698	-1.7448301
178	0xbf8633a4	-1.048451
179	0x3ea75c09	0.32687405
180	0x40114112	2.2695966
181	0xbfa4f9a3	-1.2888683
182	0x4016f6bd	2.3588097
183	0x3fbfe8cd	1.499292
184	0xbeb42f53	-0.35192356
185	0xbf78b40c	-0.9714973
186	0xbfc9cabb	-1.5764993
187	0xbf2ead15	-0.6823285
188	0x3f229b7b	0.63518494
189	0xbcd0a182	-0.025467638
190	0xbeaa96c5	-0.33318153
191	0x3ffdd1d6	1.9829662
192	0x3f0a3538	0.53987455
193	0x3f194a05	0.5987857
194	0x3ee4c1c6	0.44679087
195	0x4031c69d	2.7777474
196	0x3fa70310	1.304781
197	0x3f7e0572	0.9922706
198	0x3f82ca61	1.0218011
199	0x3f0220a3	0.5083105
200	0x3f404acb	0.75114125
201	0xbf58e5ee	-0.84725845
202	0xc002155b	-2.0325534
203	0xbe912c5a	-0.2835415
204	0xc0079c79	-2.1189253
205	0x3fe09065	1.7544066
206	0xbefad3de	-0.48989767
207	0x4030e741	2.7641146
208	0xbfe115f6	-1.7584827
209	0xc002addb	-2.0418613
210	0xbe33da38	-0.17563713
211	0x3eb1cdf6	0.34727448
212	0x3fa185c1	1.2618943
213	0x3f9b1e47	1.2118615
214	0xbfcdaeef	-1.606901
215	0x3fcaf361	1.5855523
216	0xbf0a5b43	-0.54045504
217	0x3faf83d5	1.3712107
218	0xbe85cc8c	-0.2613262
219	0xbf7e15ad	-0.99251825
220	0x40455365	3.083215
221	0x3e7ede76	0.2488955
222	0x3e1656d4	0.1468156
223	0xbfbddfd6	-1.4833934
224	0x3ffb8426	1.9649704
225	0x3ddb2677	0.10700696
226	0xbe9e6ce6	-0.30942458
227	0x3f2069b6	0.626613
228	0x3f171313	0.5901348
229	0xbf84e4ef	-1.0382365
230	0xbeb1b5dc	-0.3470906
231	0xbe13ec26	-0.14445552
232	0xbfe1c55e	-1.7638357
233	0x3eb7c633	0.35893402
234	0xbf201dd2	-0.625455
235	0xbee6159d	-0.44938365
236	0x3fdf7a3a	1.7459176
237	0x3f9364d0	1.151514
238	0xbf9d7907	-1.230256
239	0xbeb6bfa4	-0.35693085
240	0xbff656f0	-1.9245281
241	0xbff2d424	-1.897099
242	0xbe5f505f	-0.21808003
243	0xbdfa996d	-0.12236295
244	0x3fabd70e	1.3425004
245	0x3f52dcb8	0.8236804
246	0x3de7fb85	0.113272704
247	0x3fb31e5a	1.3993638
248	0x3f5f35e6	0.8719162
249	0x3fa1e0a6	1.2646682
250	0xbf9681d1	-1.1758367
251	0x3f038a14	0.51382565
252	0xc01ac45d	-2.418235
253	0x3fceef66	1.6166809
254	0x3efae554	0.49003088
255	0x3f591859	0.84802777

lin1.weight f4 [1024, 64]
0	0xbe17cd54	-0.1482442
1	0xbec63f47	-0.38720152
2	0x3ebe40e8	0.37158895
3	0x3d86b079	0.06576628
4	0x3e4c561f	0.19954728
5	0x3ed4f29f	0.41591355
6	0x3e71d819	0.23617591
7	0xbef90817	-0.48638985
8	0x3b1c7b6b	0.0023877274
9	0x3ec051ff	0.37562558
10	0xbea1a922	-0.3157435
11	0xbea97026	-0.33093375
12	0x3d1c4342	0.03815008
13	0x3ec7927c	0.38978946
14	0xbee4badb	-0.4467381
15	0xbd4a4731	-0.0493843
16	0x3e88aa57	0.2669246
17	0xbe463bdf	-0.19358777
18	0x3efbb2a6	0.49159735
19	0x3d716495	0.058933813
20	0xbf308d78	-0.68965864
21	0x3da4b523	0.080423616
22	0x3e35fde0	0.17772627
23	0xbecf010b	-0.40430483
24	0x3db7dcb8	0.08977646
25	0x3d89b201	0.06723405
26	0xbe5fa63f	-0.21840762
27	0xbdf644d2	-0.12024845
28	0xbeca49e8	-0.3950951
29	0xbf2749e5	-0.6534713
30	0xbe24ddd1	-0.16100241
31	0xbec44f20	-0.38341618
32	0x3e4bbeed	0.19897051
33	0xbe19881d	-0.1499333
34	0xbe25e558	-0.16200769
35	0x3d87bb2d	0.06627498
36	0x3d10eeae	0.035383873
37	0x3e1da0e1	0.15393402
38	0x3e6e3b6e	0.23264858
39	0x3e1223d5	0.14271481
40	0x3e493228	0.1964804
41	0xbe4cd7a7	-0.2000414
42	0x3ea6ac64	0.325534
43	0xbe4d3436	-0.20039448
44	0x3e29a2dc	0.16566032
45	0x3e0755f6	0.13216385
46	0x3e8c51a8	0.2740605
47	0x3e7539d8	0.23947847
48	0xba93d336	-0.0011278156
49	0x3b643eb4	0.0034827413
50	0x3d87970f	0.06620609
51	0xbed7ae0d	-0.42124978
52	0x3f00738b	0.50176305
53	0xbcf5b2d3	-0.029992497
54	0x3e8f7baf	0.2802405
55	0xbed336b8	-0.41252685
56	0x3dbfdd46	0.093683764
57	0xbdeedab9	-0.11662812
58	0xbea24cb0	-0.31699133
59	0x3ed0c314	0.40773833
60	0x3d86ac5f	0.06575846
61	0xbcd84a89	-0.026402729
62	0xbc3812ae	-0.011234922
63	0xbc3f520b	-0.011677275
64	0xbbd36561	-0.0064512943
65	0xbbd787df	-0.0065774764
66	0x3b7d4516	0.0038645915
67	0xbb2b3276	-0.0026122606
68	0xbb1a9066	-0.0023584603
69	0xba91f85b	-0.0011136638
70	0xb98375dd	-0.00025074082
71	0x3a740c05	0.00093096524
72	0x3b7adb97	0.0038277858
73	0x3c07a729	0.0082796
74	0x3ab556ce	0.0013835074
75	0xb91874bc	-0.00014539337
76	0xbbb3007f	-0.0054627056
77	0x3ab29674	0.0013625161
78	0x3bc73bda	0.006080133
79	0xba01cd7c	-0.0004951579
80	0xbbcdde4e	-0.0062826043
81	0xbbee03aa	-0.0072636204
82	0x3ac01244	0.0014653881
83	0xbad1dda4	-0.0016011489
84	0x3b174a41	0.002308503
85	0xbad2bff9	-0.0016078941
86	0xbc1cfe0f	-0.009582057
87	0x3bc2db05	0.0059465193
88	0x38a25089	7.739763e-05
89	0x3bf68b8e	0.0075239604
90	0x3bfaf56c	0.007658651
91	0x3b7b4e11	0.0038346092
92	0x3c3fa198	0.011696242
93	0xb8e46e70	-0.00010892458
94	0x3ba9e09f	0.0051842476
95	0x3bc130e3	0.0058957203
96	0xbc0429da	-0.008066619
97	0xbb8a3de4	-0.0042188037
98	0xbbe88ca3	-0.0070968433
99	0xb91339a6	-0.00014040488
100	0x3bb391c2	0.005480022
101	0x3b0e685c	0.0021729684
102	0x3b970d70	0.004609756
103	0xbbcbc1eb	-0.006218185
104	0x3ac50445	0.001503118
105	0xba1bb532	-0.0005939781
106	0xbb4e9530	-0.0031522028
107	0xbba06cfd	-0.004895805
108	0xbb103db8	-0.0022009443
109	0x3b71d775	0.0036902104
110	0xbb9edebd	-0.00484833
111	0x3bfa59ad	0.0076400847
112	0x3b5dab10	0.0033823885
113	0x3be24ae8	0.006905902
114	0xba947a92	-0.0011328033
115	0x36264300	2.4774927e-06
116	0xba77cd9a	-0.0009452939
117	0xba45f4c1	-0.0007551425
118	0x3b5b3ac6	0.003345178
119	0xbbd9c32b	-0.0066455803
120	0x3baafec5	0.005218359
121	0xbb764b40	-0.0037581474
122	0xbbbd5213	-0.0057776063
123	0xbb6598bc	-0.0035033664
124	0xbb2e185d	-0.0026564815
125	0xbbe26008	-0.0069084205
126	0x3a0134c9	0.0004928825
127	0x3b51f023	0.0032034002
128	0xbc0ae310	-0.0084769875
129	0x3ca0f05c	0.019645862
130	0x3eed1077	0.46301624
131	0x3d38e6b2	0.045141883
132	0x3da3febb	0.0800757
133	0x3c8f7b2b	0.017514786
134	0xbc0b92ab	-0.008518855
135	0xbe393000	-0.18084717
136	0xbde3631a	-0.111028865
137	0x3e88af9a	0.26696473
138	0xbe01fb01	-0.12693407
139	0x3e3d7cd7	0.18504654
140	0xbe780684	-0.24221236
141	0xbeb03b6d	-0.34420338
142	0xbe3e6a81	-0.18595316
143	0x3e98b05f	0.2982206
144	0x3d4d0cd2	0.050061055
145	0xbe26b2cf	-0.16279148
146	0xbe3fdc77	-0.18736444
147	0xbdd6a066	-0.10479812
148	0x3dd69251	0.104771264
149	0xbe9ad560	-0.30240917
150	0x3e2dc286	0.16968736
151	0x3de286b2	0.11060847
152	0xbe11042a	-0.14161745
153	0x3de7237b	0.11286064
154	0xbcd8a4f0	-0.026445836
155	0x3e8641b7	0.2622201
156	0x3e95ccde	0.29257864
157	0x3b810e43	0.0039384677
158	0xbcd1c89a	-0.02560835
159	0x3f0b14a2	0.5432836
160	0x3ea44452	0.32083374
161	0xbe3f4a33	-0.18680649
162	0xbdc9c182	-0.09851362
163	0xbde909dc	-0.11378834
164	0xbea83f6d	-0.3286089
165	0x3e743043	0.23846535
166	0x3e49b4f8	0.1969794
167	0xbef382b8	-0.47560668
168	0xbe867ed9	-0.26268652
169	0xbe2df6b8	-0.16988647
170	0x3e8e8e4a	0.27842933
171	0xb9916f76	-0.000277396
172	0xbeaaf30f	-0.33388564
173	0x3dcd42c2	0.10022499
174	0x3dad178b	0.08451756
175	0xbe9a9063	-0.30188283
176	0x3e948334	0.2900635
177	0xbdfc531a	-0.12320538
178	0xbe0db533	-0.13838653
179	0xbd61843c	-0.05505775
180	0xbdea91d5	-0.114535965
181	0xbe86484d	-0.26227036
182	0xbf0191f7	-0.5061335
183	0x3d45a4db	0.04825292
184	0x3e8a3e44	0.2700063
185	0xbd3daa59	-0.046305034
186	0x3e87593c	0.26435268
187	0x3ef49a65	0.47774044
188	0x3db96417	0.09052294
189	0xbe85bf01	-0.26122287
190	0xbe7bad27	-0.24577771
191	0xbc3b8f02	-0.01144767
192	0x3c1dca59	0.009630763
193	0xbac6ef9a	-0.0015177608
194	0x3b7a7814	0.0038218545
195	0xbb85a005	-0.0040779137
196	0xbbbf4dc5	-0.0058381283
197	0xbb3ec8e6	-0.0029111444
198	0xbbcce179	-0.0062524644
199	0xbbd2cde7	-0.006433237
200	0x3b6a6d1a	0.0035770596
201	0x3b5260a2	0.0032101055
202	0xbba105f7	-0.004914041
203	0x3bc5648c	0.006023949
204	0x3b1d7397	0.0024025196
205	0xbc1f9ae2	-0.009741517
206	0x3a584c79	0.00082511414
207	0x3b1f8f25	0.0024346795
208	0xbb2695e4	-0.0025418932
209	0x3bd22bec	0.0064139273
210	0xbc42a950	-0.011881188
211	0xbb3e4c57	-0.0029037201
212	0xbb3b1847	-0.0028548406
213	0xbaf102f8	-0.0018387726
214	0x3bc0d8b4	0.005885208
215	0xbcb6dbf5	-0.02232168
216	0xbc02562f	-0.007955118
217	0xbbea86b9	-0.0071571735
218	0x3b54004c	0.003234881
219	0x3b83b5fd	0.0040194974
220	0xbc060769	-0.008180478
221	0x3add5452	0.0016886091
222	0x3baad2de	0.0052131256
223	0x3b222c7e	0.0024745758
224	0x3bfdf0d6	0.007749657
225	0xb757e8a0	-1.2869161e-05
226	0x3bc26aea	0.0059331553
227	0x3c549d92	0.012977021
228	0x39ba40e0	0.0003552502
229	0xb910fe04	-0.00013827538
230	0x3bbebc64	0.0058207978
231	0x3b20c613	0.0024532124
232	0xbc20c5c7	-0.009812779
233	0xbb8e29c8	-0.004338477
234	0x3c031e26	0.008002793
235	0x3badd3fc	0.0053048115
236	0x3b332906	0.0027337684
237	0xb9d5e58a	-0.00040797546
238	0xbbe4332f	-0.0069641094
239	0x3bd6aec2	0.0065515945
240	0xb968904a	-0.00022178996
241	0x3b8afdc2	0.004241676
242	0xbc335ce5	-0.010947441
243	0x3b60e044	0.003431336
244	0xbb913e15	-0.0044324496
245	0xbb736399	-0.0037138222
246	0x39a6aeea	0.00031792308
247	0x3b603471	0.0034210945
248	0x3a8c2ae5	0.0010693936
249	0x3ab47016	0.0013766314
250	0xbba3e4df	-0.005001649
251	0x3ad67c7d	0.0016364005
252	0x3b141162	0.0022593369
253	0xbaa020ce	-0.0012216808
254	0x3bee52c7	0.0072730514
255	0x3c13f563	0.009030673

lin1.bias f4 [1024]
0	0xbd97f348	-0.07419449
1	0x3bc102cd	0.0058902265
2	0x3ebdcf6e	0.3707232
3	0x3a062b82	0.00051181775
4	0xbecc9fdb	-0.3996571
5	0x3d587875	0.05284925
6	0xbece8913	-0.40338954
7	0xbe832af0	-0.25618696
8	0xbde655f9	-0.11246867
9	0x3eb0232d	0.34401837
10	0xbb08ae4f	-0.002085585
11	0x3d8c6dfb	0.068569146
12	0xb925d812	-0.00015816119
13	0xbdb12089	-0.08648784
14	0x3eb75fff	0.35815427
15	0xbe632e6b	-0.22185676
16	0x3ed596d5	0.41716638
17	0x3d2c3ca9	0.042050038
18	0xbbc6c925	-0.0060664588
19	0xbd738d92	-0.059461184
20	0xbd8bfa58	-0.06834859
21	0xbe42b659	-0.19014873
22	0x3f09b9c0	0.53799057
23	0xbcd70f45	-0.026252398
24	0x3e5659e6	0.20932731
25	0xbdc2f282	-0.09518911
26	0x3d880c48	0.066429675
27	0xbb368427	-0.0027849765
28	0x3e85a1f3	0.2610012
29	0xbd743c73	-0.05962796
30	0xbec72615	-0.38896242
31	0x3c22ed1d	0.0099442275
32	0x3dd09218	0.10184115
33	0x3ebda6c3	0.37041292
34	0x3c1f11f4	0.00970887
35	0xbca73c39	-0.020414459
36	0x3e3967d8	0.1810602
37	0x3e99ab1b	0.30013356
38	0x3bb24c09	0.005441193
39	0xbe55c488	-0.20875752
40	0x3d4009fe	0.04688453
41	0x3e2495bc	0.16072744
42	0x3c44bea4	0.012008343
43	0x3e85e832	0.26153713
44	0x3b8eaf9e	0.0043544313
45	0xbeee22bb	-0.46510872
46	0x3e8d4a80	0.275959
47	0xbb234528	-0.0024913047
48	0xbec35cbc	-0.38156688
49	0x3e7bbd6d	0.24583979
50	0x3e3b4b16	0.18290362
51	0xbee07de8	-0.4384606
52	0x3b2e7ed0	0.002662588
53	0x3e4ea2b0	0.20179248
54	0xbbdfe119	-0.0068322537
55	0x3e820adc	0.2539891
56	0x3e03535b	0.12824766
57	0xbe9ff7c9	-0.31243733
58	0x3dce2ce7	0.10067158
59	0xbf02aa1b	-0.5104081
60	0xbd01e11f	-0.031708833
61	0xbe9cd02c	-0.30627573
62	0xbb08a2a4	-0.0020848894
63	0xbeb63c77	-0.35593006
64	0xbe560a66	-0.20902404
65	0xbdae512f	-0.08511578
66	0x3b1ab3ea	0.0023605772
67	0x3d07173a	0.032981135
68	0xbda5fa6d	-0.081044056
69	0xbedbb846	-0.42914027
70	0xbccd0e45	-0.025031218
71	0xbbe3fc74	-0.006957585
72	0x3dc560a8	0.09637576
73	0x3bbdf53a	0.0057970555
74	0xbe1b9ace	-0.15195772
75	0x3986edfd	0.00025735787
76	0x3e56acf7	0.20964418
77	0xbe1cc10b	-0.15308015
78	0xbdeaae83	-0.11459067
79	0xbd9e89db	-0.077411376
80	0x3bca0f3f	0.0061663683
81	0xbbedfd5a	-0.007262868
82	0x3e4ddf9b	0.2010483
83	0x3e8ac1be	0.2710094
84	0xbde80a84	-0.11330131
85	0xbb584fdd	-0.0033006587
86	0x3c006497	0.0078364825
87	0xbe35b4db	-0.17744772
88	0xbe9df76e	-0.30852836
89	0x3ed825a9	0.42216232
90	0x3bb5a72e	0.005543611
91	0x3e88601a	0.2663582
92	0x3efd8477	0.49515125
93	0xbd9cb08c	-0.07650861
94	0xbbcf3bc9	-0.0063242656
95	0x3e7a0f6d	0.24419947
96	0xbe32a3dd	-0.17445321
97	0x3e1ece3c	0.1550836
98	0xbcd8e3c3	-0.026475793
99	0xbb91f7d8	-0.004454594
100	0x3e1e01bd	0.1543035
101	0xbacf79e8	-0.0015829178
102	0x3c0f7ee9	0.008758285
103	0xbe9ef781	-0.31048205
104	0xbf323644	-0.6961405
105	0xbd67a5c5	-0.056554575
106	0xbe2f50ad	-0.17120619
107	0xbe8d5806	-0.2760622
108	0x3e5ddf21	0.21667148
109	0xbba4f7fb	-0.0050344444
110	0xbe559138	-0.20856178
111	0x3e33e898	0.17569196
112	0xbc05cd59	-0.0081666345
113	0xba7f2b4e	-0.0009733931
114	0x3ef4fbe3	0.47848424
115	0x3d4defb9	0.050277445
116	0x3dbe90ab	0.09304937
117	0xbeaa720d	-0.3329014
118	0x3c1219c3	0.008917275
119	0xbe1cb487	-0.1530324
120	0xbcf8514a	-0.0303122
121	0x3da3120f	0.07962429
122	0xbe3d65fc	-0.18495935
123	0xbc4bdefc	-0.0124433
124	0x3ee07310	0.43837786
125	0x3eebb234	0.46034396
126	0x3eb07485	0.34463897
127	0xbe9bd53a	-0.30436116
128	0xbdec7b52	-0.11546959
129	0xbc0a606c	-0.00844584
130	0xbe557a18	-0.20847356
131	0x3df68117	0.12036341
132	0x3bc49d51	0.006000199
133	0x3ebe35cb	0.37150416
134	0x3e7f6c37	0.24943624
135	0xbed01a7b	-0.40645203
136	0xbe7f8a02	-0.2495499
137	0xbcb8821c	-0.022522978
138	0xbc11adb7	-0.0088915145
139	0xbdc7b2fb	-0.09750935
140	0x3bc4de66	0.0060079573
141	0xbe3cc3f3	-0.18434124
142	0xbddf5a30	-0.10905874
143	0xbd7b7f3b	-0.061400633
144	0x3ed6ba2e	0.4193892
145	0xbd51eefa	-0.051253296
146	0xbaade558	-0.0013267202
147	0x3ec225df	0.37919518
148	0xbe48f18a	-0.1962339
149	0x3e730dfa	0.237358
150	0xbe314d49	-0.17314638
151	0x3ea01371	0.31264833
152	0xbbf309e0	-0.0074169487
153	0xbbdba7e2	-0.006703363
154	0x3efee09c	0.49780738
155	0x3b964186	0.0045854477
156	0x3ec4e2b8	0.38454223
157	0xbe3b377f	-0.18282889
158	0x3b91c4a0	0.0044484884
159	0xbae57805	-0.0017507082
160	0x3cfdfc05	0.031003961
161	0xbd092a56	-0.03348764
162	0x3d9b1929	0.07573158
163	0xbea27414	-0.31729186
164	0x3c2a0791	0.0103777805
165	0xbf073d35	-0.5282777
166	0xbe867091	-0.26257756
167	0xbe365806	-0.17807016
168	0x3e9a4466	0.3013031
169	0x3e36a9bf	0.1783819
170	0x3ece6864	0.4031402
171	0xbe74c7d1	-0.23904349
172	0x3bbd45ab	0.0057761273
173	0x3e46a387	0.19398318
174	0x3ef7a950	0.48371363
175	0xbe3a1935	-0.18173678
176	0x3a17be80	0.00057885796
177	0xbe5df149	-0.21674074
178	0x3b93e5a8	0.004513461
179	0x3ebdb000	0.3704834
180	0xbde3dbc3	-0.111259006
181	0x3c7c3778	0.015394084
182	0x3eca5ad4	0.3952242
183	0xbe0b9aa2	-0.13633206
184	0x3e969373	0.2940937
185	0xbe3668a4	-0.17813355
186	0x3aba6872	0.0014221801
187	0xbe91eff2	-0.28503376
188	0x3ebd94fc	0.3702773
189	0x3e212221	0.15735675
190	0xbe785f15	-0.24255021
191	0xbe75fbf4	-0.24021894
192	0x3e83f1d1	0.2577043
193	0x3b56eca0	0.0032794848
194	0xbc4246d9	-0.011857712
195	0xbf0b16ad	-0.54331475
196	0xbde14f4d	-0.110014535
197	0xbe88cbed	-0.26718083
198	0x3be9617e	0.0071222177
199	0xbe830f43	-0.2559758
200	0x3eea2540	0.45731544
201	0x3d70b747	0.058768537
202	0x3de0420e	0.10950099
203	0xbde6d2c1	-0.11270667
204	0xbbb687ae	-0.0055703735
205	0x3e93bf83	0.2885705
206	0xbe8d7577	-0.2762868
207	0xbde9e371	-0.11420334
208	0x3e5f7080	0.21820259
209	0xbf01664a	-0.50546706
210	0x3d440b87	0.047862556
211	0x3b42eb19	0.002974218
212	0xbeac8b17	-0.33699867
213	0xbb86dee7	-0.0041159275
214	0xbea31214	-0.3184973
215	0xbedcec95	-0.43149248
216	0x3da1c107	0.07898145
217	0x3d04bd86	0.032407306
218	0xbe26157a	-0.1621913
219	0x3b85e165	0.004085707
220	0x3efb44d5	0.49075952
221	0x3d70065d	0.05859982
222	0xbbe1c74b	-0.0068902127
223	0x3ed4da53	0.41572818
224	0xbc285673	-0.010274517
225	0x3f0f6336	0.5601076
226	0xbdeecd1a	-0.11660214
227	0xbd10d29a	-0.035357095
228	0xbcffea46	-0.03123964
229	0x3b69fdf6	0.003570435
230	0xbe311141	-0.17291738
231	0x3c511f74	0.012763847
232	0x3e5f310c	0.21796054
233	0xbd94d281	-0.07266713
234	0xbe743868	-0.23849642
235	0xbe60da96	-0.21958384
236	0xbdaf9a1f	-0.08574318
237	0x3d85d0d6	0.06533973
238	0x3b0374b9	0.0020058586
239	0x3e8ce2d1	0.27516797
240	0x3ec1ccbb	0.3785151
241	0xbd4b643f	-0.04965615
242	0x3d25eb4e	0.040507607
243	0xbe35439d	-0.17701574
244	0x3e852ded	0.260116
245	0xbbbd09fe	-0.0057690134
246	0x3ebb434b	0.36574778
247	0x3cb5a08b	0.02217128
248	0x3d7028eb	0.058632772
249	0x3f17f0b7	0.59351677
250	0xbf0ab228	-0.54178095
251	0xbda33f93	-0.0797111
252	0x3ef97436	0.48721474
253	0x3ea1b029	0.31579712
254	0x3d3dfd4c	0.04638414
255	0xbeb39249	-0.35072544

lin2.weight f4 [98, 1024]
0	0x3d24f7bb	0.040275317
1	0x3c0f63f4	0.008751858
2	0xbd7fcf78	-0.062453717
3	0xbb00f805	-0.001967908
4	0x3dbb866a	0.09156497
5	0x3d5da1e8	0.054109484
6	0xbb75b0df	-0.0037489457
7	0xbca4c11f	-0.020111619
8	0xbce2202b	-0.02760323
9	0x3db1a73d	0.08674476
10	0xbb01278d	-0.0019707412
11	0x3d277dd4	0.040891483
12	0x3c2cf469	0.010556319
13	0xbbbb5dd5	-0.0057179728
14	0xbcca058b	-0.024660846
15	0x3ce4cf24	0.027930804
16	0xbb76a211	-0.003763322
17	0x3b985de6	0.0046498654
18	0xbc0a993c	-0.0084593855
19	0x3da22e48	0.07918984
20	0x3b3d8e99	0.0028924106
21	0xbac486e4	-0.0014993814
22	0xb8c8e766	-9.5798445e-05
23	0x3d541ba3	0.05178417
24	0x3b2e657b	0.002661078
25	0xbbc0a7e6	-0.00587939
26	0x3d909455	0.07059542
27	0x3bb93296	0.0056517823
28	0x3cf7e819	0.03026204
29	0xbaaf18f3	-0.0013358876
30	0xbc2cec94	-0.0105544515
31	0x3b9977c6	0.0046834676
32	0x3dac6133	0.08416977
33	0x3cc6ff0b	0.024291536
34	0x3c2da815	0.010599156
35	0xbda720ba	-0.08160539
36	0x3e4a19a4	0.19736344
37	0xbb3fab07	-0.0029246227
38	0xba083eb6	-0.0005197333
39	0x3b443ce7	0.0029943527
40	0xbcd4c8af	-0.0259746
41	0xbaadab82	-0.0013249966
42	0x3bcb89dd	0.006211503
43	0xbe326144	-0.17419916
44	0xba980cf2	-0.0011600538
45	0xbdc2a15f	-0.09503435
46	0x3d6af680	0.057363987
47	0xbb91a086	-0.0044441847
48	0xbd37d457	-0.044880237
49	0x3cb622c3	0.022233373
50	0xbe070e38	-0.13189018
51	0xbbc1155d	-0.0058924393
52	0xbbe7a9bc	-0.0070697945
53	0xbc99c83c	-0.018772237
54	0xbb91e76a	-0.0044526355
55	0xbbc7fdcf	-0.0061032544
56	0xbeaf8291	-0.34279302
57	0xbb9782c8	-0.0046237446
58	0xbbc92dd0	-0.0061394945
59	0xbbb1c227	-0.005424756
60	0xb9a75c19	-0.0003192134
61	0xbdceefa5	-0.10104302
62	0x3bf33c95	0.0074229934
63	0x3c2c9674	0.010533918
64	0xbe31e876	-0.17373833
65	0x3e92d4b4	0.28677905
66	0x3b7b15af	0.0038312485
67	0x3bfa77e7	0.007643688
68	0x3c7d2ed8	0.015453063
69	0xbe093e60	-0.134027
70	0x3d1db08f	0.038498458
71	0xbc7a67fb	-0.01528358
72	0xbd85b5c6	-0.06528811
73	0x3be6e9a9	0.0070468974
74	0xbbf250f3	-0.007394904
75	0xbbc5ac1d	-0.0060324804
76	0x3c636fe0	0.013881654
77	0x3b935ff5	0.004497523
78	0x3aae14c5	0.0013281336
79	0xbe4d92bb	-0.20075504
80	0xba423500	-0.00074084103
81	0x3b21cf93	0.0024690374
82	0xbe0172df	-0.12641476
83	0x3de5626c	0.11200413
84	0xbd592aac	-0.05301921
85	0xbbd94e5f	-0.006631657
86	0x3c81590e	0.015789535
87	0x3d6d6960	0.05796182
88	0xbbdf224d	-0.006809509
89	0x3d9fb173	0.07797518
90	0xbba3d19b	-0.004999352
91	0xbe34a756	-0.17641959
92	0xbe837417	-0.25674507
93	0xbc41fefe	-0.01184058
94	0xbb2373e6	-0.0024940907
95	0x3d8346fb	0.06410023
96	0x3a8f249a	0.0010920942
97	0x3b1c7cd8	0.0023878124
98	0xbc2ce32b	-0.010552208
99	0x3aa89b19	0.0012863606
100	0xbddd468e	-0.10804473
101	0x3ba3c44f	0.004997767
102	0x3b35c90b	0.002773824
103	0xbbc3f8e5	-0.0059805983
104	0x3c083a83	0.0083147315
105	0xbc53ea67	-0.012934304
106	0xbccc57a3	-0.024944132
107	0xbda180eb	-0.07885917
108	0x3bf90b46	0.007600221
109	0xbb6ecd1c	-0.0036438173
110	0xbbb35e39	-0.0054738787
111	0xbe37c5d8	-0.17946565
112	0xbb2a5946	-0.0025993153
113	0xbb16ab08	-0.0022990126
114	0x3ad75032	0.0016427098
115	0xbdbae04e	-0.09124814
116	0x3c3df69f	0.011594444
117	0xbd4c3c78	-0.049862355
118	0x3beaef37	0.00716963
119	0xbc83bddc	-0.016081743
120	0x3a937ac8	0.0011251802
121	0x3d744003	0.05963136
122	0xbd345814	-0.04402931
123	0x3ac7524c	0.0015207021
124	0x3e8a9392	0.27065712
125	0xbe268cf9	-0.16264714
126	0xbdcd2e31	-0.10018576
127	0x3bc25329	0.0059303236
128	0x3d00e666	0.031469725
129	0x3aa82286	0.0012827672
130	0x3bc5b595	0.006033609
131	0x3e18103c	0.14849943
132	0xbc0dd593	-0.008656877
133	0x3c3b6afa	0.011439079
134	0xbc3b8e22	-0.011447461
135	0xbe0eaf41	-0.13934042
136	0x3d435651	0.04768974
137	0xbea5e845	-0.3240377
138	0x3b93b032	0.004507088
139	0x3df09122	0.11746432
140	0x3aa0cc88	0.0012267986
141	0x39958520	0.0002851868
142	0xbdf524c0	-0.119699
143	0xbb639ebe	-0.003473207
144	0x3db64b17	0.08901041
145	0x3c407314	0.011746187
146	0x3b804138	0.0039140247
147	0x3d20ed53	0.03928883
148	0x3d807300	0.062719345
149	0xbceed1cd	-0.029152775
150	0xbb491adf	-0.0030686182
151	0x3965c55f	0.00021912668
152	0xbae10aa8	-0.0017169314
153	0x3be0a853	0.0068560033
154	0xbe79f68c	-0.24410456
155	0x3c312e13	0.010814208
156	0x3e77f1a4	0.24213272
157	0xbbc432c9	-0.0059874994
158	0x3b2d355f	0.0026429517
159	0x3bf9f03f	0.0076275165
160	0xbd817752	-0.06321587
161	0x3bdd31b6	0.006750311
162	0x3bec713a	0.007215646
163	0xbb8a6b48	-0.0042242147
164	0x3aea608e	0.0017881559
165	0x3d10cfa9	0.03535429
166	0x3e84b29a	0.25917512
167	0xbbf9f2fd	-0.0076278434
168	0x3d593fbe	0.053039305
169	0x3dfa4eee	0.12222086
170	0xbaa0c1c5	-0.0012264779
171	0x3a805f1a	0.0009793967
172	0x3baf8928	0.0053569265
173	0xbb4b5098	-0.003102338
174	0x3defda5c	0.117115706
175	0xbc2f3c21	-0.010695488
176	0xbb710ad1	-0.0036780129
177	0x3b270b11	0.0025488774
178	0x3bcc3b6c	0.0062326696
179	0x3d9b0e73	0.07571115
180	0x3b21d2d9	0.0024692325
181	0x3d585eef	0.05282491
182	0x3b75a0e4	0.0037479931
183	0x3d91868b	0.0710574
184	0x3cad9f6a	0.021194179
185	0x3d4ceb32	0.050028987
186	0x3ae0a312	0.0017138442
187	0x3bcbbf8b	0.006217902
188	0x3bd1f98d	0.0064079226
189	0x3ba66d92	0.00507898
190	0x39b5fc92	0.0003471119
191	0x3ccffbeb	0.025388679
192	0xbe8d32ff	-0.2757797
193	0x3b8d7f0c	0.0043181237
194	0xbc0d83e7	-0.008637405
195	0x3acb69ca	0.0015519198
196	0x3c2ec690	0.010667458
197	0x3e4ae597	0.19814144
198	0x3ade5a23	0.0016964119
199	0xbe20da95	-0.15708382
200	0x3b7d89a2	0.0038686772
201	0xbbb493a2	-0.0055107633
202	0x3e0b0f99	0.13580169
203	0xbbadef1e	-0.005308046
204	0xbc04e148	-0.008110352
205	0x3c0bd25c	0.00853404
206	0xbc3716de	-0.011174886
207	0xbccc5cc6	-0.024946582
208	0x3b8cfc6f	0.0043025534
209	0xbe303da6	-0.17211017
210	0x3eadcac5	0.33943763
211	0x3ba06087	0.0048943195
212	0x3b89972e	0.00419893
213	0x3b8af5b3	0.0042407154
214	0x3e5332b3	0.20624809
215	0x3cbb8b04	0.022893436
216	0xbd8ac32e	-0.06775509
217	0xbb800dbb	-0.003907887
218	0xbd5cf0d8	-0.053940624
219	0xbc332455	-0.010933955
220	0x3d970785	0.07374481
221	0xbe67d232	-0.22638777
222	0x39dee9a0	0.00042517204
223	0x3dbe62f5	0.09296218
224	0x3b6d5e90	0.0036219694
225	0xb9e6e718	-0.00044041197
226	0xbcde6d79	-0.02715181
227	0x3bd33644	0.006445678
228	0xbd34db83	-0.044154655
229	0x3c2fde88	0.010734208
230	0xbb2ebd9d	-0.0026663311
231	0x3c9c8f43	0.019111281
232	0x3bc54b58	0.0060209446
233	0x3bda35b6	0.006659235
234	0xbd95255e	-0.07282518
235	0xbb76e616	-0.0037673763
236	0x3a45ed69	0.00075503305
237	0xb907ae75	-0.00012939594
238	0x3e428564	0.18996197
239	0xbd20d2e7	-0.039263632
240	0xbc347fe2	-0.011016818
241	0x3b39e81a	0.0028367103
242	0x3dc9844f	0.09839689
243	0x3cdac9b0	0.0267075
244	0x3cc03993	0.023464954
245	0xbaadef0e	-0.0013270096
246	0x3bbe3910	0.005805142
247	0x3d308856	0.04309877
248	0x3e18b4cb	0.14912717
249	0xbcb0c945	-0.021580348
250	0xbbf405a7	-0.007446963
251	0xbbb81c1e	-0.005618586
252	0xba3cb360	-0.000719836
253	0xbda7a1ba	-0.08185144
254	0xbc7b5701	-0.015340568
255	0x3ce0a343	0.0274216

lin2.bias f4 [98]
0	0xbe810bbf	-0.25204274
1	0x3f2a2576	0.6646341
2	0xbf2475f9	-0.6424251
3	0xbf9af371	-1.2105542
4	0xc034e881	-2.826691
5	0xc035d32a	-2.8410134
6	0xbf63feaa	-0.8906046
7	0xbfa970ab	-1.3237509
8	0xbf97bd55	-1.1854655
9	0xbf6ba97a	-0.92055476
10	0xbe6c2c67	-0.23063813
11	0xbf75cc33	-0.9601471
12	0xbe7d2999	-0.247229
13	0xc036549f	-2.8489149
14	0xbf87cdd2	-1.0609686
15	0xbf7e7cf0	-0.9940939
16	0xbf3b3b53	-0.73137397
17	0xbf5c1ea6	-0.85984266
18	0xbf3b5288	-0.7317281
19	0xbf6caffb	-0.92456025
20	0xbf37fa95	-0.7186673
21	0xbf57e4e7	-0.8433365
22	0xbf56e256	-0.8393911
23	0xbf6a096f	-0.91420645
24	0xbf31030a	-0.6914526
25	0xbf562073	-0.83643264
26	0xbf2771a9	-0.65407807
27	0xbe34872a	-0.17629686
28	0xbeb04849	-0.3443015
29	0xbeb11ab6	-0.3459069
30	0xbed50020	-0.41601658
31	0xbea3bcef	-0.31980082
32	0xbe9ad009	-0.30236843
33	0xbf11ff4c	-0.5703018
34	0xbe623c8c	-0.2209341
35	0xbc2c9ae4	-0.010534976
36	0xbeeee463	-0.4665862
37	0xbf33cec7	-0.7023739
38	0xbe7c0b5a	-0.24613705
39	0xbd1c43d8	-0.03815064
40	0xbeeef686	-0.46672457
41	0xbe175721	-0.14779331
42	0xbeef6a59	-0.46760824
43	0xbf2f3b2d	-0.6844967
44	0xbef04b08	-0.46932244
45	0xbd925da3	-0.07146766
46	0xbe2bc226	-0.1677328
47	0xbf699e6d	-0.91257364
48	0xbf118757	-0.5684714
49	0xbe85b1d7	-0.26112244
50	0xbf4fe08b	-0.81202
51	0xbeb8db8c	-0.36105
52	0xbf829cd8	-1.0204115
53	0xbfa2e9bf	-1.2727584
54	0xc047f9fb	-3.1246326
55	0xbf0bd19c	-0.54616714
56	0x3eefbe4c	0.46824872
57	0xbe586dc6	-0.21135625
58	0xbd3d1c4b	-0.04616956
59	0xbc548cf2	-0.012973057
60	0x3ee85d1f	0.45383546
61	0xbe118832	-0.1421211
62	0xbe8a4499	-0.2700546
63	0xbddadc65	-0.10686568
64	0x3eb6b3c7	0.35684034
65	0xbf81313f	-1.0093154
66	0xbf26fc65	-0.65228873
67	0x3da3cfcc	0.079986185
68	0xbdc7c644	-0.09754613
69	0x3e7a93f2	0.24470499
70	0x3e8b2dd4	0.27183402
71	0xbeaa982a	-0.33319217
72	0xbf8556cf	-1.0417117
73	0x3ea7211d	0.3264245
74	0x3efa4c08	0.48886132
75	0x3f06fad2	0.5272647
76	0xbd59a863	-0.0531391
77	0xbebea21e	-0.3723306
78	0x3d840824	0.06446865
79	0xbf4a1ac5	-0.789471
80	0xbe4a30b3	-0.1974514
81	0xbf8ae0e0	-1.0849876
82	0xbf4488d0	-0.7677126
83	0xbf790dee	-0.9728688
84	0xbf791b96	-0.9730772
85	0xbf9c060e	-1.2189348
86	0xbf87f7f1	-1.0622541
87	0xc04472e3	-3.0695121
88	0xbf93df2e	-1.1552484
89	0xbf824123	-1.0176128
90	0xbf3248be	-0.69642246
91	0xbe672270	-0.2257173
92	0xbe2f4dba	-0.17119494
93	0xbf02cf22	-0.5109731
94	0xbf08c488	-0.5342488
95	0xc035ea3c	-2.8424215
96	0xc0333112	-2.79987
97	0xc0350a7e	-2.8287654
