models/3_context_2_embedding_64_activation_3.pt (torch, 957978 bytes, 5 tensors)

emb.weight f4 [98, 64]
00000000: 59f1 b0bd fc0b 823c 31f8 a0bf 7756 ff3e
00000010: da8e b93e bba8 c93e 6e6d f83f 3667 84bf
00000020: 6b9e 353e f2e1 bcbe 06e7 00bf 93c7 30bf
00000030: 373c 073f 8acc 3abe 1e99 ee3e 4dc5 29be
00000040: 92a4 61be 4668 9b3f 39b7 c0be d18d 3dc0
00000050: f593 df3f c7f1 c43f 54d2 25bf 025c 7d3e
00000060: 32b1 d83f 1356 8640 2291 4f40 99ad 23c0
00000070: 6b40 2f40 73a1 ca3e e725 5540 5536 efbd
00000080: a894 c6bf 031b a2bf 8358 1abf 4946 1c3e
00000090: 699a b73e c2a6 88be 34f7 073e 166f b9bf
000000a0: 5cc8 58bf 043e 333f f282 983e fdf5 9a3f
000000b0: 21b9 0cc0 fe12 443f c72d 5a3e 66d1 4d3e
000000c0: 8710 bbbe 8589 6a40 4f45 bfbe 5826 e1be
000000d0: b425 e53f 440d 72c0 bf7b bb3f 26cc 9ebf
000000e0: 8004 9b3f c3e2 f7bf e309 43c0 9c3e 0040
000000f0: 7ff4 95bf 993b 003f c8f2 b43f 166f 1f40
00000100: d240 83be 3852 7abe 8334 393e 43fa 393d
00000110: c7d3 29c0 e576 ff3f f01b 8abf 9526 843f
00000120: 5152 c13f 4169 6cbd dab4 edbf ab4d 3dbf
00000130: 0668 c8bf 3378 5cbf 59c6 36bf 5e67 22c0
00000140: 13f1 483a b72f 99b8 78f7 abbd a69b b8bf
00000150: 19df 6440 2af1 503f ce98 e8bf 61f4 22bf
00000160: 0e9d 7b3f 9647 893f 192d 5a3f 20b6 eebf
00000170: 249e 1340 faa6 d53e e958 36bf c61e 36be
00000180: 7aee 92bf 25de 93bf ebb1 79be dcce 85be
00000190: 7f55 433f e26e c33f 8276 67be d6c7 2b3d
000001a0: 9e1c 76bf 8c27 0c40 d284 ae3f 0c21 a03f
000001b0: f583 09c0 3830 0a40 54bd e9bf d396 fcbf
000001c0: f767 efbd bf6d 8e3f ab66 813f 60e7 e03b
000001d0: babb 4140 beff b8bf 0b8a 43bf c930 68c0
000001e0: d13f a8be 980f ccbe fb98 26be 7125 803f
000001f0: 6b29 ea3e ec1a 8040 11c5 90bf a45a ed3e
00000200: ac24 ab3e b483 c73f e9aa 0840 d71a 98bf
00000210: a651 a83f 8c25 5fbf 2ab9 d8bf 0fd5 21bf
00000220: 754a 09c0 e19f 31c0 01dd a7be a560 d23f
00000230: 1c77 02c0 3398 f9be 4c65 653f 3b1b 2dbe
00000240: 79cc 3bbf 9f2a b83f 5399 1740 7efa 353f
00000250: e183 c33f 141f 3ac0 720b 2d3e 9f86 10bf
00000260: 82e3 88bf f2dd a13e 5946 e7bf 9784 373f
00000270: 9aac 1ac0 a7bb 823f af3d ecbf fa58 6c40
00000280: 5064 2ebf af5a 20c0 7f43 20c0 7d18 3bbf
00000290: ed20 09bf 271a 083e eb15 30bf 1650 b9bf
000002a0: e96d abbf 58c5 613c 8104 68bf 4260 953e
000002b0: 9337 a4bf cc54 44bf 1319 f3bf d435 38c0
000002c0: 9747 893e 8a7f 60bf c9a9 bebf a02d dcbd
000002d0: 7967 6640 5a38 ffbf bea6 3a40 f6f1 1640
000002e0: d3ed 863f 4110 ecbf 027a 42bf 40b5 93be
000002f0: 9746 3b3f 4014 443f ee6d 1ebf 031b c93f
00000300: 99a5 30c0 994e fe3c 3029 5440 1565 8340
00000310: fbbd 41bf 831e c43f 2622 a8bf 38b4 8f40
00000320: 5cd6 81be ac78 2940 cc54 4ac0 e925 4ebf
00000330: 4484 09c0 13a5 dfbf 9ab7 d5bf 1d16 b73f
00000340: cb31 3cbf dab8 51bf 7d06 5740 924f 413f
00000350: 2c8f 8240 c48d d7bf fd3b 7abf d1c8 b73f
00000360: 3aa0 05c0 e300 51bf eff1 f5bf a257 9f3f
00000370: 9fca a940 3b22 0540 080e 04c0 117e 0ac0
00000380: cd2f 4a40 a0df 023e 5b35 6c3f f5ed a93f
00000390: 78e8 1ebe 3b62 34c0 6186 ae3d 028b 9bbe
000003a0: 27c2 45c0 0f6b d1bd 58bd 43c0 3c4a 96bf
000003b0: 7264 9e3f 0750 ffbf 6ac5 f43f 7efa 72c0
000003c0: 8866 13c0 ef55 85c0 e217 a43f 9e57 a0bd
000003d0: f66a 2b40 9562 983f e311 67c0 47fd 043f
000003e0: 9ffb 2640 8c46 3140 dd40 7cbf 97da 6b3f
000003f0: f4da 87c0 5293 3840 8561 6dbf 8733 f73f
-0.086397834 0.015874855 -1.2575742 0.49870655 0.362418 0.39386544 1.9408395 -1.0343997
0.17736213 -0.36891133 -0.50352514 -0.69054526 0.52826256 -0.18242088 0.46601194 -0.1657917
-0.22035435 1.2141197 -0.37639788 -2.9617808 1.7467028 1.5386285 -0.6477406 0.2474213
1.6929076 4.198007 3.2432332 -2.5574706 2.7383068 0.395763 3.3304384 -0.11680285
-1.5514116 -1.2664493 -0.6029131 0.15261187 0.35859993 -0.26689726 0.13277894 -1.4487026
-0.84680724 0.70016503 0.29787403 1.210632 -2.1987994 0.7659148 0.21306525 0.2009941
-0.36536047 3.6646435 -0.37357566 -0.43974566 1.7902131 -3.7820597 1.4647139 -1.2406051
1.2110748 -1.9366077 -3.0474784 2.0038214 -1.1715239 0.5009094 1.4136591 2.4911551
-0.2563539 -0.24445426 0.18086438 0.045404684 -2.6535509 1.9958159 -1.0789776 1.0324274
1.5103246 -0.057717565 -1.8570817 -0.73946637 -1.5656745 -0.8612091 -0.71396405 -2.537559
0.00076653174 -7.304496e-05 -0.0839681 -1.44225 3.5761168 0.8161799 -1.8171632 -0.6365414
0.9828652 1.0724971 0.85225064 -1.864933 2.3065271 0.41728956 -0.71229416 -0.17785177
-1.1479027 -1.1552168 -0.24384277 -0.26134384 0.7630233 1.5268214 -0.22603801 0.041938625
-0.96137416 2.1899137 1.3634284 1.2510085 -2.148679 2.159193 -1.8260903 -1.9733528
-0.116897516 1.1127242 1.0109457 0.0068635195 3.027083 -1.4453046 -0.7638251 -3.6279776
-0.32861188 -0.39855647 -0.16269295 1.0011426 0.45734724 4.0032864 -1.131014 0.46358216
0.33426416 1.5587068 2.1354315 -1.1883191 1.3149917 -0.87166667 -1.6931508 -0.63215727
-2.1451695 -2.7753832 -0.327858 1.6435744 -2.0385199 -0.4874893 0.8960769 -0.16904919
-0.73358876 1.4388007 2.3687332 0.71085346 1.5274621 -2.9081469 0.16898897 -0.56455415
-1.069443 0.31614643 -1.8068343 0.7168669 -2.4167848 1.0213517 -1.8456324 3.6929307
-0.68121815 -2.505535 -2.5041196 -0.7308424 -0.53565866 0.13291226 -0.68783444 -1.4477565
-1.3392917 0.013779961 -0.9063187 0.29175 -1.282946 -0.7669189 -1.8992027 -2.8782854
0.2681243 -0.8769461 -1.4895564 -0.1075089 3.6000655 -1.9939072 2.9164271 2.3585181
1.0541328 -1.844246 -0.7596742 -0.2884922 0.73154587 0.765934 -0.6188649 1.5711368
-2.7601073 0.031043338 3.315014 4.106089 -0.7568051 1.5321811 -1.3135421 4.4907494
-0.25358856 2.6479902 -3.1614256 -0.80526596 -2.1486979 -1.7472252 -1.6696656 1.4303623
-0.7351348 -0.81922686 3.359771 0.7551204 4.079977 -1.6840138 -0.97747785 1.4358159
-2.0879045 -0.8164198 -1.9214457 1.2448618 5.305984 2.0802143 -2.0633564 -2.1639445
3.1591675 0.12780619 0.92268914 1.3275744 -0.15518367 -2.8184955 0.085217245 -0.30379492
-3.089975 -0.10225498 -3.0584316 -1.1741405 1.2374403 -1.9946297 1.9122746 -3.7965388
-2.303133 -4.16674 1.2819788 -0.07829212 2.6784034 1.1905085 -3.6104667 0.5194897
2.6091077 2.7699308 -0.98536474 0.92130417 -4.2454777 2.8839917 -0.9272693 1.93126

lin1.weight f4 [1024, 128]
00000000: 5c58 863e 3c7e bdbd 834b 3fbe d343 883d
00000010: e423 053f a106 81be 2e9b b3be 26de 923e
00000020: 380c dbbd 7a98 463e fbe8 e8be b61c 493e
00000030: e440 0bbe 7c9b 10bf dc5d 8fbb 28c9 793a
00000040: 6134 aebe c22f 7fbd b71e aabe 4673 af3e
00000050: 147f 63be 2201 15be 6b24 053e 8637 533e
00000060: 4ac6 9cbe 4e36 603e 5226 a6be 58c6 01be
00000070: 93ea 91be 4483 acbe 7948 a43e 126f 58be
00000080: f9b6 3abe 3ecd a1bd d34f c6be 9e14 1ebf
00000090: 0df8 593e 04e4 a5bd a937 cb3c eb7e 04be
000000a0: 0c5b a8bc 383b 74bd 6c0f 35bf d6e5 1fbf
000000b0: d644 b63e 1032 0bbf 97ad ee3e eb0f ae3e
000000c0: d92f 90bd 9a73 ba3b 2b5c e9bd 350d 3dbd
000000d0: ed5f 09bc bc57 393d b980 f3bd f10f c73e
000000e0: 39a8 91bd 0143 513c 4880 80be 0cd4 c53d
000000f0: 401d efbd a4ba 92be 5f99 2e3f 6fea 293e
00000100: ffa9 3f3f 84b7 383e 58db 1e3e f294 d63e
00000110: 4612 dc3e 072b e1bd a6e2 25be 805c eb3e
00000120: 6a8b f4bd 7c24 66bd 9e00 1b3f 97f6 3abe
00000130: d583 1d3f d3fd 9e3e 41b8 583d 6bd3 a23d
00000140: 565c 3e3e a9c3 09be 3f0c 20be 2662 863e
00000150: c54a 69be fcda b7be 170f f6be 49c5 143f
00000160: 5e3f 76be 2e18 a1bd 7c6c 5f3e cd2e be3e
00000170: 478b 23be a70d a9be 9d56 b23d 32a4 2b3d
00000180: 11a9 0e3f 6152 223e 6789 eabe df71 243c
00000190: 82b7 6fbe 4008 993d 3ffa 82be b2f4 403e
000001a0: 2949 fc3e 4e56 613e 51af 26be 10f0 debe
000001b0: 448a af3e 7f76 dabe ecbd 173e e91a 2c3f
000001c0: a5bd 6ebe fa12 8a3e 4008 0dbe 8ff6 2bbd
000001d0: b748 99be d2d2 093e 6144 58be 1e8d 173e
000001e0: 18f6 edbe c0bb bb3d 1df2 9d3e d47d e2bd
000001f0: 9731 4b3e 97a6 fabe 6bbf 37be bd50 503e
00000200: 5873 00be 0336 2a3d 4301 fd3e 7fbd 9cbe
00000210: 2c58 e7be e990 603e 6b78 9dbe e3c9 c43e
00000220: a362 8ebe 0596 bb3d a4f2 bbbe f456 adbc
00000230: 6085 2abf fe91 11bf d6d1 e7be 7936 3abe
00000240: 37aa 803e 3e3f 733e 15dd 113f 6019 d6bc
00000250: 598b 8ebd 915d c8be 7131 4bbf cccc 3f3f
00000260: e2c9 a13e 00d1 f8bc 9140 473f 9ec3 933e
00000270: e022 033e 07b4 763c 97a8 80be e86e b6be
00000280: 469d 3e3f c9db d13d f0e5 4a3d 02a6 35be
00000290: f455 b8be 806d 01bd 4e12 a5be 813b 723e
000002a0: a8e3 c8bd 7a40 86bd ec51 5f3d a63e ff3d
000002b0: f903 9c3e 115c 36bd 7f68 15bf 6ce3 193f
000002c0: ddd2 83be a5c9 09bf b761 22bf 54a1 303e
000002d0: 13f4 863d c163 883c 63da b6bd 3ae0 b43e
000002e0: 3200 46bf 24f2 943e a3cb 5ebe bd4a 503c
000002f0: a93c bcbd c940 4abe 96c0 bb3b 0176 5bbe
00000300: 8d0b 61be c908 0e3d 4957 183f a202 c63e
00000310: e1f3 403e ffd1 cfbe c885 d63e 4d88 72be
00000320: 1691 dcbd ce09 d3be 5fbd 803e 7e86 d93e
00000330: 6f9e 453c 48b4 603f 1cc4 22bf ec8b b9be
00000340: c4a8 3abf 47a3 e23b 3c60 6abe d1ef 0dbf
00000350: f85e ff3d 3ba0 313e 6d6c e23d bbdd 65bf
00000360: a338 61be 1e12 f9be 84fd 5d3f eddd 873e
00000370: 2d62 d93d 9607 0e3f cfa2 b2be aaf7 59bf
00000380: 9df1 293b ce25 5fbe 2f9c c13e 0702 d13e
00000390: f019 733e 7179 a2be c4c3 23be 36a4 2e3f
000003a0: 22b8 a5be d82a 373d e0f3 c93e af15 22bf
000003b0: e702 8a3e 15e6 94bb 7d89 973e fb36 e83e
000003c0: 37c3 8dbe f095 5ebf 8b11 7a3d 0018 263f
000003d0: b3e6 edbe f90b 33be 3b56 243e 2454 b5bc
000003e0: c376 71bc 7218 a5bc 497a 13bf 1ff7 2abf
000003f0: f72a edbc 167a ffbe e836 9bbe ab96 46bd
0.26239288 -0.09252593 -0.18681149 0.066535614 0.5200789 -0.2520037 -0.3507933 0.2868511
-0.1069569 0.19394103 -0.4549025 0.19639859 -0.13598973 -0.5648725 -0.0043752026 0.0009528571
-0.34024337 -0.062301405 -0.3322656 0.34267634 -0.22216445 -0.14551213 0.13002174 0.2062665
-0.30620033 0.21895716 -0.3245111 -0.12673318 -0.28499278 -0.33693898 0.32086542 -0.2113612
-0.18233861 -0.07900475 -0.38732776 -0.6175021 0.2128603 -0.08100131 0.024806814 -0.1293904
-0.020551227 -0.059626788 -0.70726657 -0.62460077 0.35599393 -0.54373264 0.46616814 0.3399652
-0.07040376 0.0056900503 -0.11394533 -0.046155173 -0.008384687 0.045249686 -0.11889786 0.3887935
-0.07112164 0.012772323 -0.2509787 0.09659585 -0.11675501 -0.2865802 0.68202776 0.16593336
0.7486877 0.18038756 0.1551336 0.4191051 0.42982692 -0.10994535 -0.16199741 0.4596901
-0.119406536 -0.056187138 0.60547817 -0.18258129 0.61529285 0.31053028 0.052910093 0.07950481
0.18589911 -0.13453545 -0.15629672 0.26246756 -0.22782429 -0.3590926 -0.48058388 0.58113533
-0.2404761 -0.0786594 0.21818727 0.3714508 -0.15971099 -0.33018228 0.087079264 0.041904636
0.55726725 0.15851738 -0.45807955 0.010036915 -0.23409846 0.07472277 -0.25581548 0.18843344
0.49274567 0.22005579 -0.16277815 -0.43542528 0.34285176 -0.4266853 0.14818543 0.6722856
-0.23314531 0.26967603 -0.13772678 -0.041983183 -0.2993829 0.13459328 -0.21119834 0.14799926
-0.46476817 0.0916667 0.3084878 -0.11059156 0.19843136 -0.48955223 -0.17944114 0.20343299
-0.12544 0.041555416 0.49415025 -0.30613324 -0.45184457 0.21930279 -0.30755934 0.38435277
-0.2780963 0.09159473 -0.36708558 -0.021159627 -0.66609764 -0.5686339 -0.4527728 -0.18184842
0.25129864 0.23754594 0.5697797 -0.026135147 -0.06960172 -0.39133886 -0.79372317 0.7492187
0.31599337 -0.030373096 0.77832896 0.28860182 0.12806273 0.01505757 -0.25128624 -0.3563149
0.7445873 0.10246999 0.04953569 -0.17739108 -0.36003077 -0.031598568 -0.32240528 0.23655511
-0.09809047 -0.06555267 0.054521486 0.12463121 0.3047178 -0.044521395 -0.58362573 0.60112643
-0.25746813 -0.5382331 -0.6343035 0.17249042 0.06589522 0.016649129 -0.08928373 0.3532732
-0.7734405 0.2909099 -0.21757369 0.0127131315 -0.091912575 -0.19751276 0.005729745 -0.21431734
-0.21977063 0.034676347 0.59508187 0.38673884 0.18843032 -0.40589902 0.41898942 -0.23684807
-0.107698604 -0.41218418 0.2514448 0.42485422 0.012061699 0.8777509 -0.6358049 -0.36239564
-0.72913766 0.006916437 -0.22888273 -0.55444056 0.12469286 0.1734628 0.11055837 -0.8979146
-0.21994261 -0.48646635 0.8671496 0.26536503 0.10614429 0.55480325 -0.34889838 -0.8514353
0.0025931366 -0.21791765 0.3781447 0.4082186 0.23740363 -0.31733277 -0.15992647 0.68219316
-0.32367045 0.044718593 0.39443874 -0.63314337 0.2695534 -0.0045440295 0.29597083 0.45354447
-0.27688 -0.86947536 0.061051887 0.6488037 -0.46465072 -0.17485036 0.1604852 -0.022134848
-0.014737788 -0.020153258 -0.5760847 -0.66783327 -0.028951151 -0.49897832 -0.30315328 -0.048483532

lin1.bias f4 [1024]
00000000: 1aca 20bf 04e8 7cbe 3bce d0be 294d 6bbe
00000010: 5ab4 b1be 6be1 d0be 593d 80be 5869 94be
00000020: 2af1 f1bb 33a5 3e3d 6fac b3bf 5cb4 983d
00000030: b39e 77be 45ff 0cc0 37bf 7f3b 9488 afbf
00000040: 88c1 80be 0458 a1be f1dd b0bf ea17 29be
00000050: 72c4 b6be c432 1dbf f5ab 9abe aea6 1ebe
00000060: 41da afbe bf1e 1abf 5d28 71bf 6564 a2be
00000070: 2165 babd 0223 e2bf 3bc4 2bbf 4555 c3bf
00000080: 29ac a1be 76d4 073d a423 84be c4e7 8dbd
00000090: d344 c4be 52ef 77be acaa 34be 239f 26be
000000a0: 253f 16bf 1345 b8bf 73b6 06bf e8ac edbe
000000b0: a880 59bf 29f4 03c0 3a75 40be cd28 c1be
000000c0: a0c4 dfbe caf7 78bd 4537 16be 507d b6be
000000d0: 9854 f5bc b933 2ebd e634 9abf 9ac6 3bbf
000000e0: e030 b5be dade 9cbe 51d7 bbbf d1dd f4bd
000000f0: 6b64 8bbe 5e41 e7bd e8c5 3fbd 8092 96bf
00000100: ea7d 81bf 9b55 9bbe 2fa2 48be 0963 95bf
00000110: 95a5 acbf d81f 8bbe 0a1c b3bf f944 a5bf
00000120: e504 92bf 71e8 bebe a503 30be 64b9 0abf
00000130: d441 723d 9fba b8be 01e7 8ebe df46 97bf
00000140: 4476 fcbe 261f 0bbe 8fbd babd 70ac 87be
00000150: 88a0 5cbf bb40 40bf f310 993d 0e58 96bf
00000160: 8eed 97bf c964 14bf 1a0a cebe 6566 87be
00000170: 5f72 51bd f24c 9bbf 1c1e d3be 61ac b4bd
00000180: 63cb b5be c7da 00be eba2 63be df6c 88bf
00000190: 80ad 053e 9953 a3bf 63bf 61bd 528e 68be
000001a0: b273 5abe b9a1 8abf e4d4 d6be 7ddc 89be
000001b0: 4fb2 9ebe ed4d 0fbe 5a78 16bf 9850 80be
000001c0: 18d7 97be 4b47 b8be d390 91bd ba4f bf3c
000001d0: 0217 9cbe aff8 fcbe 952c 0bbe 9f02 26be
000001e0: 935b f2be 919e e1bf eb87 24bf dd20 b5be
000001f0: bb3b e1bd 1cfe 48bf 64b3 82bd f922 173d
00000200: b234 9bbf dfdf 4f3d 7292 45be 24ff fdbe
00000210: 1230 0abf 6475 b8bf 818b 0cbe 0e24 6abf
00000220: 328e 6fbe 63d6 59be 6f1e fabe fbb9 58bf
00000230: 5a3f 28bf 84c9 4abe 9778 4ebf 9068 08bf
00000240: 3bf8 f0bc 27af 5bbe f197 23bf aa8d efbd
00000250: ea85 28be c1d0 f4bf e5d8 1fbd 2001 7ebe
00000260: dca8 0abf 629e 61be 84b2 2fbe 9e68 cabe
00000270: d1d5 ecbd 34da 62be 7bfd 9ebe 16e1 29be
00000280: 5a92 9ebf 4781 95bf c69c 58bf 2cf5 bbbc
00000290: 5425 94be d839 81be cee0 b5be 80df 3dbf
000002a0: c837 f4be c026 40be ced6 ccbf 157f 06bf
000002b0: dc72 25ba 4c15 d9bf b28b 83bf c354 ecbe
000002c0: 793c d0bc 1195 c8bf bf55 2c3e 9491 133d
000002d0: 256c 9dbe 6935 04be 8d73 b8be 897f debe
000002e0: 1c82 9bbe cfce 9fbf 1c70 7cbf 2b7e e13d
000002f0: 2a43 0ebf 67e6 8ebf 8dae 8fbf f85d f5be
00000300: 460d 27bd 335a 61be 9918 f8be 3358 90be
00000310: 99a4 a4be c0cf aebf 0172 9ebf 82dd c3be
00000320: bbd5 a13d 0107 9ebe 6ffb 89be a266 e1be
00000330: 7c5c 51be 7ceb 9abe c2f9 25bf 71f6 68bf
00000340: 340e 4abe 6baa 8bbf 26f3 e3bf 680a 65bf
00000350: 5329 88bf bab4 41be 1986 9dbf fa2e edbe
00000360: c038 14bf a45f c3be cbf2 eabe c4cc 29be
00000370: 7cd4 03c0 e08a a1be 4ea9 83be a8fe a2bf
00000380: c97a 883c 3ce2 ccbd 4842 8abe ed9f 4fbe
00000390: df16 6abe 964d 8ebe a169 a9be 7868 58bf
000003a0: 6e09 b6bd a51c 4cbe 7883 0cbf bbf6 17bd
000003b0: 2799 89bd 1494 d0be 1808 a8bf 7198 66bf
000003c0: 9286 0ebf 5d25 cfbe c454 1ebe b9d4 e0be
000003d0: 30c7 19be 9c62 38be 11a2 e5bd 6b75 42be
000003e0: 6742 59bf e69a 0bbf 9dc6 90be ac9a bdbf
000003f0: 2cc7 0fbc ffe0 c8be 6b61 d5bd 8b8c 03bf
-0.6280838 -0.24697882 -0.4078234 -0.22978653 -0.3470791 -0.4079698 -0.25046805 -0.2898662
-0.0073834853 0.046544265 -1.4036998 0.07456276 -0.24181633 -2.2030804 0.0039023885 -1.3713555
-0.25147653 -0.31512463 -1.3817731 -0.16513029 -0.3569675 -0.6140559 -0.30209318 -0.15493271
-0.34346202 -0.60203165 -0.94202214 -0.3171722 -0.0910132 -1.7666934 -0.670963 -1.5260397
-0.3157666 0.033161603 -0.25808442 -0.069289714 -0.3833376 -0.24212387 -0.17643231 -0.16271643
-0.586901 -1.439608 -0.52622145 -0.4642098 -0.8496194 -2.0617774 -0.18794718 -0.3772644
-0.437047 -0.060783185 -0.14669521 -0.3564248 -0.029947564 -0.042529795 -1.2047393 -0.73349917
-0.3538885 -0.30638772 -1.4675084 -0.119563706 -0.2722505 -0.11291765 -0.046819597 -1.1763458
-1.0116551 -0.3033875 -0.19593118 -1.1670848 -1.3488032 -0.27172732 -1.3992932 -1.2911674
-1.1407744 -0.37286714 -0.1718889 -0.54189134 0.05914481 -0.3607988 -0.27910617 -1.1818503
-0.4930898 -0.13586101 -0.09118187 -0.26498747 -0.8618245 -0.7509877 0.07473936 -1.1745622
-1.1869371 -0.57966286 -0.40242082 -0.26445308 -0.051134463 -1.2132857 -0.4123391 -0.08821941
-0.35506734 -0.12583457 -0.22230117 -1.0658225 0.13054466 -1.2759887 -0.05511416 -0.22710541
-0.21333197 -1.0830604 -0.41959298 -0.26926032 -0.30995414 -0.1399457 -0.5877739 -0.25061488
-0.2965629 -0.35991892 -0.07107701 0.023353446 -0.30486304 -0.4940848 -0.13591225 -0.16211937
-0.4733549 -1.7626516 -0.64269894 -0.35376635 -0.10997721 -0.7851274 -0.06381872 0.036898587
-1.2125456 0.05075061 -0.19294146 -0.4960872 -0.539796 -1.4410825 -0.13725092 -0.91461265
-0.23394087 -0.21273188 -0.48851344 -0.84658784 -0.65721667 -0.19803435 -0.80652755 -0.5328455
-0.02941524 -0.21453534 -0.6390372 -0.11696942 -0.16457334 -1.9126207 -0.039025206 -0.24805117
-0.5416391 -0.22033074 -0.17157942 -0.39532942 -0.1156422 -0.2215355 -0.31052765 -0.1658977
-1.2388413 -1.1680077 -0.8461422 -0.022944055 -0.2893473 -0.25239444 -0.35523075 -0.7416916
-0.47698808 -0.18764782 -1.6003053 -0.5253766 -0.0006311366 -1.6959624 -1.0277007 -0.46158418
-0.02541946 -1.5670491 0.16829585 0.036027506 -0.3074657 -0.12911 -0.36025658 -0.43456677
-0.30372703 -1.2484988 -0.98608565 0.11010393 -0.55571234 -1.1164063 -1.1225144 -0.47923255
-0.040784143 -0.22007065 -0.48456267 -0.2819229 -0.32156828 -1.365715 -1.2378541 -0.38254935
0.07902094 -0.3086472 -0.2694964 -0.44023615 -0.20445436 -0.30257785 -0.64834225 -0.9100104
-0.1973198 -1.0911382 -1.7808578 -0.89469004 -1.0637611 -0.18916598 -1.2306548 -0.46324903
-0.57899094 -0.38158906 -0.4588836 -0.16582018 -2.059844 -0.31551266 -0.25715107 -1.2733965
0.016660111 -0.10004088 -0.27003694 -0.2027585 -0.22860287 -0.27793568 -0.330884 -0.84534407
-0.08888517 -0.19932802 -0.54888105 -0.037100535 -0.067186646 -0.40737975 -1.312747 -0.9007636
-0.5567409 -0.40458193 -0.15462023 -0.43912295 -0.1501739 -0.18006366 -0.11212552 -0.18990104
-0.84866947 -0.5453323 -0.2827653 -1.4812827 -0.008775514 -0.39234158 -0.10418972 -0.51386327

lin2.weight f4 [98, 1024]
00000000: be5b 4c3c 7980 37bd f808 25ba ed4f 06be
00000010: c73b 06be 4d55 21be 3170 3abd d252 83bd
00000020: e33b 803d 1a5d a03d dbeb 1d3e 32f0 973c
00000030: d06a 25bc f221 87be 2036 203d 7571 64bd
00000040: 2d0f 593d 5bd7 80be 981e 22bf 2d80 86bd
00000050: 580f bb3d e161 a5bb a679 333e 23c3 473e
00000060: cccf 44bd f249 49bd fd6e a6bc da73 0c3e
00000070: 8b4b 95bb 2d2e 49bd 6e4f 013e 29c1 9abf
00000080: 48b5 89bd abe0 23bd 8d90 cbbd 1f04 143d
00000090: fbcc 05bd 6c0d d13d 6af8 0ebe 7218 203e
000000a0: 8bac 3c3e e3a6 643e 1d85 42be 5a98 4b3c
000000b0: 56d2 963b ccc7 52bc 703b edbd b852 453d
000000c0: f5b0 b0be a177 283d 6668 e73c 987a fbbd
000000d0: 9529 a8bd 01d3 7abe a0fc 66bd e641 2abf
000000e0: b1f1 8e3d 196d ebbd d623 d7bd 5c80 f0bd
000000f0: 34c7 1f3d 5951 36be ea72 133e 2541 993c
00000100: c6e8 723e 43fa 953d 6f89 413e 95f7 79bd
00000110: 9c82 a6bd 63f6 e7bd 4346 d9be deeb 473e
00000120: 8ce2 c5be c516 fcbc 1b31 2cbd 8722 2dbd
00000130: 279f d33b 8682 2fbe b477 043e dc6b 2bbf
00000140: 8888 d13b a371 8f3c b8f6 3d3e 9dfd b3be
00000150: db67 06bf 509b cabb b36d bb3d 33bd a3bc
00000160: 1a23 0bbe ec84 2a3d 39ab 5b3d 06d3 2cbd
00000170: 0e9d 4b3b 0e00 4a3d 1f15 eabd 906a 1b3e
00000180: 6999 503e 3cef 2fbd 6d08 47be 89b6 1fbe
00000190: 8c82 cebd 3064 1b3e 8b1e fe3c 9b23 223e
000001a0: 7dc1 5d3e e7fd d6be 7e8b 3cbd a81c 61bc
000001b0: 744b 93bd 61aa 493e 5555 2abd 8b9d c53d
000001c0: a2a8 b93d d407 bc3c f13a 903d fe45 8cbd
000001d0: f6e0 23bd 8441 7e3d 3915 a5bd 002f 0c3e
000001e0: 8b5f 90bd 90d5 23be bcb9 003d e191 ad3d
000001f0: f386 563e 76d5 aa3d efd0 a2bb e3b5 963d
00000200: 7ee2 b13a 88c6 2fbe 057d 0f3e d1bc 35be
00000210: 7f13 553c 1168 0dbf 3f3f c3bd 6e98 743d
00000220: 77ee 973d 84d8 343d d75c 943d a343 b8bb
00000230: 2949 c73e a61b b7be 4d10 a1be 7675 4a3e
00000240: 5eab 0a3e f64e 873d 7728 a13c 684c 4dbd
00000250: de48 7e3c ebfb 06be 5938 803e b2e3 69be
00000260: ed37 c0bd a035 193d 6f5f 0d3e 7e4a debd
00000270: 2a22 9bbc 2417 57be 7c2c 56be 7385 403e
00000280: c0ce 9ebd f267 17be 273a 99bc e1d0 9b3d
00000290: 6de4 88bd fa32 6f3d ff9d 6cbd 1555 4f3c
000002a0: 3e42 8939 9ab0 683e c9b3 8abe fc9c edbd
000002b0: 4de4 aebb eda6 1abe 93a4 223e a263 5c3d
000002c0: 755e 32be b9d9 1cbe 4843 8c3d 9147 383d
000002d0: c0ee 8abe c7c3 593e d75d 6abc 14b1 163e
000002e0: 423d ffbd b859 893c 53ba 90be 5992 f03d
000002f0: 36e8 79be 75cf 44bd 0b27 acbd 364e 61bd
00000300: 3265 0d3d fcda 273c 53cc 653d 2d8a a7bd
00000310: bcc8 893b df16 933f d45c 0dbc 003c bd3d
00000320: 9067 90be c231 00bd 06b1 63be 9cd7 1dbd
00000330: 8317 af3d ab4c e73c 05ed 08bd bca7 263f
00000340: 5e8e 37be e2cc 43bc a98c ccbb 00ef b3bc
00000350: 2124 27be 1d6f d83b f595 0fbb ca3c 5bbc
00000360: 361d ab3d dd13 303e a742 233c 8b93 20be
00000370: 19ab c5bc 4422 053e 7c29 e23d 99f3 97bd
00000380: 7b76 85be ea21 b13d 4c5f 20bd 802e 26bc
00000390: f3bd 06bc b459 75bd 2332 2fbd 73ee 443d
000003a0: 8530 1c3e 3074 083e aa12 e3bb 592d 4abe
000003b0: 1120 d93d 89a2 773e a630 e6bd 9199 973d
000003c0: 6457 e03c 4fa5 c93d 8c5b 283d 62dd 353b
000003d0: e935 2fbd ea74 e83d 0c37 c93d 65c3 ad3d
000003e0: acd4 7bbd cf16 66bc 8964 6cbd 6e35 183d
000003f0: 9348 2c3d 1b21 d6bd 1573 373d 0972 d5bd
0.012473045 -0.044800255 -0.0006295587 -0.13116427 -0.13108741 -0.15755196 -0.04551715 -0.06412281
0.062614225 0.07830258 0.15422003 0.018547151 -0.010096267 -0.26393086 0.039114118 -0.055772264
0.05299299 -0.25164303 -0.6332793 -0.06567416 0.09133786 -0.0050470685 0.17526874 0.19508033
-0.048049733 -0.049142785 -0.020316595 0.13716069 -0.0045561246 -0.049116302 0.12627956 -1.2090198
-0.0672403 -0.040009182 -0.0993968 0.036136743 -0.032666188 0.10207638 -0.1396195 0.15634325
0.18425195 0.22329287 -0.18996091 0.01242646 0.0046027107 -0.012865018 -0.115836024 0.04817459
-0.34510008 0.041129712 0.028248023 -0.12279242 -0.08211056 -0.24494554 -0.056393266 -0.66506803
0.06979693 -0.11495418 -0.10504882 -0.117432326 0.039008334 -0.17804469 0.14399305 0.018707821
0.23721609 0.07323124 0.18900083 -0.06102713 -0.081303805 -0.113262914 -0.42436418 0.1952357
-0.38649404 -0.030772576 -0.042039018 -0.042269256 0.0064581814 -0.17139634 0.12936288 -0.66961455
0.0063944496 0.01751024 0.18551147 -0.3515443 -0.5250222 -0.0061830655 0.09151783 -0.019987678
-0.13587609 0.04163067 0.053630088 -0.042193435 0.0031068954 0.04931646 -0.1142981 0.15177369
0.20371021 -0.04295276 -0.19436808 -0.15596975 -0.100834936 0.15174937 0.031020423 0.15833895
0.21655841 -0.41990587 -0.046031468 -0.013739742 -0.07192126 0.196939 -0.041585285 0.096491896
0.09065367 0.022952951 0.07042492 -0.068492875 -0.04000946 0.0620742 -0.080606885 0.13689804
-0.070494734 -0.15999436 0.03142713 0.0847509 0.20949917 0.08341496 -0.0049687545 0.07358911
0.0013571528 -0.17165577 0.14012535 -0.17747809 0.0130051365 -0.5523692 -0.095335476 0.05971568
0.074185304 0.044151798 0.0724427 -0.0056232973 0.38923004 -0.35763282 -0.3145775 0.1977137
0.13541934 0.066068575 0.019672615 -0.050121695 0.015520303 -0.13182037 0.2504299 -0.22840765
-0.09385667 0.037404656 0.13805936 -0.10854052 -0.01893719 -0.21004921 -0.20915407 0.18800907
-0.07754278 -0.14785746 -0.018704487 0.076082 -0.06684194 0.058398224 -0.057767864 0.0126545625
0.0002618003 0.22723618 -0.2709029 -0.11602208 -0.005337274 -0.1510274 0.15883093 0.053805955
-0.17418845 -0.1531743 0.068487704 0.044990126 -0.27135277 0.2126609 -0.0143046 0.14715987
-0.12462856 0.016766414 -0.28267154 0.117466636 -0.24404988 -0.04804941 -0.08405884 -0.05500623
0.034520335 0.010245081 0.056103062 -0.08180652 0.0042048376 1.1491355 -0.008628089 0.0923996
-0.28204012 -0.031297453 -0.22235498 -0.0385357 0.085494064 0.0282348 -0.033429164 0.6509969
-0.17925403 -0.011950703 -0.006242354 -0.02196455 -0.16322376 0.0066050426 -0.002190945 -0.013381192
0.08355181 0.17195077 0.009964622 -0.15681283 -0.024129437 0.13001353 0.11043069 -0.074195094
-0.26066956 0.08649047 -0.039153382 -0.010142922 -0.008223998 -0.0599 -0.042772423 0.048078965
0.15252884 0.13325572 -0.006929715 -0.19743861 0.10601819 0.24183096 -0.11239748 0.07402337
0.027385421 0.09845983 0.04110293 0.0027750363 -0.042776022 0.113504246 0.098249525 0.08484534
-0.061482117 -0.014043524 -0.057713065 0.03716033 0.0420614 -0.10455533 0.044787485 -0.10422141

lin2.bias f4 [98]
00000000: 184a 83bd 76cf 84bc d3e1 c4bd f022 17be
00000010: 2237 1dbf f86e 17bf e1cd 67bd 9e40 99bd
00000020: 3603 debc afde 20be cbca 88bd 6151 ecbd
00000030: 77e8 84bd 3a6e 22bf 3c00 a0bd ca4f c0bd
00000040: 9d37 8cbd 3032 67bd 393f a8bd 6e46 13be
00000050: 9f19 c4bd e3d3 d2bc ac0d d9bd 9faf b7bd
00000060: 832f dfbd 7d5b 09be fe40 d3bd 9486 403d
00000070: 54ce 2a3d 60ac f9bb bb64 40bc 2236 aebc
00000080: 872b debb 6496 21bb 4131 c83d 8490 0b3e
00000090: 8ef4 a83a 845a cabc f61f ac3b 2b9b ae3d
000000a0: b8bf a93d c213 8f3d f871 203d ddcb b6bc
000000b0: 86d8 7d3c 2a79 c43d bcf3 c93d a998 1abd
000000c0: 600d 743c e8a0 f73d ba27 e1bc 1e52 443d
000000d0: 63d4 fbbd 6237 28be 657a 0bbf 1811 d93b
000000e0: f9af 6c3d 322a a73c 8f4f ca3c 592b 0bbd
000000f0: 42c8 343d 2f48 5a3c eddb 0a3c fdd1 553d
00000100: b262 52bb c63c 86bd 7742 51bd 022e 593c
00000110: 2a0b 0abb 6d11 06bd b71e f13b 7cad 20bd
00000120: 2ec7 7fbd 88b5 2dbd 00fa fd3c abd4 b53d
00000130: 8ecf b5bc df0a 35bd 92c3 0abc ded6 27be
00000140: ac70 753c b8d0 47be b886 47bd 24fd ddbd
00000150: 5ca6 02be 1766 8cbd c1c5 aabd a963 1ebf
00000160: 52c2 20bd 4651 cabd 8ef8 d7bd 4130 c93d
00000170: ae36 17bc 9d4a c43d c126 083d a8cf 23bf
00000180: 0997 1cbf 736b 19bf
-0.06410617 -0.016212206 -0.09613385 -0.14759421 -0.6141225 -0.591537 -0.056592826 -0.07483028
-0.02710114 -0.15709947 -0.06679305 -0.11538959 -0.06489652 -0.6344944 -0.07812545 -0.093902186
-0.06846545 -0.056444347 -0.08215184 -0.14382336 -0.09575199 -0.025735801 -0.10598311 -0.08969044
-0.10897734 -0.13413806 -0.10315131 0.047003344 0.041700676 -0.0076194257 -0.011742766 -0.021266047
-0.006780091 -0.002465629 0.097750194 0.13629347 0.0012890266 -0.024701364 0.0052528335 0.0852569
0.082885206 0.069861904 0.03917119 -0.022314006 0.015493518 0.09593423 0.09860942 -0.037743244
0.014895767 0.12091237 -0.027484763 0.047929876 -0.12296369 -0.16427377 -0.54483634 0.006624352
0.057785008 0.020405862 0.02469614 -0.033976886 0.044136293 0.013322874 0.008475286 0.052202214
-0.0032102284 -0.0655456 -0.051088776 0.013255598 -0.0021063783 -0.032731462 0.007358398 -0.039227948
-0.062445812 -0.04240945 0.031002998 0.08878454 -0.022193696 -0.04419982 -0.008469479 -0.16390559
0.014980476 -0.19513214 -0.048712462 -0.10839298 -0.12758774 -0.068554096 -0.083385 -0.6187082
-0.03924782 -0.09878783 -0.10545455 0.09823657 -0.009229345 0.09584544 0.033240084 -0.63988733
-0.6116796 -0.5992958
