models/3_context_2_embedding_32_activation_3.pt (torch, 683290 bytes, 5 tensors)

emb.weight f4 [98, 32]
0	0xbf1c33df	-0.6101665
1	0x3eabf41e	0.33584684
2	0xbf92e30f	-1.1475543
3	0x3f92fcfa	1.1483452
4	0x3f5aef93	0.8552181
5	0xbeffb0f9	-0.49939707
6	0x404a97d6	3.1655173
7	0xc04b0139	-3.1719496
8	0x3f942e45	1.157662
9	0xbceed348	-0.029153481
10	0x3ea6b1c5	0.32557502
11	0x3f3d3b76	0.73918855
12	0x3f57e266	0.8432983
13	0x3f339b28	0.70158625
14	0x3f35dada	0.71037066
15	0x40039d8f	2.0564916
16	0x3ee5a187	0.44849798
17	0x40582248	3.3770924
18	0xbf83755e	-1.0270193
19	0xc0325cc2	-2.7869115
20	0x3fb84862	1.439709
21	0xbf01605f	-0.50537676
22	0x3f02381b	0.5086686
23	0xbf6b6877	-0.91956276
24	0x3fed5a82	1.8543246
25	0x3ff1de8b	1.889604
26	0x3fb3682c	1.4016166
27	0xbf80070b	-1.0002149
28	0x3e8b8afb	0.2725447
29	0x3fbbb3fc	1.4664302
30	0x4089ed5d	4.310225
31	0x3f5a4e3c	0.85275626
32	0xbfbc6961	-1.4719659
33	0xbf6819fe	-0.9066466
34	0xbf24568f	-0.6419458
35	0x3f20b783	0.62780017
36	0xbf2b5902	-0.6693269
37	0x3e5bc5d4	0.21462184
38	0x3f924184	1.1426244
39	0xbff8eb92	-1.944689
40	0x3eb377fc	0.35052478
41	0xbe2a7194	-0.16644889
42	0x3f121eff	0.57078546
43	0x3fa1a14f	1.2627352
44	0xbf715e77	-0.94284767
45	0x3ecad5e4	0.3961631
46	0x3fe746c6	1.8068473
47	0x3ff7ea22	1.9368327
48	0xbf4be20d	-0.796418
49	0x40815ee2	4.0428324
50	0xbf5be91d	-0.8590258
51	0xbe03c9ef	-0.1287
52	0x3f7e2e32	0.9928924
53	0xc074a6f3	-3.8226898
54	0x3febeaf0	1.8431072
55	0xbeb6eed4	-0.35729086
56	0x3fc2f649	1.523141
57	0xbfae9f64	-1.3642392
58	0xc0341158	-2.8135586
59	0x3fcf43e4	1.6192594
60	0xbf7e7797	-0.9940123
61	0xbda57556	-0.08079021
62	0x40139600	2.3060303
63	0x40027f51	2.0390208
64	0xbfbcccaf	-1.4749964
65	0xbf858154	-1.0430093
66	0x3fc3c3fb	1.5294183
67	0xbf91820b	-1.1367811
68	0xc0391cf1	-2.8923914
69	0x40368106	2.851625
70	0xbdb8b27d	-0.09018419
71	0x3f74df35	0.95653087
72	0x3f1b70dc	0.60719085
73	0x3f2fd5cb	0.686856
74	0xbfd68bff	-1.6761473
75	0xbf4f5145	-0.8098338
76	0x3faae004	1.3349614
77	0xbfc57e0b	-1.542909
78	0x3f9e6d78	1.2377157
79	0xbf3c535f	-0.73564714
80	0xbf679147	-0.9045605
81	0x3f86569e	1.0495183
82	0xbf5957a7	-0.8489937
83	0x3e7031df	0.23456524
84	0x3f9a3dcc	1.2050109
85	0xbe63cf48	-0.2224704
86	0xbfb74f05	-1.432099
87	0xbed22877	-0.41046497
88	0x3f4030e6	0.75074613
89	0x3f770e29	0.9650598
90	0xbf4f7bd8	-0.81048346
91	0xbfac153f	-1.3443984
92	0x402a7315	2.663274
93	0xbf9f4877	-1.244399
94	0x3f400fbd	0.75024015
95	0xbf261875	-0.6488107
96	0xc096c856	-4.711955
97	0x400a1700	2.1576538
98	0x3fe7d4f8	1.8111868
99	0xc04eeb4c	-3.2331114
100	0x40800f0d	4.0018373
101	0x40a09997	5.0187488
102	0x3fbe4bce	1.4866884
103	0xc097bcb5	-4.7417855
104	0xbf47e227	-0.78079456
105	0x4003f53a	2.0618424
106	0xbf4a3848	-0.7899213
107	0xbf8a9194	-1.0825677
108	0xc04595b0	-3.0872612
109	0x403c7f61	2.9452746
110	0xc0513956	-3.2691245
111	0xc090e302	-4.527711
112	0xc032cc10	-2.793705
113	0x405ffae7	3.4996889
114	0xbe7f6252	-0.2493985
115	0x40069636	2.1029181
116	0x40a0bf05	5.023318
117	0xbfb9c96a	-1.4514592
118	0x3fb234a7	1.3922318
119	0xc069caac	-3.652995
120	0x3fb7572d	1.4323479
121	0x404dafc6	3.2138534
122	0xc0957ec5	-4.671725
123	0x3f666edf	0.90012926
124	0x4006e7d1	2.107899
125	0xbf75c793	-0.9600765
126	0xc04916fb	-3.1420276
127	0xbebfa877	-0.37433216
128	0xbe01611b	-0.12634699
129	0x3e9f6a7e	0.31135935
130	0x401dde37	2.466688
131	0xbf8aefb1	-1.0854398
132	0x3fd42a68	1.6575441
133	0xbf79e950	-0.9762163
134	0xbf02f940	-0.51161575
135	0xbf341e10	-0.7035837
136	0xbf81c651	-1.0138646
137	0xbf985243	-1.1900104
138	0x3eed4710	0.4634328
139	0x3ef5870e	0.479546
140	0x3e4367c6	0.19082555
141	0xbd19f878	-0.037590474
142	0xbd924792	-0.07142557
143	0xbf936da4	-1.1517835
144	0xbf4af147	-0.7927441
145	0x3f86ffee	1.0546854
146	0x3fa54384	1.2911229
147	0x3e23d1fe	0.15998074
148	0x3f97271e	1.1808813
149	0xc03614e4	-2.845025
150	0xbec7d5da	-0.39030343
151	0xbf9e5cdf	-1.2372092
152	0xbed1bb3c	-0.4096316
153	0xbd0fe5c3	-0.035131227
154	0xbf080724	-0.53135896
155	0x3d9efc06	0.077629134
156	0xbf947d86	-1.1600807
157	0xbe9d2697	-0.30693504
158	0xbecc2e84	-0.3987924
159	0x402c4e04	2.6922617
160	0xbee9d246	-0.45668238
161	0xbf5d3196	-0.8640379
162	0xbfb6bd9f	-1.4276618
163	0xbfb97bc6	-1.4490898
164	0x3ecbddab	0.39817557
165	0xbd942bbc	-0.07234904
166	0xbfc518a3	-1.5398144
167	0xbdf835a7	-0.12119608
168	0x3cadb1a7	0.021202875
169	0x3f6ac14a	0.91701186
170	0xbc184ff2	-0.009296404
171	0xbf53c67e	-0.8272475
172	0x3dc7c253	0.09753861
173	0xbe297de6	-0.16551933
174	0xbf0de227	-0.55423206
175	0xbf806c6a	-1.0033085
176	0xbf27cfdf	-0.6555156
177	0xbfdf5698	-1.7448301
178	0xbf8633a4	-1.048451
179	0x3ea75c09	0.32687405
180	0x40114112	2.2695966
181	0xbfa4f9a3	-1.2888683
182	0x4016f6bd	2.3588097
183	0x3fbfe8cd	1.499292
184	0xbeb42f53	-0.35192356
185	0xbf78b40c	-0.9714973
186	0xbfc9cabb	-1.5764993
187	0xbf2ead15	-0.6823285
188	0x3f229b7b	0.63518494
189	0xbcd0a182	-0.025467638
190	0xbeaa96c5	-0.33318153
191	0x3ffdd1d6	1.9829662
192	0xbf667010	-0.90014744
193	0xbfa36a9a	-1.2766907
194	0x403464ad	2.8186448
195	0x3e08b3f2	0.13349894
196	0x406920c9	3.642626
197	0x3f891e9c	1.0712466
198	0x3fa943ef	1.3223857
199	0x3f51f238	0.8201022
200	0xbea053db	-0.31313977
201	0xbf81d48d	-1.014299
202	0xbe8af382	-0.27138907
203	0x3f7c867e	0.9864272
204	0xbdffc259	-0.12488241
205	0x4055ccc9	3.340624
206	0x3f2d4b77	0.67693275
207	0x403fb8c0	2.9956512
208	0xbfff3c89	-1.9940349
209	0xc0518e82	-3.274323
210	0xc05583e6	-3.3361754
211	0x3ff0fa70	1.8826427
212	0x3f82910c	1.0200515
213	0x4093f766	4.62395
214	0xbf780e40	-0.96896744
215	0x3fccca1c	1.5999179
216	0xc002a186	-2.0411086
217	0x3fc0f0eb	1.5073522
218	0x402d12a3	2.7042625
219	0xbf546262	-0.8296262
220	0x404d1449	3.204363
221	0x3fbfdc82	1.4989169
222	0x3ea7bf1a	0.32762986
223	0xc04786cc	-3.1176023
224	0x3e013984	0.12619597
225	0x3e766e3b	0.24065487
226	0xbf8e77b5	-1.1130282
227	0x3f84f9cd	1.0388733
228	0xbf3b9d41	-0.73286825
229	0xbf622c55	-0.88348895
230	0xbf807013	-1.0034202
231	0xbf83ba5d	-1.0291249
232	0xc005d5bb	-2.09117
233	0x3f632fb0	0.8874464
234	0xbee89091	-0.45422795
235	0xbfa2e966	-1.2727478
236	0x3e788030	0.2426765
237	0x3fd65b2f	1.6746577
238	0x3fa4d98f	1.2878894
239	0xbe829d34	-0.2551056
240	0xc0377067	-2.8662355
241	0xc08a005d	-4.3125443
242	0xbfd0a5db	-1.6300615
243	0xbfefe1dd	-1.8740803
244	0x3fc59797	1.5436887
245	0x3fa0a9b1	1.2551786
246	0x3f606a03	0.8766176
247	0x3fa6ccd1	1.3031255
248	0x3e719f98	0.23596036
249	0x3ec5587c	0.3854407
250	0xc026c6a0	-2.605873
251	0xbeb5787a	-0.3544348
252	0xbea5c934	-0.32380068
253	0x3fefa623	1.8722576
254	0xbe913b29	-0.28365448
255	0x3fd62f37	1.6733159

lin1.weight f4 [1024, 64]
0	0xbea44fa9	-0.32092026
1	0xbd9c958a	-0.0764571
2	0x3ebf15ab	0.3732122
3	0xbf489841	-0.7835732
4	0x3eb2b200	0.34901428
5	0x3f8441a9	1.0332538
6	0x3dce9c03	0.100883506
7	0xbe7d9768	-0.24764788
8	0xbecc42b2	-0.39894634
9	0x3e6fb258	0.23407876
10	0xbea8b38b	-0.3294948
11	0xbee366fb	-0.44414505
12	0x3e8c3be8	0.27389455
13	0xbb092036	-0.002092374
14	0xbf4733b3	-0.7781326
15	0xbf1b1ae1	-0.6058789
16	0x3e683305	0.22675712
17	0xbe379b22	-0.17930272
18	0xbe9127c1	-0.28350642
19	0x3e560662	0.20900872
20	0x3d80ee73	0.062954806
21	0x3efd13cc	0.49429166
22	0x3f161774	0.58629537
23	0xbdf5dc81	-0.120049484
24	0x3e6421aa	0.22278467
25	0x3d99967d	0.074994065
26	0xbba3bde1	-0.0049970006
27	0xbe5fdb1f	-0.21860932
28	0x3e4d9a68	0.20078433
29	0xbf12ce3f	-0.57345957
30	0xbe3c41fe	-0.18384549
31	0x3df92a4e	0.12166272
32	0x3ee6294f	0.4495339
33	0xbd9a2521	-0.07526613
34	0x3e63b5fc	0.2223739
35	0x3e998878	0.2998693
36	0x3f185f70	0.59520626
37	0xbe30fe0e	-0.17284414
38	0xbd415aed	-0.047205854
39	0x3e8fd7be	0.28094286
40	0xbe5abd95	-0.21361382
41	0xbd0eaf0c	-0.034834906
42	0x3e07d756	0.13265738
43	0x3d5e5930	0.054284275
44	0xbd332974	-0.043740705
45	0x3e6d3e4e	0.23168299
46	0xbdcedb93	-0.10100474
47	0xbebc5ee5	-0.3679115
48	0x3cf670f4	0.030083157
49	0xbe9735a2	-0.29533106
50	0xbd9772b1	-0.073949225
51	0xbeff1677	-0.49821827
52	0x3ee9a84e	0.4563622
53	0x3effa5eb	0.49931273
54	0x3f03de9e	0.5151156
55	0x399dd11a	0.00030101166
56	0x3e7c0f36	0.24615178
57	0xbe4ab33e	-0.19794938
58	0x3f867f60	1.0507622
59	0xbe91836a	-0.28420573
60	0x3d280a3e	0.041025393
61	0x3f21970d	0.6312111
62	0x3c9ae042	0.018905763
63	0xbede32d2	-0.43398148
64	0x3d01ef7c	0.03172253
65	0x3f6fe402	0.9370729
66	0x3d07711d	0.033066858
67	0x3d271a88	0.040796787
68	0x3ed51961	0.41620925
69	0x3efae827	0.49005243
70	0xbef49a1d	-0.4777383
71	0x3f13ba65	0.5770629
72	0x3dda23c1	0.10651351
73	0x3f6654ef	0.8997335
74	0xbee18954	-0.44050086
75	0xbf02b265	-0.5105346
76	0xbe58368c	-0.21114558
77	0xbe165380	-0.1468029
78	0xbe2ed25b	-0.17072432
79	0xbf3208bc	-0.6954458
80	0xbea30471	-0.31839326
81	0xbe940a8b	-0.28914294
82	0xbf20313b	-0.6257512
83	0x3db63d45	0.08898405
84	0x3e99a3f3	0.30007896
85	0xbd9daefa	-0.0769939
86	0xbded0a77	-0.11574262
87	0xbecc5c78	-0.39914298
88	0x3c998713	0.018741166
89	0x3f2db45f	0.6785335
90	0x3cf42c07	0.02980615
91	0xbf3e8664	-0.74423814
92	0x3e370c48	0.17875779
93	0xbee38b4a	-0.44442207
94	0xbef4aef5	-0.47789732
95	0xbf2108d8	-0.6290412
96	0xbe16af8f	-0.14715408
97	0x3e905094	0.28186476
98	0x3f46b539	0.77620274
99	0xbf070d64	-0.5275481
100	0x3f670c44	0.9025309
101	0xbe2e1bb6	-0.17002758
102	0xbec2126c	-0.3790468
103	0x3e90239a	0.28152162
104	0xbf18d420	-0.5969868
105	0x3d9df8e5	0.077134885
106	0xbe0f6924	-0.14004952
107	0xbe25a19f	-0.16174935
108	0xbeed2981	-0.46320727
109	0x3e346053	0.1761487
110	0xbef4a3ec	-0.47781312
111	0xbf1937b3	-0.59850615
112	0xbe84804b	-0.2587913
113	0xbf060f45	-0.5236705
114	0xbebf2336	-0.3733155
115	0xbd9f8dad	-0.077906944
116	0x3f1dda6f	0.6166143
117	0xbd82d147	-0.06387573
118	0xbd605ee5	-0.054778
119	0xbe8bb7ff	-0.27288815
120	0xbed7206a	-0.42016917
121	0x3ee41fef	0.44555613
122	0x3e812ff2	0.25231892
123	0xbf597b3e	-0.8495368
124	0x3f58e787	0.8472828
125	0xbe7e433e	-0.24830338
126	0x3da2aac5	0.07942728
127	0xbec31381	-0.38100818
128	0x3efc9ccc	0.49338377
129	0x3e597ed4	0.21239787
130	0x3e66d244	0.22541147
131	0xbe3d3aca	-0.18479457
132	0x3e5094da	0.20369282
133	0xbe1b855d	-0.15187593
134	0xbe4ed16b	-0.20197074
135	0x3f1f1a4b	0.62149495
136	0xbebedd98	-0.37278438
137	0x3ea8bddd	0.32957354
138	0xbdc9e452	-0.09858002
139	0xbe0e647f	-0.13905524
140	0x3d1673e9	0.036731634
141	0xbd52296d	-0.051309038
142	0xbf0ae1dc	-0.54250884
143	0xbee9c161	-0.4565535
144	0xbe148ebc	-0.14507574
145	0xbef5a9fb	-0.47981247
146	0xbe8f85c1	-0.28031734
147	0xbe2e4e08	-0.17021954
148	0x3eb4aadf	0.35286614
149	0x3ecce0a9	0.40015152
150	0xbe4804bb	-0.19533055
151	0xbe7fee4d	-0.24993248
152	0xbea414a2	-0.32046992
153	0x3ebc3072	0.3675571
154	0x3e61cb2d	0.22050162
155	0x3d2448c2	0.04010845
156	0x3e030477	0.12794672
157	0xbd169155	-0.036759693
158	0xbec1a2c4	-0.37819493
159	0x3cb7d3bc	0.02243983
160	0x3efe5135	0.4967133
161	0xbe5ab92d	-0.21359701
162	0x3e3d3b2d	0.18479605
163	0x3ed50ca0	0.41611195
164	0x3e695f65	0.22790296
165	0xbf2b7fb9	-0.66991764
166	0xbe16f820	-0.1474309
167	0x3e9d7bb3	0.30758438
168	0xbeb03997	-0.34418938
169	0xbe6ac2c0	-0.22925854
170	0xbed037f4	-0.4066769
171	0x3e85ab33	0.26107177
172	0xbe81e7be	-0.25372118
173	0x3e2e9b7f	0.17051505
174	0xbf47be9c	-0.7802522
175	0xbea319cb	-0.31855616
176	0x3daea66f	0.085278384
177	0xbf2dafe7	-0.6784653
178	0xbdaaefdb	-0.0834653
179	0xbf1ec23a	-0.62015116
180	0x3ec32ff3	0.3812252
181	0x3f05836e	0.5215367
182	0xbe14f5a6	-0.14546832
183	0xbc42a08c	-0.011879098
184	0xbd000a66	-0.031259917
185	0x3e47aadf	0.19498776
186	0x3e879002	0.26477057
187	0xbe288499	-0.16456832
188	0x3e4b4c00	0.1985321
189	0xbe7a2151	-0.24426772
190	0xbeb3ae6b	-0.35094008
191	0xbe9c5cb8	-0.3053949
192	0x3e6c4245	0.23072155
193	0xbe389261	-0.18024589
194	0xbed97d1b	-0.4247826
195	0xbe9489bf	-0.29011342
196	0xbe76397a	-0.24045363
197	0x3ef3c975	0.47614637
198	0xbdf29fc6	-0.118468806
199	0xbc9c9be0	-0.019117296
200	0xbe9b354f	-0.3031411
201	0x3e3e9e79	0.1861514
202	0x3eb1e8d4	0.34747946
203	0xbf2d70a2	-0.6774999
204	0x3f9a17df	1.2038535
205	0x3f2292fd	0.63505536
206	0xbe99c982	-0.3003655
207	0xbf5f4eb2	-0.87229455
208	0x3e8b8497	0.27249596
209	0x3e19a0c7	0.15002738
210	0x3e8ea5f4	0.27860987
211	0xbe92f423	-0.28701887
212	0x3e238d25	0.15971811
213	0x3e814b4d	0.25252762
214	0x3ec98355	0.3935801
215	0x3efb6fce	0.49108738
216	0xbc68291c	-0.0141699575
217	0xbec5a955	-0.38605753
218	0x3eadc417	0.33938667
219	0x3d723b9c	0.05913888
220	0x3f3fdde5	0.7494796
221	0x3f5c3d44	0.86030984
222	0x3e93fd27	0.28904077
223	0xbf121f4c	-0.57079005
224	0x3fa0778b	1.2536482
225	0x3d415766	0.04720249
226	0x3d38c670	0.04511112
227	0xbeba9401	-0.36441043
228	0x3d8c5f18	0.06854075
229	0x3e856bd3	0.26058826
230	0xbf240394	-0.6406796
231	0x3e874e09	0.26426724
232	0x3cc4e729	0.024036007
233	0x3d934939	0.071917005
234	0xbd8595db	-0.06522723
235	0x3e496de4	0.19670826
236	0x3f2f1da4	0.68404603
237	0xbf14fc30	-0.5819731
238	0xbe8472f9	-0.25868967
239	0x3eb87399	0.36025694
240	0x3f6645c7	0.8995022
241	0xbe1fce8c	-0.15606135
242	0x3e82e501	0.2556534
243	0x3ec3c4a5	0.38235965
244	0x3d5b9cf7	0.05361649
245	0x3f7b5080	0.9816971
246	0x3eb9aafa	0.36263257
247	0x3eb2d015	0.3492438
248	0xbe469ab5	-0.19394954
249	0xbf38c961	-0.7218228
250	0x3e77e68f	0.24209045
251	0xbee7c2f4	-0.45265925
252	0x3dd1d127	0.10244971
253	0x3f0b6ee6	0.5446609
254	0xbd0e7c38	-0.034786433
255	0xbe811965	-0.25214687

lin1.bias f4 [1024]
0	0xbf363f60	-0.7119045
1	0xbf8b4ed1	-1.0883428
2	0xbfb01065	-1.3755003
3	0xbeb28750	-0.3486886
4	0xbd713008	-0.058883697
5	0xbf5fdd05	-0.87446624
6	0xbf31dceb	-0.6947772
7	0xbe8524da	-0.26004678
8	0xbf8e1aa3	-1.1101879
9	0xbfb5182e	-1.4148004
10	0xbe03cc5e	-0.12870929
11	0x3b8a4614	0.0042197797
12	0xbee2fa48	-0.44331574
13	0xbe80efed	-0.2518305
14	0xbf13982c	-0.5765407
15	0xbf02140e	-0.5081185
16	0xbef801a6	-0.48438758
17	0xbfa9c73a	-1.3263924
18	0xbf833b0e	-1.0252397
19	0xbe34f440	-0.17671299
20	0xbfc07848	-1.5036707
21	0xbef62414	-0.480744
22	0xbfab2c20	-1.3372841
23	0xbe8c0665	-0.2734863
24	0xbf2997e6	-0.66247404
25	0xbeb4be84	-0.35301602
26	0xbea45624	-0.3209697
27	0xbf75312f	-0.95778173
28	0x3e45e01b	0.1932377
29	0xbf76428b	-0.96195287
30	0xbf129e8e	-0.57273185
31	0xbfae4f5d	-1.361797
32	0xbed02a4a	-0.40657264
33	0xbf85141d	-1.0396763
34	0xbfe44c3c	-1.7835765
35	0xbe9f8302	-0.3115464
36	0xbfa7c004	-1.3105474
37	0xbfe8cfc3	-1.8188404
38	0xbe240bdb	-0.16020148
39	0xbfb421e0	-1.4072838
40	0xbe86f630	-0.263597
41	0xbe3789f4	-0.17923719
42	0xbed3713a	-0.41297323
43	0xbe8f23ce	-0.27957004
44	0xbf3a5994	-0.72792935
45	0xbf0c9470	-0.54914
46	0xbdc5139a	-0.09622879
47	0x3d0750bd	0.033035982
48	0xbf14a967	-0.5807099
49	0xbe0973be	-0.13423058
50	0x3dd61c18	0.10454577
51	0xbeb32c13	-0.34994563
52	0xbe874a84	-0.26424038
53	0xbf23fe12	-0.64059556
54	0xbdfbb887	-0.12291055
55	0x3e5d2a1c	0.21598095
56	0xbda07300	-0.078344345
57	0xbf0e426a	-0.5557009
58	0xbf2ea581	-0.6822129
59	0xbe2269af	-0.15860628
60	0x3ceaa1eb	0.028641662
61	0xbf32e0b1	-0.698741
62	0xbf899c0d	-1.0750748
63	0xbf686650	-0.90781116
64	0xbe4a554d	-0.19759102
65	0xbea49371	-0.3214374
66	0xbf3737fc	-0.715698
67	0xbfb0f1d1	-1.3823797
68	0xbe3a25e8	-0.18178523
69	0xbfc562ff	-1.5420836
70	0xbec800e8	-0.3906319
71	0xbd5e76ff	-0.054312702
72	0x3de12c11	0.10994733
73	0xbfee411b	-1.8613619
74	0xbf1c774f	-0.6111955
75	0xbe5843af	-0.21119569
76	0xbf7841bd	-0.9697531
77	0xbee9f449	-0.45694187
78	0xbea4f5c0	-0.32218742
79	0xbf9c89de	-1.2229574
80	0xbfbb4e9d	-1.4633366
81	0xbf52f4ec	-0.8240497
82	0xbea94f13	-0.3306814
83	0xbe8008e9	-0.25006798
84	0xbf023545	-0.5086253
85	0xbfe93546	-1.8219383
86	0xbe9ef2d0	-0.31044626
87	0xbee9f411	-0.4569402
88	0xbe3d43d8	-0.18482912
89	0xbfcc4052	-1.5957129
90	0xbf04ad22	-0.5182668
91	0xbef94e3c	-0.486925
92	0xbe950608	-0.29106164
93	0xbf540534	-0.8282044
94	0xbe0466e3	-0.12929873
95	0xbf9fc65d	-1.2482411
96	0xbf2a81d2	-0.6660434
97	0xbef0b567	-0.470134
98	0xbcb533a4	-0.02211935
99	0xbe71afc8	-0.23602211
100	0xbecf69bc	-0.40510356
101	0xbf4096f2	-0.75230324
102	0xbfb8ddf8	-1.444274
103	0xbddb79ab	-0.10716566
104	0xbec126b3	-0.37724838
105	0xbf46b29c	-0.77616286
106	0xbe596455	-0.2122968
107	0xbf0a9034	-0.54126287
108	0xbf68901a	-0.9084488
109	0xbf83752a	-1.0270131
110	0xbfa80c03	-1.3128666
111	0xbe1f7325	-0.15571268
112	0xbe62e59c	-0.22157902
113	0xbedc5d59	-0.4303997
114	0xbdbf6896	-0.0934612
115	0xbecd9410	-0.40152025
116	0xbee8405e	-0.45361608
117	0xbf63f675	-0.8904794
118	0xbf370e92	-0.7150661
119	0xbef6a4fd	-0.4817275
120	0xbf21554e	-0.6302079
121	0xbe8a18b2	-0.26971966
122	0xbe8c99bf	-0.2746105
123	0xbf606ac4	-0.8766291
124	0xbf18989c	-0.59607863
125	0xbfbbbfef	-1.4667948
126	0xbeda4917	-0.42633888
127	0xbdbdbf87	-0.092650466
128	0xbe88776c	-0.26653612
129	0xbfad13c3	-1.3521656
130	0xbee3d8cc	-0.4450134
131	0xbec1d2e0	-0.37856197
132	0xbea6d95e	-0.32587713
133	0xbf1830bd	-0.5944937
134	0xbe19718c	-0.14984721
135	0xbe961229	-0.2931073
136	0x3e1e62e4	0.15467411
137	0xbeb28d8b	-0.34873614
138	0xbf1760ee	-0.5913228
139	0xbf9def34	-1.2338624
140	0xbf5f02e1	-0.8711377
141	0xbf52f14a	-0.8239943
142	0xbee3bb4c	-0.44478834
143	0xbe12befa	-0.14330664
144	0xbf98f9d5	-1.1951243
145	0xbd99e617	-0.07514589
146	0xbf102e6e	-0.56320846
147	0xbd9b0226	-0.07568769
148	0xbe9a82bf	-0.30177876
149	0xbe8dfadb	-0.2773045
150	0xbfa1a221	-1.2627603
151	0xbe12e9c0	-0.14346981
152	0xbec98b1c	-0.39363945
153	0xbe9089b1	-0.2823005
154	0x3ce305be	0.027712699
155	0xbebeea68	-0.37288213
156	0xbdb65f4a	-0.08904894
157	0xbed0d931	-0.40790704
158	0xbef32831	-0.474916
159	0x3de85ac7	0.113454394
160	0xbf016741	-0.5054818
161	0xbe8cfe98	-0.2753799
162	0xbe0a06e3	-0.1347919
163	0x3c0902a8	0.00836245
164	0xbf358024	-0.7089865
165	0xbf4a5aaf	-0.7904462
166	0xbdbe6e53	-0.092983864
167	0xbe45d896	-0.19320902
168	0x3e2e79ab	0.170386
169	0xbede64d8	-0.43436313
170	0xbccd8130	-0.025086015
171	0xbe4a4973	-0.19754581
172	0xbfbff01f	-1.4995154
173	0x3dc71812	0.09721388
174	0xbe70a595	-0.23500665
175	0xbf14fd57	-0.58199066
176	0xbef77aff	-0.48336026
177	0xbf8454d6	-1.033839
178	0xbf142ffd	-0.57885724
179	0xbfcc4c4c	-1.5960784
180	0xbf13f794	-0.5779965
181	0xbe8daf20	-0.27672672
182	0xbe714dab	-0.23564784
183	0x3d85bcd7	0.06530159
184	0xbfe6a248	-1.8018274
185	0xbec7b7ee	-0.39007515
186	0xbf1db9a6	-0.616114
187	0xbf7ebfa3	-0.99511164
188	0xbe118db1	-0.14214207
189	0xbeff5344	-0.49868214
190	0xbeda199e	-0.4259767
191	0xbe4f3c75	-0.20237906
192	0xbf889d2a	-1.0672963
193	0xbf2d92da	-0.678022
194	0xbec0f5ab	-0.3768743
195	0xbf4ca390	-0.79937077
196	0xbf4d45dc	-0.8018472
197	0xbe38d966	-0.18051681
198	0xbfe49a85	-1.7859656
199	0xbf0b178c	-0.54332805
200	0xbe582b87	-0.21110354
201	0xbf3033c4	-0.6882899
202	0xbe81b089	-0.25329998
203	0xbe296e41	-0.16545965
204	0xbfeda294	-1.856524
205	0xbdac9a8a	-0.084279135
206	0xbf11063f	-0.56650156
207	0xbc2de122	-0.010612758
208	0xbde1139c	-0.10990068
209	0xbfec63b4	-1.8467927
210	0x3d4857c2	0.048911817
211	0xbf01cea3	-0.5070593
212	0xbfa631e8	-1.298398
213	0xbf95146f	-1.1646861
214	0xbf074915	-0.5284589
215	0xbf28d37e	-0.6594771
216	0xbf35dbb8	-0.7103839
217	0xbee89336	-0.45424813
218	0xbea0dab7	-0.31416866
219	0xbf629ec5	-0.88523513
220	0xbfd2526d	-1.6431404
221	0xbe890822	-0.26764017
222	0xbf8aa9de	-1.0833089
223	0x3d5c0e05	0.053724308
224	0xbf5e35ac	-0.86800647
225	0xc0072865	-2.1118405
226	0x3e1a16f4	0.15047818
227	0xbe55109e	-0.2080712
228	0xbecc2402	-0.39871222
229	0xbe14a613	-0.14516477
230	0xbda6dcfe	-0.0814762
231	0xbe939706	-0.2882616
232	0xbec63e5a	-0.38719445
233	0xbdbdeb38	-0.0927338
234	0xbe196922	-0.14981511
235	0xbf9e0d52	-1.2347815
236	0xbe4a7ee1	-0.19774963
237	0xbe88cc29	-0.26718262
238	0xbc94571e	-0.018107947
239	0xbf106546	-0.5640453
240	0xbe5fdd17	-0.21861683
241	0xbe5d85ce	-0.21633074
242	0xbdb3761a	-0.087627605
243	0xbee88d44	-0.45420277
244	0xbf0ac123	-0.54200953
245	0xbf56a3c8	-0.8384366
246	0xbf588d39	-0.8459049
247	0xbe6fe544	-0.23427302
248	0x3d98531d	0.074377276
249	0xbf99a120	-1.2002296
250	0xbee1a374	-0.44070017
251	0xbcf20ef4	-0.029548146
252	0xbf2d7caf	-0.6776838
253	0xbe68cebe	-0.22735116
254	0xbf85b953	-1.0447181
255	0xbec2f6dd	-0.38078967

lin2.weight f4 [98, 1024]
0	0x3ef00e2a	0.46885806
1	0xbef6fe1d	-0.48240748
2	0xbcbf5aa6	-0.023358654
3	0xbd052947	-0.03251007
4	0x3e79a415	0.24378999
5	0xbd383215	-0.044969637
6	0x3dea8f16	0.11453073
7	0xbc5949f6	-0.013262263
8	0x3d6501a3	0.055909764
9	0x3d46014b	0.048341077
10	0x3d6e0fcb	0.05812053
11	0x3d3f748b	0.046742003
12	0x3dd33a82	0.10313894
13	0xbe6e43d4	-0.23268062
14	0x3b8ff130	0.0043927655
15	0x3cc95d6e	0.024580684
16	0xbe2802e9	-0.1640736
17	0x3e24279a	0.16030732
18	0xbdcd014f	-0.10010015
19	0x3cf891d8	0.030342981
20	0x3d9fadb0	0.077968
21	0xbe235e61	-0.15953971
22	0xbecedb13	-0.40401515
23	0xbcd77d56	-0.026304882
24	0xbdd1d808	-0.10246283
25	0xbf24f159	-0.6443077
26	0x3dce19c3	0.100635074
27	0x3d324879	0.043526147
28	0x3e715433	0.23567276
29	0xbd8425d8	-0.064525306
30	0x3dca4735	0.09876863
31	0xbe18f443	-0.14936928
32	0xbc59c2ff	-0.01329112
33	0x3c053821	0.008131058
34	0xbfacfa8d	-1.3513962
35	0x3d642e4c	0.055708215
36	0x3d2074e1	0.039173964
37	0x3d1332f9	0.035937283
38	0x3e0cf898	0.13766706
39	0xbe1bb727	-0.15206586
40	0xbdabe31a	-0.083929256
41	0x3e0631e4	0.1310497
42	0xbcad7037	-0.021171672
43	0x3cd903d8	0.02649109
44	0xbe47967d	-0.19491
45	0xbb322d47	-0.0027187632
46	0xbd44b959	-0.048028324
47	0x3ea53c06	0.32272357
48	0xbda5e923	-0.08101108
49	0xbd10deef	-0.035368856
50	0xbe61452f	-0.21999048
51	0x3e9f3cb2	0.31100994
52	0x3cf77919	0.030209111
53	0xbd063e12	-0.03277404
54	0xbe17c600	-0.14821625
55	0x3d1749a5	0.036935467
56	0xbea149d4	-0.3150164
57	0x3e10efc4	0.14153963
58	0x3ce55992	0.027996812
59	0xbecdbe7d	-0.40184394
60	0x3e028050	0.1274426
61	0x3c1c2a85	0.009531622
62	0xbc91e4f7	-0.017809374
63	0x3dfbf42b	0.12302431
64	0xbe294da0	-0.16533518
65	0xbe70b82c	-0.23507756
66	0xbe037a7a	-0.1283969
67	0x3d15fb19	0.03661642
68	0xbe46e11a	-0.19421807
69	0xbc15f006	-0.009151464
70	0x3d4a8763	0.04944552
71	0x3e91d1bb	0.28480324
72	0x3de510b7	0.11184829
73	0x3e855d02	0.26047522
74	0x3de2a562	0.110667005
75	0x3bbf78e9	0.005843271
76	0xbd8dc210	-0.0692178
77	0xbd42d35f	-0.04756486
78	0x3d18fa32	0.03734798
79	0x3e303026	0.17205867
80	0xbdc83da4	-0.09777382
81	0xbc80abc5	-0.015706906
82	0xbe23beba	-0.15990725
83	0x3e1bb8bc	0.1520719
84	0xbd041bbe	-0.03225302
85	0xbc4080f9	-0.0117494995
86	0xbdadb0e9	-0.084810086
87	0x3e1e4ab9	0.15458192
88	0x3d675461	0.056476954
89	0x3ddce2c7	0.10785442
90	0x3e291d6f	0.16515134
91	0xbdf2ebc2	-0.118613735
92	0xbc50c6db	-0.012742723
93	0x3d92ef6d	0.07174573
94	0x3dee3456	0.11631076
95	0x3c9d9b59	0.019239115
96	0x3d1d5286	0.03840878
97	0x3d515502	0.05110646
98	0x3daa429b	0.08313485
99	0x3dddab45	0.10823683
100	0x3e0176c7	0.12642966
101	0xbd225951	-0.03963596
102	0xbd8bc3a7	-0.06824427
103	0xbdeeed5d	-0.11666367
104	0x3e1dbfc4	0.15405184
105	0x3e1f5948	0.15561402
106	0xbee95e1a	-0.45579606
107	0x3dcde840	0.10054064
108	0x3cbf0aa2	0.0233205
109	0x3b6717c7	0.0035261975
110	0xbd39cea3	-0.04536308
111	0xbe3da815	-0.1852115
112	0x3d32c42a	0.043644108
113	0xbe860b84	-0.2618066
114	0x3c4d3dc2	0.012526931
115	0x3d80a558	0.06281537
116	0x3c221794	0.009893317
117	0x3dda6a95	0.1066486
118	0xbe98f529	-0.29874542
119	0xbd470a96	-0.04859408
120	0xbd9045ba	-0.07044549
121	0xbcdac5e8	-0.026705697
122	0x3e75dfa2	0.2401109
123	0x3cb6c893	0.022312438
124	0x3e1b5a5e	0.15171191
125	0xbd2488f3	-0.040169667
126	0x3c62c778	0.013841502
127	0x3d255290	0.04036194
128	0x3e204f10	0.1565516
129	0xbb1a61d0	-0.0023556836
130	0x3eaa6666	0.3328125
131	0xbe018178	-0.12647045
132	0xbde14b52	-0.11000694
133	0xbbbec37d	-0.005821644
134	0xbd86f32f	-0.06589352
135	0xbe58bf11	-0.21166636
136	0x3e3ef6de	0.1864886
137	0xbe9eb0fe	-0.3099441
138	0xbe6a74d3	-0.22896127
139	0x3cedd150	0.029030472
140	0xbe24848f	-0.16066192
141	0x3d56a9ab	0.0524079
142	0x3d5ed27a	0.054399945
143	0xbeaabe79	-0.33348444
144	0x3bdb8bc6	0.006700012
145	0xbce42f18	-0.027854487
146	0x3ea065cf	0.31327674
147	0x3e743bed	0.23850985
148	0xbd161abf	-0.0366466
149	0xbe5f7beb	-0.21824615
150	0x3eb61258	0.3556087
151	0xbf246c36	-0.64227617
152	0x3d428983	0.047494423
153	0xbd64f0f5	-0.055893857
154	0xbe37f97b	-0.17966263
155	0x3e91ebcb	0.28500208
156	0x3dd26cb6	0.10274641
157	0xbe8a7277	-0.27040455
158	0xbd872a8d	-0.06599913
159	0x3d05e17e	0.03268575
160	0x3dc735cb	0.09727057
161	0x3d34a077	0.044098344
162	0xbc83b76e	-0.016078677
163	0xbce87ad0	-0.028378874
164	0x3dc3b2be	0.09555577
165	0xbe1c99ba	-0.15293017
166	0xbe0e37f3	-0.1388853
167	0xbdbfa927	-0.09358435
168	0x3e4fa01b	0.20275919
169	0x3de88502	0.11353494
170	0xbd99229f	-0.074773066
171	0xbeea70c2	-0.45789152
172	0x3d56ba28	0.052423626
173	0x3bc658f8	0.0060530864
174	0x3da999d8	0.082812965
175	0xbe4db5c4	-0.2008887
176	0xbd651d64	-0.055936232
177	0xbd3cc554	-0.046086624
178	0xbbbee7ba	-0.005825964
179	0xbdd42aa1	-0.10359693
180	0x3edb5b73	0.42843208
181	0x3dc7df7f	0.09759425
182	0x3e254ac5	0.16141804
183	0x3db77796	0.08958356
184	0x3c69cf8f	0.014270677
185	0x3d271a48	0.040796548
186	0x3b28b3ca	0.0025741928
187	0x3a9675f6	0.0011479247
188	0x3d41f114	0.04734905
189	0xbd0ef54b	-0.0349019
190	0xbdfb7ec6	-0.122800395
191	0xbe2689a2	-0.1626344
192	0xbe5d1d74	-0.21593267
193	0x3db9fe5a	0.09081717
194	0xbe1e7309	-0.1547357
195	0x3e4180ff	0.18896864
196	0xbcf12194	-0.029434957
197	0x3e6dd170	0.23224425
198	0x3da6d8b2	0.081468
199	0x3e559c8d	0.208605
200	0xbe8c1f8d	-0.2736782
201	0x3bd595a4	0.0065180827
202	0xbe57c78e	-0.21072218
203	0x3d9fa3da	0.07794924
204	0xbce08ffe	-0.02741241
205	0x3dd7e636	0.10541956
206	0x3c994f2e	0.018714514
207	0x3d0153c9	0.031574044
208	0xbe05cdd2	-0.13066795
209	0xbe929be2	-0.28634554
210	0x3e8c6e27	0.2742779
211	0xbccab8ef	-0.024746386
212	0xbe13d91f	-0.14438294
213	0xbdec9f67	-0.11553841
214	0xbaa9bbae	-0.001294961
215	0x3d987eb1	0.074460395
216	0xbe396a02	-0.18106845
217	0xbe0bfe97	-0.13671337
218	0xbec59ba5	-0.3859531
219	0xbea316d8	-0.31853366
220	0x3c25a8a7	0.010111011
221	0xbe9c812a	-0.30567294
222	0xbd286e7d	-0.041120995
223	0xbe4d0baf	-0.20023988
224	0x3d1a4711	0.03766543
225	0x3c33c54b	0.010972331
226	0xbdf5f83c	-0.120102376
227	0x3dd41dcd	0.103572465
228	0xbe837523	-0.25675306
229	0xbd36a4f5	-0.04459091
230	0xbcafcd63	-0.02146024
231	0xbe19ea61	-0.15030815
232	0xbe21691c	-0.15762752
233	0x3ceec177	0.029144986
234	0xbe19710b	-0.14984529
235	0x3d3d46d6	0.046210133
236	0xbe75f3e2	-0.24018815
237	0xbdfeaa96	-0.124348804
238	0xbe921a0c	-0.28535497
239	0x3cdf8ca6	0.027288746
240	0x3b903d57	0.0044018435
241	0xbe3bc1ba	-0.1833562
242	0xbca4cc62	-0.020116989
243	0x3ccd7443	0.025079852
244	0x3e2333ea	0.15937772
245	0x3ecf9d74	0.40549815
246	0x3dadf0c2	0.084931865
247	0x3dbdbb5c	0.092642516
248	0x3e84af09	0.2591479
249	0x3e9a86c5	0.30180946
250	0x3df0beae	0.11755119
251	0x3e7fa64b	0.2496578
252	0x3dc96616	0.098339245
253	0xbd7411ac	-0.059587166
254	0xbe6407b1	-0.22268559
255	0xbd298ac5	-0.041392107

lin2.bias f4 [98]
0	0xbd76272e	-0.06009596
1	0x3c202c85	0.009776239
2	0xbe08ef6f	-0.13372587
3	0xbd99b382	-0.075049415
4	0xbf2a9ce0	-0.6664562
5	0xbf32c35d	-0.6982935
6	0xbd83c145	-0.064333476
7	0xbdcb0f30	-0.09915006
8	0xbda7d852	-0.08195557
9	0xbe6faad9	-0.23405017
10	0xbd9d1b95	-0.076712765
11	0xbe46c232	-0.19410017
12	0xbd9cbed5	-0.07653586
13	0xbf364f68	-0.71214914
14	0xbe321d3e	-0.17393968
15	0xbdd4c4ec	-0.10389122
16	0xbdce1ead	-0.10064445
17	0xbd4f3b60	-0.050593734
18	0xbd5ff6b2	-0.054678626
19	0xbdc6218d	-0.09674368
20	0xbdaefc85	-0.08544258
21	0xbda860ff	-0.082216255
22	0xbdc638e8	-0.09678823
23	0xbd7803ea	-0.060550608
24	0xbe040de1	-0.1289592
25	0xbdd32283	-0.10309317
26	0xbdd19121	-0.10232759
27	0x3d1bcfa7	0.03803983
28	0x3d8269e4	0.06367853
29	0x3bd55d14	0.00651134
30	0xbc80d768	-0.015727714
31	0xbd559fab	-0.052154224
32	0x3b9314f0	0.00448858
33	0xbcd46b0b	-0.025929948
34	0x3d9c31d4	0.076266915
35	0x3db1c2d6	0.0867974
36	0xbd06f46a	-0.032947935
37	0xbcdc539b	-0.026895335
38	0xbc835c18	-0.016035125
39	0x3d855375	0.06510059
40	0x3cf11812	0.029430423
41	0x3d6db945	0.058038015
42	0xbc08335b	-0.008313025
43	0xbd10fb7f	-0.035396095
44	0x3d116f9c	0.03550683
45	0x3d5a46ba	0.053290106
46	0x3dbd8ec6	0.092557475
47	0xbdd99afb	-0.10625263
48	0xbc5494c9	-0.012974926
49	0x3d459c71	0.048244897
50	0xbdd7d631	-0.10538901
51	0x3d463bdb	0.048396926
52	0xbe006841	-0.1253977
53	0xbd9a2fe3	-0.07528665
54	0xbf38b9ee	-0.72158706
55	0xbd28c4aa	-0.04120318
56	0x3d6d01f3	0.057863187
57	0xbc6879c1	-0.014189185
58	0x3d0ddd13	0.03463466
59	0xbcd7fa87	-0.026364578
60	0x3c80c860	0.015720546
61	0x3cd917e8	0.026500657
62	0x3d058ce0	0.032605052
63	0x3d9b7983	0.07591536
64	0x3cb21419	0.021738099
65	0xbc4ed386	-0.012623673
66	0xbcae9d44	-0.021315224
67	0x3a651798	0.00087391725
68	0x3c668a20	0.0140710175
69	0x3c99b8a6	0.018764805
70	0x3cc257f7	0.023723586
71	0x3c888269	0.016663747
72	0xbdae5c57	-0.08513706
73	0xbcb800b6	-0.022461277
74	0x3d02e86b	0.031959932
75	0x3cae373c	0.021266572
76	0xbd1d08c3	-0.038338434
77	0xbd07857c	-0.033086285
78	0x3c926215	0.017869035
79	0xbe117bbf	-0.14207362
80	0x3b8aad14	0.0042320583
81	0xbe1787df	-0.14797924
82	0xbda29b0e	-0.079397306
83	0xbd378d45	-0.04481246
84	0xbd83b7cf	-0.06431543
85	0xbd8ecbc8	-0.06972462
86	0xbd71c8cf	-0.059029397
87	0xbf31a229	-0.6938806
88	0xbdfc68e4	-0.12324694
89	0xbdb21c71	-0.08696831
90	0xbe0b4393	-0.13599996
91	0x3d4f057b	0.050542336
92	0xbc330925	-0.010927473
93	0x3ded5d3a	0.11590047
94	0x3c208e71	0.009799586
95	0xbf329ae9	-0.69767624
96	0xbf29ab1b	-0.6627671
97	0xbf2cb092	-0.67456925
