models/3_context_2_embedding_32_activation_1.pt (torch, 683290 bytes, 5 tensors)

emb.weight f4 [98, 32]
0	0xbd976b32	-0.07393493
1	0x3df291e8	0.11844236
2	0xbeb15966	-0.34638518
3	0x3eacdcd0	0.33762217
4	0x3ebf801d	0.3740243
5	0xbe2cd740	-0.16878986
6	0x3f399849	0.72497994
7	0xbf645aec	-0.89201236
8	0x3deabc1e	0.11461662
9	0xbc3cf139	-0.011532121
10	0x3dcab853	0.09898438
11	0xbde9a9c4	-0.11409333
12	0x3e84c23e	0.25929445
13	0x3e05c3fc	0.13063043
14	0x3e8ba048	0.27270722
15	0x3f3666d0	0.7125063
16	0xbcfc2f4b	-0.03078427
17	0x3f69693b	0.91176194
18	0xbec8a6b2	-0.39189678
19	0xbf459c39	-0.771915
20	0x3e985668	0.29753423
21	0xbdd482d9	-0.1037652
22	0x3e069935	0.13144381
23	0xbdee8d7f	-0.11648082
24	0x3ef3d3ef	0.4762263
25	0x3f536340	0.8257332
26	0x3f1847ec	0.59484744
27	0xbef8cf30	-0.48595572
28	0x3e70eb73	0.23527317
29	0x3f068b73	0.5255653
30	0x3f450909	0.7696691
31	0x3d9ae1a5	0.075625695
32	0xbe13c784	-0.14431578
33	0xbde8da27	-0.11369734
34	0x3cb126f0	0.021625012
35	0x3ddfe7f4	0.109329134
36	0xbde72e5d	-0.1128814
37	0x3d05a584	0.03262855
38	0x3e649bc2	0.22325042
39	0xbf12af84	-0.57299066
40	0x3aef9959	0.0018279954
41	0x3d495e70	0.04916233
42	0x3d90482a	0.07045014
43	0x3de5cb7f	0.112204544
44	0xbccd2538	-0.025042161
45	0x3ce90b7d	0.02844786
46	0x3eb09edc	0.344962
47	0x3ecf6c8e	0.40512508
48	0xbe1466e2	-0.14492372
49	0x3f892a41	1.071602
50	0xbe115039	-0.14190759
51	0xbe4471fe	-0.1918411
52	0x3e44235f	0.19154118
53	0xbf4d65a5	-0.8023322
54	0x3f050769	0.5196443
55	0xbdbee94c	-0.093218416
56	0x3e97fce9	0.29685143
57	0xbe61144b	-0.21980397
58	0xbec93568	-0.39298558
59	0x3eaae119	0.3337486
60	0xbe40f480	-0.1884327
61	0x3d30d5cc	0.043172643
62	0x3e52a3b9	0.20570268
63	0x3eff3205	0.4984285
64	0xbecdaef3	-0.40172538
65	0xbea302d2	-0.3183809
66	0x3ecd8fa9	0.40148667
67	0xbe0b4079	-0.13598813
68	0xbf8cc7cb	-1.0998472
69	0x3fa7329e	1.3062322
70	0xbebfcaac	-0.37459314
71	0xbe2c9d9b	-0.16856997
72	0x3e5f9bea	0.2183682
73	0xbe0cd8c2	-0.13754562
74	0xbf8a6d2a	-1.0814564
75	0xbdc9d3b8	-0.09854835
76	0xbe14f980	-0.14548302
77	0xbf2b09f8	-0.66812086
78	0x3e17ef8a	0.1483747
79	0xbf5d8eff	-0.8654632
80	0xbed84e8d	-0.4224743
81	0x3f04e885	0.51917297
82	0xbe3ce86b	-0.18448035
83	0xbd5e39d9	-0.054254387
84	0x3f2037a9	0.6258493
85	0x3da3e9e3	0.08003595
86	0xbf5b5ddf	-0.8569011
87	0xbda5cc8c	-0.08095655
88	0x3f1b0697	0.6055693
89	0x3ef7369c	0.4828385
90	0x3e4dbdc7	0.20091926
91	0xbf72c281	-0.9482804
92	0x3f6c9ed3	0.92429847
93	0xbee1c97d	-0.44099036
94	0x3d98b472	0.07456292
95	0x3eaaa7e0	0.33331203
96	0xbf8dfd34	-1.1092896
97	0x3f869ac4	1.0515981
98	0x3f86f064	1.0542111
99	0xc0411de5	-3.0174496
100	0x3dc2d4a0	0.09513211
101	0x3fb6837e	1.4258878
102	0x3ed7d202	0.4215241
103	0xbf9dd1ea	-1.2329686
104	0xbf2aa7ae	-0.6666211
105	0xbfbae9a5	-1.4602553
106	0x3ef56377	0.47927448
107	0x3ec30577	0.38090107
108	0xbffb3e20	-1.9628334
109	0x3f6fe11d	0.9370287
110	0xbfa0ec2b	-1.2572073
111	0xbfb7fad7	-1.4373425
112	0xc0158bfa	-2.3366685
113	0x3de30c54	0.11086336
114	0x3fdbd382	1.7173922
115	0x3fac7446	1.3472984
116	0x3f55545a	0.83331835
117	0xbfdc9c14	-1.7235131
118	0x3f4b0529	0.7930475
119	0xc03dce3a	-2.965712
120	0xbf659dae	-0.89693725
121	0x40501e1f	3.2518384
122	0xbfeddc7c	-1.8582911
123	0x3f7213cd	0.94561464
124	0x4010e7a4	2.2641382
125	0x3fa4fda2	1.2889903
126	0xbf4ed6de	-0.8079661
127	0x3f925c43	1.1434406
128	0xbe01611b	-0.12634699
129	0x3e9f6a7e	0.31135935
130	0x401dde37	2.466688
131	0xbf8aefb1	-1.0854398
132	0x3fd42a68	1.6575441
133	0xbf79e950	-0.9762163
134	0xbf02f940	-0.51161575
135	0xbf341e10	-0.7035837
136	0xbf81c651	-1.0138646
137	0xbf985243	-1.1900104
138	0x3eed4710	0.4634328
139	0x3ef5870e	0.479546
140	0x3e4367c6	0.19082555
141	0xbd19f878	-0.037590474
142	0xbd924792	-0.07142557
143	0xbf936da4	-1.1517835
144	0xbf4af147	-0.7927441
145	0x3f86ffee	1.0546854
146	0x3fa54384	1.2911229
147	0x3e23d1fe	0.15998074
148	0x3f97271e	1.1808813
149	0xc03614e4	-2.845025
150	0xbec7d5da	-0.39030343
151	0xbf9e5cdf	-1.2372092
152	0xbed1bb3c	-0.4096316
153	0xbd0fe5c3	-0.035131227
154	0xbf080724	-0.53135896
155	0x3d9efc06	0.077629134
156	0xbf947d86	-1.1600807
157	0xbe9d2697	-0.30693504
158	0xbecc2e84	-0.3987924
159	0x402c4e04	2.6922617
160	0xbee9d246	-0.45668238
161	0xbf5d3196	-0.8640379
162	0xbfb6bd9f	-1.4276618
163	0xbfb97bc6	-1.4490898
164	0x3ecbddab	0.39817557
165	0xbd942bbc	-0.07234904
166	0xbfc518a3	-1.5398144
167	0xbdf835a7	-0.12119608
168	0x3cadb1a7	0.021202875
169	0x3f6ac14a	0.91701186
170	0xbc184ff2	-0.009296404
171	0xbf53c67e	-0.8272475
172	0x3dc7c253	0.09753861
173	0xbe297de6	-0.16551933
174	0xbf0de227	-0.55423206
175	0xbf806c6a	-1.0033085
176	0xbf27cfdf	-0.6555156
177	0xbfdf5698	-1.7448301
178	0xbf8633a4	-1.048451
179	0x3ea75c09	0.32687405
180	0x40114112	2.2695966
181	0xbfa4f9a3	-1.2888683
182	0x4016f6bd	2.3588097
183	0x3fbfe8cd	1.499292
184	0xbeb42f53	-0.35192356
185	0xbf78b40c	-0.9714973
186	0xbfc9cabb	-1.5764993
187	0xbf2ead15	-0.6823285
188	0x3f229b7b	0.63518494
189	0xbcd0a182	-0.025467638
190	0xbeaa96c5	-0.33318153
191	0x3ffdd1d6	1.9829662
192	0x3ee0eab2	0.43929058
193	0xbf1ca49b	-0.6118867
194	0x3ebb618e	0.36597866
195	0x3fc8f4ae	1.569967
196	0x3f0cdd44	0.55025125
197	0x3ebfe192	0.37476784
198	0x3f0ab731	0.5418578
199	0xbd84fe59	-0.064938255
200	0x3e27b419	0.16377296
201	0xbf8e03a9	-1.1094867
202	0xbfcf08c3	-1.6174549
203	0x3ed1c28d	0.40968743
204	0x3e706513	0.23476057
205	0x3fe11865	1.758557
206	0x3ddf97ab	0.109176
207	0x40325794	2.7865953
208	0xc0025fe5	-2.037103
209	0xbf53048b	-0.8242881
210	0xbfbd4038	-1.4785223
211	0x3f2eea0d	0.68325883
212	0x3e12a438	0.14320457
213	0x3fe17e78	1.761672
214	0xbf958e88	-1.1684122
215	0x3e7914f1	0.24324395
216	0xbf68b341	-0.9089852
217	0x3fa146d5	1.2599741
218	0xbf859f85	-1.0439306
219	0xbddcc437	-0.107796125
220	0x4011d190	2.2784157
221	0x3f61dfae	0.88231933
222	0x3f5e778e	0.86901176
223	0xbf7a3fdf	-0.9775371
224	0x3f251a78	0.64493513
225	0x3e26b3a7	0.1627947
226	0xbf21bfa4	-0.63183045
227	0x3facaf83	1.3491062
228	0x3f217c4c	0.63080287
229	0xbe0654cf	-0.1311829
230	0xbd924ffd	-0.07144163
231	0xbece893f	-0.40339085
232	0xbfbc8bcc	-1.4730163
233	0xbf73122c	-0.94949603
234	0xbeb692f5	-0.35658994
235	0xbdde758c	-0.10862264
236	0x3f39fefb	0.72654694
237	0x3f9db804	1.2321782
238	0x3efb7b02	0.49117285
239	0xbee91234	-0.455217
240	0xbfa71824	-1.3054242
241	0xbfc593f5	-1.5435778
242	0xbf625b56	-0.8842062
243	0xbe6a2747	-0.22866546
244	0x3dca7d3d	0.098871686
245	0x3f8bbf50	1.0917759
246	0x3e966d0b	0.29380068
247	0xbd0c89e2	-0.034311183
248	0x3fa4b6d8	1.28683
249	0x3fda91b0	1.707571
250	0x3e940dd9	0.28916815
251	0xbbe9795b	-0.0071250624
252	0xbf4ee075	-0.80811244
253	0x3f963867	1.1735963
254	0x3ef784c3	0.48343477
255	0x3f749d33	0.95552367

lin1.weight f4 [1024, 64]
0	0x3db96d42	0.090540424
1	0x3d3d0eb0	0.046156585
2	0x3e452e51	0.1925595
3	0xbdd1ed97	-0.10250395
4	0x3db6b42b	0.08921083
5	0x3e33352d	0.17500754
6	0xbe2b44d6	-0.16725478
7	0x3c435991	0.01192321
8	0xbd7d1836	-0.061790667
9	0x3e827b20	0.25484562
10	0x3dd7a1f8	0.1052894
11	0xbd2aec96	-0.041729532
12	0x3e5f3d27	0.21800672
13	0x3da323eb	0.07965835
14	0xbeb33a09	-0.35005215
15	0xbe0a7fb0	-0.13525271
16	0xb7ab27d8	-2.0403342e-05
17	0xbc79ca11	-0.01524593
18	0x3e221977	0.15830027
19	0x3eb76e41	0.35826305
20	0xbe4e3695	-0.20138009
21	0x3e7daaf1	0.2477224
22	0x3cff0e82	0.031134848
23	0xbe4a1fdf	-0.1973872
24	0x3eb9cb12	0.36287743
25	0xbe18ee45	-0.14934643
26	0x3e14dc19	0.14537086
27	0xbeb7ab1f	-0.35872743
28	0xbdb9dbc1	-0.09075118
29	0xbe5fb367	-0.2184578
30	0xbe9ab488	-0.3021586
31	0xbe0ca812	-0.13735989
32	0x3e80d8a3	0.2516528
33	0xbdb0619e	-0.08612369
34	0xbd87aede	-0.0662515
35	0x3c9a0992	0.018803392
36	0xbe166c7e	-0.14689824
37	0x3cac1e08	0.021010414
38	0xbd62b39a	-0.055347063
39	0xbc687efa	-0.01419043
40	0x3d89bda5	0.06725625
41	0xbdada65e	-0.08478998
42	0x3e528105	0.2055703
43	0xbe8f5c60	-0.28000164
44	0x3f09e03d	0.53857785
45	0xbd6ead68	-0.05827084
46	0xbe3fbe69	-0.1872498
47	0x3c998b06	0.01874305
48	0x3ed93ca9	0.42429093
49	0x3e2cb776	0.1686686
50	0xbe10f709	-0.14156736
51	0xbded87a9	-0.11598141
52	0x3eab6954	0.33478796
53	0x3e78abc4	0.24284273
54	0x3e304b4d	0.17216225
55	0xbd9d5a77	-0.076832704
56	0x3e37eb7c	0.17960924
57	0xbe9c6b8c	-0.30550802
58	0x3d5c5a04	0.053796783
59	0x3e5f3119	0.21796073
60	0x3dedbedb	0.116086684
61	0x3e2256f3	0.15853481
62	0xbcd2ddaf	-0.025740473
63	0xbe32f0fe	-0.17474744
64	0xbcdeba42	-0.027188424
65	0x3e9e9a4b	0.3097709
66	0xbd09125b	-0.03346477
67	0xbe87d044	-0.26526082
68	0x3e682b0e	0.22672674
69	0xbdbd5d2c	-0.09246287
70	0xbc398b4f	-0.011324718
71	0x3d6a91af	0.05726784
72	0x3e2c3884	0.16818434
73	0x3e66b8dc	0.22531456
74	0xbe5b7b31	-0.21433713
75	0x3e38f527	0.18062268
76	0xbe8a60f7	-0.27027103
77	0x3dc6dfa3	0.09710624
78	0x3da1b96f	0.07896697
79	0xbe54f86e	-0.20797893
80	0x3d8f8ccb	0.07009276
81	0xbdf73ab8	-0.120717466
82	0xbf127ede	-0.57224834
83	0x3ea080d5	0.3134829
84	0x3f005b88	0.50139666
85	0xbdd58f12	-0.10427679
86	0xbd9d6561	-0.07685352
87	0x3d1b4be2	0.037914164
88	0xbe94486b	-0.289615
89	0x3ebe7ec9	0.37206104
90	0xbeccc92c	-0.39997232
91	0xbe328e7b	-0.17437164
92	0xbcb6308e	-0.02223995
93	0x3e176438	0.14784324
94	0xbeeca040	-0.4621601
95	0xbe999ee2	-0.3000403
96	0xbe1cf5a2	-0.15328076
97	0x3e5d06d3	0.21584634
98	0x3cebd8e0	0.028789937
99	0x3dd457b0	0.103682876
100	0x3dd5c295	0.10437504
101	0xbdbf18af	-0.0933088
102	0x3d7cfcd8	0.061764568
103	0x3ce0322d	0.027367676
104	0xbe96fe06	-0.2949068
105	0xbe903364	-0.28164208
106	0x3de158e8	0.11003286
107	0xbf0c3d33	-0.5478088
108	0x3e3f2ca1	0.18669368
109	0xbdc4dc50	-0.09612334
110	0xbe254cc2	-0.16142562
111	0xbeb5358f	-0.35392424
112	0xbe9d6055	-0.30737558
113	0xbe781a5a	-0.24228802
114	0x3c8fa757	0.017535849
115	0x3e1e44a6	0.15455875
116	0x3ee930c4	0.45545018
117	0xbe4f911a	-0.20270196
118	0xbe888e75	-0.26671186
119	0xbdd260f4	-0.102723986
120	0xbee3e817	-0.44513008
121	0x3d3bedf8	0.04588124
122	0xbe055d5b	-0.13023894
123	0x3deeb775	0.116560854
124	0x3e88102c	0.26574838
125	0x3e59b5d6	0.21260771
126	0xbdfe6e29	-0.12423355
127	0x3df1c0bb	0.118043385
128	0xbbee2e01	-0.0072686677
129	0xbcf8c91e	-0.030369338
130	0x3e0b5c10	0.13609338
131	0xbc602229	-0.013680019
132	0x3dc58dfa	0.096462205
133	0xbdf10fa7	-0.117705636
134	0x3dab180a	0.083541945
135	0xbd96e497	-0.07367819
136	0x3dc4ce6f	0.096096866
137	0x3e6a03f9	0.22853078
138	0x3dab7485	0.08371834
139	0xbe1fbc6e	-0.15599224
140	0x3d2cd8e9	0.04219905
141	0xbb478898	-0.0030446406
142	0xbe9268b0	-0.28595495
143	0xbe20cd63	-0.15703349
144	0xbdca9bbe	-0.09892987
145	0xbdb573c4	-0.08859971
146	0x3c952c46	0.018209588
147	0x3e048c20	0.12944078
148	0xbd3461f9	-0.044038747
149	0xbd582136	-0.052766047
150	0x3e21473f	0.15749834
151	0xbecd7219	-0.40126112
152	0xbe41412c	-0.18872517
153	0xbb9822df	-0.004642829
154	0xbe44355f	-0.19160984
155	0xbeb97c43	-0.36227617
156	0x3da78eda	0.08181544
157	0xbe00e990	-0.12589097
158	0xbe0c75b2	-0.13716772
159	0x3e8205ad	0.25394955
160	0xbbfd4568	-0.007729221
161	0xbd9b7c23	-0.075920366
162	0x3ed09739	0.40740374
163	0x3e5298ed	0.20566149
164	0x3ead4c43	0.33847246
165	0xbc7409be	-0.014894901
166	0x3df121e1	0.1177404
167	0x3e2169a3	0.15762953
168	0x3e275cbb	0.16343968
169	0x3ed7edfe	0.4217376
170	0x3e2c6a7b	0.16837494
171	0x3e962efc	0.2933272
172	0x3dba4ea9	0.090970345
173	0xbe871e92	-0.2639051
174	0xbe41cc47	-0.18925582
175	0xbe3003a7	-0.17188893
176	0xbd79bef1	-0.06097311
177	0x3ea4e806	0.3220827
178	0x39ae0fee	0.00033199735
179	0xbe5dd20d	-0.2166216
180	0xbe9a40f1	-0.3012767
181	0x3e93ef4d	0.2889351
182	0x3eb70f72	0.3575397
183	0xbe624f45	-0.22100551
184	0xbde6ed27	-0.11275702
185	0xbdbaad1a	-0.09115048
186	0x3c767d14	0.015044469
187	0xbe9666bd	-0.29375258
188	0xbe37d4e3	-0.17952304
189	0xbe35035e	-0.17677066
190	0x3e1d57f7	0.15365587
191	0x3e5c6589	0.21523108
192	0xbb807519	-0.003920209
193	0xbea0d775	-0.3141438
194	0xbe902d68	-0.28159642
195	0x3d4780a5	0.04870667
196	0xbdff2e3e	-0.12459992
197	0x3dd08a9d	0.101826884
198	0xbe420863	-0.18948512
199	0x3ea60b6a	0.32430583
200	0x3e11912f	0.1421554
201	0xbd0725ac	-0.03299491
202	0x3e215918	0.15756643
203	0x3df78454	0.120857865
204	0x3d886dd5	0.06661574
205	0x3dabcf8e	0.08389197
206	0xbd0048d2	-0.031319447
207	0xbccf7f54	-0.02532927
208	0xbc01e9de	-0.007929293
209	0xbcf5ccfe	-0.030004974
210	0x3dc9bd7c	0.098505944
211	0xbbfa5e3a	-0.007640627
212	0xbe4620b6	-0.19348416
213	0xbe08a61a	-0.13344613
214	0x3e7d7d75	0.2475489
215	0x3e95c533	0.29252014
216	0x3c33b8ab	0.010969321
217	0xbee4fd05	-0.4472429
218	0xbd9ed8a5	-0.077561654
219	0xbe278189	-0.16358007
220	0x3e25afce	0.16180345
221	0x3e7e46ad	0.24831648
222	0x3c6acf74	0.014331687
223	0xbd339b9f	-0.043849584
224	0x3eb58350	0.35451746
225	0x3dde7457	0.10862034
226	0x3ecaf3b4	0.39639056
227	0x3e306c8a	0.17228904
228	0x3db55d4d	0.08855686
229	0x3e7cb7ba	0.24679461
230	0xbec316f1	-0.3810344
231	0x3ea58fdc	0.32336318
232	0x3cce0606	0.025149357
233	0x3da1ec2c	0.07906374
234	0x3e56bac2	0.2096968
235	0x3db18693	0.08668246
236	0xbe3bbb97	-0.18333279
237	0xbd84f9dc	-0.064929694
238	0xbee29259	-0.4425228
239	0xbd4441cf	-0.047914322
240	0x3e1e002b	0.15429752
241	0xbd1d6ca1	-0.038433675
242	0x3d012858	0.031532615
243	0xbcd37463	-0.025812333
244	0xbc8de959	-0.017323183
245	0x3e8c8797	0.27447197
246	0x3e051373	0.129957
247	0xbdc6ca1a	-0.097065166
248	0x3d5dd17d	0.05415486
249	0x3d4d9364	0.05018939
250	0xbe950ff4	-0.29113734
251	0xbe0b5064	-0.13604885
252	0x3e40b5bd	0.18819328
253	0x3dfe017d	0.124026276
254	0xbd4cf283	-0.050035965
255	0xbe40d9d8	-0.18833101

lin1.bias f4 [1024]
0	0xbe72f963	-0.23727946
1	0x3ca409b5	0.02002416
2	0xbf42bcf7	-0.7606959
3	0xbe2c64aa	-0.16835275
4	0xbe112bcf	-0.14176868
5	0xbf64cae8	-0.8937211
6	0xbde10fa9	-0.10989315
7	0xbed9216d	-0.42408314
8	0xbf308398	-0.68950796
9	0xbe6fc230	-0.2341392
10	0xbe4ca99c	-0.19986576
11	0xbe100b42	-0.14066795
12	0xbe5c46e8	-0.21511424
13	0xbedcc688	-0.43120217
14	0xbe8b13eb	-0.27163634
15	0xbf7778c8	-0.9666867
16	0xbe867718	-0.26262736
17	0xbefaa1dd	-0.48951617
18	0xbe988347	-0.29787657
19	0xbe11cb11	-0.1423762
20	0xbe82fdce	-0.25584263
21	0xbe3e61f2	-0.1859205
22	0xbf1edba8	-0.6205392
23	0xbec83162	-0.39100176
24	0xbf4b81ea	-0.7949511
25	0xbf397e9d	-0.7245882
26	0xbef0fef0	-0.47069502
27	0xbf3e3982	-0.743065
28	0xbeb4956d	-0.35270253
29	0xbebaf018	-0.36511302
30	0xbf6570f0	-0.89625454
31	0xbe846ea3	-0.2586566
32	0xbee4af24	-0.44664872
33	0xbf3db689	-0.7410665
34	0xbf3a4b44	-0.72771096
35	0xbedd99f3	-0.43281516
36	0xbf0906b4	-0.53525853
37	0xbf216cd0	-0.6305666
38	0xbea6bdb2	-0.325666
39	0xbeed6c0c	-0.46371496
40	0xbed22bb2	-0.41048962
41	0xba100f4b	-0.0005495443
42	0xbf0b67b4	-0.54455113
43	0xbed0a553	-0.40751132
44	0xbe970779	-0.2949789
45	0xbeb01a3d	-0.34395018
46	0xbf78dfe7	-0.9721665
47	0xbdd3db3c	-0.1034455
48	0xbf3c3814	-0.7352307
49	0xbf15dcce	-0.58540046
50	0xbf2aacdb	-0.66670007
51	0xbf040fb0	-0.5158644
52	0xbe15860f	-0.1460192
53	0xbe549e3d	-0.20763488
54	0xbe73aff8	-0.23797596
55	0xbe5dabb9	-0.21647538
56	0xbf2e5297	-0.6809477
57	0xbe5a6f4b	-0.21331517
58	0xbef4e38c	-0.47829854
59	0xbf2d2ec0	-0.6764946
60	0xbf40dc35	-0.7533601
61	0xbedab983	-0.4271966
62	0xbf0aabbb	-0.5416829
63	0xbf36ca45	-0.7140239
64	0xbf4d2fc9	-0.8015104
65	0x3be3c24b	0.0069506518
66	0xbe79e4fa	-0.24403754
67	0xbe1ce54d	-0.15321846
68	0xbe4081b5	-0.1879948
69	0xbe7bb4f2	-0.24580744
70	0xbe35dcaf	-0.17759965
71	0xbe02a770	-0.12759185
72	0xbec445b0	-0.38334417
73	0xbee2f5a2	-0.44328028
74	0xbd4243ac	-0.04742782
75	0xbe838921	-0.2569056
76	0xbeafdeb3	-0.34349594
77	0xbf86a2fa	-1.0518486
78	0xbe81c549	-0.2534583
79	0xbf2ac2f2	-0.6670371
80	0xbec2e094	-0.38061965
81	0xbe54ab18	-0.20768392
82	0xbf1d884a	-0.61536086
83	0xbe6d34b9	-0.23164643
84	0xbf70169d	-0.93784505
85	0xbf8a3500	-1.0797424
86	0xbf6635a6	-0.8992561
87	0xbd91c49a	-0.07117577
88	0xbedd6f8a	-0.4324916
89	0xbf8b676b	-1.0890936
90	0xbebd461d	-0.36967555
91	0xbf7e57b6	-0.99352586
92	0xbe94c4a2	-0.2905627
93	0xbf2b6b50	-0.6696062
94	0xbe8e7d5f	-0.27830026
95	0xbe8c768e	-0.274342
96	0xbe30e3b7	-0.17274366
97	0xbe935935	-0.28778997
98	0xbe3f7091	-0.18695284
99	0xbe826f85	-0.25475708
100	0xbf213fad	-0.62987787
101	0xbeb3f14d	-0.35145035
102	0xbe2521ea	-0.16126218
103	0xbea1e7fc	-0.31622303
104	0xbf156796	-0.58361185
105	0xbf075983	-0.5287096
106	0xbf6575ac	-0.8963268
107	0xbf0b9617	-0.54525894
108	0xbf23f9c1	-0.6405297
109	0xbeb1c64b	-0.34721598
110	0xbf8f44a3	-1.1192821
111	0xbe19a2df	-0.15003537
112	0xbe68c38e	-0.22730848
113	0xbea5b44a	-0.32364112
114	0xbec48bac	-0.3838781
115	0xbe983d09	-0.29734066
116	0xbf3ff89c	-0.7498872
117	0xbea88852	-0.32916504
118	0xbf1b4229	-0.6064783
119	0xbe93b574	-0.28849375
120	0xbee7173e	-0.4513492
121	0xbe8a1690	-0.2697034
122	0xbe882b6b	-0.26595625
123	0xbdef8427	-0.11695128
124	0xbea27cb6	-0.31735772
125	0xbf3e89be	-0.7442893
126	0xbf1132cd	-0.5671814
127	0xbe2ee9bb	-0.17081349
128	0xbf4db480	-0.80353546
129	0xbe750723	-0.23928504
130	0xbe0b94b2	-0.13630942
131	0xbe86ca0b	-0.26326022
132	0xbd77d4fc	-0.060505852
133	0xbf7ed7c8	-0.99548006
134	0xbf7a4d9a	-0.9777466
135	0xbe8b1628	-0.2716534
136	0xbf330af4	-0.6993859
137	0xbf3a3932	-0.72743523
138	0xbe25fe29	-0.16210236
139	0xbec96bbc	-0.39340007
140	0xbf1a8e26	-0.6037315
141	0xbf718171	-0.94338137
142	0xbf10f8d9	-0.5662971
143	0xbe5ed0bb	-0.21759312
144	0xbee16208	-0.44020104
145	0xbe82f911	-0.25580648
146	0xbe96136d	-0.29311696
147	0xbf1682cc	-0.5879333
148	0xbe30b30b	-0.172558
149	0xbf2b3048	-0.66870546
150	0xbe625992	-0.22104481
151	0xbe06f343	-0.13178734
152	0xbe46da79	-0.19419278
153	0xbf03c68c	-0.51474833
154	0xbf23a7f4	-0.6392815
155	0xbe8aa219	-0.27076796
156	0xbe92b4ee	-0.28653663
157	0xbe450c9c	-0.19243091
158	0xbf128e64	-0.5724852
159	0xbf02af1f	-0.51048464
160	0xbe631588	-0.22176182
161	0xbea0ca67	-0.3140442
162	0xbf284a86	-0.65738714
163	0xbf44e74a	-0.7691542
164	0xbef0d619	-0.47038344
165	0xbe9947ad	-0.29937497
166	0xbcf489e0	-0.0298509
167	0xbe84e81e	-0.2595834
168	0xbe606fbd	-0.21917625
169	0xbed4b03d	-0.4154071
170	0xbe3cca56	-0.1843656
171	0xbe24e89d	-0.1610436
172	0xbf6c35a5	-0.92269355
173	0xbe625b31	-0.221051
174	0xbe8b8d3b	-0.27256188
175	0xbf54937a	-0.8303753
176	0xbec3bba6	-0.38229102
177	0xbe4311f1	-0.19049813
178	0xbe5699ee	-0.20957157
179	0xbf44b2e8	-0.7683549
180	0xbde8f91b	-0.11375638
181	0xbbe7ace7	-0.007070172
182	0xbeaa923d	-0.33314696
183	0xbee084f9	-0.4385145
184	0xbed6a269	-0.41920784
185	0xbe133a94	-0.14377815
186	0xbf57c3f2	-0.84283364
187	0xbf24f177	-0.64430946
188	0xbb0b2199	-0.0021229743
189	0xbeca4a8a	-0.39509994
190	0xbf068c97	-0.52558273
191	0xbe8e1eb6	-0.27757806
192	0xbe9aedc1	-0.30259517
193	0xbeca7d2e	-0.3954863
194	0xbe5f8dee	-0.21831486
195	0xbe775dd3	-0.24156885
196	0xbf1d4622	-0.6143514
197	0xbe948dbf	-0.29014394
198	0xbec3228e	-0.381123
199	0xbec7b0ca	-0.39002067
200	0xbf36be68	-0.71384287
201	0xbf2dc94a	-0.6788527
202	0xbe9bbb8e	-0.3041653
203	0xbe4f88fe	-0.20267102
204	0xbed2c884	-0.41168606
205	0xbeba0cc1	-0.36337855
206	0xbe41af44	-0.18914515
207	0xbf653768	-0.8953767
208	0xbf16187c	-0.5863111
209	0xbe0aa29b	-0.13538592
210	0xbe7ca702	-0.24673083
211	0xbeffbc21	-0.49948218
212	0xbea2061b	-0.31645283
213	0xbec3f4c0	-0.38272667
214	0xbe0c52ef	-0.13703512
215	0xbe45dba2	-0.19322065
216	0xbf8226ef	-1.0168132
217	0xbf1958e4	-0.5990126
218	0xbf13c1ac	-0.57717395
219	0xbe4fc356	-0.20289358
220	0xbf12e146	-0.5737499
221	0xbf4bf2df	-0.79667467
222	0xbeb2df4e	-0.34935993
223	0xbf094fa6	-0.5363716
224	0xbe84ee55	-0.25963083
225	0xbf35acd8	-0.70966864
226	0xbf05096b	-0.51967496
227	0xbec5385f	-0.3851957
228	0xbf031b52	-0.5121356
229	0xbf3fdf64	-0.7495024
230	0xbf7c068b	-0.98447484
231	0xbf00226e	-0.50052536
232	0xbeb3b89c	-0.35101783
233	0xbde9d589	-0.11417682
234	0xbe14d884	-0.14535719
235	0xbf31bb58	-0.6942649
236	0xbf0bc26f	-0.5459356
237	0xbf08856a	-0.53328574
238	0xbed9568b	-0.4244884
239	0xbf1af10e	-0.6052407
240	0xbf3153d2	-0.69268525
241	0xbf610d2e	-0.87910736
242	0xbf68c969	-0.9093233
243	0xbd8a8410	-0.0676347
244	0xbeb14be4	-0.34628212
245	0xbe1918cc	-0.14950866
246	0xbf48e1f5	-0.78469783
247	0xbe700e88	-0.23443043
248	0xbcd78369	-0.026307778
249	0xbf47ed78	-0.78096724
250	0xbe6c95ef	-0.2310407
251	0xbf15038a	-0.58208525
252	0xbf121d64	-0.57076097
253	0xbf044b14	-0.5167706
254	0xbf3c2c77	-0.7350535
255	0xbee73908	-0.451607

lin2.weight f4 [98, 1024]
0	0x3e28e04e	0.16491815
1	0xbde1dbab	-0.110282265
2	0x3d441c6e	0.047878675
3	0x3cfa599f	0.030560313
4	0x3dd05e48	0.10174233
5	0xbda345a8	-0.0797227
6	0x3e4cb09f	0.1998925
7	0xbd692c8d	-0.056927253
8	0xbf052927	-0.5201592
9	0x3da11e12	0.078670636
10	0xbde9e272	-0.11420144
11	0x3c9e4164	0.01931829
12	0xbdceaf8c	-0.10092077
13	0x3c274cf6	0.01021122
14	0x3d20865f	0.039190646
15	0xbed92eb5	-0.42418447
16	0x3cc1368f	0.023585586
17	0xbe074e2e	-0.13213417
18	0xbe0ab55c	-0.13545746
19	0x3de0630a	0.1095639
20	0x3d6f6aee	0.058451585
21	0xbde05308	-0.10953337
22	0x3d961a39	0.0732922
23	0xbd902e8a	-0.070401266
24	0xbd7a040d	-0.06103902
25	0x3eeff658	0.46867633
26	0x3d0ca88e	0.034340434
27	0xbd9a8077	-0.07544034
28	0xbc5eb526	-0.013592994
29	0xbdaa890d	-0.083269216
30	0xbd9cd45c	-0.07657692
31	0xbf2fd06d	-0.6867741
32	0x3bf09d08	0.0073429383
33	0x3be2c50e	0.0069204634
34	0x3e494bf8	0.19657886
35	0xbe88d93c	-0.26728237
36	0x3d832770	0.064040065
37	0x3dd501cc	0.10400733
38	0x3de3d241	0.11124087
39	0xbe299ae1	-0.16562988
40	0x3d90e38f	0.07074653
41	0x3dcfe29f	0.101506464
42	0xbdbc1a0c	-0.091846555
43	0x3d3d408d	0.04620414
44	0xbede9710	-0.43474627
45	0x3da30481	0.079598434
46	0x3e0d43ad	0.13795348
47	0x3db21e39	0.08697171
48	0xbd032e11	-0.032026354
49	0xbe1c0bc5	-0.15238865
50	0xbee3266b	-0.44365248
51	0x3d159fea	0.03652946
52	0xbe2e4ea7	-0.17022191
53	0x3d36b0b7	0.044602122
54	0xbdc6f86d	-0.09715352
55	0xbd1a0144	-0.037598863
56	0x3e643ab3	0.22288017
57	0xbdb6d23a	-0.08926816
58	0xbe40915e	-0.18805453
59	0xbdcf40b1	-0.10119761
60	0xbe765e20	-0.24059343
61	0x3e52802c	0.20556706
62	0xbe0dd2cf	-0.13849948
63	0xbdaba9b5	-0.083819784
64	0x3d549b74	0.051906064
65	0x3dd04b20	0.10170579
66	0x3d0bf2f8	0.03416726
67	0xbcb11a9a	-0.02161913
68	0xbe45d9a1	-0.193213
69	0xbc9bc00d	-0.019012475
70	0xbc8283af	-0.015931932
71	0xbb97f667	-0.0046375277
72	0xbe0b36eb	-0.13595168
73	0xbc2e7b34	-0.010649491
74	0xbebe7924	-0.37201798
75	0x3d288abf	0.041147944
76	0x3d24f498	0.040272325
77	0xc0221678	-2.5326214
78	0xbe793922	-0.243382
79	0x3da5e657	0.081005745
80	0x3d20ee6d	0.03928988
81	0x3cbd1c4f	0.023084788
82	0xbfd63370	-1.6734447
83	0x3d75c8cf	0.06000596
84	0x3ec8b88c	0.39203298
85	0x3fd97fab	1.6992086
86	0xbcf8e183	-0.03038097
87	0x3e225f23	0.15856604
88	0xbda6a94c	-0.081377596
89	0x3da32c49	0.07967431
90	0x3df55221	0.119785555
91	0x3f8fc4d7	1.1231946
92	0xbf8d688a	-1.1047528
93	0x3dd6b54d	0.10483799
94	0x3dfa5a6e	0.12224279
95	0x3dc3223b	0.09528013
96	0xbcc59e91	-0.024123462
97	0x3cb90f70	0.022590369
98	0x3d370fe4	0.04469289
99	0x3d8ba162	0.06817891
100	0xbd8aba36	-0.06773798
101	0x3c54690f	0.012964501
102	0x3cb0ea72	0.021596167
103	0x3df3ded0	0.119077325
104	0xbe498b70	-0.19682097
105	0x3d154e9c	0.03645192
106	0xc01361d3	-2.3028457
107	0xbf0de01f	-0.55420107
108	0x3d9d01ca	0.07666357
109	0xbc7cf109	-0.015438327
110	0xbc6338d1	-0.013868527
111	0x3e10a42f	0.14125131
112	0xbc799d41	-0.015235246
113	0xbe808399	-0.251004
114	0x3d075e81	0.03304911
115	0x3c177a33	0.009245443
116	0xbf41b514	-0.7566693
117	0x3c83e2a0	0.016099274
118	0xbcfd3f72	-0.030914042
119	0xbbfc48ca	-0.007699107
120	0x3dec0263	0.11523893
121	0x3d82e190	0.06390679
122	0x3e220453	0.15821962
123	0x3d5e14d2	0.054219075
124	0x3dd102da	0.10205622
125	0xc03d03c3	-2.9533546
126	0xbe57cfcb	-0.2107536
127	0x3e9313bf	0.28726003
128	0x3e226b19	0.15861167
129	0x3de8a1ef	0.113590114
130	0x3e2e60d4	0.17029124
131	0x3d9bea96	0.07613103
132	0xbdad836c	-0.08472332
133	0xbe78f638	-0.24312675
134	0xbf6e7127	-0.93141407
135	0xbe7f34f6	-0.24922547
136	0xbc4dd879	-0.012563818
137	0xbf2319e9	-0.6371141
138	0xbd854392	-0.06507029
139	0x3e43f6dc	0.19137138
140	0xbd7e524e	-0.06209021
141	0xbdcd1380	-0.10013485
142	0xbe74aa05	-0.23892982
143	0x3df2c87b	0.11854645
144	0xbd5bf197	-0.053697195
145	0xbd668c82	-0.056286342
146	0x3c1ec3cf	0.009690239
147	0xbd4c94bc	-0.04994653
148	0xbedb3d3b	-0.42820153
149	0xbe4afe31	-0.19823529
150	0x3e0c68e2	0.13711885
151	0xbf3508d2	-0.70716584
152	0x3d6962c5	0.05697896
153	0x3e2b8455	0.167497
154	0xbf6acb6f	-0.91716665
155	0x3d74ecee	0.059796266
156	0x3db012e6	0.085973546
157	0xbf14f340	-0.5818367
158	0xbe231904	-0.15927511
159	0x3e0871bb	0.13324635
160	0x3d821d2f	0.063532226
161	0xbcd79b3d	-0.02631914
162	0xbe994ac4	-0.29939854
163	0xbe64d50e	-0.22346899
164	0x3e05181d	0.1299748
165	0x3dd2d12d	0.10293803
166	0x3e06404a	0.13110462
167	0x3dae116e	0.08499418
168	0xbca61e9c	-0.020278268
169	0x3d807f0a	0.06274231
170	0xbccef201	-0.02526188
171	0xbe303595	-0.1720794
172	0xbf7307e3	-0.9493391
173	0xbdc085c6	-0.09400515
174	0x3df591ee	0.119907245
175	0xbdaf08ce	-0.08546601
176	0x3df88127	0.12134009
177	0x3d195bf1	0.037441198
178	0xbe39cabb	-0.18143742
179	0xbe1062a9	-0.14100136
180	0x3e72f9b4	0.23728067
181	0x3d9b5fc5	0.07586626
182	0xbc846bac	-0.016164623
183	0x3d16c761	0.036811236
184	0x3da36f5e	0.07980226
185	0x3e14f3da	0.14546147
186	0xbe83f2e7	-0.25771257
187	0xbcd3facd	-0.025876427
188	0xbd8ef15d	-0.0697963
189	0x3dc39d30	0.095514655
190	0xbed0f5d9	-0.40812567
191	0xbcae185f	-0.021251855
192	0x3d3cdd56	0.04610952
193	0xb90bd2ff	-0.00013334675
194	0x3cda54a6	0.026651692
195	0x3c89e47b	0.01683258
196	0xbead34ea	-0.33829433
197	0x3a91360d	0.001107873
198	0x3e04056b	0.12892692
199	0xbd51697c	-0.05112599
200	0xc017ba2b	-2.3707378
201	0xbe9dac60	-0.30795574
202	0x3d8bf25d	0.068333365
203	0xbb94dac8	-0.0045426823
204	0xbd4f75c8	-0.050649434
205	0x3d09b4af	0.03361958
206	0xbdea7c2f	-0.114494674
207	0xbfbc1e11	-1.4696676
208	0xbe1fad1f	-0.15593384
209	0xbfb37fc3	-1.4023365
210	0x3cb7558b	0.022379657
211	0xbd73f834	-0.059562877
212	0xbda726d5	-0.081617035
213	0x3d99dc9d	0.07512782
214	0x3e8e9099	0.27844694
215	0x3d039fb1	0.032134715
216	0x3e51f453	0.20503359
217	0xbdb1f4a3	-0.08689239
218	0xbc900b60	-0.017583549
219	0xbc915e30	-0.017745107
220	0xbf3ea1dd	-0.74465734
221	0xbd5c0caf	-0.053723034
222	0xbdb2ad1c	-0.08724424
223	0x3e8bf426	0.27334708
224	0xbbb44524	-0.0055014063
225	0x3e6f5100	0.23370743
226	0x3dd68cb5	0.104760565
227	0xbe38b859	-0.18039073
228	0x3e77320e	0.24140188
229	0xbf954a26	-1.1663253
230	0x3d6d90cc	0.057999417
231	0xbc4e4186	-0.012588864
232	0x3d919c64	0.07109907
233	0x3e2a70d4	0.16644603
234	0xbd9510a6	-0.07278566
235	0x3daa8c20	0.08327508
236	0xbc76e071	-0.015068159
237	0xbdae5011	-0.08511365
238	0x3d8c05ae	0.06837021
239	0xbe53985b	-0.20663588
240	0xbd061f70	-0.032744825
241	0x3e1e4be2	0.15458634
242	0xc0234dc2	-2.551621
243	0x3e4b4ff9	0.19854726
244	0xbe838944	-0.25690663
245	0xbd0b16fa	-0.03395746
246	0xbdb39302	-0.08768274
247	0x3daa3075	0.08310024
248	0xbd89ec0e	-0.06734477
249	0x3e03a4fd	0.12855907
250	0x3d8e521f	0.06949257
251	0xbca5ac8e	-0.020223882
252	0xbe9a24aa	-0.30106097
253	0xbee79970	-0.4523425
254	0xbed784c5	-0.42093483
255	0xbd5b7de6	-0.053586863

lin2.bias f4 [98]
0	0xbec5ccd6	-0.3863284
1	0x3f33397c	0.7000959
2	0xbeed0114	-0.46289885
3	0xbe1f5a38	-0.1556176
4	0xc03b8076	-2.9297156
5	0xc03e0b5d	-2.9694436
6	0xbe501380	-0.20319939
7	0xbf402f5c	-0.75072265
8	0xbded994d	-0.116015054
9	0xbe50f870	-0.20407271
10	0xbe59d187	-0.21271335
11	0xbf267ed9	-0.65037304
12	0xbecc09b5	-0.39851156
13	0xc03e3006	-2.971681
14	0xbec42026	-0.38305777
15	0xbf293c62	-0.6610776
16	0xbee4ee91	-0.44713262
17	0xbe4e50a8	-0.20147955
18	0xbe9780b3	-0.29590377
19	0xbe9f2af2	-0.31087452
20	0xbe94d44f	-0.2906823
21	0xbe983060	-0.29724407
22	0xbe5c064d	-0.21486779
23	0xbeb54624	-0.35405076
24	0xbedbbc98	-0.42917323
25	0xbefac83c	-0.48980892
26	0xbeae1b45	-0.3400518
27	0xbebd0acd	-0.36922303
28	0xbecfa22b	-0.40553412
29	0xbdf234ff	-0.118265145
30	0xbea32a5f	-0.31868264
31	0xbf44b7db	-0.7684304
32	0xbea539b2	-0.3227058
33	0xbefc4308	-0.4926989
34	0xbdf0136f	-0.11722457
35	0xbe51430a	-0.2043573
36	0xbd3a6c1b	-0.045513254
37	0xbe9b902d	-0.30383435
38	0xbeeb21f6	-0.45924348
39	0xbcce2475	-0.025163868
40	0xbeb682a9	-0.3564656
41	0xbe6efa13	-0.23337583
42	0xbee50396	-0.44729298
43	0xbe33d691	-0.1756232
44	0xbed7d873	-0.42157325
45	0xbe864950	-0.26227808
46	0xbc5107bc	-0.012758192
47	0xbf2f829a	-0.6855866
48	0xbea88ce7	-0.3292
49	0xbd0988ec	-0.033577845
50	0xbdf6ebe7	-0.120567136
51	0x3d2eb1eb	0.042650145
52	0xbdf043c5	-0.11731676
53	0xbe009248	-0.12555802
54	0xc05f92de	-3.493339
55	0xbeba7fa6	-0.36425513
56	0x3e2763f5	0.16346724
57	0x3d9d855a	0.076914504
58	0x3c4cc519	0.012498164
59	0x3cd714ea	0.02625509
60	0x3dcdbe7e	0.10046099
61	0x3de7a20e	0.11310206
62	0xbe0404d0	-0.12892461
63	0x3dab5b75	0.083670534
64	0x3d1cd133	0.038285445
65	0xbf0f84b0	-0.5606184
66	0xbe4a78a1	-0.19772579
67	0xbdb9e7b1	-0.09077395
68	0xbdabb1d8	-0.083835304
69	0x3e222c48	0.15837204
70	0x3da60d90	0.081080556
71	0xbdb9110c	-0.090364546
72	0xbedfaaf5	-0.43685117
73	0x3d1c7f22	0.03820718
74	0x3e982055	0.29712167
75	0x3f000c36	0.5001863
76	0xbe646878	-0.22305477
77	0xbe1356ae	-0.14388534
78	0x3e0ec15c	0.13940948
79	0xbe4fd896	-0.20297465
80	0xbe409de8	-0.18810236
81	0xbf0ea81d	-0.5572527
82	0xbebefeaf	-0.37303683
83	0xbdf4b4aa	-0.119485214
84	0xbe722280	-0.23645973
85	0xbe00fe16	-0.12596926
86	0xbe3c3bde	-0.18382213
87	0xc04bfaec	-3.18719
88	0xbe4d1547	-0.20027648
89	0xbe01a521	-0.12660648
90	0xbf26c940	-0.65150833
91	0x3d9fbbb0	0.077994704
92	0xbe9dac25	-0.30795398
93	0x3e892820	0.26788425
94	0xbdad0989	-0.08449084
95	0xc03e97e4	-2.9780207
96	0xc03a4b62	-2.910851
97	0xc03af261	-2.9210436
